experiments/chp_hwt/transition/1554653688_0.0048/1554676378_5_transition_110000.pth (torch_old, 516722 bytes, 64 tensors)

tr0.weight f4 [64, 11]
0.06294964 0.062189925 -0.0011010314 -0.00087539933 0.00015000257 -7.65613e-05 -0.012306094 -0.00042365154
0.081114314 0.08065635 -0.0043514427 -0.1787846 -0.17526919 0.006140415 -0.0131191425 0.014772415
0.0040098564 0.014760062 -0.005589368 0.026813606 0.029818244 0.0017781171 0.058372177 0.075999446
-0.054756258 -0.10435712 0.09876677 -0.093523316 0.070008524 -0.13044466 -0.113287315 -0.10641429
-0.046501704 -0.09636565 -0.10190529 0.006442159 -0.01550339 -0.00016062042 -3.56518e-05 0.0073612104
0.0035898348 0.07926401 0.07265726 -0.00034270872 -0.1482516 -0.14362666 0.34237581 0.09538528
-0.042392228 0.013324198 -0.258147 0.04417652 -0.010091456 0.07174337 0.14149703 -0.06058457
-0.061634224 0.0002759651 -0.0005597072 -1.3095116e-05 0.10307114 9.4845545e-06 -0.0011573768 0.034026552
0.033528656 -0.00028661883 -0.0943683 -0.09581082 -0.0013869038 0.0011030248 -0.014020983 -0.082199015
-0.008703541 0.0019975614 -0.12872373 -0.1287258 -0.004566902 -0.0963868 0.054248165 0.03177919
-0.1556152 -0.24857646 -0.19185023 -0.26404113 0.18847212 0.04038724 0.14278871 -0.2582902
0.119543985 0.11080309 -0.008823317 0.0059282472 -0.07693964 -0.20774725 0.00068164995 0.041972637
-0.03310788 -0.048568662 -0.007807171 0.17017448 -0.036348708 -0.058537524 0.084119566 -0.18532857
-0.053115346 -0.10290864 0.18159373 -0.24975367 -0.32034728 0.32001898 0.11208322 0.08832993
-0.2247022 -0.06532702 0.03189724 0.39407018 0.23333384 -0.0633648 -0.022120455 0.016811285
0.2791722 0.11298885 -0.16188546 -0.098898195 0.20688339 0.06103908 -0.026675595 0.13726711
-0.1933121 -0.20606251 -0.0012957994 -0.26005554 0.12399566 -0.0055543305 -0.06175111 0.0061963988
0.11909789 0.2765916 -0.02197454 -0.0891017 -0.13207461 -0.057734933 -0.00031402908 0.056573033
0.045256842 0.14265765 0.20288028 0.14733489 0.142494 0.26012924 -0.13801809 -0.17709482
-0.1956107 0.05785714 0.07105396 -0.14421397 0.23349802 0.017596014 -0.19259204 0.14714879
-0.31187496 -0.066449836 -0.14278446 0.1147314 0.024213998 0.12060947 -0.1645606 -0.12848772
0.12486034 -0.1578543 0.19694091 -0.1916992 0.15349612 -0.17483929 0.2256219 -0.34640294
0.00265608 -0.015667433 -0.07782419 -0.003164174 -0.2097057 -0.22033155 0.010024772 -0.055157907
0.19125971 0.19776623 -0.0012687152 -0.001407302 -0.10159884 0.059013806 -0.097032614 -0.2889821
0.12386365 0.12669525 -0.20195867 0.09492279 -0.02341694 -0.0059715193 -0.08439433 -0.1135532
-0.021592898 -0.04331636 -0.0866378 -0.19431601 -0.095947616 0.109213054 -0.093648195 -0.057256937
0.17898098 0.122772776 0.15897182 -0.2508944 -0.15948841 0.11813066 0.14885417 0.19979423
0.07006688 -0.06894886 -0.057838187 -0.068951584 0.021234833 0.023443663 -0.0012729219 0.0008226761
2.342148e-05 3.8766507e-07 7.595826e-05 -0.00064893183 0.17017505 0.17224333 0.0006610959 -0.14289573
0.13450143 -0.22402783 -0.19939542 0.17071013 0.14652003 0.050072074 -0.18674855 0.13916558
-0.07944134 0.14931001 0.13711208 0.13434656 -0.031007156 -0.021629283 -0.21341975 0.047015958
0.06869637 0.090481974 -0.22757024 -0.23695101 -0.035062056 0.26562825 -0.1353903 -0.12109485
00000000: beeb 803d ddba 7e3d 7c50 90ba 0e7b 65ba
00000010: 024a 1d39 898f a0b8 809f 49bc 8c1d deb9
00000020: 431f a63d 282f a53d 8c96 8ebb 4f13 37be
00000030: c479 33be 8935 c93b acf1 56bc 0008 723c
00000040: 1d65 833b 30d4 713c 0427 b7bb 35a8 db3c
00000050: 6445 f43c b60f e93a aa17 6f3d 99a5 9b3d
00000060: 1948 60bd 30b9 d5bd 3b46 ca3d 2789 bfbd
00000070: a160 8f3d 4993 05be 2e03 e8bd bcef d9bd
00000080: 9278 3ebd 5b5b c5bd b8b3 d0bd bf18 d33b
00000090: ee01 7ebc 376c 28b9 d488 15b8 4f36 f13b
000000a0: 6f43 6b3b 2b55 a23d 54cd 943d 96ad b3b9
000000b0: 44cf 17be de12 13be e24b af3e 5c59 c33d
000000c0: 79a3 2dbd bd4d 5a3c d82b 84be 70f2 343d
000000d0: a256 25bc 30ee 923d 99e4 103e 8727 78bd
000000e0: 2b74 7cbd 69af 9039 50b9 12ba 18b3 5bb7
000000f0: f616 d33d da1f 1f37 1fb3 97ba 6d5f 0b3d
00000100: 5855 093d 5445 96b9 2b44 c1bd 7738 c4bd
00000110: c5c8 b5ba 5f93 903a 44b8 65bc f557 a8bd
00000120: 4c99 0ebc 85e9 023b 27d0 03be b2d0 03be
00000130: f3a5 95bb 7166 c5bd 5333 5e3d e52a 023d
00000140: 9759 1fbe d48a 7ebe 6374 44be 6630 87be
00000150: d6fe 403e 176d 253d 3437 123e 9d3e 84be
00000160: 7ad3 f43d bbec e23d ac8f 10bc be41 c23b
00000170: 8892 9dbd b2bb 54be c1b0 323a 80eb 2b3d
00000180: 219c 07bd efef 46bd 4cd3 ffbb 3842 2e3e
00000190: 62e2 14bd 0bc5 6fbd e146 ac3d c6c6 3dbe
000001a0: 7a8f 59bd c4c1 d2bd b5f3 393e 6dbf 7fbe
000001b0: 8f04 a4be 87d9 a33e e38b e53d 53e6 b43d
000001c0: 5518 66be 2cca 85bd aea6 023d 91c3 c93e
000001d0: 11ef 6e3e 67c5 81bd f535 b5bc d2b7 893c
000001e0: a9ef 8e3e b366 e73d 4dc5 25be 238b cabd
000001f0: 3dd9 533e 1d04 7a3d c786 dabc c08f 0c3e
00000200: 9bf3 45be 0d02 53be d0d7 a9ba 0026 85be
00000210: 70f1 fd3d 1a01 b6bb bbee 7cbd 290b cb3b
00000220: 98e9 f33d 6a9d 8d3e f303 b4bc f47a b6bd
00000230: 913e 07be 777b 6cbd 45a4 a4b9 20b9 673d
00000240: 3d5f 393d d914 123e d9bf 4f3e f5de 163e
00000250: f2e9 113e a92f 853e 9d54 0dbe 5858 35be
00000260: 2c4e 48be 9cfb 6c3d bd84 913d d4ac 13be
00000270: 1b1a 6f3e 8425 903c d936 45be 2cae 163e
00000280: 13ae 9fbe da16 88bd 1736 12be 4cf8 ea3d
00000290: 6f5c c63c 1902 f73d 9382 28be 4992 03be
000002a0: c7b6 ff3d 8fa4 21be e1aa 493e cc4c 44be
000002b0: 162e 1d3e 1209 33be 6d09 673e ba5b b1be
000002c0: a111 2e3b fd58 80bc 4a62 9fbd 085e 4fbb
000002d0: 17bd 56be 989e 61be f13e 243c 42ed 61bd
000002e0: 96d9 433e 3b83 4a3e 054b a6ba 3875 b8ba
000002f0: 0d13 d0bd 76b8 713d 09b9 c6bd 76f5 93be
00000300: 3aac fd3d 66bc 013e 41ce 4ebe e166 c23d
00000310: e2d4 bfbc bcac c3bb efd6 acbd 958e e8bd
00000320: 97e3 b0bc 7f6c 31bd 296f b1bd c7fa 46be
00000330: 2f80 c4bd 18ab df3d a0ca bfbd 4086 6abd
00000340: ca46 373e 4b70 fb3d 82c9 223e 3b75 80be
00000350: ee50 23be 7dee f13d 3a6d 183e dc96 4c3e
00000360: 397f 8f3d 0f35 8dbd bce7 6cbd 7d36 8dbd
00000370: acf4 ad3c ed0c c03c 2cd8 a6ba dca8 573a
00000380: 3f79 c437 4820 d034 c84b 9f38 141d 2aba
00000390: 5e42 2e3e 8e60 303e 654d 2d3a 4253 12be
000003a0: beba 093e 8d67 65be 502e 4cbe a3ce 2e3e
000003b0: 5909 163e 6018 4d3d 033b 3fbe 6c81 0e3e
000003c0: 24b2 a2bd b9e4 183e 1c67 0c3e 2592 093e
000003d0: b802 febc e52f b1bc b58a 5abe ce93 403d
000003e0: afb0 8c3d 9d4e b93d 2c08 69be 49a3 72be
000003f0: 3b9d 0fbd 6d00 883e c1a3 0abe 9400 f8bd

tr0.bias f4 [64]
-0.14043443 0.15170047 0.23947683 0.026293255 -0.122857116 0.026082527 0.22138673 -0.042616572
-0.09658994 -0.00674249 -0.061161865 0.26164246 0.042043414 -0.08839608 0.110733025 0.03825406
-0.11871163 0.13053279 0.06785009 0.032442257 -0.1975805 0.20934772 0.06698937 -0.18284835
0.18369174 0.14462301 0.14780185 0.09727586 0.04810972 0.01507829 0.14561756 0.08759147
-0.040975347 -0.10806928 -0.1576752 -0.22070053 0.07999941 -0.12870073 0.059021045 -0.20657505
-0.11220429 0.15455264 0.17890725 0.04943448 0.16345692 0.015175905 0.16424721 0.06711802
-0.14757392 0.059057936 0.051624574 0.20144762 -0.19530976 0.12450181 0.28776756 0.12695321
0.15403861 0.18761988 0.070897765 0.06398877 -0.1919399 0.10193261 0.10185817 -0.0557438
00000000: 0bce 0fbe 5e57 1b3e 6a39 753e f464 d73c
00000010: 839c fbbd 06ab d53c 34b3 623e b78e 2ebd
00000020: f2d0 c5bd 1bf0 dcbb dd84 7abd 00f6 853e
00000030: b735 2c3d 0109 b5bd ffc7 e23d 4ab0 1c3d
00000040: 151f f3bd 63aa 053e fdf4 8a3d 2ce2 043d
00000050: 8b52 4abe 405f 563e b931 893d 993c 3bbe
00000060: b019 3c3e 0e18 143e 5e59 173e 9138 c73d
00000070: b30e 453d ef0a 773c c51c 153e 2863 b33d
00000080: c4d5 27bd 6d53 ddbd 9c75 21be 52ff 61be
00000090: bbd6 a33d 20ca 03be 0dc0 713d 6988 53be
000000a0: 5dcb e5bd 0c43 1e3e 7633 373e cf7b 4a3d
000000b0: 4061 273e 5ca4 783c 6c30 283e 2c75 893d
000000c0: 9e1d 17be bce6 713d 4a74 533d 4948 4e3e
000000d0: 48ff 47be cefa fe3d 4556 933e 0600 023e
000000e0: 4cbc 1d3e 6d1f 403e d932 913d 8b0c 833d
000000f0: e58b 44be 0bc2 d03d 049b d03d 9c53 64bd

tr1.layer_0.weight f4 [64, 64]
2.7935528e-05 -0.00011494157 -0.10510793 -0.0014239495 0.22427866 7.5925156e-05 0.0006509903 0.030500852
-0.00051161885 -0.066478625 0.004757716 -0.017737024 -0.032931965 0.15510757 -0.25651938 -0.27996483
-0.044044167 -0.13618045 -0.005104943 -0.02639143 0.00024493222 0.08139301 0.09143525 -0.038663063
-0.20884246 0.09064118 -0.021994751 0.058171023 8.4039115e-05 0.0020302394 0.16568814 0.15833244
0.13563459 0.0018438486 0.00043175858 0.07005309 3.9148432e-05 -0.089548856 -0.00042637828 0.08246985
0.0052215974 -5.2797213e-07 -0.2254882 0.030882906 0.00050502905 0.013733524 0.00010697009 0.17451236
0.0010057413 -0.0032279696 -0.06346511 -0.23618169 0.00010205918 -7.513616e-05 -0.0020397871 0.057832453
0.063114904 -0.051869016 -0.25233483 0.015247404 0.12018186 -0.00011249432 -0.039160497 0.2881043
-1.486979e-07 -1.7109576e-07 -3.6983838e-07 2.1847487e-07 2.711608e-07 -2.4613024e-07 1.3622033e-08 1.052842e-07
2.2044476e-07 1.5382325e-07 -1.0357343e-07 -3.8847793e-07 7.9780733e-07 6.343541e-07 3.837885e-08 -3.1543976e-07
2.943471e-07 1.9698987e-07 2.9677581e-08 -1.5554366e-07 3.1746822e-07 3.1214967e-07 -3.977594e-07 3.4801356e-08
1.3220019e-07 -2.0712358e-07 -2.0152102e-08 8.3410794e-07 -1.0556706e-07 -5.8999376e-07 -2.1840297e-07 -2.2094093e-07
8.055492e-08 -4.3105878e-08 -2.6515443e-07 2.7990808e-07 -2.1988127e-07 1.989715e-07 -5.983824e-08 8.614107e-08
-3.3441218e-08 -2.929365e-07 -1.4314229e-07 -2.1982025e-08 7.727099e-08 -1.513141e-07 2.0900936e-07 -3.3482206e-07
1.5218968e-07 -3.1282493e-08 -8.037343e-07 -6.964614e-08 -5.7174034e-08 5.401775e-07 1.5599787e-07 2.7737512e-08
2.1817782e-07 9.223522e-08 -3.0500178e-07 5.5066823e-07 1.6127588e-07 -2.9738072e-07 1.8268304e-07 -1.1108819e-07
5.7924663e-06 -4.4198627e-05 -0.020628745 2.2343888e-06 0.20324121 -1.08424e-05 3.4799486e-05 0.07465986
0.00010168387 -0.021117263 -0.014732631 -0.0118006915 -0.0008895186 0.0649155 0.064031914 0.021732377
-0.00019482302 0.008959385 0.018908469 0.00068541075 3.6136367e-05 -0.20892422 -0.028054813 0.06386349
-0.011532818 -0.07509098 0.07741609 0.19686791 4.0279912e-05 -0.00041497182 -0.0013389495 -0.15094955
-0.0043065227 -0.00010437479 1.9712134e-05 0.0031913542 -4.9092814e-06 0.011481615 8.588225e-05 0.14182174
0.15202053 -7.814271e-08 -0.010510996 -0.06661496 -1.9338158e-05 -0.0006507876 -1.551416e-05 0.10806709
2.6744387e-05 -6.3912084e-05 0.00032755383 -0.030807877 2.2903605e-05 -3.9126575e-05 -0.007840777 -0.08708035
0.011751064 0.0024904378 -0.06735928 0.016862858 -0.13830528 -4.2096428e-05 -0.014281375 0.16761872
1.6856443e-07 0.00014495438 0.0040691504 0.000107635125 -0.014224726 -7.764242e-08 1.4862687e-05 0.005304672
-0.00019669042 -0.021260815 -0.010165404 0.023075012 0.00129226 -0.0005231638 0.00064480596 0.012719962
-8.845654e-05 0.00021591054 -0.012659935 0.009931855 4.1851944e-08 -0.0018465804 -0.0009546589 -0.005641338
0.0015799121 -0.0017872483 -6.484517e-05 -0.008856585 1.5327896e-07 5.4463926e-05 0.020799808 0.018821266
-0.008759617 -0.00013257012 -0.00017843892 -0.0055087106 -3.1186474e-07 -0.0007850687 -2.41309e-07 0.005378581
0.0046623047 4.7993086e-07 0.0014276527 -0.00045941086 -6.292187e-05 0.00028226097 -0.00035462252 -0.0021138357
-1.546963e-05 -0.0004925546 -5.034578e-05 -0.011811362 -9.567577e-08 6.227968e-05 -0.0006435192 4.3571263e-06
-0.0028795684 0.012367492 -0.016570173 -5.6052384e-05 -0.017786946 3.089159e-05 -0.02034801 -0.0019168009
00000000: 1757 ea37 c90c f1b8 d442 d7bd d1a3 baba
00000010: 4ea9 653e 023a 9f38 38a7 2a3a ecdc f93c
00000020: 291e 06ba f225 88bd 9de6 9b3b 3c4d 91bc
00000030: abe3 06bd 85d4 1e3e 8256 83be 8d57 8fbe
00000040: a867 34bd e372 0bbe 5e47 a7bb d732 d8bc
00000050: 3f6a 8039 61b1 a63d 6842 bb3d 295d 1ebd
00000060: ccda 55be 15a2 b93d 562e b4bc bd44 6e3d
00000070: 283e b038 c40d 053b 27aa 293e e621 223e
00000080: cbe3 0a3e 4bad f13a a85d e239 ff77 8f3d
00000090: 4f33 2438 6465 b7bd 868b dfb9 f4e5 a83d
000000a0: ef19 ab3b f8b9 0db5 61e6 66be 26fe fc3c
000000b0: ed63 043a 9302 613c 2155 e038 5eb3 323e
000000c0: 14d3 833a 588c 53bb fff9 81bd 9dd9 71be
000000d0: 9b08 d638 6b92 9db8 f3ad 05bb b9e1 6c3d
000000e0: 6342 813d 9b74 54bd 0832 81be 3fd0 793c
000000f0: e821 f63d eeea ebb8 c266 20bd 6882 933e
00000100: c4a9 1fb4 72b6 37b4 338e c6b4 ea95 6a34
00000110: 0e94 9134 e223 84b4 5606 6a32 9a18 e233
00000120: 65b3 6c34 9d2a 2534 186c deb3 0090 d0b4
00000130: e728 5635 7b48 2a35 fed5 2433 b659 a9b4
00000140: c206 9e34 2a84 5334 b1ed fe32 8403 27b4
00000150: 8070 aa34 8695 a734 a38b d5b4 7f78 1533
00000160: e9f2 0d34 b265 5eb4 f11a adb2 76e7 5f35
00000170: 1bb4 e2b3 1060 1eb5 2782 6ab4 c83b 6db4
00000180: 89fd ac33 6a23 39b3 8c5a 8eb4 4646 9634
00000190: 8118 6cb4 dfa4 5534 6c80 80b3 8efc b833
000001a0: 02a1 0fb3 e344 9db4 a7b2 19b4 fcd2 bcb2
000001b0: 2df0 a533 e778 22b4 0e6c 6034 98c1 b3b4
000001c0: 9569 2334 775b 06b3 33c0 57b5 5f90 95b3
000001d0: 848f 75b3 b700 1135 5e80 2734 6f43 ee32
000001e0: 4344 6a34 d912 c633 20bf a3b4 a2d1 1335
000001f0: 2d2b 2d34 b2a7 9fb4 8827 4434 618f eeb3
00000200: e85c c236 ea61 39b8 9dfd a8bc 82f2 1536
00000210: 771e 503e c1e7 35b7 aaf5 1138 45e7 983d
00000220: 1d3f d538 1cfe acbc 2261 71bc b057 41bc
00000230: 952e 69ba 6bf2 843d 2a23 833d 1908 b23c
00000240: 6849 4cb9 62ca 123c efe5 9a3c 23ad 333a
00000250: 2191 1738 3bf0 55be 35d3 e5bc ddca 823d
00000260: 25f4 3cbc 4dc9 99bd 548c 9e3d be97 493e
00000270: 3af2 2838 9390 d9b9 b17f afba 8592 1abe
00000280: bb1d 8dbb cae3 dab8 7c5b a537 0a26 513b
00000290: 68ba a4b6 621d 3c3c af1b b438 b839 113e
000002a0: 45ab 1b3e 69cf a7b3 5036 2cbc 6d6d 88bd
000002b0: 6138 a2b7 9e99 2aba 6824 82b7 4752 dd3d
000002c0: 2259 e037 8a08 86b8 88bb ab39 cd60 fcbc
000002d0: 1e21 c037 d71b 24b8 9a76 00bc 2f57 b2bd
000002e0: 8987 403c 9d36 233b aaf3 89bd fa23 8a3c
000002f0: e69f 0dbe b290 30b8 6efc 69bc 3ea4 2b3e
00000300: a3fe 3434 e5fe 1739 8256 853b 2bba e138
00000310: d30e 69bc 5fbc a6b3 c15a 7937 d0d2 ad3b
00000320: af3e 4eb9 292b aebc cb8c 26bc cf07 bd3c
00000330: 0d61 a93a ee24 09ba 3208 293a 6367 503c
00000340: be81 b9b8 0b66 6239 9e6b 4fbc 38b9 223c
00000350: b3c0 3333 f508 f2ba 1342 7aba f9da b8bb
00000360: 0e15 cf3a 1a42 eaba 7cfd 87b8 361b 11bc
00000370: 0095 2434 3270 6438 5c64 aa3c 0e2f 9a3c
00000380: 7f84 0fbc 8502 0bb9 551b 3bb9 6a82 b4bb
00000390: 5d6e a7b4 12cd 4dba 428d 81b4 cf3e b03b
000003a0: 3fc6 983b 99d4 0035 1320 bb3a 15dd f0b9
000003b0: ecf4 83b8 6dfc 9339 a1ec b9b9 4788 0abb
000003c0: c7c4 81b7 c81e 01ba 5f2a 53b8 7184 41bc
000003d0: 5076 cdb3 269c 8238 d8b1 28ba 6e33 9236
000003e0: 24b7 3cbb 05a1 4a3c 2cbe 87bc ca19 6bb8
000003f0: eeb5 91bc 9891 0138 dfb0 a6bc 2a3d fbba

tr1.layer_0.bias f4 [64]
0.06402062 -1.8703781e-07 -0.15073167 0.003236796 0.068846844 9.573784e-08 -3.2220288e-07 -2.7271253e-07
-2.0300443e-07 0.023473622 -0.03408801 -0.012892427 -3.8257554e-07 -2.9289964e-07 0.12236227 1.1776761e-07
-0.0013315536 0.09087923 1.3128278e-08 -0.077192545 -0.16950212 0.047240213 -0.20093891 0.109501556
-0.04744226 2.4269102e-07 -6.3592665e-08 -5.876222e-07 7.195179e-07 0.0070235957 -1.1422772e-07 -1.3399988e-07
4.2698233e-07 1.9721737e-07 -0.03798207 -3.2250645e-07 0.014634507 9.978217e-08 1.4134521e-07 -4.3963485e-07
-9.58311e-08 0.09702316 1.3610014e-07 4.8599736e-07 -0.19788978 -0.15137623 0.002175844 -0.16143566
6.3720856e-10 0.041780822 -0.03811905 -1.0638146e-07 0.08453888 -3.4037393e-07 -8.1517214e-08 -0.06491148
-1.3862525e-07 -0.00063587626 4.6739052e-07 0.004332456 7.263276e-07 -0.038977705 1.7503564e-07 -0.02753672
00000000: 3e1d 833d 90d4 48b4 6759 1abe 6d20 543b
00000010: 93ff 8c3d 6f98 cd33 3afb acb4 5369 92b4
00000020: 6ff9 59b4 c14b c03c df9f 0bbd c23a 53bc
00000030: c864 cdb4 d23f 9db4 1299 fa3d 6ee7 fc33
00000040: 8687 aeba e41e ba3d c78a 6132 2017 9ebd
00000050: f791 2dbe f47e 413d eec2 4dbe 5a42 e03d
00000060: d152 42bd 334b 8234 7090 88b3 17bd 1db5
00000070: e524 4135 3126 e63b 5a4d f5b3 9be1 0fb4
00000080: 013c e534 b3c2 5334 1693 1bbd f324 adb4
00000090: 92c5 6f3c d447 d633 adc4 1734 f406 ecb4
000000a0: b4cb cdb3 14b4 c63d ec22 1234 7c75 0235
000000b0: 9ea3 4abe 5f02 1bbe 9b98 0e3b 644f 25be
000000c0: 9127 2f30 5e22 2b3d b922 1cbd d373 e4b3
000000d0: b822 ad3d a3bc b6b4 900e afb3 4ff0 84bd
000000e0: 05d9 14b4 efb0 26ba aaed fa34 46f7 8d3b
000000f0: daf8 4235 16a7 1fbd 6ef1 3b34 b094 e1bc

tr1.layer_1.weight f4 [64, 64]
1.6056109e-07 6.047443e-07 4.079052e-07 -5.331668e-07 -2.0526451e-07 6.859851e-09 -2.4759282e-07 1.0078472e-07
2.72669e-09 1.9534612e-07 -2.1682537e-07 -1.6003422e-07 -1.1672208e-07 3.9882408e-07 5.35446e-07 2.7279405e-09
8.7664695e-08 -4.880172e-07 -7.1518778e-09 -3.2760505e-07 -4.0959395e-07 -4.9637123e-07 -1.2321553e-07 1.7036398e-07
-1.9511393e-07 3.747891e-07 3.7798435e-07 -2.2968997e-07 -4.0703893e-07 4.777684e-07 -2.7634965e-07 -6.056738e-07
-1.1676488e-07 -5.202775e-07 4.9013074e-08 5.52866e-08 -2.2723866e-07 4.0713488e-07 -4.8313603e-07 -2.6357898e-07
2.4857574e-08 -2.780776e-07 -5.688754e-07 -1.1674709e-07 -5.1637823e-08 9.120747e-08 -2.2580092e-07 -1.7280661e-07
2.103894e-07 4.116318e-07 3.390571e-07 4.1852377e-07 -3.1067565e-08 2.6334416e-07 2.88886e-07 -2.6430618e-08
2.846665e-07 -4.813319e-07 -3.274861e-07 6.1069954e-08 6.92682e-09 1.0543073e-07 -3.3324667e-08 -2.6379374e-07
2.672739e-08 -2.1672317e-07 -5.2633254e-07 3.6410546e-07 -2.792521e-07 1.0447051e-07 -3.1224963e-07 -3.3278295e-07
-2.2147342e-08 4.0529716e-07 2.3496897e-07 -3.7313495e-09 9.153196e-08 5.2452833e-07 -1.9534222e-07 -4.1737468e-07
-1.6433656e-07 -2.8488267e-07 -2.0314013e-07 -2.7888415e-08 -1.2027802e-07 4.1243683e-07 7.950219e-08 -7.776923e-08
1.6475228e-07 1.14544065e-07 -1.0026947e-07 2.5665014e-07 -6.2812646e-08 3.5073074e-07 -2.1854087e-08 4.402404e-07
-2.2974204e-07 3.7322022e-07 5.594485e-09 1.1453872e-07 2.3463696e-07 1.1661703e-07 -1.737653e-07 3.2854373e-07
2.3196814e-07 -3.3267122e-07 2.9366646e-07 3.9806307e-07 1.8535513e-07 2.5081374e-07 -3.737368e-07 3.952012e-07
1.5306618e-07 6.784266e-07 1.5790653e-07 3.13092e-07 2.6767967e-07 -2.877721e-07 -4.1839985e-07 -9.4117e-08
-3.787139e-07 -2.6606332e-07 4.1347243e-07 -4.812432e-07 -3.9811565e-07 -7.256933e-08 5.252776e-07 -2.7424815e-07
0.0012083481 6.8642144e-08 -3.053886e-06 -0.0034708504 0.06600127 4.404187e-07 -4.840959e-07 1.1545017e-07
1.2754106e-07 0.17785807 0.19594048 0.010879887 -5.1742063e-07 4.528057e-07 -0.13778724 -6.4373063e-07
-0.015074282 0.0021208606 -3.5164845e-07 0.30693746 0.19815753 0.04005654 -0.11972834 -0.13152866
-2.2347504e-05 4.3855655e-07 -2.3277808e-08 9.0449596e-08 2.7368407e-07 0.0016265681 1.757647e-07 -4.47768e-09
-3.237546e-07 2.638978e-07 -1.3518364e-06 2.897389e-07 -0.00061891886 5.9461307e-08 2.8999105e-07 1.4694112e-07
-2.8804024e-07 0.00089610135 2.1408538e-07 9.493416e-08 0.013588692 -4.950076e-08 0.001758168 0.15151036
-1.7802e-07 0.011209597 0.06263614 -1.8063308e-07 -0.07177706 -1.3306592e-07 -1.2450138e-07 0.020387545
1.8158973e-08 -0.5591937 -6.900651e-08 0.0498296 1.0377424e-07 0.04139219 3.4203734e-07 0.16541639
-0.015809605 -3.2640588e-07 -0.0011569073 0.030310974 -0.2979536 -2.2144306e-08 -8.626363e-08 4.1249967e-07
2.0346131e-07 -0.14198834 -0.38558805 -0.10135804 2.4544372e-07 3.396052e-07 -0.00786055 -1.2537774e-07
0.004339654 0.14826761 -1.1248499e-07 0.047089413 -0.0012533903 -0.118256785 0.110443465 0.11270521
0.050317254 -2.2343693e-07 -8.896322e-08 1.5264911e-07 -2.670602e-07 0.20225844 -1.2027787e-07 2.2056487e-07
-1.322891e-07 3.7194476e-07 -4.0407267e-06 -1.0412515e-09 0.09901335 3.3677972e-07 -3.2386464e-07 2.199728e-07
-1.0128317e-07 0.0959135 -3.4679917e-07 -1.1483817e-07 0.053441755 -0.07060599 0.033253536 -0.21172987
1.0698939e-07 0.012268067 -2.5112804e-05 3.2114909e-09 0.083689496 -2.7416468e-07 3.7171315e-08 0.007771905
-3.5794645e-07 0.13738312 5.378753e-08 0.0757097 2.4733112e-07 -0.15841942 -1.3439056e-07 -0.96176565
00000000: b266 2c34 b655 2235 10fe da34 f21e 0fb5
00000010: ae66 5cb4 e3b3 eb31 e6ec 84b4 fc6e d833
00000020: 7060 3b31 55c0 5134 81d0 68b4 dfd5 2bb4
00000030: a4a8 fab3 f71d d634 92bb 0f35 7076 3b31
00000040: 2d42 bc33 4900 03b5 95bc f5b1 b2e1 afb4
00000050: 2ae6 dbb4 5f3e 05b5 3a4d 04b4 4bed 3634
00000060: 8280 51b4 9f36 c934 c6ed ca34 b3a0 76b4
00000070: 0187 dab4 ff3f 0035 355d 94b4 9695 22b5
00000080: 2cc0 fab3 33a9 0bb5 7282 5233 4274 6d33
00000090: e3fe 73b4 3194 da34 dbb0 01b5 0582 8db4
000000a0: 6286 d532 b24a 95b4 d2b4 18b5 64b6 fab3
000000b0: 63c8 5db3 d6dd c333 af73 72b4 b88c 39b4
000000c0: 66e7 6134 3efe dc34 a707 b634 78b1 e034
000000d0: 266f 05b3 bf61 8d34 3118 9b34 8b09 e3b2
000000e0: 44d4 9834 e034 01b5 59d1 afb4 9025 8333
000000f0: f400 ee31 2869 e233 dc20 0fb3 899f 8db4
00000100: 2796 e532 69b4 68b4 4c49 0db5 467a c334
00000110: 1eec 95b4 4559 e033 43a3 a7b4 57a9 b2b4
00000120: 853e beb2 9e97 d934 c74b 7c34 4c35 80b1
00000130: 3a90 c433 50cd 0c35 43bf 51b4 8a13 e0b4
00000140: 7d74 30b4 faf1 98b4 bc1e 5ab4 468f efb2
00000150: c525 01b4 e36c dd34 cbba aa33 1602 a7b3
00000160: c3e6 3034 44fb f533 b953 d7b3 bac9 8934
00000170: 9ee3 86b3 114c bc34 a5b9 bbb2 2e5a ec34
00000180: 03af 76b4 ff5e c834 9c39 c031 54f8 f533
00000190: 84f0 7b34 e46e fa33 3e94 3ab4 b562 b034
000001a0: eb12 7934 fc99 b2b4 36a9 9d34 5fb5 d534
000001b0: 0806 4734 94a7 8634 ffa5 c8b4 0a2c d434
000001c0: 835a 2434 1f1d 3635 048d 2934 0917 a834
000001d0: 9db5 8f34 197f 9ab4 70a0 e0b4 5e1d cab3
000001e0: 0b52 cbb4 77d7 8eb4 38fb dd34 c82e 01b5
000001f0: 99bc d5b4 69d7 9bb3 cd00 0d35 613c 93b4
00000200: 6f61 9e3a 6b68 9333 5df1 4cb6 3577 63bb
00000210: ad2b 873d af72 ec34 d1f2 01b5 67ed f733
00000220: 38f2 0834 6d20 363e 9fa4 483e 8e41 323c
00000230: e0e4 0ab5 2419 f334 1918 0dbe d5cc 2cb5
00000240: 1ffa 76bc 23fe 0a3b 32ca bcb4 e826 9d3e
00000250: cfe9 4a3e 5412 243d 2234 f5bd 73af 06be
00000260: e676 bbb7 c172 eb34 71f4 c7b2 313d c233
00000270: daee 9234 9232 d53a d5b9 3c34 17da 99b1
00000280: 7ed0 adb4 d6ad 8d34 bf70 b5b5 698d 9b34
00000290: f13e 22ba 6662 7f33 11b0 9b34 dec6 1d34
000002a0: f3a3 9ab4 58e8 6a3a 57df 6534 9bde cb33
000002b0: 1ba3 5e3c a99a 54b3 5472 e63a 8825 1b3e
000002c0: c425 3fb4 75a8 373c 6047 803d 0bf4 41b4
000002d0: daff 92bd e2e0 0eb4 aeae 05b4 c803 a73c
000002e0: 01fc 9b32 5127 0fbf bb30 94b3 1f1a 4c3d
000002f0: 7eda de33 db8a 293d 41a1 b734 ea62 293e
00000300: 2583 81bc e23c afb4 5ea3 97ba b84e f83c
00000310: 608d 98be d837 beb2 ef3f b9b3 8675 dd34
00000320: 0577 5a34 6465 11be cc6b c5be ce94 cfbd
00000330: 87c5 8334 fc52 b634 89c9 00bc 929f 06b4
00000340: a833 8e3b 77d3 173e 478f f1b3 d4e0 403d
00000350: cd48 a4ba 9d30 f2bd 2f30 e23d fdd1 e63d
00000360: 7719 4e3d e0e9 6fb4 0c0c bfb3 dee7 2334
00000370: 7960 8fb4 d61c 4f3e bb25 01b4 69d4 6c34
00000380: 5a0b 0eb4 b3af c734 9495 87b6 c81b 8fb0
00000390: 83c7 ca3d a7ce b434 9edf adb4 aa31 6c34
000003a0: 0381 d9b3 4c6e c43d b72f bab4 f49c f6b3
000003b0: bee5 5a3d e099 90bd dc34 083d b7cf 58be
000003c0: 0ac2 e533 0100 493c 56a9 d2b7 25b1 5c31
000003d0: 6665 ab3d e830 93b4 4ba6 1f33 77ab fe3b
000003e0: c92b c0b4 29ae 0c3e 0404 6733 b00d 9b3d
000003f0: eec8 8434 b338 22be ff4c 10b4 4636 76bf

tr1.layer_1.bias f4 [64]
3.8014795e-07 4.528543e-07 -0.06749334 0.15603088 -3.2838685e-07 -0.03496237 0.03129348 4.9211167e-07
0.15552889 -7.563039e-08 -5.275466e-07 -2.8244364e-07 2.5266857e-07 2.590749e-07 0.05070295 0.019267889
0.11135377 0.25192913 -5.660921e-07 -0.1427669 4.5514378e-07 0.064965926 -0.062363394 -0.0070996387
3.7843193e-07 3.4025783e-07 0.11817782 -2.8077324e-07 0.06108531 -3.874492e-07 0.056302834 0.07106173
0.10581866 1.456456e-07 0.015342114 5.166483e-08 0.13179214 0.03576779 -0.0037964927 0.073975824
3.4905298e-07 -0.072462626 -2.612625e-07 -1.5939361e-07 0.091898784 -0.06686466 -0.0821449 -3.8234766e-08
-0.06515963 -0.019557873 1.5666481e-08 0.07985106 0.24548087 -4.2418608e-07 0.13917695 -0.0677228
0.20975637 -5.5797926e-07 0.040452093 0.04739006 9.620402e-08 0.17050073 2.1516288e-07 1.03429144e-07
00000000: 2317 cc34 d21f f334 f339 8abd 8fc6 1f3e
00000010: 254d b0b4 b434 0fbd 982d 003d a819 0435
00000020: f742 1f3e 3f6a a2b3 ba9c 0db5 c2a2 97b4
00000030: 81a6 8734 fc16 8b34 e6ad 4f3d b1d7 9d3c
00000040: 720d e43d dbfc 803e 8ef5 17b5 7c31 12be
00000050: 7c5a f434 db0c 853d c270 7fbd 16a4 e8bb
00000060: 4a2b cb34 aeac b634 3707 f23d 2ebd 96b4
00000070: 9734 7a3d 9d02 d0b4 cd9d 663d d088 913d
00000080: 74b7 d83d c262 1c34 7d5d 7b3c 15e6 5d33
00000090: 85f4 063e 3f81 123d 94ce 78bb a380 973d
000000a0: 7a65 bb34 4967 94bd a543 8cb4 c825 2bb4
000000b0: 6e35 bc3d 57f0 88bd 963b a8bd 9237 24b3
000000c0: 6972 85bd d537 a0bc f592 8632 f488 a33d
000000d0: 565f 7b3e b1bb e3b4 6784 0e3e 40b2 8abd
000000e0: 60ca 563e 0bc8 15b5 18b1 253d 141c 423d
000000f0: b898 ce33 be97 2e3e 8607 6734 c61c de33

tr1.layer_2.weight f4 [64, 64]
2.0330486e-07 2.9466273e-07 -5.7318323e-07 5.3386355e-08 -1.373962e-07 -3.3095116e-08 2.0193072e-07 -6.175842e-08
-4.1893946e-07 -2.9840766e-07 3.791497e-07 9.151479e-08 1.3901227e-07 -1.5907027e-07 -3.1138268e-07 -6.966058e-08
6.851145e-08 -4.098743e-08 -1.2671492e-07 -6.885174e-07 1.2907886e-07 -4.191618e-08 -3.057075e-07 -1.58182e-07
-5.941467e-07 -4.0704563e-07 1.5448637e-07 2.7140996e-07 -3.5720593e-08 3.9803993e-07 -1.2422514e-07 -2.156482e-07
-1.1959732e-07 -2.0295025e-07 5.5297214e-08 -2.5135714e-07 4.8511787e-08 1.9020474e-08 3.1243985e-07 -9.118675e-08
-4.1758602e-07 4.241455e-08 -1.008103e-07 -6.546862e-08 -4.9936405e-10 -1.11673764e-07 -3.4997007e-07 -1.5686109e-07
1.06659314e-07 -9.8439685e-08 -7.686554e-08 1.1708421e-07 8.88808e-08 5.328665e-08 4.1219946e-07 4.3957633e-07
1.5284887e-07 -2.962655e-07 -2.6635985e-07 6.650866e-08 -2.2575266e-07 -3.8513556e-07 3.1295735e-07 3.0226494e-07
-3.0879153e-07 2.9384856e-07 -1.3221593e-09 5.1923644e-07 -2.7380432e-07 3.1197263e-07 1.2816714e-07 -4.0310745e-08
-1.8316541e-08 1.9447941e-07 -4.542731e-07 -2.4662899e-07 6.055533e-07 -4.7264447e-07 -5.200052e-07 1.7217825e-07
-1.3667153e-08 4.0111397e-07 -3.7157926e-07 1.6445723e-07 -2.0978806e-07 1.3004076e-07 -3.2793406e-07 -3.078454e-07
-6.1304554e-08 -7.187007e-09 5.0286346e-08 1.2435376e-07 -3.4807928e-07 2.6404146e-07 8.668647e-08 -3.292119e-07
-3.3881867e-07 -2.5143615e-07 6.8747674e-09 4.1808346e-07 1.3489219e-08 -2.869858e-07 3.863743e-08 2.8073273e-08
-2.6359984e-07 9.14892e-08 2.8775762e-07 -5.72068e-08 -3.7020965e-07 -2.4909353e-08 3.637787e-07 -3.3780744e-08
4.1116564e-08 -1.15118624e-07 -6.046796e-07 9.104493e-09 3.1798342e-07 -6.0462014e-07 3.2244324e-07 3.666532e-07
-8.857793e-08 2.2291093e-07 6.6369424e-08 -3.1130884e-07 -1.788743e-07 -8.6355676e-08 -1.3056331e-07 2.19135e-07
7.4378555e-08 -2.4732632e-08 -1.987624e-07 -1.3362654e-07 1.7228388e-07 2.597782e-07 2.0852453e-07 6.525682e-08
-7.888652e-08 -2.3203783e-07 -6.293087e-08 3.3598297e-07 -1.0016382e-07 2.9402983e-07 5.570932e-09 2.771812e-07
-2.1709718e-07 3.487069e-07 -4.031603e-08 9.102101e-08 2.9523252e-07 -3.3660717e-07 -6.212875e-08 1.5704319e-07
-1.3055336e-07 -3.977892e-07 -1.1610773e-07 -2.764613e-07 -5.008355e-07 1.14236705e-07 -5.8728676e-07 -9.212997e-08
1.6442135e-07 6.8279125e-09 -1.069797e-07 6.069347e-07 -1.7758998e-08 -2.7697223e-07 4.382184e-07 1.757179e-08
7.262992e-07 2.2229032e-07 -1.3104415e-07 8.105723e-08 -4.2225196e-07 1.5778964e-07 2.3060288e-07 4.14936e-07
1.4120826e-07 -2.5208385e-07 1.3069405e-07 -1.2164905e-07 -4.4822173e-07 -8.391901e-08 4.996233e-08 8.4372836e-08
6.889599e-08 -2.5050602e-07 -5.7795027e-08 1.6882535e-09 1.2515527e-07 -3.7130866e-07 -1.7366457e-07 7.364442e-08
3.623713e-07 -1.117911e-07 4.166454e-07 -1.0395268e-07 -1.6071962e-07 1.8834831e-07 1.0624985e-08 -3.5119277e-07
-7.258004e-07 5.5315475e-08 -1.6066892e-07 -4.185141e-07 -1.2269624e-07 -1.0436984e-07 -6.126049e-08 4.458454e-07
1.9526988e-07 5.1740585e-08 -1.16678024e-07 5.6919987e-07 -2.1774056e-07 2.860193e-07 1.7412495e-07 -4.978345e-07
9.896939e-08 5.3054958e-08 1.780089e-07 -3.7164244e-07 -2.8876528e-07 -8.620945e-08 5.24949e-07 -3.0769957e-07
-2.1193613e-07 1.8895851e-07 5.0243052e-08 -2.881396e-07 -3.758146e-07 -5.5763685e-08 -5.896e-07 1.5666951e-07
-6.04721e-07 1.5579351e-07 6.171712e-07 7.367421e-08 3.37958e-07 2.1279965e-07 6.0975765e-07 1.5920669e-07
-5.928256e-07 -4.1761479e-07 7.303311e-08 -2.0965624e-07 -3.422578e-07 4.9902957e-07 2.9524548e-07 -1.7330775e-07
-3.2381047e-07 1.5285109e-07 -6.6148566e-08 -2.2979152e-07 8.227362e-08 -3.517382e-07 4.1899648e-07 1.2519779e-07
00000000: 044c 5a34 2332 9e34 dadc 19b5 eb4a 6533
00000010: 2e87 13b4 7724 0eb3 4bd2 5834 0da0 84b3
00000020: 9aea e0b4 d634 a0b4 f08d cb34 ca86 c433
00000030: 6743 1534 e7cc 2ab4 1c2c a7b4 4f98 95b3
00000040: 9120 9333 280a 30b3 220f 08b4 8ed2 38b5
00000050: ed98 0a34 5407 34b3 1e20 a4b4 bdd8 29b4
00000060: 737d 1fb5 ed87 dab4 e4e0 2534 4db6 9134
00000070: 356b 19b3 31b2 d534 bf62 05b4 ed8c 67b4
00000080: a96a 00b4 8aea 59b4 ee7f 6d33 43f2 86b4
00000090: 465b 5033 7762 a332 68bd a734 72d2 c3b3
000000a0: 9630 e0b4 4a2b 3633 0c7d d8b3 c197 8cb3
000000b0: 9f43 09b0 4dd1 efb3 85e3 bbb4 a66d 28b4
000000c0: 940c e533 ca65 d3b3 4711 a5b3 ba6f fb33
000000d0: bdde be33 4bdd 6433 434c dd34 e9fe eb34
000000e0: c71e 2434 6c0e 9fb4 3800 8fb4 86d3 8e33
000000f0: 6b66 72b4 a1c4 ceb4 8804 a834 fa46 a234
00000100: fcc7 a5b4 3dc2 9d34 58b7 b5b0 a861 0b35
00000110: 61ff 92b4 317d a734 519e 0934 2222 2db3
00000120: 8056 9db2 18d2 5034 d2e2 f3b4 6e68 84b4
00000130: 4e8d 2235 c3bf fdb4 7c96 0bb5 ffdf 3834
00000140: c6cc 6ab2 af58 d734 777d c7b4 a995 3034
00000150: 1a42 61b4 55a1 0b34 ea0e b0b4 f345 a5b4
00000160: 89a6 83b3 95f1 f6b1 6cfa 5733 1a86 0534
00000170: a7df bab4 95c1 8d34 6428 ba33 8abe b0b4
00000180: e2e6 b5b4 1ffd 86b4 1837 ec31 f474 e034
00000190: 36be 6732 0713 9ab4 4ef2 2533 c825 f132
000001a0: e384 8db4 b878 c433 1b7d 9a34 8bb3 75b3
000001b0: 3ac1 c6b4 3ff8 d5b2 5d4d c334 5216 11b3
000001c0: 2498 3033 2237 f7b3 4451 22b5 fc69 1c32
000001d0: 4fb7 aa34 2e4d 22b5 431c ad34 6fd8 c434
000001e0: 3b38 beb3 4a59 6f34 fa86 8e33 f621 a7b4
000001f0: 9810 40b4 8972 b9b3 f830 0cb4 5f4b 6b34
00000200: 0bba 9f33 a273 d4b2 646b 55b4 fc7a 0fb4
00000210: 08fd 3834 a577 8b34 c9e6 5f34 5123 8c33
00000220: 5368 a9b3 1326 79b4 9d24 87b3 2661 b434
00000230: a419 d7b3 27db 9d34 706a bf31 7ecf 9434
00000240: 381b 69b4 e935 bb34 f227 2db3 5477 c333
00000250: 7380 9e34 f0b6 b4b4 a46b 85b3 b49f 2834
00000260: 3c2e 0cb4 bb8f d5b4 e656 f9b3 8d6c 94b4
00000270: 2771 06b5 4b52 f533 0aa6 1db5 fdd8 c5b3
00000280: cc8b 3034 f49a ea31 b6bc e5b3 3cec 2235
00000290: 738c 98b2 c6b2 94b4 4744 eb34 c6f0 9632
000002a0: e7f6 4235 b3ae 6e34 24b5 0cb4 af11 ae33
000002b0: deb1 e2b4 e36c 2934 a39b 7734 5fc4 de34
000002c0: 089f 1734 2456 87b4 e854 0c34 a39e 02b4
000002d0: 20a3 f0b4 f736 b4b3 2a96 5633 7530 b533
000002e0: f9f3 9333 497d 86b4 4e3a 78b3 2408 e830
000002f0: 6b62 0634 4658 c7b4 8e78 3ab4 7326 9e33
00000300: ef8b c234 cf11 f0b3 4faf df34 973c dfb3
00000310: 4692 2cb4 ca3c 4a34 2e89 3632 918b bcb4
00000320: a0d4 42b5 0294 6d33 5684 2cb4 24b0 e0b4
00000330: 7cbe 03b4 ed21 e0b3 4f8e 83b3 865c ef34
00000340: 60ab 5134 6039 5e33 6c90 fab3 1ecb 1835
00000350: 12cc 69b4 318e 9934 1af7 3a34 eda2 05b5
00000360: ff88 d433 8bde 6333 b722 3f34 2686 c7b4
00000370: 9907 9bb4 2522 b9b3 38ea 0c35 e831 a5b4
00000380: 8f90 63b4 85e4 4a34 d2ca 5733 9bb1 9ab4
00000390: 91c3 c9b4 d280 6fb3 0145 1eb5 fd38 2834
000003a0: 1c54 22b5 3248 2734 afab 2535 d336 9e33
000003b0: 9870 b534 ec7d 6434 3aae 2335 67f2 2a34
000003c0: aa22 1fb5 8a34 e0b4 60d6 9c33 de1d 61b4
000003d0: 8ebf b7b4 0df5 0535 3b82 9e34 7916 3ab4
000003e0: 2cd8 adb4 631f 2434 8f0d 8eb3 9dbc 76b4
000003f0: 67ae b033 88d6 bcb4 70f2 e034 1b6e 0634

tr1.layer_2.bias f4 [64]
-4.1276328e-07 -3.9141665e-07 1.533251e-07 -3.5991168e-09 -4.7964386e-07 -3.2941065e-07 -4.1745753e-07 1.4307497e-07
2.2477565e-07 -4.0661024e-07 -3.2827654e-07 2.576362e-07 -3.5594311e-07 -3.661736e-07 1.9057583e-07 -4.6959948e-07
-0.051036876 2.5614115e-08 -0.11870032 -7.6784113e-07 -1.0523737e-07 4.1294567e-07 6.399772e-08 6.535423e-07
1.2863957e-07 2.4987537e-07 -1.976992e-07 1.3498308e-07 7.665871e-07 -6.415225e-07 -1.4577762e-07 -9.0897214e-07
-0.008908148 2.6435364e-07 -2.42136e-08 -1.2892994e-07 1.4227258e-07 0.20810455 -1.8004879e-07 1.2138947e-08
0.16962232 -6.512337e-08 -2.8186204e-07 -8.05509e-08 -4.0078788e-07 -5.5400767e-07 1.601289e-07 0.26888552
-6.903628e-08 -5.8549695e-08 1.7927452e-07 2.9314492e-07 1.505412e-07 -1.6363859e-07 0.112165645 1.77825e-07
0.06034956 0.20038378 2.4882954e-07 0.1972855 -1.3179019e-07 3.582569e-07 2.2324568e-07 3.5933326e-07
00000000: c199 ddb4 e523 d2b4 afa1 2434 5554 77b1
00000010: e0c0 00b5 dbd9 b0b4 ed1e e0b4 26a0 1934
00000020: dc59 7134 164c dab4 fc3d b0b4 4051 8a34
00000030: 7318 bfb4 8496 c4b4 16a1 4c34 431d fcb4
00000040: 0b0c 51bd 0906 dc32 2719 f3bd a41d 4eb5
00000050: dbfe e1b3 d2b2 dd34 1e6f 8933 166f 2f35
00000060: 2d20 0a34 9c26 8634 2447 54b4 deef 1034
00000070: 77c7 4d35 1735 2cb5 0c87 1cb4 1700 74b5
00000080: 7bf3 11bc 7dec 8d34 45fe cfb2 fe6f 0ab4
00000090: 97c3 1834 5c19 553e 6f53 41b4 a78b 5032
000000a0: 79b1 2d3e f4d9 8bb3 d352 97b4 53fb acb3
000000b0: de2b d7b4 1eb7 14b5 e6ef 2b34 5dab 893e
000000c0: 1941 94b3 1278 7bb3 9b7e 4034 8861 9d34
000000d0: 73a4 2134 a2b4 2fb4 1ab7 e53d 2af0 3e34
000000e0: 1a31 773d 6831 4d3e df96 8534 3605 4a3e
000000f0: 3682 0db4 7456 c034 4eb5 6f34 63ea c034

tr1g.layer_0.weight f4 [64, 64]
2.2565962e-05 -0.00037666637 0.1749168 -0.0013527586 -0.46585318 1.2033442e-05 -5.892969e-05 -0.06153764
0.027849648 0.06985983 0.18075249 0.1697004 0.049550336 -0.15447953 -0.11349438 0.14844826
0.13825797 -0.11094 0.0085058585 0.29807404 0.00010063788 0.14337379 0.21522094 0.274026
-0.02886104 -0.03138647 -0.19672301 -0.3691866 5.7985003e-06 -0.102646835 -0.17813082 -0.18994935
0.33389717 0.14153102 0.0011539286 -0.57733655 -2.6146571e-07 -0.2764519 0.13496181 0.027442645
-0.16457553 3.755272e-07 0.4630996 -0.27828598 0.00019850566 0.37531644 0.19548821 -0.38573515
0.00017162853 0.04025248 0.18581048 0.47846973 8.258896e-05 -0.03378484 0.36546123 0.44698906
0.0400313 0.67802554 0.8520402 0.24235095 0.06352624 -0.00017808875 0.13268954 -0.1345002
3.51475e-07 1.9590911e-07 -1.4026661e-07 1.3317113e-07 -3.231221e-08 -3.1658445e-08 7.3667856e-08 6.085497e-08
4.6419093e-08 2.9115404e-07 3.1527154e-07 3.9349692e-07 2.0871155e-07 -8.164385e-08 -7.82669e-07 -2.6440154e-07
1.0740802e-07 7.9380904e-08 3.6192468e-08 1.5988679e-08 4.142495e-07 2.8082889e-08 2.8135398e-07 -2.1837072e-07
-9.976987e-08 3.0648597e-08 -5.5905764e-07 7.75905e-08 -2.9329016e-07 -1.294897e-07 9.9139974e-08 4.1942837e-07
1.7250898e-07 -1.4570008e-07 -1.315765e-07 -4.2389448e-07 -3.7225718e-07 2.3815454e-07 4.026232e-07 2.0341392e-07
1.5697243e-07 -3.5459113e-08 -4.9699224e-07 -2.9409182e-07 -5.246964e-07 1.8027826e-07 -4.874763e-08 9.2089365e-08
-8.079154e-08 4.9520743e-09 4.292337e-07 4.770266e-07 -1.2424373e-07 1.7611801e-07 -3.0906915e-07 2.1128643e-07
-4.0781683e-07 2.7207585e-07 6.309259e-08 5.1873207e-07 5.2672704e-07 -1.34014e-07 -4.1171162e-07 9.0289525e-08
2.906118e-05 -1.2197597e-05 -0.008769547 -3.970587e-05 0.13213739 -1.7453856e-06 4.0795356e-05 0.26303366
-0.22111082 -0.20205377 0.080331236 0.008155699 0.20299605 0.022732262 0.12362507 0.18741854
0.025431206 -0.07725176 0.23254232 -0.05884094 7.280576e-05 -0.3687214 -0.08436462 -0.12272528
0.1574437 -0.2937451 -0.04103927 -0.03577924 6.359783e-05 -1.0255952e-05 -0.34067652 -0.16377966
-0.15189633 0.0001256061 -2.4311088e-05 0.29633695 1.2983577e-06 0.23457421 -6.226632e-06 0.0006931251
0.24635144 6.1859726e-09 -0.010012541 -0.0037278947 -0.09328646 -0.022411384 -0.021936322 -0.12235133
-0.050094705 -0.11389877 0.11157173 0.035678096 -2.8045145e-06 7.490288e-05 -0.008104728 -0.20641108
-0.042207867 -0.22764288 -0.28973117 -0.19408675 -0.19912668 -5.403677e-05 -0.06816557 -0.14953361
5.017797e-08 -1.1973876e-06 -0.01926233 -0.000116158655 -0.15193269 -1.9800966e-07 -1.3749973e-06 -0.22030061
9.601251e-08 0.27129066 0.0025499628 0.26244304 0.35839066 0.22905016 -0.07626243 0.22208443
0.07303045 0.088333346 -0.011680519 -0.041913625 -3.9154276e-07 -0.13819547 -0.012858619 0.19101638
0.079078935 -0.073861495 -0.33175135 0.07047646 5.752205e-07 0.045189645 0.039950978 0.04662909
0.22166733 0.0003851019 1.2503832e-06 -0.21168353 1.8787992e-07 -0.15700611 7.40024e-07 0.23353067
0.07761452 -2.8552245e-07 0.07166654 -0.0022735281 -2.6852842e-07 0.019108597 1.0983901e-05 -0.022259476
-1.1177814e-07 -0.22317003 0.18821555 0.002540143 -3.1248496e-07 -1.5265766e-06 -0.13731176 0.14218463
0.0723647 0.32580224 0.12705128 0.079653636 0.069142275 -3.4014315e-07 0.19182378 -0.12545294
00000000: 094c bd37 4e7b c5b9 641d 333e 0c4f b1ba
00000010: 4f84 eebe 3de3 4937 462b 77b8 e40e 7cbd
00000020: f224 e43c ac12 8f3d 2e17 393e f1c5 2d3e
00000030: 4bf5 4a3d e22f 1ebe be6f e8bd d202 183e
00000040: 7f93 0d3e 8334 e3bd 285c 0b3c 299d 983e
00000050: 8d0d d338 94d0 123e e162 5c3e 234d 8c3e
00000060: fd6d ecbc 198f 00bd c271 49be 0706 bdbe
00000070: bd90 c236 8138 d2bd ed67 36be 1582 42be
00000080: 92f4 aa3e 82ed 103e 6b3f 973a 54cc 13bf
00000090: 935f 8cb4 1a8b 8dbe 6e33 0a3e 66cf e03c
000000a0: 7d86 28be 119c c934 641b ed3e 807b 8ebe
000000b0: f525 5039 7a29 c03e 102e 483e 147f c5be
000000c0: 2ff7 3339 c9df 243d 1a45 3e3e fcf9 f43e
000000d0: 9c33 ad38 f961 0abd bc1d bb3e c0db e43e
000000e0: dcf7 233d 1593 2d3f 4e1f 5a3f d92a 783e
000000f0: 0c1a 823d 56bd 3ab9 c4df 073e 6cba 09be
00000100: 5bb2 bc34 165b 5234 319c 16b4 cdfd 0e34
00000110: a7c7 0ab3 d4f8 07b3 5533 9e33 60af 8233
00000120: 555e 4733 e84f 9c34 9742 a934 ce41 d334
00000130: 321a 6034 2e54 afb3 9b18 52b5 12f3 8db4
00000140: 2fa8 e633 1d78 aa33 0a72 1b33 7a57 8932
00000150: 0566 de34 ed3a f132 ff0c 9734 4979 6ab4
00000160: 1141 d6b3 7da2 0333 2612 16b5 d49f a633
00000170: 7e75 9db4 dc09 0bb4 c7e6 d433 cc2d e134
00000180: e83a 3934 bc71 1cb4 7947 0db4 9d93 e3b4
00000190: a3da c7b4 6cb7 7f34 1c28 d834 fe69 5a34
000001a0: 418c 2834 b54b 18b3 0c69 05b5 ace3 9db4
000001b0: ddd8 0cb5 8392 4134 965e 51b3 aac2 c533
000001c0: 9e7f adb3 e826 aa31 6e71 e634 050d 0035
000001d0: db67 05b4 f31a 3d34 24ee a5b4 f9dd 6234
000001e0: ebf1 dab4 d211 9234 857d 8733 ff3e 0b35
000001f0: 6864 0d35 7de5 0fb4 3709 ddb4 31e5 c133
00000200: 69c8 f337 48a4 4cb7 25ae 0fbc da89 26b8
00000210: 064f 073e fe42 eab5 ae1b 2b38 59ac 863e
00000220: e06a 62be 2fe7 4ebe b484 a43d 7b9f 053c
00000230: 32de 4f3e 0239 ba3c 242f fd3d a5ea 3f3e
00000240: 1b55 d03c 2c36 9ebd 931f 6e3e 3303 71bd
00000250: 4baf 9838 0dc9 bcbe 5cc7 acbd 6457 fbbd
00000260: ec38 213e c265 96be cb18 28bd 418d 12bd
00000270: d35f 8538 fa10 2cb7 276d aebe dbb5 27be
00000280: b68a 1bbe 21b5 0339 aaef cbb7 7ab9 973e
00000290: 3b43 ae35 3934 703e 5dee d0b6 d7b2 353a
000002a0: 8d43 7c3e 648c d431 a40b 24bc b24f 74bb
000002b0: f90c bfbd 1498 b7bc cdb3 b3bc 5693 fabd
000002c0: 1b30 4dbd c243 e9bd b87f e43d 3223 123d
000002d0: 3135 3cb6 2d15 9d38 b1c9 04bc 6d5d 53be
000002e0: 28e2 2cbd 371b 69be a557 94be adbe 46be
000002f0: dde7 4bbe 8aa5 62b8 649a 8bbd 571f 19be
00000300: 4383 5733 edb5 a0b5 09cc 9dbc 349a f3b8
00000310: 3e94 1bbe 7b9c 54b4 8c8c b8b5 7c96 61be
00000320: 702f ce33 9ce6 8a3e 471d 273b ef5e 863e
00000330: fb7e b73e 208c 6a3e 7a2f 9cbd 1a6a 633e
00000340: fd90 953d 1de8 b43d a65f 3fbc 9fad 2bbd
00000350: 3a35 d2b4 1d83 0dbe f5ac 52bc cc99 433e
00000360: 23f4 a13d b244 97bd 50db a9be f655 903d
00000370: da68 1a35 c718 393d a3a3 233d 25fe 3e3d
00000380: c3fc 623e 81e7 c939 d7d2 a735 91c3 58be
00000390: 0abc 4934 36c6 20be 10a6 4635 aa22 6f3e
000003a0: 5df4 9e3d e849 99b4 e8c5 923d 79ff 14bb
000003b0: 442a 90b4 a289 9c3c 7f47 3837 8159 b6bc
000003c0: af0a f0b3 af86 64be 94bb 403e 8778 263b
000003d0: 9bc3 a7b4 c6e4 ccb5 749b 0cbe d998 113e
000003e0: f233 943d 8dcf a63e bb19 023e 7221 a33d
000003f0: 779a 8d3d eb9c b6b4 746d 443e bc76 00be

tr1g.layer_0.bias f4 [64]
-0.03435761 3.1246674e-07 -0.13399218 -0.040503893 7.008361e-08 -0.005190304 -8.228703e-08 0.016911115
-1.6060602e-07 0.06823365 0.0722883 -3.914838e-07 -0.09900362 -0.053083107 -0.04599993 -0.035903763
-0.017315488 -0.03920699 0.09393884 3.9116534e-07 1.3749644e-07 0.087051265 2.2337574e-07 1.6633213e-07
2.7410016e-07 0.023085793 3.9097486e-07 0.12336973 -0.015712265 0.18201888 -0.022094198 -5.2346905e-07
3.3273759e-07 0.03439793 -2.4094118e-07 2.0404518e-07 -4.2470216e-07 -0.008388951 -1.2493035e-07 0.08812981
-1.8256662e-07 -1.755712e-07 1.2408006e-07 0.05384557 -1.0449468e-07 -2.5298266e-07 -1.6310517e-07 -7.360496e-08
-5.307491e-09 4.4097916e-08 1.0508661e-08 0.05246026 0.07795983 0.06675589 9.0428806e-08 4.2915127e-07
0.017721443 -0.00026026173 1.6739708e-07 -8.457921e-08 5.6007457e-07 -4.7977576e-08 3.5414044e-07 0.09014123
00000000: 91ba 0cbd 1ac1 a734 3f35 09be 69e7 25bd
00000010: df80 9633 6d13 aabb c6b5 b0b3 2e89 8a3c
00000020: 0c73 2cb4 15be 8b3d e30b 943d 202d d2b4
00000030: 69c2 cabd ac6d 59bd 6c6a 3cbd d30f 13bd
00000040: 36d9 8dbc 8297 20bd 0263 c03d 5b01 d234
00000050: bca2 1334 ef47 b23d 0ed9 6f34 0799 3234
00000060: 0a28 9334 6b1e bd3c 2de7 d134 45a9 fc3d
00000070: 02b7 80bc 2863 3a3e e4fe b4bc 8584 0cb5
00000080: 1ba3 b234 d8e4 0c3d b45a 81b4 8317 5b34
00000090: 9f02 e4b4 d071 09bc 9824 06b4 677d b43d
000000a0: 8807 44b4 a584 3cb4 de3a 0534 2c8d 5c3d
000000b0: 8f66 e0b3 acd1 87b4 0222 2fb4 c110 9eb3
000000c0: 2f5d b6b1 2c66 3d33 9489 3432 92e0 563d
000000d0: 67a9 9f3d 50b7 883d c331 c233 1a66 e634
000000e0: 8f2c 913c bd73 88b9 c2bd 3334 eaa1 b5b3
000000f0: 0858 1635 e70f 4eb3 b120 be34 f79b b83d

tr1g.layer_1.weight f4 [64, 64]
2.4231161e-07 -3.9759854e-07 7.91375e-07 4.724833e-09 7.3719995e-08 6.179643e-08 -3.2789316e-07 -2.1998669e-07
2.5324513e-07 1.984118e-07 -4.961705e-08 -7.266751e-07 1.9576002e-07 6.477683e-07 -6.064242e-07 -1.6213981e-07
-8.811152e-08 2.606806e-07 6.174703e-08 -1.5326184e-07 -1.3640769e-07 6.348188e-07 1.1839168e-07 4.1261123e-07
-8.873606e-08 -5.771462e-09 -4.4528684e-07 4.131515e-08 5.9164453e-08 -2.616673e-07 -1.9032191e-07 6.633124e-08
3.088075e-07 5.9654397e-09 2.0965066e-07 -1.3046034e-07 -4.8747455e-07 3.5448437e-07 -2.8779752e-07 -5.231965e-09
-1.0791486e-07 -4.807752e-07 -6.151752e-08 6.33615e-08 -4.8293197e-07 2.0320516e-07 -1.09460725e-08 -3.6736185e-07
-2.0347926e-07 4.3548306e-07 -2.7381336e-07 5.0139477e-07 -5.9320007e-07 6.9352376e-07 -1.7766798e-08 3.0535162e-08
-2.992135e-08 -1.76157e-07 -2.6692342e-07 -2.2316212e-07 -1.9587162e-07 1.07927264e-07 -7.8360294e-08 3.0191438e-07
-0.3379202 7.1599324e-08 0.15039058 -0.066733025 2.4700108e-07 0.10356557 9.809974e-08 -0.08475034
-1.3776109e-07 0.030196678 -0.10586004 -6.491673e-07 -0.2885734 0.05524504 0.12310975 -0.00048156263
0.008029845 -0.04794818 -0.14817527 -1.598497e-07 5.372267e-08 -0.05701886 -7.1879793e-07 -2.627828e-07
-3.5205022e-07 -0.0005465721 4.893973e-08 -0.20560272 0.030623693 0.15197173 0.015488294 2.647117e-07
-4.0780276e-07 0.060073353 2.9403037e-07 -2.1433686e-07 5.4946e-07 0.062397648 2.2488813e-07 -0.005506101
-4.239723e-07 2.6028985e-07 3.190777e-07 0.19277522 3.2595375e-07 3.89363e-07 -2.0474685e-07 1.5588971e-07
4.2690232e-07 1.3585445e-07 1.0835054e-07 0.13346213 0.096317895 0.012020718 -1.8755955e-07 9.884034e-08
0.07452383 -0.013161868 1.4378584e-07 1.0300378e-07 -4.5018803e-07 1.1955109e-08 -1.00291416e-07 -0.09565498
-0.08862282 5.830269e-08 -0.0049433936 2.461885e-07 -4.653795e-09 -0.019041676 -4.7737085e-08 -8.6650765e-08
4.656412e-08 -0.15904357 -0.04175189 -2.1463237e-08 -0.119998984 -0.012301627 -0.11528759 0.0016725281
0.00010033323 -0.006383388 -0.091139995 5.609295e-07 -2.9367826e-07 0.07995161 2.2154277e-08 2.0929099e-07
6.366728e-07 -0.0010361872 9.1787825e-08 -0.15458663 -2.4709053e-07 0.007750016 -0.078165166 2.374422e-07
1.6880973e-07 0.0015855319 -3.6883804e-08 -3.4326692e-07 -4.5456179e-07 0.00010026168 -1.8265808e-07 -0.045782402
3.206303e-07 -8.41277e-08 -4.1262854e-07 -0.016883833 -5.01393e-08 -4.8400824e-07 -2.1957894e-07 1.08443366e-07
-4.1323528e-07 2.5824264e-07 -1.623903e-07 -0.2310573 -0.054239973 0.021463912 3.057735e-07 -1.2642164e-07
0.026460864 -0.040627632 2.326424e-07 1.431816e-07 1.9657446e-07 -2.402009e-07 -2.8862505e-07 -0.0887861
1.6498193e-07 6.046175e-07 -2.2170563e-07 5.8301026e-09 -9.1288896e-08 -3.09279e-07 -6.634619e-08 2.423758e-07
4.1567867e-07 3.7689983e-08 4.6033426e-07 -2.4727914e-08 1.3578105e-07 1.2194634e-07 1.3088014e-07 -6.194774e-08
-5.577069e-07 -2.3022554e-07 5.6421275e-08 -7.670041e-08 -1.592566e-07 -1.8896155e-07 3.47934e-07 1.5308056e-07
-7.8322806e-08 -1.5756355e-07 3.9754818e-07 4.2729852e-07 1.2479052e-07 1.4966386e-07 1.3773534e-07 8.3877005e-08
-4.0435488e-08 -4.3392214e-07 1.3123986e-07 1.1680018e-07 2.2306952e-07 -3.5052204e-07 4.1936096e-07 -5.9879355e-08
-3.786025e-08 -1.8737934e-07 3.0880153e-07 3.760442e-07 -3.5148382e-08 -9.181447e-08 1.17213375e-07 -1.0155294e-07
-1.7360932e-07 2.6086965e-07 -2.3203346e-07 -3.5832116e-07 5.691428e-07 -1.5201037e-07 2.7381463e-07 -2.2571403e-07
1.330682e-07 -2.3059229e-07 1.143959e-07 2.6320996e-07 1.737026e-07 -3.0263885e-07 4.0075608e-07 -2.5588673e-07
00000000: 0e17 8234 8775 d5b4 e06e 5435 1258 a231
00000010: ff4f 9e33 f2b4 8433 4b09 b0b4 7b35 6cb4
00000020: bff5 8734 050b 5534 861a 55b3 bc10 43b5
00000030: 1b32 5234 4ce2 2d35 27c9 22b5 a718 2eb4
00000040: d237 bdb3 abf3 8b34 ca99 8433 4b90 24b4
00000050: 7677 12b4 6a68 2a35 843e fe33 db84 dd34
00000060: 2a8f beb3 514e c6b1 c20f efb4 7d72 3133
00000070: 011c 7e33 487b 8cb4 4a5b 4cb4 fc71 8e33
00000080: 2eca a534 90f8 cc31 561c 6134 aa14 0cb4
00000090: ffda 02b5 f64f be34 9782 9ab4 dac4 b3b1
000000a0: d2be e7b3 9f0e 01b5 9d1b 84b3 5a11 8833
000000b0: d5a2 01b5 9c30 5a34 560d 3cb2 d439 c5b4
000000c0: f47b 5ab4 56cc e934 9f00 93b4 9697 0635
000000d0: 663c 1fb5 972a 3a35 9a9d 98b2 c425 0333
000000e0: df82 00b3 ab25 3db4 ad4d 8fb4 569e 6fb4
000000f0: c850 52b4 a4c5 e733 0747 a8b3 cc16 a234
00000100: e003 adbe 25c2 9933 fdff 193e 53ab 88bd
00000110: 929b 8434 301a d43d e7aa d233 9691 adbd
00000120: 7beb 13b4 065f f73c 26cd d8bd 7042 2eb5
00000130: e5bf 93be a048 623d f720 fc3d 3e7a fcb9
00000140: 9c8f 033c 5065 44bd 42bb 17be 27a3 2bb4
00000150: b3bc 6633 9c8c 69bd 6bf3 40b5 9814 8db4
00000160: 6a01 bdb4 d547 0fba cd31 5233 8589 52be
00000170: 8ade fa3c 7a9e 1b3e 9dc2 7d3c b31d 8e34
00000180: fcef dab4 7a0f 763d 3adb 9d34 7824 66b4
00000190: 9b7e 1335 ad94 7f3d c778 7134 866c b4bb
000001a0: 4f9e e3b4 f7bd 8b34 b54d ab34 de66 453e
000001b0: befe ae34 a509 d134 63d8 5bb4 a362 2734
000001c0: 0231 e534 63df 1134 57ae e833 4caa 083e
000001d0: 5142 c53d 8cf2 443c fa63 49b4 0d42 d433
000001e0: f39f 983d e0a4 57bc 8d63 1a34 ed32 dd33
000001f0: 5fb1 f1b4 2063 4d32 ca5f d7b3 c2e6 c3bd
00000200: e27f b5bd 7c68 7a33 31fc a1bb e42b 8434
00000210: 37e7 9fb1 4afd 9bbc 7b07 4db3 c314 bab3
00000220: cbfd 4733 51dc 22be 0804 2bbd 285e b8b2
00000230: 07c2 f5bd c38c 49bc e61b ecbd bb38 db3a
00000240: fe69 d238 bd2b d1bb 9ba7 babd c892 1635
00000250: d5aa 9db4 abbd a33d c54d be32 78b9 6034
00000260: d2e7 2a35 acd0 87ba e41c c533 f54b 1ebe
00000270: dda7 84b4 d9f3 fd3b 0f15 a0bd 9df3 7e34
00000280: 1142 3534 9fd1 cf3a 2c6a 1eb3 3f4a b8b4
00000290: 7f0a f4b4 9443 d238 ac20 44b4 5486 3bbd
000002a0: 1823 ac34 b1a9 b4b3 3c87 ddb4 f74f 8abc
000002b0: be58 57b3 cbec 01b5 66c5 6bb4 5fe1 e833
000002c0: a0da ddb4 99a4 8a34 815d 2eb4 499a 6cbe
000002d0: bc2a 5ebd 16d5 af3c 3129 a434 84be 07b4
000002e0: 74c4 d83c 2969 26bd 42cc 7934 75bd 1934
000002f0: fa11 5334 f6f4 80b4 53f4 9ab4 7dd5 b5bd
00000300: e325 3134 004d 2235 fb0d 6eb4 2052 c831
00000310: 9a0a c4b3 fb0a a6b4 347a 8eb3 e01f 8234
00000320: 712a df34 93e0 2133 dc23 f734 4269 d4b2
00000330: 36cb 1134 5bf0 0234 0f88 0c34 2108 85b3
00000340: 54b5 15b5 ea33 77b4 d953 7233 7fb6 a4b3
00000350: 1f00 2bb4 5be5 4ab4 afcb ba34 775e 2434
00000360: 6b32 a8b3 bd2e 29b4 9b6e d534 7667 e534
00000370: 28fe 0534 4ab3 2034 67e4 1334 df1f b433
00000380: 4aab 2db3 cef5 e8b4 f0ea 0c34 94d3 fa33
00000390: e284 6f34 622f bcb4 8824 e134 0697 80b3
000003a0: c99b 22b3 7132 49b4 5cc9 a534 1fe3 c934
000003b0: 0ef6 16b3 8a2b c5b3 bcb6 fb33 5215 dab3
000003c0: 5e69 3ab4 a70d 8c34 df24 79b4 495f c0b4
000003d0: 32c7 1835 4b38 23b4 cc00 9334 cd5b 72b4
000003e0: 82e1 0e34 ba98 77b4 d0a9 f533 4d4f 8d34
000003f0: 0283 3a34 5e7a a2b4 7f27 d734 ce60 89b4

tr1g.layer_1.bias f4 [64]
5.856089e-08 0.23975374 0.13512745 2.6427094e-07 1.5953425e-07 -7.450841e-09 0.18089446 2.7244866e-08
2.2035309e-07 0.16766644 1.4248016e-07 4.9356e-07 0.03654496 3.246583e-07 8.440381e-08 -8.143318e-07
0.02584665 0.17753091 4.2725375e-07 0.18150084 0.15619723 1.0058486e-07 -6.3163253e-07 1.9803223e-07
2.8557236e-07 -3.0934868e-07 0.096089825 -0.19422036 -1.01382106e-07 0.08514522 -4.18455e-07 0.19165821
0.15305679 -7.6157113e-07 -2.633735e-07 -0.035521403 -7.960094e-08 3.538644e-08 4.7877666e-07 0.058156583
-1.1814298e-07 -5.923859e-08 3.4816114e-07 -8.465059e-08 -1.3134638e-07 0.12456639 -3.0441534e-08 0.15978445
2.0682234e-07 -4.5037396e-07 -1.107605e-08 4.7352266e-08 2.0762469e-08 -1.41195e-07 1.227563e-07 0.15925592
-8.122497e-08 0.19237521 0.18674521 2.465538e-07 0.20552868 -2.2277759e-07 0.17661312 0.01138913
00000000: 6184 7b33 0182 753e da5e 0a3e 1fe1 8d34
00000010: 714c 2b34 2501 00b2 663c 393e 1808 ea32
00000020: 329a 6c34 c0b0 2b3e a6fc 1834 2f7d 0435
00000030: 2bb0 153d b24c ae34 7c41 b533 7598 5ab5
00000040: 5bbc d33c aaca 353e 4f61 e534 5bdb 393e
00000050: 2bf2 1f3e 1d01 d833 758d 29b5 afa2 5434
00000060: c450 9934 8f14 a6b4 beca c43d b4e1 46be
00000070: 67b7 d9b3 9e60 ae3d 04a8 e0b4 0d42 443e
00000080: ebba 1c3e c56e 4cb5 c765 8db4 e47e 11bd
00000090: 14f1 aab3 cdfb 1733 4885 0035 9935 6e3d
000000a0: cab5 fdb3 856d 7eb3 e7ea ba34 27c9 b5b3
000000b0: 3808 0db4 aa1c ff3d d2be 02b3 899e 233e
000000c0: e412 5e34 edca f1b4 fc48 3eb2 5e60 4b33
000000d0: 2759 b232 639b 17b4 ffce 0334 fc13 233e
000000e0: e66d aeb3 02fe 443e 233a 3f3e 195e 8434
000000f0: 1c76 523e a334 6fb4 12da 343e 7999 3a3c
