experiments/chp_hwt/transition/1554653688_0.0048/1554678311_5_transition_final.pth (torch_old, 516722 bytes, 64 tensors)

tr0.weight f4 [64, 11]
00000000: 8420 813d 3509 7f3d 8e54 95ba 60e7 53ba
00000010: cad6 de38 3252 37b8 4431 55bc c944 a1b9
00000020: 3949 a63d df6d a53d c692 91bb 26ca 36be
00000030: d0c3 33be 2472 e33b 7f02 5dbc 5d4c 713c
00000040: 9492 963b 61d3 743c 2a5b b7bb 8874 dd3c
00000050: 619a f43c d2d0 f13a d86d 6f3d 58f7 9b3d
00000060: e4a7 60bd 13d4 d5bd fcbf cb3d c720 bdbd
00000070: 09ff 8e3d 39ac 05be cde6 e7bd b286 d9bd
00000080: 64c4 3fbd 11e1 c3bd d763 d1bd c626 f13b
00000090: 9fe7 84bc d83d f934 7857 05b7 8837 f33b
000000a0: 57a9 8f3b 939b a33d f609 943d 0587 7938
000000b0: 9c07 18be 2d3c 13be 3e4e af3e 9319 c33d
000000c0: 63b7 31bd 7bff 4e3c 9401 84be babe 353d
000000d0: 658c 28bc dd9d 923d e92c 113e 488c 77bd
000000e0: 04c8 7bbd aa85 4c39 08ac 04ba 2ac4 4a38
000000f0: 32a6 d33d 4c13 f9b8 44b7 a1ba 53b3 0b3d
00000100: 74df 093d 71ef 1aba 6f6c c2bd ad8c c4bd
00000110: c213 20bb 8d71 7b3a 15d2 62bc 999f aabd
00000120: 075b 12bc 5b23 e93a d95f 04be 1005 04be
00000130: 7eb8 a9bb ab5b c5bd 9ac8 5e3d fdc6 013d
00000140: ae76 1fbe 91fa 7dbe 6b3e 43be dc31 87be
00000150: 12fc 403e 5185 253d 8b59 123e c25e 84be
00000160: 6145 f43d 75d3 e23d 6fda 15bc 00c3 bf3b
00000170: a36b 9dbd 07b1 55be a706 253a 5792 2c3d
00000180: 8378 08bd 7bae 47bd 842d 02bc 8631 2e3e
00000190: 0bf8 14bd 7ecc 6fbd 9955 ac3d cbe3 3dbe
000001a0: 9755 5cbd 51f1 d2bd 47e8 393e 29cd 7fbe
000001b0: da0a a4be dfd9 a33e 7982 e53d 2850 b53d
000001c0: d035 66be 54c1 85bd 6b9e 053d a465 ca3e
000001d0: 05b8 6e3e ff24 82bd d560 b5bc 1c6c 8b3c
000001e0: 2db2 8e3e 9c4e e73d 05f3 25be 2b5e cabd
000001f0: 4cca 533e e329 763d 614a e2bc 95d2 0c3e
00000200: 60d3 45be 0415 53be ef3d bdba c9fd 84be
00000210: fcdb fd3d 8652 bfbb 8899 7dbd 6976 ba3b
00000220: cde0 f33d 65fa 8d3e bcc9 b0bc 6c5b b6bd
00000230: 6854 07be df20 6dbd 80f9 22ba b734 673d
00000240: e0dd 383d a91c 123e 82b2 4f3e d719 163e
00000250: 8b11 113e f948 853e d73b 0dbe b773 35be
00000260: f072 48be ffea 6d3d 3cd1 913d faa0 13be
00000270: 251a 6f3e 80b0 8e3c 3ae3 44be 6f8e 163e
00000280: 4e9f 9fbe eb3e 88bd 9136 12be 03ae eb3d
00000290: f8b1 c43c d541 f73d 43bf 28be 466d 03be
000002a0: 8395 ff3d 2d4e 22be 89e3 483e d927 44be
000002b0: a335 1d3e 7dfe 32be 84d9 663e 3240 b1be
000002c0: daf4 4e3b dc30 80bc accf 9ebd 4903 3dbb
000002d0: 8335 56be f84f 61be edb5 203c 8631 62bd
000002e0: 6c48 443e 95ad 4a3e 4462 8aba bfb3 b3ba
000002f0: ea14 d0bd 4c26 713d 7c14 c7bd b97b 93be
00000300: 5218 ff3d 4795 013e 1ccd 4ebe bd63 c23d
00000310: 3cf7 bebc d537 cfbb 0ffa acbd 9456 e8bd
00000320: 923c b2bc 9cec 31bd af52 b0bd 21c4 45be
00000330: f97a c4bd 1e7d df3d faeb bfbd 95f3 69bd
00000340: c9c9 363e ae8f fb3d 97f1 223e 957f 80be
00000350: 4355 23be 5576 f33d 34a6 193e 7268 4c3e
00000360: 0d4b 8f3d d61a 8dbd cd3a 6cbd c5d8 8dbd
00000370: 15e9 a93c 5852 c53c 5b78 a7ba 8fbe ca3a
00000380: f329 30b5 c4ea 1035 4884 b4b7 c0e6 dbb9
00000390: bcda 2d3e cbe3 303e f2be 6f3a d36f 12be
000003a0: 52f3 093e 9f91 65be ae1d 4cbe f2ac 2f3e
000003b0: e412 173e 4608 4c3d e459 3fbe 0e75 0e3e
000003c0: 4d60 a2bd 348e 183e ecd7 0c3e 9d8e 093e
000003d0: 1aa1 fbbc 84b0 b0bc 7dc0 59be f603 433d
000003e0: b62f 8c3d a647 b93d afb0 68be 946a 72be
000003f0: 2927 0fbd 93f2 873e abb3 0abe 3062 f8bd
0.0630503 0.06226464 -0.0011392997 -0.0008083489 0.000106257925 -4.370715e-05 -0.013012234 -0.00030759562
0.08119435 0.08077597 -0.0044425456 -0.17850551 -0.17555165 0.006941097 -0.013489365 0.014727679
0.00459511 0.014942975 -0.0055955844 0.027033105 0.02985877 0.0018449074 0.058454365 0.076155365
-0.054847613 -0.104408406 0.099487275 -0.092347674 0.06982238 -0.13053979 -0.11323319 -0.10621394
-0.046818152 -0.095644124 -0.10224121 0.0073593585 -0.016223727 4.6424861e-07 -7.947783e-06 0.0074223913
0.0043842006 0.07988658 0.072284624 5.9491973e-05 -0.14846653 -0.14378424 0.34239382 0.09526362
-0.04338778 0.0126341535 -0.25782454 0.044371344 -0.010287379 0.07159016 0.14177288 -0.060436517
-0.061470047 0.0001950475 -0.0005061035 4.8343245e-05 0.103344336 -0.000118768396 -0.0012337943 0.034106564
0.033660367 -0.00059103133 -0.09493338 -0.09597144 -0.002442584 0.00095918105 -0.013844033 -0.08331222
-0.008932835 0.0017787026 -0.12927188 -0.12892556 -0.005179464 -0.09636625 0.054390527 0.03168391
-0.15572616 -0.24802615 -0.1906678 -0.26405227 0.18846157 0.040410344 0.1429197 -0.25853544
0.119272955 0.110754885 -0.009146317 0.0058521032 -0.07686546 -0.20868312 0.0006295242 0.042131748
-0.033318054 -0.048750382 -0.007945422 0.17011079 -0.036369365 -0.05854463 0.08414764 -0.18543927
-0.053792562 -0.10299934 0.18155013 -0.24980606 -0.3203953 0.3200216 0.11206526 0.08853179
-0.22481465 -0.06531015 0.032621782 0.3953067 0.23312385 -0.06354713 -0.0221409 0.017019324
0.27870312 0.112942904 -0.16205986 -0.09881242 0.20682639 0.06009854 -0.027623357 0.13752206
-0.19318914 -0.20613486 -0.0014438013 -0.25974873 0.12395474 -0.005838695 -0.061913997 0.005690385
0.11908112 0.27730098 -0.02158057 -0.08904156 -0.13215792 -0.057892676 -0.0006216988 0.056446757
0.04513347 0.14268745 0.20282939 0.14658295 0.14166848 0.26032236 -0.13792358 -0.17719923
-0.19575095 0.058085438 0.071199864 -0.14416876 0.23349817 0.017418146 -0.19227305 0.14702772
-0.31176227 -0.06652626 -0.14278628 0.115077995 0.024010643 0.12073103 -0.1647921 -0.12834653
0.12479689 -0.15850134 0.19618048 -0.19155826 0.15352492 -0.17479892 0.22543913 -0.3461929
0.0031579048 -0.015648298 -0.07754454 -0.002884107 -0.2091885 -0.22003162 0.0098089995 -0.05522301
0.19168252 0.19792779 -0.001055785 -0.0013710185 -0.10160239 0.058874413 -0.09720704 -0.2880533
0.124558106 0.12654601 -0.2019543 0.0949168 -0.02331125 -0.0063237944 -0.084461324 -0.113446385
-0.021757398 -0.04343854 -0.08609521 -0.19313098 -0.09593768 0.10912536 -0.09371181 -0.057117064
0.17850412 0.12283264 0.15912472 -0.25097337 -0.15950494 0.118878044 0.15004808 0.19961718
0.06996737 -0.06889884 -0.057673264 -0.06926111 0.020741025 0.024087116 -0.0012776958 0.0015468168
-6.5626153e-07 5.398581e-07 -2.151927e-05 -0.00041942857 0.16977972 0.17274396 0.00091455795 -0.1430047
0.13471726 -0.22418831 -0.19933197 0.17155817 0.147533 0.049812578 -0.18686634 0.1391184
-0.07928524 0.14897996 0.13754243 0.13433309 -0.030716468 -0.021568544 -0.21264835 0.0476112
0.06845038 0.09046869 -0.2272365 -0.23673469 -0.034949455 0.26552257 -0.135451 -0.12128103

tr0.bias f4 [64]
00000000: 928e 0fbe e374 1b3e 4565 753e 8062 da3c
00000010: e10b fcbd d415 d73c cd18 623e 8d36 2ebd
00000020: e753 c6bd f4f3 debb 320e 7abd e6dd 853e
00000030: 0885 2b3d d868 b5bd 651a e33d df49 1c3d
00000040: ea2c f2bd 31b9 053e 6af5 8a3d 457b 053d
00000050: 6112 4abe 5f7e 563e 33f0 893d ac5e 3bbe
00000060: 8d5a 3c3e 7d32 143e 0b7e 173e 075d c73d
00000070: c726 453d d2db 763c ff17 153e 0a28 b33d
00000080: 104c 28bd 668c ddbd d29a 21be 0c32 62be
00000090: 7c58 9c3d d4bb 03be c621 703d 3eb3 53be
000000a0: 27f6 e5bd 2f48 163e 4711 373e 6a89 4a3d
000000b0: c119 273e b795 773c f0ec 273e 99a5 893d
000000c0: f5be 17be 393a 723d bd55 533d 4e37 4e3e
000000d0: bddf 47be 7249 ff3d 5a62 933e 3bdb 013e
000000e0: cc8a 1d3e 020d 403e b7cc 903d a9bd 823d
000000f0: afbb 44be 7554 d13d 6770 d03d a4ed 63bd
-0.1401923 0.15181307 0.23964413 0.026658297 -0.12306953 0.026255526 0.22079773 -0.042532492
-0.09683972 -0.006803984 -0.061048694 0.26145858 0.041874915 -0.08857888 0.11089019 0.038156386
-0.11824973 0.13058926 0.0678509 0.032588262 -0.19733573 0.20946644 0.067352675 -0.18297833
0.18393917 0.14472385 0.14794175 0.097345404 0.048132684 0.015067058 0.14559935 0.08747871
-0.041088164 -0.108177945 -0.15781716 -0.22089404 0.076340646 -0.1286462 0.05862596 -0.20673844
-0.112285905 0.14675973 0.17877685 0.049447455 0.16318418 0.015111378 0.16398978 0.06721038
-0.14818938 0.059137557 0.05159544 0.20138285 -0.19518943 0.124651805 0.28785974 0.12681286
0.15384978 0.18754962 0.07070296 0.06383831 -0.1921222 0.10221187 0.10177689 -0.055646554

tr1.layer_0.weight f4 [64, 64]
00000000: 264f 9f36 da00 1bb8 b775 d8bd c823 a9ba
00000010: d02c 663e b5d9 aa35 60bc 9439 f41f f73c
00000020: 6523 0cb9 83c6 87bd f2b5 a43b 1ae5 92bc
00000030: bc23 07bd 1213 1f3e f846 83be 8380 8fbe
00000040: 635d 34bd cb61 0bbe 3e7f 9abb f9c0 dbbc
00000050: 0480 ce38 eeb9 a63d dd1a b93d 2aec 1ebd
00000060: 3d7a 55be c25b bb3d 4d19 b4bc 1ec0 6e3d
00000070: 24a2 8038 cb24 0a3b 9b18 293e c27c 213e
00000080: fea1 0a3e b61c 1c3b 7520 2738 2806 903d
00000090: 843a 9b32 ada0 b6bd 46be 12b9 8ad1 a83d
000000a0: 0c7e b03b e357 c932 9b4d 67be e666 fd3c
000000b0: 51d5 b9b6 b904 603c 0399 7e39 c724 333e
000000c0: 1553 0a3a 3439 82bb 7f37 82bd bbca 71be
000000d0: 1994 d9b6 edfd bd37 c6d8 35bb 64ab 6b3d
000000e0: 3feb 803d a22c 55bd ee37 81be ec51 643c
000000f0: ec47 f63d 44cc c2b8 ccb9 1ebd 7294 933e
00000100: bbe6 ca31 2f1d 03b3 8289 0ab3 e3e4 8cb1
00000110: 357c 3f31 f7c9 2eb1 4327 8cb1 6185 d032
00000120: 306c 90b2 f91e a631 315e 6f32 f699 0c32
00000130: dfbf 4033 e5e4 81b1 a532 1433 24e3 d231
00000140: c4bc 0d32 7091 dc31 bf32 80b2 57b6 8431
00000150: 87e2 0732 1cfe 9b2e 0133 d831 f7e4 4eb1
00000160: 60e2 f032 ad3f 3432 037c e2b0 8151 5c31
00000170: 60d5 5daf a459 4031 105c cd32 5751 98af
00000180: 9503 a5b1 8cb0 97b1 5b03 f731 2ef0 55b2
00000190: 7308 00b2 bb52 efb2 fcaa f3b1 0c35 c131
000001a0: 4618 9831 51bc 0633 f63b 7f32 3d01 abb2
000001b0: 3632 7d32 b386 1233 07a4 8131 37ed 0533
000001c0: 19b4 4032 41d7 a9b2 bc27 02b3 bfba 8b32
000001d0: 129c 03b3 bc0a 1833 c152 98b2 3788 d031
000001e0: e90f a8b1 a6d4 88b2 5165 3932 8caa 41b2
000001f0: 4752 c4b2 02e0 7032 3c0e 14b2 1ac8 d5b2
00000200: 5950 11b4 6b17 5934 70d3 afbc 10d5 8b38
00000210: 222e 503e 13f5 86b2 2386 c635 53c2 993d
00000220: 8952 9f38 f6f9 aebc 6787 75bc 9534 3ebc
00000230: a6dd 89ba b879 853d cab8 823d b826 b53c
00000240: 952f d0b9 4825 013c b893 973c c2ae 403a
00000250: 3d49 f535 14fe 56be 5304 d0bc 72fd 7e3d
00000260: 9a66 3ebc be61 99bd 2725 9e3d 5c27 493e
00000270: 7e85 ff35 a680 fcb9 5450 7fba 0d2a 1abe
00000280: eac2 95bb dc68 2fb8 a4a2 eb35 7307 9d3b
00000290: dfb9 ceb1 7c66 423c f409 8338 4943 113e
000002a0: 0b01 1c3e 9abb b5b2 23af 32bc 2ced 88bd
000002b0: 234c 7b32 d454 1eba 675c a638 2f11 e03d
000002c0: d4ec f435 622d e438 300e 0939 6563 fdbc
000002d0: 83be f531 fefa d733 a0e2 e3bb f2a5 b2bd
000002e0: f4e6 493c 4caa 1a3b 24f2 89bd a74c 813c
000002f0: 2687 0dbe ceaa 69b6 a424 62bc ca49 2b3e
00000300: deba a535 ae4c bd34 5ff0 7f3b fd14 1f36
00000310: 7fe5 63bc b327 9534 bdad d334 cd3b c13b
00000320: 53f4 1eb8 3d4b b5bc 9e7c 2dbc ab93 c13c
00000330: 732f 863a 2ac2 08ba 2ddb ec3a f264 593c
00000340: 8bd6 7238 3c5f 85b9 7499 52bc 741e 193c
00000350: 0401 ad36 b355 ecba 1ce7 b2ba 2c14 cabb
00000360: 87d6 203b edc8 0ebb 1b98 b1b9 6742 18bc
00000370: e758 1a34 40fc f037 71a3 aa3c aaab a03c
00000380: 1955 02bc d51f 83b8 9057 d2b4 ee42 a6bb
00000390: e9b2 8432 5269 7bba 2f02 e8b7 f88e a53b
000003a0: ceef 8f3b 77cb a7b0 3ba2 ee3a e144 5dba
000003b0: ac46 a1b6 c76e f537 cf53 bdb9 4fb6 32bb
000003c0: 3be3 61b9 7c7d 8bba a276 62b8 8fb5 3ebc
000003d0: 487b a9b4 6a87 0f34 d80c 54ba 4392 d239
000003e0: 1cbf 2bbb 92b7 433c fcb8 8bbc d429 29ba
000003f0: 13e0 90bc 36f8 8834 fba6 a7bc 863e 06bb
4.7477834e-06 -3.6955673e-05 -0.10569327 -0.001290434 0.22478032 1.2729348e-06 0.0002836911 0.030166604
-0.00013364626 -0.0662966 0.0050265724 -0.01793151 -0.032993063 0.15534618 -0.25640082 -0.28027734
-0.044034373 -0.13611524 -0.0047148755 -0.026825415 9.84669e-05 0.08140932 0.09038327 -0.038799442
-0.20847411 0.09148361 -0.02198472 0.058288686 6.133717e-05 0.002107906 0.16513292 0.15770248
0.13538358 0.0023820824 3.984613e-05 0.07032424 1.8070985e-08 -0.08917365 -0.00013994527 0.082430914
0.0053861197 2.3439446e-08 -0.22588198 0.030932855 -5.538263e-06 0.013673001 0.00024280329 0.17494498
0.00052766624 -0.0039741043 -0.06358241 -0.23612492 -6.484345e-06 2.26488e-05 -0.0027747615 0.057536498
0.0629487 -0.05204452 -0.25237983 0.013935547 0.12025437 -9.288688e-05 -0.03875141 0.28824192
5.9052048e-09 -3.0527357e-08 -3.225569e-08 -4.1005577e-09 2.7864762e-09 -2.5435136e-09 -4.079e-09 2.427504e-08
-1.6813004e-08 4.834757e-09 1.3933048e-08 8.184079e-09 4.487799e-08 -3.7804164e-09 3.4504996e-08 6.1376273e-09
8.2502005e-09 6.419377e-09 -1.4924238e-08 3.8624353e-09 7.909541e-09 7.093723e-11 6.292226e-09 -3.0107097e-09
2.804262e-08 1.0491857e-08 -1.647891e-09 3.2060543e-09 -2.0175639e-10 2.7990632e-09 2.3907006e-08 -2.7706434e-10
-4.8025393e-09 -4.4147495e-09 7.1890276e-09 -1.2452842e-08 -7.452502e-09 -2.7860883e-08 -7.0916695e-09 5.62307e-09
4.426542e-09 3.137058e-08 1.4856587e-08 -1.9907583e-08 1.4737955e-08 3.4115782e-08 3.773042e-09 3.118222e-08
1.121682e-08 -1.9772076e-08 -3.0304122e-08 1.6266652e-08 -3.064276e-08 3.540002e-08 -1.7732761e-08 6.0690826e-09
-4.8912523e-09 -1.5929185e-08 1.0791454e-08 -1.1272856e-08 -2.2854818e-08 1.4020772e-08 -8.61797e-09 -2.488746e-08
-1.3533408e-07 2.0218219e-07 -0.021463126 6.6677225e-05 0.20330098 -1.57111e-08 1.4791189e-06 0.075077675
7.597084e-05 -0.021359425 -0.014985896 -0.011609216 -0.0010518327 0.06517357 0.06382902 0.02211319
-0.00039708303 0.007882424 0.018503055 0.00073502597 1.8275238e-06 -0.2099536 -0.025392687 0.062253423
-0.011621142 -0.07489346 0.0772193 0.1964392 1.9037832e-06 -0.00048161036 -0.0009739448 -0.15055104
-0.0045703547 -4.182091e-05 1.7556199e-06 0.004792148 -6.01652e-09 0.0118652545 6.248421e-05 0.14185824
0.15234773 -2.1156485e-08 -0.010906014 -0.06685862 1.4627434e-08 -0.0006039862 7.932708e-05 0.109407775
1.8248343e-06 0.000108803404 0.00013070623 -0.030931184 7.152097e-09 1.0057373e-07 -0.006954506 -0.08723058
0.01232313 0.002360004 -0.06735638 0.015783621 -0.13821086 -3.4819127e-06 -0.013802681 0.16727367
1.2347843e-06 3.5259785e-07 0.0039053184 2.3705063e-06 -0.013909697 2.7782298e-07 3.9428224e-07 0.0058970214
-3.789768e-05 -0.022130603 -0.010588793 0.023629984 0.001023753 -0.0005216921 0.001807069 0.013268696
5.7897105e-05 -0.00025438692 -0.012853969 0.0093456395 5.15592e-06 -0.0018030911 -0.0013649198 -0.0061669555
0.002454193 -0.0021787242 -0.00033873398 -0.009293175 1.437471e-07 2.8727693e-05 0.020829888 0.019613106
-0.007954859 -6.252496e-05 -3.9179258e-07 -0.0050738966 1.5448181e-08 -0.0009590584 -2.7657572e-05 0.0050524436
0.0043926006 -1.2208677e-09 0.0018206307 -0.0008440745 -4.806401e-06 2.925786e-05 -0.0003611133 -0.002726931
-0.00021542322 -0.0010642256 -5.3993084e-05 -0.011639967 -3.1568402e-07 1.3367176e-07 -0.0008089072 0.00040163295
-0.002620644 0.011945622 -0.01705598 -0.0006453071 -0.017684972 2.551257e-07 -0.020465365 -0.0020484044

tr1.layer_0.bias f4 [64]
00000000: 76f3 823d 8093 98b2 a761 1abe 1fa5 5f3b
00000010: 4d2d 8d3d 393b 6db1 be21 b4b2 0932 5631
00000020: f70e bab2 db89 c43c 5fa6 0bbd bc3b 59bc
00000030: 8e09 dc32 2525 07b2 c65c fb3d 9fe4 e132
00000040: 3974 98ba fe4f ba3d 702c a0b2 ec65 9dbd
00000050: 3cfa 2dbe 69c5 413d 5ac5 4dbe f3a5 e03d
00000060: cdf6 42bd ac32 d531 0b73 bc32 f219 8032
00000070: eb3e 99b1 a357 e43b bb25 0cb2 d824 94b0
00000080: 3148 9db2 1742 acb2 0eea 18bd 0860 9a32
00000090: c41a 723c ee09 5833 d6a0 b9b0 1ddd 19b3
000000a0: c942 23b2 5464 c63d ae92 25b3 1f80 2fb2
000000b0: d8ce 4abe 472b 1bbe 0aee 113b cb4e 25be
000000c0: 6840 aab1 0e54 2c3d bf9a 1dbd 39f6 8832
000000d0: 4dfc ad3d b906 7732 6c74 e332 7205 85bd
000000e0: f42b 41b1 e0aa 76ba 6073 77b0 b0ca 8e3b
000000f0: 4510 b2b2 526a 20bd dee7 d7b2 5f3f e0bc
0.06394093 -1.7762204e-08 -0.15076314 0.003412552 0.06893406 -3.4521703e-09 -2.0970102e-08 3.116954e-09
-2.1660055e-08 0.023991516 -0.03409421 -0.013258871 2.5615716e-08 -7.86648e-09 0.122735545 2.6297412e-08
-0.0011631317 0.090972885 -1.864666e-08 -0.07685456 -0.16989988 0.047307406 -0.20094815 0.10969152
-0.04759865 6.2048766e-09 2.1938396e-08 1.491296e-08 -4.460039e-09 0.006968455 -8.157651e-09 -1.0778889e-09
-1.8310034e-08 -2.005349e-08 -0.037332587 1.797163e-08 0.014776889 5.030045e-08 -1.3506234e-09 -3.582419e-08
-9.503034e-09 0.09687105 -3.855046e-08 -1.0215472e-08 -0.19805467 -0.15153228 0.0022267126 -0.16143338
-4.9549733e-09 0.04207235 -0.038477656 1.5944453e-08 0.08495388 1.4378821e-08 2.647922e-08 -0.06495179
-2.811018e-09 -0.00094096176 -9.0022034e-10 0.0043576583 -2.0729326e-08 -0.039163895 -2.5134735e-08 -0.027373968

tr1.layer_1.weight f4 [64, 64]
00000000: 346b ba32 1b9e 5532 a838 13b3 29c7 2933
00000010: 3776 15b3 0827 f7b1 b849 0d32 38fa 1733
00000020: c8fb 17b3 f6d8 8b31 9067 5bb1 8219 4632
00000030: ed81 b0b2 8abe 47b1 2b2e 0bb0 96f8 17b3
00000040: e072 00b2 8ffb 4db3 fba1 a0b2 1108 cb31
00000050: fa81 8432 55be 6231 c520 7eb1 a9a9 02b2
00000060: f745 e2b2 4835 b1b2 eee5 8a31 7138 58b3
00000070: a773 c8b0 30e6 c031 051e 5833 71d4 d2b1
00000080: 4917 dbb2 0ed6 8bb1 59d6 04b2 bf13 5db1
00000090: ea1b 46b2 1f48 cc32 ddfc 4db1 3601 4630
000000a0: 93f9 7a31 e6f4 b5b0 774d 6a32 5f8f cfb2
000000b0: 237b 1132 de7f b5b2 0d7b 2cb2 fae6 0632
000000c0: fa22 9932 cd58 1233 f4d1 b1b1 cb1b cb32
000000d0: 5d81 dd2f 7d1d 5130 9828 d032 bb0a 0032
000000e0: 5057 d0b2 5b63 e232 d075 29b3 d2be 4930
000000f0: 3d03 db32 7362 1033 2eea 8b31 3bdb 7eb2
00000100: d070 b531 996a 15b3 6b33 e631 1b9d 1233
00000110: 8fbc 26b3 98b9 a6b2 d844 0db2 e017 48b3
00000120: 91aa 0333 e919 cc31 dbb0 7232 f940 cfb2
00000130: a212 11b3 0e5e 8fb2 178a c632 a887 2c32
00000140: 4c5f af31 ed86 3032 1804 b132 2201 1bb3
00000150: b037 1c32 b250 b6b2 ba55 4e30 5d24 ab32
00000160: 2774 c231 37a5 69b2 303e 0eb2 10d6 9bb2
00000170: 432e 57b1 64d7 1032 6f3b cc32 6539 05b3
00000180: 113d 8031 6c41 ddb2 2bf8 b032 d7b5 69b2
00000190: 5cea bab2 0c9f dfb2 067b 0333 67a6 0333
000001a0: 9f1d ca32 c21e 4932 c32b 57b1 6be6 d132
000001b0: 9c12 91b2 2e90 8fb2 d6e9 77b2 91b4 1832
000001c0: 8b26 cbb2 bc96 2331 88fe d131 fc75 05b3
000001d0: af5f 24b3 8ec5 d6b2 8636 dcb2 9241 36b1
000001e0: 73a7 7db1 ab07 9231 6dd0 9031 bf18 8d31
000001f0: 381e 2cb3 b3a6 85b2 4be5 0d31 38ed a431
00000200: 2b23 013a 7e78 81b2 487b 07ba 6328 ebba
00000210: aa7f 863d 1eb0 d5b2 4036 b5b0 156a b7b1
00000220: 6d5e 7831 3eba 353e 42ee 483e eb4d 2a3c
00000230: 5593 0631 a087 29b3 5385 0dbe 17d8 bfb2
00000240: 562a 7dbc c6d6 bb3a 0c78 ca31 e727 9d3e
00000250: e131 4a3e 6462 213d a3da f5bd 916a 07be
00000260: d176 35ba a109 d532 23a4 b231 7340 8d32
00000270: f936 b2b2 22c2 723a fc4a c432 3cd4 0f33
00000280: 2aac 9131 db76 edb1 df5c 9333 2f1c d032
00000290: 06b8 acba a185 b8b1 e4c4 0332 7244 4632
000002a0: 758e c532 915f 3c39 0cc2 9832 2edc 27b1
000002b0: 9c2e 563c d4e9 3231 a0d7 8a3a 4d72 1a3e
000002c0: aedb d7b2 44ce 373c a033 793d 500d b532
000002d0: ad65 94bd a04e ffaf 5726 99b2 cb3a a53c
000002e0: cf01 c530 9f34 0fbf 7c33 ef31 224c 4a3d
000002f0: abc4 1233 2b5a 273d b365 f6b0 3302 2a3e
00000300: 1565 7fbc 2728 1332 5d19 6bba c6fd f33c
00000310: bb8a 98be e812 0b32 8228 8532 b375 19b3
00000320: 4edf 9e32 344d 11be 2094 c5be 2813 cfbd
00000330: 4069 db32 0c7d 5ab2 8edf 03bc 6f20 31b3
00000340: bae9 933b 160e 183e 0c30 c6b1 8569 403d
00000350: ac02 87ba 98bc f1bd 405e e23d ef37 e73d
00000360: ba34 4f3d 2d59 4032 7740 e132 cf2a d5af
00000370: 7bdf e532 3f4a 4f3e d728 d032 1a43 dab1
00000380: f555 8eb1 830f 7ab1 eeaa 7eb1 0f51 db32
00000390: 1025 cb3d 1ea3 9332 43b1 1cb3 8e9f a0b2
000003a0: 19eb 3632 1dd2 c43d 6027 efb2 0578 8231
000003b0: 85d6 5a3d 6e34 90bd c0ed 083d 859e 58be
000003c0: 7b59 28b2 54c8 463c b63d 93b3 9684 8cb0
000003d0: 0cc4 ab3d 5d7b a131 e86c 8a32 e98c 093c
000003e0: f639 2b33 72b6 0c3e 2981 85b2 e851 9b3d
000003f0: 9021 7fb1 c8f7 21be d43e 8331 f16b 76bf
2.1702e-08 1.2434181e-08 -3.4277633e-08 3.9529514e-08 -3.479928e-08 -7.1930835e-09 8.224042e-09 3.5385e-08
-3.538642e-08 4.070098e-09 -3.1927563e-09 1.1530917e-08 -2.054818e-08 -2.906662e-09 -5.0633514e-10 -3.5383515e-08
-7.4767e-09 -4.7959073e-08 -1.8700112e-08 5.9089946e-09 1.5425929e-08 3.299552e-09 -3.6980492e-09 -7.605572e-09
-2.6341679e-08 -2.0629741e-08 4.0424686e-09 -5.0342752e-08 -1.4584786e-09 5.6141047e-09 5.031872e-08 -6.135956e-09
-2.5505544e-08 -4.0697676e-09 -7.732148e-09 -3.2170957e-09 -1.1531464e-08 2.3781523e-08 -2.9975162e-09 7.20337e-10
3.6521655e-09 -1.3239088e-09 1.3638206e-08 -2.416317e-08 8.468109e-09 -2.112932e-08 -1.0039696e-08 7.8523446e-09
1.782745e-08 3.4074038e-08 -5.175247e-09 2.3644949e-08 4.0291584e-10 7.607566e-10 2.4232847e-08 7.45302e-09
-2.4254092e-08 2.6355044e-08 -3.945553e-08 7.3394546e-10 2.5496428e-08 3.361715e-08 4.0720556e-09 -1.4834593e-08
5.2806186e-09 -3.4788716e-08 6.6997266e-09 3.413616e-08 -3.882138e-08 -1.9409342e-08 -8.2229334e-09 -4.6587843e-08
3.0655944e-08 5.940127e-09 1.4126466e-08 -2.4127518e-08 -3.377739e-08 -1.6690162e-08 2.311303e-08 1.0042562e-08
5.1040043e-09 1.0275227e-08 2.0607374e-08 -3.608978e-08 9.093057e-09 -2.1224285e-08 7.506419e-10 1.9923556e-08
5.659348e-09 -1.35999505e-08 -8.279628e-09 -1.814172e-08 -3.1312914e-09 8.430877e-09 2.3775753e-08 -3.1018676e-08
3.7322327e-09 -2.5757537e-08 2.060195e-08 -1.3603731e-08 -2.1759824e-08 -2.6032943e-08 3.0612703e-08 3.0652156e-08
2.3529365e-08 1.1706733e-08 -3.1311493e-09 2.4435584e-08 -1.6888684e-08 -1.6712956e-08 -1.443046e-08 8.8886205e-09
-2.3649838e-08 2.3805304e-09 6.1116374e-09 -3.107378e-08 -3.827125e-08 -2.5002716e-08 -2.5636165e-08 -2.6521758e-09
-3.691153e-09 4.250031e-09 4.214647e-09 4.1064534e-09 -4.0074355e-08 -1.5559044e-08 2.0648538e-09 4.799997e-09
0.00049262 -1.507237e-08 -0.00051682116 -0.0017941113 0.06567319 -2.4876552e-08 -1.3184902e-09 -5.338061e-09
3.6142425e-09 0.17746827 0.19622138 0.010394554 1.9583315e-09 -3.947173e-08 -0.1382039 -2.2333593e-08
-0.015451988 0.0014330975 5.8926215e-09 0.30694506 0.1974559 0.039400473 -0.12004592 -0.13224246
-0.0006922307 2.4800842e-08 5.199142e-09 1.6443868e-08 -2.0746926e-08 0.00092604954 2.2851502e-08 3.3487808e-08
4.239628e-09 -6.91112e-09 6.862114e-08 2.4227203e-08 -0.0013177402 -5.3702967e-09 7.669971e-09 1.15406795e-08
2.29986e-08 0.00017964678 1.7783371e-08 -2.4426856e-09 0.013072636 2.6035325e-09 0.0010592826 0.15082665
-2.5129193e-08 0.011218611 0.06084025 2.1077227e-08 -0.072459556 -4.6440096e-10 -1.782898e-08 0.020169636
1.433415e-09 -0.5593967 6.9616686e-09 0.049389012 3.4172142e-08 0.040857475 -1.792776e-09 0.16602401
-0.015588065 8.565656e-09 -0.0008968318 0.029784095 -0.29793343 8.095164e-09 1.5501659e-08 -3.5730135e-08
1.8495168e-08 -0.14189607 -0.38589573 -0.10111076 2.5542818e-08 -1.27177024e-08 -0.008048905 -4.1240522e-08
0.0045139464 0.14849123 -5.7680207e-09 0.04697563 -0.0010300479 -0.118035495 0.11053133 0.11289965
0.050587393 1.1196147e-08 2.6222763e-08 -3.8774892e-10 2.6760736e-08 0.20243166 2.4232959e-08 -6.3522636e-09
-4.142516e-09 -3.6388605e-09 -3.7059027e-09 2.5531817e-08 0.099191785 1.718723e-08 -3.64828e-08 -1.8699009e-08
1.0647249e-08 0.096103884 -2.7841168e-08 3.7971426e-09 0.053427238 -0.0704125 0.03342986 -0.2115422
-9.7992325e-09 0.012132723 -6.856446e-08 -1.0224024e-09 0.08387002 4.6997415e-09 1.611484e-08 0.008395412
3.9866755e-08 0.13741472 -1.5541973e-08 0.07583982 -3.7126462e-09 -0.15817177 3.8197445e-09 -0.96258456

tr1.layer_1.bias f4 [64]
00000000: 3599 5333 1b0e 1333 dc4f 8abd a195 1f3e
00000010: 31bc 8732 79da 0ebd ac9a fe3c 2d5c f1b1
00000020: 0944 1f3e f4f5 82b2 3939 a232 5c75 9532
00000030: d52d b732 3e02 0632 c761 4e3d 1390 9e3c
00000040: 9695 e33d be00 813e 97f5 9532 cb23 12be
00000050: 925f ec2f 554b 843d 2903 80bd 35c9 e5bb
00000060: 2214 33b2 5795 a331 9e80 f23d e1fd ffb2
00000070: ac79 793d 36c6 4bb2 852f 673d 7131 913d
00000080: 9518 d83d d0c3 1333 ba02 793c 4bc9 bdb2
00000090: ff03 073e 8dd1 113d 228b 82bb 90db 973d
000000a0: 3ba1 29b2 a4ad 94bd 89d7 a5b2 e197 3632
000000b0: bd19 bc3d f0fb 88bd 15c1 a8bd a32f 30b2
000000c0: b497 85bd 2918 a1bc 1f2e ef2f d749 a33d
000000d0: 5533 7b3e 077c 0733 d8a2 0e3e 54ab 89bd
000000e0: 71eb 563e e580 b5b2 d162 253d 1917 423d
000000f0: ec7e 7832 828f 2e3e bd50 9db1 77e9 3c32
4.9266607e-08 3.4238933e-08 -0.06753513 0.15584423 1.5801648e-08 -0.03487632 0.031079613 -7.0245023e-09
0.15553297 -1.5245838e-08 1.8885304e-08 1.7399252e-08 2.1324846e-08 7.800336e-09 0.050386216 0.01935581
0.11112516 0.2519588 1.7457564e-08 -0.14271466 4.2996057e-10 0.06459681 -0.06250603 -0.007012511
-1.0423749e-08 4.7609023e-09 0.11840938 -2.9801358e-08 0.06090705 -1.1861223e-08 0.056441803 0.07089508
0.10551564 3.4404195e-08 0.015198404 -2.2094033e-08 0.13185118 0.035600234 -0.003983871 0.07414925
-9.873754e-09 -0.07259682 -1.9306542e-08 1.06283276e-08 0.09184597 -0.06688678 -0.082399525 -1.025538e-08
-0.06523076 -0.01966484 4.3506618e-10 0.07973068 0.245313 3.154494e-08 0.13929307 -0.06722131
0.20988251 -2.1129788e-08 0.04037744 0.04738531 1.4464359e-08 0.17046931 -4.5784803e-09 1.0996124e-08

tr1.layer_2.weight f4 [64, 64]
00000000: 39df bab0 c39b 0f33 b618 0db2 4582 1533
00000010: d5e4 4b31 f00a d431 0140 9232 9914 aab1
00000020: 47ee d330 4aa2 15b3 d324 a7b1 d74f 7831
00000030: 0dd3 8231 6052 b132 9bc1 46b0 b7be dcb2
00000040: 73ac ee32 ca30 adb2 1d5e c532 2b7e 1233
00000050: 9c55 d731 b8bb c032 26f1 9231 6e85 ac32
00000060: 4872 2933 df7e 55b2 5245 c532 c290 5932
00000070: e2ab 0f33 b385 6bb1 4460 7d31 6f86 8932
00000080: 8276 fdb1 8288 b3b2 5e25 2bb2 5712 8fb2
00000090: faa6 8bb1 b3c7 5232 a884 75b2 eece 2b32
000000a0: eed4 fa31 9ed7 cf31 23f3 a6b1 6613 d0b1
000000b0: 5c28 0eb2 e2b6 a6b2 1810 5ab2 882f 0eb2
000000c0: 5d56 62b1 ee5e f7b1 280c b1b2 0c75 7eb1
000000d0: 1616 d032 754e 8f31 17c5 7931 e55d 0db2
000000e0: 62e7 5733 901f 2cb3 25d9 afb2 d6b1 b332
000000f0: 8e74 6231 e680 aab1 46fd cfb1 de34 dc32
00000100: 732d 6ab1 6900 2cb2 a37c 90b2 9f18 7c31
00000110: 556c c5b2 e432 0db2 5f88 e5af 01e8 2bb3
00000120: 6421 9732 e0ef 3232 c0fc 8732 e745 4931
00000130: 6b19 dcb2 5adf 32b2 b064 6ab2 f66c 0db2
00000140: d1c8 af32 c37d b032 04de e731 c151 9132
00000150: 4930 cb31 10f7 1cb1 5254 d231 d854 07b2
00000160: d3a6 6bb1 3347 7d31 7e7c fcb1 761e 9d32
00000170: 1677 0db2 d88d ee32 4c45 16b3 b15b 1e31
00000180: a02c 58b2 de04 fb31 ede2 32b2 1d40 10b3
00000190: 5192 0a33 c10e 48b3 87f9 48b1 c3a6 d231
000001a0: 21f4 1e31 a17f 90b2 95a0 0432 ca77 05b3
000001b0: 952b e6b2 cc8b ac32 a6dc 4bb1 1fb0 61b2
000001c0: 2f4a 1932 c48b 87af 62c3 0333 8ec3 a7b1
000001d0: 56b9 52b2 3fd3 fc30 09d6 d031 f200 3632
000001e0: 5af8 5832 4329 cbb2 0254 2c33 a52d 5332
000001f0: 58cd 3d32 660d b3b2 0034 0e32 ba8a 0333
00000200: 4c71 19b2 4bbc 8ab2 0798 a632 1489 90b2
00000210: d8eb b032 c0c3 bc32 5226 16b2 6ec7 fa31
00000220: ae5f 31b1 90c5 c532 bd97 512f c548 c532
00000230: 05c5 12b3 d5e9 2bb2 551a e831 0c85 ae31
00000240: 8e45 2ab2 8f82 0db2 401d 2c33 2d99 cd31
00000250: 0f1b 30b2 5e83 fcb2 d78b 78b1 d150 2631
00000260: 3b2a cb32 4065 1533 3ce6 3831 7383 af32
00000270: 350d 87b1 81d6 7db1 fff3 35b2 ec5a d432
00000280: 1f0c c0b0 d831 0d32 3d64 bbb2 e0bd aab2
00000290: 1f36 d632 b1ce 8b31 b98a ffb1 4477 7cb0
000002a0: 3e2c 4330 7428 3f32 a216 0832 eb10 b032
000002b0: 1d9d ba32 bbb9 31b2 911e 1133 c7a8 5232
000002c0: 908f 85b1 011a 1f31 96d6 2ab2 530d 5e31
000002d0: 2a5c 2c33 7d40 5130 eeed ffaf 5423 98b1
000002e0: eb56 9630 4677 3bb2 88dc 3db2 b534 0bb1
000002f0: a0fe b032 4f30 92b2 77b1 9eb2 ba06 0d32
00000300: 18ca 71b0 7484 ee32 6ea8 0432 870d 85b2
00000310: 53ba c132 ea8c b132 5de8 91b2 e173 db32
00000320: 16ae 8031 e838 b132 a720 b2b2 99bd 03b3
00000330: 2144 1a33 6d02 a130 9d34 8ab1 342a b1b2
00000340: 40d8 a632 a41e 1db3 4f33 cc32 8117 e9b1
00000350: 8a15 5ab2 1b28 1ab2 94b4 0f33 85df 8831
00000360: 2278 d131 9c7d 19b2 e86e b0b2 f263 b431
00000370: af58 ffb1 8d4a 6332 de80 7332 a145 9431
00000380: 51be dcb2 3658 03b3 ba4f 8eb1 b1ab 80b1
00000390: 24c2 9fb1 a4dd 8db1 a71a 2cb3 37f5 2432
000003a0: 321c 4032 ad0a 1133 bd95 502f 9a3d 16b3
000003b0: 7824 d032 1632 81b1 172f 8f32 0310 7a31
000003c0: 9400 2e32 01c8 2c32 90ee c532 7af9 cf31
000003d0: 0333 2831 eb0a a0b2 a04a 16b3 efb3 0532
000003e0: 4a49 b7b2 eb18 b032 fe64 45b0 f64a d1b1
000003f0: 3ec1 2d30 c265 8bb2 006b 1533 5317 a731
-1.3596725e-09 3.3436447e-08 -8.212899e-09 3.4810245e-08 2.9670464e-09 6.1712555e-09 1.7025743e-08 -4.949993e-09
1.5419993e-09 -3.4839367e-08 -4.864526e-09 3.6134133e-09 3.8074917e-09 2.0642972e-08 -7.230711e-10 -2.5698098e-08
2.7785267e-08 -2.0162037e-08 2.2976616e-08 3.4108023e-08 6.267056e-09 2.2437106e-08 4.2765746e-09 2.0084112e-08
3.9452317e-08 -1.2427079e-08 2.2965342e-08 1.26639765e-08 3.345111e-08 -3.4273e-09 3.6871066e-09 1.6010032e-08
-7.376742e-09 -2.090042e-08 -9.962006e-09 -1.6655731e-08 -4.0644155e-09 1.2269015e-08 -1.42910395e-08 1.000056e-08
7.300165e-09 6.0490057e-09 -4.8588773e-09 -6.055802e-09 -8.2746645e-09 -1.9408109e-08 -1.2692929e-08 -8.276295e-09
-3.293642e-09 -7.1994384e-09 -2.061104e-08 -3.7028398e-09 2.422443e-08 4.1707673e-09 3.6346302e-09 -8.228629e-09
5.026903e-08 -4.0075577e-08 -2.0471427e-08 2.0919213e-08 3.2953582e-09 -4.9623052e-09 -6.0532868e-09 2.5635412e-08
-3.4077317e-09 -1.0011811e-08 -1.6820485e-08 3.6684822e-09 -2.2983082e-08 -8.218851e-09 -4.1751755e-10 -4.0025046e-08
1.7593898e-08 1.0415505e-08 1.5831006e-08 2.9289084e-09 -2.562293e-08 -1.0411748e-08 -1.3643486e-08 -8.232055e-09
2.0464002e-08 2.0546286e-08 6.748225e-09 1.6917399e-08 5.913567e-09 -2.2841427e-09 6.1213905e-09 -7.8773255e-09
-3.429183e-09 3.6856818e-09 -7.3483184e-09 1.8291058e-08 -8.234357e-09 2.777135e-08 -3.498762e-08 2.3044147e-09
-1.2583001e-08 7.305615e-09 -1.0412561e-08 -3.3585923e-08 3.2263703e-08 -4.6579547e-08 -2.924567e-09 6.130763e-09
2.3130797e-09 -1.6821845e-08 7.719923e-09 -3.1075423e-08 -2.6795343e-08 2.0087008e-08 -2.9665812e-09 -1.3136769e-08
8.9226395e-09 -2.4655666e-10 3.0678514e-08 -4.8825717e-09 -1.2265749e-08 1.8395453e-09 6.0779297e-09 1.0594009e-08
1.2629323e-08 -2.3651074e-08 4.0123275e-08 1.2292195e-08 1.1047938e-08 -2.0844436e-08 8.277311e-09 3.0626985e-08
-8.931533e-09 -1.615094e-08 1.9394077e-08 -1.6826142e-08 2.0596346e-08 2.1975097e-08 -8.739862e-09 7.29863e-09
-2.5811278e-09 2.302366e-08 1.9062348e-10 2.296691e-08 -3.4172462e-08 -1.0006677e-08 6.7550823e-09 5.079192e-09
-9.911117e-09 -8.236966e-09 4.0073473e-08 5.9836993e-09 -1.0250701e-08 -2.93964e-08 -3.616824e-09 2.4202118e-09
2.3651515e-08 3.4783852e-08 2.6906397e-09 2.0432458e-08 -3.9305186e-09 -3.6938277e-09 -1.0591065e-08 2.4721395e-08
-1.3973284e-09 8.218613e-09 -2.1815248e-08 -1.987695e-08 2.493749e-08 4.0689305e-09 -7.4372477e-09 -9.184655e-10
7.100346e-10 1.1126861e-08 7.921388e-09 2.049679e-08 2.1724697e-08 -1.0344986e-08 3.3788243e-08 1.2261984e-08
-3.8871306e-09 2.3152327e-09 -9.9440935e-09 3.2312826e-09 4.0130693e-08 7.61254e-10 -4.655329e-10 -4.4277986e-09
1.093864e-09 -1.0911952e-08 -1.1051391e-08 -2.0257123e-09 2.0604887e-08 -1.7018605e-08 -1.8474323e-08 8.20881e-09
-8.796248e-10 2.776708e-08 7.721708e-09 -1.548939e-08 2.2552888e-08 2.0669592e-08 -1.6985888e-08 2.5547651e-08
3.7450816e-09 2.063139e-08 -2.0736776e-08 -3.0673252e-08 3.5917882e-08 1.1714981e-09 -4.02231e-09 -2.0624704e-08
1.9423283e-08 -3.658228e-08 2.3772058e-08 -6.7838646e-09 -1.26941675e-08 -8.973099e-09 3.3459017e-08 3.983532e-09
6.096358e-09 -8.934332e-09 -2.0539531e-08 5.250052e-09 -7.431559e-09 1.323009e-08 1.4173763e-08 4.315283e-09
-2.5697917e-08 -3.058104e-08 -4.141808e-09 -3.7448094e-09 -4.6495803e-09 -4.1288377e-09 -4.007111e-08 9.601812e-09
1.1182282e-08 3.3770153e-08 1.8970688e-10 -3.4980623e-08 2.4230971e-08 -3.7600882e-09 1.6668805e-08 3.638889e-09
1.01282644e-08 1.0057193e-08 2.3042304e-08 6.052855e-09 2.4476214e-09 -1.8631416e-08 -3.4992468e-08 7.782531e-09
-2.1337332e-08 2.0500428e-08 -7.18117e-10 -6.0912226e-09 6.3211647e-10 -1.6228004e-08 3.4789082e-08 4.8629913e-09

tr1.layer_2.bias f4 [64]
00000000: cf3b d4b2 3c9d 7ab1 1ad4 d131 262f 12b3
00000010: 6cd5 a132 9c07 8032 e55d 3f33 898c 13b2
00000020: a8f2 c732 d182 c632 4235 d9b2 51d8 f4b2
00000030: f032 0232 edf5 c732 e79c 2933 5f22 f632
00000040: c02a 50bd 2b87 e232 788a f3bd 2756 97b1
00000050: a464 b830 cc49 37b1 384a 1333 aa6b 9fb1
00000060: b742 f332 b7a7 d9b1 f6a7 cdb2 8ef9 5632
00000070: 25b2 2b32 c424 8bb1 6234 33b1 9057 0633
00000080: 0919 12bc 4a1c 8c32 3d9d d031 b63b cdb2
00000090: 3ed4 9b32 5120 553e 3ee3 4332 465e e2b1
000000a0: 6796 2d3e ac20 83b2 d825 2333 2567 9db2
000000b0: 42ce d030 c0f8 c0b1 27b3 2ab2 a4a9 893e
000000c0: f0a7 d331 c226 1db2 b5ce fdb1 b856 d0b2
000000d0: 1593 52b2 e55c b1b1 9e1d e63d 4ade 00b2
000000e0: 11d7 763d 0c18 4d3e 6ca2 beb1 96c4 493e
000000f0: 9394 bd32 277b bab2 e0ea 9b32 3936 98b2
-2.4707246e-08 -3.6469165e-09 6.1068137e-09 -3.4036155e-08 1.883992e-08 1.4904622e-08 4.455605e-08 -8.58848e-09
2.3276996e-08 2.3109722e-08 -2.5286344e-08 -2.8503708e-08 7.578578e-09 2.3278483e-08 3.949108e-08 2.86538e-08
-0.05082202 2.637133e-08 -0.11891645 -4.404473e-09 1.3416366e-09 -2.6671954e-09 3.4293606e-08 -4.639749e-09
2.8319262e-08 -6.334598e-09 -2.394152e-08 1.2513182e-08 9.994015e-09 -4.049612e-09 -2.6077704e-09 3.1278944e-08
-0.008917102 1.631101e-08 6.0714727e-09 -2.3892294e-08 1.8140891e-08 0.20813109 1.1402163e-08 -6.5881833e-09
0.16951905 -1.5265265e-08 3.7985814e-08 -1.832411e-08 1.5192614e-09 -5.616215e-09 -9.936037e-09 0.26887238
6.1600005e-09 -9.147415e-09 -7.386769e-09 -2.4253822e-08 -1.2257051e-08 -5.161939e-09 0.11236118 -7.501123e-09
0.060263697 0.20028704 -5.548193e-09 0.19703898 2.207006e-08 -2.1709253e-08 1.8151184e-08 -1.7719787e-08

tr1g.layer_0.weight f4 [64, 64]
00000000: 0820 5fb7 1c77 7fb7 3b22 333e ec51 8bba
00000010: 06a1 eebe 926c 41b4 dfad e8b8 e53e 7cbd
00000020: cd3f e13c 0900 8f3d 8139 393e d3b0 2d3e
00000030: 0a4e 493d 024a 1ebe 461c e9bd d303 183e
00000040: da37 0d3e d459 e3bd 3709 073c c7bb 983e
00000050: 380d 4eb6 d3db 123e a49d 5c3e 5c30 8c3e
00000060: 52ca ecbc 28f8 febc 499f 49be 7e17 bdbe
00000070: 99bc 25b7 0778 d2bd 5923 36be 865b 42be
00000080: f706 ab3e be13 103e f273 643a 0bd2 13bf
00000090: 96e1 abb2 12b3 8dbe 79f9 093e 70ea de3c
000000a0: f8ba 28be 582d c630 3f2b ed3e 3c6f 8ebe
000000b0: ec76 b537 3b00 c03e 3eb7 473e c094 c5be
000000c0: 35eb a238 40ba 243d 4505 3e3e a300 f53e
000000d0: 1438 9534 f17b 07bd b827 bb3e d8f0 e43e
000000e0: 3d26 233d 7275 2d3f a919 5a3f ae0b 783e
000000f0: 1ef0 813d e1fe 1fb7 97fc 073e 0bdc 09be
00000100: df78 12b2 6ea7 d0b1 b384 2c33 48de 3bb2
00000110: 23bf f230 c9cf 57b3 a68d 8732 c0e3 afb2
00000120: df2a dbb2 c331 1032 7cf0 80b2 9506 3b32
00000130: 4b5e a7b2 1ac2 7b32 1bba b132 256f 9332
00000140: 6076 5cb2 022f 0432 2397 0532 c93c 03b2
00000150: a634 cf31 cf85 a52f 2030 d2b2 d5b4 43b2
00000160: 2dfb 5131 0fd5 80b1 f32b 8832 bc73 9ab2
00000170: 57b0 4033 1146 1332 7924 d8b1 007f f032
00000180: 4161 ad32 7caf 4033 e09f 2a32 e7bb 11b3
00000190: 6e5e 0333 7e36 3b32 94ce 84b2 1841 2bb3
000001a0: f0c1 aab2 119b 02b2 5835 2eb0 f328 6031
000001b0: aa5f ba32 8d6c 3132 bcf9 1033 be20 29b2
000001c0: 0680 1533 aebf 0fb3 3df2 8b32 3eaf 11b2
000001d0: 5d7e 8031 0d04 e632 f268 d531 ba2a abb1
000001e0: c852 8e31 0a7c d3b1 635b 5f31 1dba ccb1
000001f0: a452 fab2 be82 fc31 a142 3332 cd79 90b2
00000200: e566 51b3 73ed 9a37 8ffb f7bb 6374 0239
00000210: 9a8e 063e 534d a1b2 41c6 cdb5 4d1b 873e
00000220: bfec 60be 00be 4fbe 10c6 a13d 0e9a 123c
00000230: c3e4 4f3e ec68 b83c 75c3 fc3d bba4 403e
00000240: bee6 cd3c c9f3 9dbd a060 6c3e 0d78 6ebd
00000250: 5620 e335 8737 bdbe 33d1 a8bd 133a fbbd
00000260: 2a03 203e d4bf 96be d575 26bd 5758 13bd
00000270: e44b 1d36 e673 b4b8 088c adbe befb 25be
00000280: 27ee 1bbe a812 94b8 4a27 0db8 348d 973e
00000290: 16e9 a7b1 cefd 6f3e 129b 7037 b528 783a
000002a0: 7848 7c3e 529d 0531 1552 23bc bd76 68bb
000002b0: a007 b5bd dc97 b6bc 7e07 aebc d0d6 f9bd
000002c0: 7e23 46bd abe3 e5bd 713f e43d dd92 0e3d
000002d0: bda8 e230 1c9e a8b4 16b1 e7bb a462 53be
000002e0: 2459 2cbd c6ba 68be 4962 94be 0533 46be
000002f0: d0e3 4bbe 599d b4b6 61f8 8cbd 6222 19be
00000300: ad72 23b2 db56 9b33 6d9f a3bc 4c4a c2b7
00000310: fbef 1abe 6def 88b1 86e8 0a36 0828 61be
00000320: 85ef 56b6 20e8 8a3e 76ac 163b 8047 863e
00000330: 687a b73e a204 6b3e 40d4 9abd 3feb 633e
00000340: 0e2b 933d 2f36 b23d 1c1d 2ebc ec0f 2dbd
00000350: 1213 8436 1e55 0ebe 16ac 50bc 4a92 423e
00000360: 9485 a03d a7fb 97bd 3cf2 a9be 68e7 8e3d
00000370: 3a12 cd30 bdd1 363d 55c2 203d f56a 3c3d
00000380: 0230 633e 8d5e 303a 66e0 7137 bb29 58be
00000390: 4fc4 f7b2 5ed5 1fbe 35fb 1db7 9b5e 6f3e
000003a0: 3974 9f3d bf4d 0232 0745 913d 17f9 2fbb
000003b0: a329 42b3 e71b 9c3c 71c1 3338 77f4 aebc
000003c0: c5a1 03b8 928e 64be 6900 403e 6109 303b
000003d0: 8367 5e32 bdec a1af d6bd 0cbe 9dd4 103e
000003e0: 4cde 953d 695f a63e 1e8a 023e 6fdb a03d
000003f0: 8901 8e3d b6b0 7132 7047 453e d0fc 00be
-1.3299294e-05 -1.5226917e-05 0.17493527 -0.0010629273 -0.46607226 -1.8014023e-07 -0.00011095008 -0.06158342
0.027496243 0.069824286 0.18088342 0.16961984 0.04914669 -0.15457919 -0.11382346 0.14845209
0.13790837 -0.11101118 0.008241943 0.29830763 -3.0704086e-06 0.14341669 0.2154451 0.27380645
-0.028905068 -0.03112419 -0.19689669 -0.36931986 -9.878678e-06 -0.102768 -0.17786922 -0.18980226
0.3340375 0.14070031 0.0008714787 -0.57742375 -2.0009605e-08 -0.27675682 0.13474073 0.027211398
-0.16477573 1.4419284e-09 0.46322057 -0.2781924 2.1632259e-05 0.37500176 0.19503495 -0.3859005
7.768573e-05 0.040216684 0.18556698 0.47852048 2.7794215e-07 -0.033077184 0.3655374 0.44715
0.03983139 0.6775733 0.85195404 0.24223205 0.06344627 -9.536482e-06 0.13279949 -0.13462846
-8.525801e-09 -6.0726313e-09 4.016756e-08 -1.09353735e-08 1.7662142e-09 -5.0247568e-08 1.5780483e-08 -2.047625e-08
-2.5514451e-08 8.393218e-09 -1.501052e-08 1.0886329e-08 -1.9484238e-08 1.46542565e-08 2.0690143e-08 1.7163595e-08
-1.2832601e-08 7.6941e-09 7.775983e-09 -7.6390245e-09 6.0304783e-09 3.0108402e-10 -2.4469102e-08 -1.139161e-08
3.055628e-09 -3.7495123e-09 1.585247e-08 -1.798059e-08 4.4863864e-08 8.572457e-09 -6.290574e-09 2.799743e-08
2.0184077e-08 4.4863086e-08 9.931654e-09 -3.393134e-08 3.0586698e-08 1.0897223e-08 -1.5460763e-08 -3.9873242e-08
-1.9878797e-08 -7.602254e-09 -6.337664e-10 3.2619567e-09 2.1696753e-08 1.0327438e-08 3.3754745e-08 -9.844539e-09
3.4808203e-08 -3.3469114e-08 1.6291887e-08 -8.479956e-09 3.739656e-09 2.6777366e-08 6.211047e-09 -4.9816125e-09
4.142155e-09 -6.15501e-09 3.2502718e-09 -5.95834e-09 -2.9141411e-08 7.349029e-09 1.0434321e-08 -1.6819195e-08
-4.8755187e-08 1.8468801e-05 -0.00756783 0.00012441124 0.13140336 -1.877803e-08 -1.533139e-06 0.26388016
-0.21965311 -0.20287323 0.078991055 0.008947862 0.2030211 0.022510968 0.12341968 0.1881284
0.02513444 -0.07712514 0.23083735 -0.058219958 1.6922229e-06 -0.36956427 -0.082430266 -0.12266936
0.15626207 -0.29443228 -0.040639717 -0.03597292 2.3438997e-06 -8.6046566e-05 -0.33895898 -0.16209313
-0.15227567 -7.060665e-05 -3.365361e-05 0.29599917 -4.8868385e-09 0.23436663 1.434122e-05 0.0009466515
0.2463702 1.9443473e-09 -0.0099683 -0.0035471164 -0.08839345 -0.022289209 -0.021243807 -0.12199175
-0.04837369 -0.11225065 0.11144913 0.03480803 1.6491623e-09 -3.1407478e-07 -0.007070671 -0.20643097
-0.0420772 -0.22727498 -0.28981236 -0.193554 -0.19911122 -5.3827357e-06 -0.06883312 -0.14954522
-9.513923e-09 7.233549e-08 -0.019973481 -2.31612e-05 -0.15130608 -3.9853405e-09 2.069895e-06 -0.21987927
-3.2027904e-06 0.27130222 0.0022990978 0.26226425 0.35835576 0.22950986 -0.07560015 0.22257708
0.071859464 0.08701741 -0.010627057 -0.042251512 3.9361266e-06 -0.13899657 -0.012736341 0.19001117
0.07837978 -0.07421046 -0.33192623 0.06977731 1.4920893e-09 0.044633616 0.03924783 0.04600044
0.22186282 0.00067279564 1.4416966e-05 -0.21109669 -2.8843855e-08 -0.15608737 -9.416418e-06 0.23375933
0.077858396 7.584673e-09 0.07093244 -0.002685135 -4.5207013e-08 0.019056274 4.2857082e-05 -0.021356804
-3.1383493e-05 -0.22320011 0.18750156 0.002686106 1.2945637e-08 -2.9453942e-10 -0.13744292 0.14143606
0.073177904 0.32494667 0.12748 0.07854354 0.069338866 1.4068226e-08 0.19265532 -0.1259644

tr1g.layer_0.bias f4 [64]
00000000: 9880 0bbd a68e fcb2 2235 09be 27d9 27bd
00000010: 458d 03b2 8574 b9bb 004a 422f 9bb6 943c
00000020: fe71 2032 4404 8c3d 1bfd 933d 53a4 b632
00000030: ec0e cabd 1071 59bd b0c2 3cbd 04b6 11bd
00000040: 8759 8bbc 7380 22bd 7c28 c03d d214 07b3
00000050: 8978 9432 b043 b23d f66d 1eb3 bf20 6d32
00000060: f257 c0b1 a44b c03c 693e 1bb0 64ea fc3d
00000070: 3e35 7abc 1f4a 3a3e 0d6c b4bc 2b16 b732
00000080: 58bf 12b3 41b9 0d3d f2e9 c7b2 fbae 82b2
00000090: dccb bf31 6f51 0bbc c486 c632 3b26 b43d
000000a0: 568d 96b0 f8ed e7b1 4ebd 98b2 a3e1 5e3d
000000b0: aff4 be32 1995 93b2 5537 b432 5e91 ec32
000000c0: 908d f831 185b 7aaf 8424 c431 3ac9 563d
000000d0: 7854 a03d 3c6a 883d 465f 7632 0da9 10b3
000000e0: 1554 913c cbe6 b2b7 14bc 4933 b63b 0a32
000000f0: 830d b62f 58f0 0033 9c4a ab31 5612 b83d
-0.034058183 -2.940153e-08 -0.13399175 -0.040978577 -7.6573246e-09 -0.005659642 1.7670487e-10 0.01815348
9.339145e-09 0.06836751 0.072260104 2.1262315e-08 -0.09866127 -0.05308634 -0.046084106 -0.035573974
-0.017010463 -0.03967328 0.09382722 -3.1451073e-08 1.728428e-08 0.087043166 -3.688725e-08 1.3802661e-08
-5.5979337e-09 0.023473568 -5.647736e-10 0.12349394 -0.015271483 0.18192337 -0.022024179 2.1314085e-08
-3.41673e-08 0.0346005 -2.3273035e-08 -1.5213564e-08 5.5820077e-09 -0.008503302 2.3111518e-08 0.087963544
-1.0954107e-09 -6.7500388e-09 -1.7781215e-08 0.054414403 2.223018e-08 -1.7180854e-08 2.097992e-08 2.7540121e-08
7.2338437e-09 -2.276973e-10 5.708502e-09 0.052438 0.07828611 0.066608876 1.4340747e-08 -3.3681363e-08
0.017740289 -2.1326725e-05 4.6970015e-08 8.046234e-09 3.3115208e-10 3.0020914e-08 4.985237e-09 0.08987872

tr1g.layer_1.weight f4 [64, 64]
00000000: fbc2 7931 ec61 1932 69c4 00b3 d734 1233
00000010: 29a3 0f33 8b34 33b1 cd97 fb31 453f b0b2
00000020: 95ba 6032 7048 cdb2 c5a4 44b2 6e6d b0b1
00000030: c89c 09b2 2770 91b2 b1d5 8eb0 1df0 c3b1
00000040: c922 b7b2 c9d1 88b2 d710 ccb1 31a3 80b1
00000050: a74e 49b1 e48c 65b0 9a5c 2832 9412 b1b2
00000060: 7a8d 15b3 2f6d 0333 cb9f acb2 bcbc e7b1
00000070: 7e7f af32 99a8 91b1 4b29 8cb0 c52d 0533
00000080: 0a0f 0db2 1674 2831 1b43 83b2 c0fa b0b2
00000090: 1162 70b2 9133 0533 9e3a dc32 bdd1 c732
000000a0: 5303 a7b1 9785 2a32 b480 2cb3 7655 a4b1
000000b0: a5d9 1c33 837c b1b1 2ba4 0d31 337e 8b32
000000c0: 8577 e8b2 4109 dbb2 aaf8 32b2 e924 1933
000000d0: 850a 60b2 174d ccb2 e9dd ac32 c269 5ab2
000000e0: b44a 4eb2 bb22 6a31 5556 63b2 a317 7ab1
000000f0: 29c6 cbb1 b3cd 6a31 7b07 08b3 ddba cc32
00000100: 9dfc acbe 78ff e932 41d8 193e 8d76 8abd
00000110: 6c63 2db2 585f d43d aced b330 b4c5 afbd
00000120: f64b b832 7720 f83c 7848 d8bd 4f24 bf32
00000130: 3520 94be 3983 623d e234 fc3d d2f1 b9b9
00000140: 9b60 003c 42f0 43bd c39e 17be 4c59 2e31
00000150: c98e 5832 9140 69bd 1257 3f32 642a 35b3
00000160: c2ed 5232 cef7 55b9 e89b 1131 1085 52be
00000170: 99bb f73c c6bf 1b3e de42 7f3c 6f29 832f
00000180: 6d46 d132 be89 763d a029 2232 1ce4 feb1
00000190: e95d 8e32 00d7 7e3d 262d 6032 cdff b0bb
000001a0: 04ac b332 50c4 d4af c20d f531 1c77 453e
000001b0: 6d52 e832 7f5a abb1 f92c f631 8e38 be31
000001c0: db84 1133 847c c832 df29 3532 7dc3 083e
000001d0: 4e72 c53d 6e2b 473c 5500 1533 feda 0f33
000001e0: 7984 983d b4d7 55bc 03fc a0b2 79af 91b2
000001f0: 4f71 aa32 6dbb 8732 bda2 aeb0 f495 c3bd
00000200: 1853 b6bd 5d66 4e32 66fa 51bb 5165 a0b1
00000210: 4e1e 1233 8e26 9ebc 2634 c532 8aa6 6db2
00000220: 6505 23b1 e100 23be d288 2bbd 41db 88b2
00000230: b4f3 edbd b628 33bc 646e ebbd 7d76 e13a
00000240: 7a3c 213a e22b ccbb 55f6 babd 0380 00b2
00000250: ef6f 7ab1 2b04 a33d 12aa 0432 3d7c 12b1
00000260: 3ef8 c6b2 4db0 20ba 53e5 9c32 24cd 1ebe
00000270: 6a3d b0b2 9f59 fb3b ac4b 9ebd 1582 8b32
00000280: 9776 5cb2 cba2 bf3a 47ec 7eb2 27c2 89b2
00000290: 5547 cc31 85e8 1c3a 5071 0db2 fbe4 39bd
000002a0: 7ea5 53b2 76e8 b1b2 28be f0b1 f2ea 88bc
000002b0: 89df cc32 8290 97b2 c0c4 ac31 9c64 3e32
000002c0: 4581 9fb2 8f6c f8b2 99c6 17b2 7300 6dbe
000002d0: 6929 5ebd 807f ae3c da99 6331 36a0 3332
000002e0: 20e6 d83c b073 24bd a1b7 1133 6ad1 19b2
000002f0: 4e7e cfb2 e1f7 a732 9703 11b3 0406 b5bd
00000300: 2f5c 2db3 3f3f fdb0 1ddf 1932 c2d3 20af
00000310: e7e9 b6b2 6140 e332 48e3 b032 57e9 b9b2
00000320: 224d dc32 85c8 cb32 1c27 0eb2 f3d8 bbb2
00000330: 1dfb 1933 63d3 78b2 b79a bc32 f70f fb2f
00000340: ee23 52b2 9470 06b2 5890 6cb1 1f49 6eaf
00000350: 1eca b232 32b4 1533 3a41 84b2 9ef1 fab1
00000360: cf97 cfb2 2b8e a5b2 179b 2933 8222 0eb3
00000370: 160f 68b1 5883 9432 8611 c0b2 e05b d032
00000380: c920 7232 f857 d331 8c92 dfb2 d8e5 f4b1
00000390: 7dfe 0ab3 9106 b1b2 a906 cbb1 64af 2132
000003a0: d6c0 6131 bc6e 0d32 cf84 7d32 045e 0030
000003b0: 6db7 0f33 eb97 32b3 0626 d031 a880 0333
000003c0: e30a a731 e7c2 91b2 176d 53b2 9b67 9fb2
000003d0: 7bea 8cb2 469c 8cb1 927e 15b3 9801 2232
000003e0: f886 08b2 2689 05b3 1af8 39b0 4318 b232
000003f0: 5d86 bab2 c330 35b1 d752 b42e 1d66 a331
3.6345102e-09 8.928037e-09 -2.9980956e-08 3.404133e-08 3.3443175e-08 -2.6077795e-09 7.322319e-09 -2.0517868e-08
1.308094e-08 -2.3898082e-08 -1.1446166e-08 -5.134715e-09 -8.0100975e-09 -1.6931223e-08 -1.0392595e-09 -5.7025447e-09
-2.1319822e-08 -1.5927883e-08 -5.939096e-09 -3.743843e-09 -2.9294058e-09 -8.350993e-10 9.799942e-09 -2.061396e-08
-3.4820438e-08 3.0600116e-08 -2.00961e-08 -6.7444414e-09 2.0430658e-08 -4.2392228e-09 -1.0198077e-09 3.1008103e-08
-8.2107e-09 2.4513205e-09 -1.5280923e-08 -2.0603125e-08 -1.3992136e-08 3.1013375e-08 2.5638027e-08 2.3262027e-08
-4.8607176e-09 9.925677e-09 -4.0163926e-08 -4.782744e-09 3.6519527e-08 -5.1655333e-09 2.061152e-09 1.6239118e-08
-2.7062706e-08 -2.5499164e-08 -1.0417503e-08 3.5656658e-08 -1.3040908e-08 -2.3783782e-08 2.0124348e-08 -1.2713317e-08
-1.2007764e-08 3.4071224e-09 -1.3232769e-08 -3.6393224e-09 -5.930606e-09 3.4168408e-09 -3.167177e-08 2.3833701e-08
-0.3378648 2.7240944e-08 0.150239 -0.06760893 -1.0092531e-08 0.10369748 1.3091515e-09 -0.08582631
2.1454962e-08 0.030288918 -0.10560697 2.2251838e-08 -0.28930822 0.055300925 0.12314774 -0.0003546612
0.007835533 -0.04783655 -0.14806657 2.5371092e-09 1.260532e-08 -0.05694634 1.1137461e-08 -4.21809e-08
1.2277669e-08 -0.00020405577 2.11889e-09 -0.20558572 0.03024082 0.15209875 0.015579907 2.3858202e-10
2.4362828e-08 0.060189955 9.4391055e-09 -7.418306e-09 1.6573681e-08 0.06221676 1.3048782e-08 -0.0054015876
2.0916566e-08 -3.8702064e-10 7.1320025e-09 0.19283718 2.7045838e-08 -4.9870432e-09 7.164655e-09 5.5361573e-09
3.3881275e-08 2.3339688e-08 1.0545107e-08 0.13355823 0.096409425 0.012156351 3.4692068e-08 3.3493954e-08
0.07447142 -0.013051916 -1.8741053e-08 -1.6960017e-08 1.9842131e-08 1.58013e-08 -1.2706419e-09 -0.09550086
-0.089025676 1.2014053e-08 -0.0032040118 -4.668131e-09 3.4020836e-08 -0.019305494 2.2957533e-08 -1.3833082e-08
-2.3722688e-09 -0.15918304 -0.04187853 -1.5932189e-08 -0.11618748 -0.010934999 -0.11495665 0.001720145
0.00061506743 -0.006230817 -0.09129015 -7.479687e-09 -3.6443415e-09 0.07959779 7.722081e-09 -2.1316418e-09
-2.3163121e-08 -0.00061297865 1.8265075e-08 -0.15507942 -2.0517025e-08 0.007670596 -0.07729277 1.6240884e-08
-1.283265e-08 0.001462066 -1.4838469e-08 -1.603719e-08 5.945291e-09 0.0005985576 -8.2330445e-09 -0.04538439
-1.2319445e-08 -2.0711223e-08 -7.0065376e-09 -0.016713593 2.3850378e-08 -1.7644428e-08 5.0282267e-09 1.10823315e-08
-1.8568821e-08 -2.8920367e-08 -8.834513e-09 -0.23144703 -0.05423871 0.021301031 3.3120302e-09 1.0455599e-08
0.02647692 -0.04014939 3.3927453e-08 -8.953387e-09 -2.4155408e-08 1.9554081e-08 -3.376371e-08 -0.08839038
-4.0363542e-08 -1.8426148e-09 8.956502e-09 -1.4627147e-10 -2.1293955e-08 2.6455554e-08 2.0592452e-08 -2.1642945e-08
2.5646447e-08 2.3723496e-08 -8.27438e-09 -2.1868322e-08 3.5851475e-08 -1.4483564e-08 2.1956437e-08 4.5667978e-10
-1.2231778e-08 -7.825424e-09 -3.442457e-09 -2.1671952e-10 2.081384e-08 3.4855653e-08 -1.5396484e-08 -7.3034263e-09
-2.4167006e-08 -1.9273179e-08 3.9489432e-08 -3.3093336e-08 -3.3769019e-09 1.7289196e-08 -2.235971e-08 2.4256167e-08
1.4093708e-08 6.150909e-09 -2.6027259e-08 -7.127465e-09 -3.2362085e-08 -2.0608498e-08 -5.9088348e-09 9.411313e-09
3.2851424e-09 8.232458e-09 1.4756735e-08 4.6699733e-10 3.3461607e-08 -4.1582023e-08 6.0579195e-09 3.0617826e-08
4.8615774e-09 -1.6968853e-08 -1.2306621e-08 -1.855715e-08 -1.6404774e-08 -4.0923025e-09 -3.480688e-08 9.4300034e-09
-7.94693e-09 -3.109121e-08 -6.765518e-10 2.073296e-08 -2.1714351e-08 -2.6366684e-09 8.2001676e-11 4.7555333e-09

tr1g.layer_1.bias f4 [64]
00000000: 606d 5a32 44a4 753e ea3c 0a3e c76f 76b2
00000010: 1614 ceb0 aa0b 3a32 1a2c 393e fb2b 21b3
00000020: ec78 4eb2 ec9e 2b3e 973f 1333 93b1 cb30
00000030: eae0 153d 4dea 98b2 d43d 8bb2 258d 03b3
00000040: cce4 d63c 5362 363e 9709 1cb2 e9af 393e
00000050: 9e1f 203e 47f8 3331 f9d3 2632 f49a 11b2
00000060: 54f7 7932 bf7a 8fb0 5b50 c43d 99c1 46be
00000070: 3c64 59b2 44b7 ae3d 7a9a b832 be8d 443e
00000080: d8eb 1c3e 8fd5 0233 9b52 2032 e408 14bd
00000090: 5fde e132 7744 1fb1 a90a 0e32 dd07 6d3d
000000a0: eee5 7cb0 99e2 65b2 b60d f6b2 c6bb ef32
000000b0: 2305 8fb2 78c3 ff3d a685 b4b2 d8bb 233e
000000c0: 8627 1d32 3865 3732 157c adb1 883e 88b2
000000d0: 0696 de32 dcad bb32 97d8 d5b1 c518 233e
000000e0: 1f63 0fb2 2515 453e 8751 3f3e bc93 eb31
000000f0: 4ed2 523e 095e a932 a726 353e 39e2 363c
1.2714139e-08 0.23988444 0.134998 -1.43445e-08 -1.4994181e-09 1.0829277e-08 0.1808323 -3.7525734e-08
-1.2018273e-08 0.16759843 3.428394e-08 1.4820664e-09 0.036591448 -1.7801677e-08 -1.6209846e-08 -3.0629185e-08
0.026232146 0.17810945 -9.082576e-09 0.1813351 0.15637061 2.6189058e-09 9.710669e-09 -8.475343e-09
1.45499435e-08 -1.0439506e-09 0.09585639 -0.19409789 -1.2653853e-08 0.08531049 2.1490667e-08 0.19194695
0.15324342 3.0462214e-08 9.332008e-09 -0.03614129 2.629457e-08 -2.3176463e-09 8.267912e-09 0.057868827
-9.2003816e-10 -1.3381077e-08 -2.8644404e-08 2.7908651e-08 -1.6649727e-08 0.124884546 -2.1015534e-08 0.15989625
9.147589e-09 1.0675016e-08 -5.049069e-09 -1.586092e-08 2.5912424e-08 2.1848727e-08 -6.2237393e-09 0.15927418
-8.346233e-09 0.19246347 0.18683444 6.8561956e-09 0.20588037 1.9716952e-08 0.17690526 0.011162334
