experiments/bess_chp_hwt/classifier/1551963312_0.1369/1551964941_0_classifier_73000.pth (torch_old, 890417 bytes, 52 tensors)

cl0.weight f4 [64, 9]
00000000: 4e4a a73e 3d69 15bf d2be c6be 5c12 f5be
00000010: b1c7 cdbd 7ba1 8cbe f6f2 513f cbcc f3be
00000020: f0fb 543f b194 a93d 9c00 fd3e f1be 293f
00000030: b79c 61bf edb5 30bf 2572 733f 84c3 413e
00000040: 53da 003d fe3e a8bd 19b2 fc3d 9ca3 c8be
00000050: 58f8 80be 0e55 1fbf 31eb ec3e 5e60 12bd
00000060: 66db 513f 0d0f 63bf e519 073f b61e 19bf
00000070: 3775 b0bd efef d73e 5e73 263f 4202 abbe
00000080: 8db2 dbbd 0b79 3e3d 9d03 0abf aeca 32be
00000090: 2a52 3f3f ed6d 6dbe e296 f23b dd21 f8be
000000a0: 7f9d 9dbe 5ad6 f63e 2ab9 c13e 634b f8bd
000000b0: 845b 2d3f 0f3f 413f e1cf 49bf 5f2b 993e
000000c0: b56a 1ebf 9f5d 5b3f e523 cebe be20 223f
000000d0: b215 b7bc 8799 0ebe 4aed 6bbe e49d 963d
000000e0: e34b 293f c695 cb3e 1b02 893f 99d5 3abf
000000f0: e299 a53e 3cc0 96be 9381 46be 7ffc da3e
00000100: 6bd5 30bf a0ae 29bf d776 8e3e 6ff8 973d
00000110: d3b6 0f3e ced2 05bf 5459 f5be 3cea 113f
00000120: 1b59 b6be 4c83 263d 6850 d9be e409 16bf
00000130: 5f00 393e 3435 0dbf 5ca5 4a3f c539 c2bd
00000140: 0406 1abe 24a6 bcbe 68b1 95bd 2740 bf3e
00000150: df33 f2be 744d cd3e ddd1 25bf a0a6 723f
00000160: 3112 e2be 106f ad3d 764b 09bc 4af4 07be
00000170: c32b 3bbe 7dea dabe e903 1a3f 5073 05bf
00000180: 7057 2f3f 7260 113e bfbe 9a3d 5205 7abd
00000190: 2034 263f 0fb9 29bf d997 4e3f 1543 263f
000001a0: 4af4 a13e a680 ffbe 06fc 0ebf e046 cebe
000001b0: 3897 c9bc 656c 1d3f cc37 c73e a3d8 0dbf
000001c0: 9882 3cbc b37d a43f 309e bdbe a688 0e3f
000001d0: 51a9 60bf 65fc a63e 54b9 663e dd5a 253e
000001e0: 24a6 56be 65b8 e9be c5f6 e5bf c736 7a3f
000001f0: 855a 5b3e ff2b 84bc 042d dabe 14c5 d2be
00000200: 324b d3be 0ba0 723b 5c45 9bbe 4d3f c1bd
00000210: 73b8 01bc b22e 8b3f 60ce 2c3f 79fd 70be
00000220: 8464 103e 1d3e 273f 2929 b5be 28a9 bbbd
00000230: d77e 263f bfeb afbf 4b94 7ebf 4d48 bf3e
00000240: f913 9b3e 4aae 733e ca8c a33e 87fc 183f
00000250: 342b d63e 36dc 82bf 9708 db3e 0ce7 31bf
00000260: d2c0 8bbe f382 1f3f d1b7 1a3f 2799 3cbf
00000270: 0e15 60bf 467b 82bf 7414 94be b2d5 c43f
00000280: b92d 76be 5f6d 713f 579b 0abf 182e 343f
00000290: 05d3 f4bc 2021 1f3f 1d18 913e 4acd 063d
000002a0: fcea 01bf c1f5 85bf 1df3 3a3f ed64 163f
000002b0: 45d4 33bd c2cc 583e 5aa7 9b3f b625 b2be
000002c0: bf2a 3cbf 60ef 07bf 450d 23bf d3bb 63be
000002d0: 54ad 42be 5e9d 063f 0df7 f53c 68fb 113f
000002e0: 8e11 ccbd a668 253e 3f2d e6bf 71a6 55bd
000002f0: 4f42 2d3f 6ea6 7a3f eef8 f8be 8d0f 68be
00000300: 07d1 853f a50d 8d3e f742 31bf 94c6 91be
00000310: f5e7 f9be 25cd 33bf d7e5 dd3e b949 9dbc
00000320: 06fe 6d3e 8713 463f 6e25 4fbe 2145 a9bf
00000330: 6536 813f 22af 083f 0222 12bf 2d51 5d3e
00000340: a406 1e3d 487c 1cbf c7d1 453f ec2b d6bd
00000350: 495f a0bd 97e6 aabe d1e8 2e3f 9b5f 81bd
00000360: 25fb 353e c6f5 cd3e fd95 343f 216f 64bf
00000370: 064e 09bc 0736 39bf 4682 0240 6599 3f3d
00000380: ceab fbbe 48ab aa3e 0530 eebe e525 b73e
00000390: fa9f 21bf 55fc ef3e e597 5fbf 08ef b63f
000003a0: da4e 16be ba33 863e 664c 043f ec87 993d
000003b0: 5863 45bf 9b54 81bd 0a1c 1f3f 4be8 8dbf
000003c0: 7953 1b3f 9b3e 453f e922 0dbe cd4d c73e
000003d0: f999 373f c29d 32bf d477 5abf 9fbc 19bf
000003e0: 3a3e 8b3f b571 9dbe e347 8e3e a10a 053e
000003f0: c6d9 753f f539 523f b67e 2b3e daa3 663f
0.32673877 -0.58363706 -0.3881746 -0.4786557 -0.10047854 -0.2746695 0.82011354 -0.47617182
0.83196926 0.08280314 0.49414527 0.6630698 -0.8812975 -0.69027597 0.95096046 0.1892224
0.03145821 -0.0821514 0.12338657 -0.39187324 -0.2518947 -0.6223916 0.46273187 -0.035736434
0.819754 -0.8869484 0.52773887 -0.59812486 -0.08616107 0.42175242 0.65019786 -0.3340016
-0.10727415 0.046502154 -0.53911763 -0.17460129 0.7473475 -0.23186465 0.0074032405 -0.48463336
-0.30784222 0.48210412 0.3783658 -0.12123754 0.67717767 0.75486845 -0.78832823 0.29915902
-0.6188157 0.8568973 -0.4026176 0.6333121 -0.022349212 -0.13925754 -0.23039737 0.07354334
0.6613142 0.39762706 1.0703768 -0.72982174 0.32343966 -0.29443538 -0.19385366 0.42770764
-0.6907565 -0.6628208 0.27825043 0.07420432 0.14034586 -0.5227479 -0.47919714 0.5699804
-0.35614857 0.04065256 -0.42444158 -0.5860884 0.18066548 -0.55159307 0.7915857 -0.09483675
-0.15041357 -0.36845505 -0.07309228 0.37353632 -0.473052 0.40098155 -0.6477335 0.947855
-0.44154504 0.08468449 -0.008379808 -0.13276783 -0.18278413 -0.42757025 0.60162216 -0.5212908
0.68492794 0.14196947 0.07555913 -0.06104023 0.64923286 -0.66298 0.8070045 0.6494611
0.3163169 -0.49902838 -0.5585331 -0.40288448 -0.02460824 0.6149352 0.38909757 -0.55408686
-0.011505745 1.285086 -0.3703475 0.5567726 -0.87758356 0.32614437 0.22531635 0.16147943
-0.20961815 -0.45648494 -1.7965933 0.97739834 0.21421249 -0.01613426 -0.4261247 -0.41165984
-0.41268307 0.0037021663 -0.30326355 -0.09435902 -0.007917511 1.0873625 0.67502403 -0.23534192
0.14100844 0.6532915 -0.35382965 -0.09163123 0.6503729 -1.3743819 -0.9944503 0.3735985
0.30288675 0.23796955 0.3194335 0.59760326 0.41829836 -1.0223453 0.4277999 -0.69493175
-0.27295548 0.6230919 0.6043673 -0.7367119 -0.87532127 -1.019387 -0.28921854 1.5377715
-0.2404088 0.9430751 -0.5414328 0.70382833 -0.029885778 0.6215992 0.2833871 0.032910623
-0.5074918 -1.0465623 0.7302721 0.5874775 -0.043903608 0.21171859 1.2160447 -0.34794396
-0.73502725 -0.5309963 -0.6369212 -0.22239618 -0.19011432 0.52583873 0.03002503 0.5702424
-0.09964286 0.16153201 -1.7982558 -0.052160684 0.67679304 0.979102 -0.48627418 -0.22662182
1.0454415 0.27549472 -0.69242805 -0.28471816 -0.48809782 -0.702349 0.43339416 -0.019200193
0.23241434 0.77373546 -0.20229122 -1.3224221 1.0094725 0.5339223 -0.5708314 0.21612997
0.03858055 -0.6112714 0.7727322 -0.10457596 -0.07830674 -0.3337905 0.68324 -0.063170634
0.17771585 0.40226573 0.70541364 -0.8923207 -0.008380419 -0.72348064 2.0392013 0.046777148
-0.49154514 0.33333802 -0.4652101 0.357711 -0.6313473 0.46872202 -0.8734115 1.4291697
-0.14678517 0.2621134 0.51679075 0.07496628 -0.7710471 -0.06314965 0.6215216 -1.1086515
0.60674244 0.77048653 -0.13782848 0.38926545 0.7171932 -0.6977197 -0.85339093 -0.6005344
1.0878365 -0.30750814 0.2778922 0.12992336 0.9603542 0.82119685 0.16747555 0.9009377

cl0.bias f4 [64]
00000000: 4983 31bd f9af 283d 85a3 4f3c 8134 263e
00000010: 894e 41be cf97 e1bd c2e4 acbc 1084 7a3a
00000020: e36d 033e 64e8 203c 96dd b8bd 896c ac3d
00000030: 23d8 573e 55fc c5bd 59f9 5dbd 0d4d 30bc
00000040: e1fa 1dbd 6d1b 2cbd 0081 693d dfa3 3cbc
00000050: cbe2 ffbc 80c7 533c 9db4 7e3c 2d46 b3bd
00000060: 13d7 2bbd 3227 88bd 2e50 17be 937a 89bd
00000070: b198 91bd d97c cebd ae57 573c d53f 4d3d
00000080: 4ac7 75bd be5d 1d3e 0502 d9bc 9bfd 3cbe
00000090: 8d8e 2cbe ea35 92bd 3bb4 c0bc e40a 2abc
000000a0: 3940 e0bd 7e6c 023d 9989 f33d 9ffd 383d
000000b0: 0a15 61bd 92d5 123d ba26 443d 8787 a83d
000000c0: 8802 01be 48d0 a63c 947a 4cbb 4943 9abc
000000d0: 66d5 fa3d efa0 9d3d 1f72 06bd 699b 0f3d
000000e0: 65db 9fbd 1f41 43bd 42d1 9f3d 3d40 d339
000000f0: 6829 003d d291 ad3d 31ef cf3c f920 6c3c
-0.043338094 0.041183446 0.012673263 0.16230966 -0.18877615 -0.11015283 -0.021105174 0.0009556422
0.12834887 0.009821031 -0.09026639 0.08419139 0.21078543 -0.09667269 -0.054192875 -0.010760558
-0.038569335 -0.042018343 0.05700779 -0.011513679 -0.031236073 0.0129259825 0.015545991 -0.08753619
-0.041953158 -0.06648101 -0.1477668 -0.06712832 -0.07109202 -0.100824066 0.013143463 0.050109703
-0.06000451 0.15367791 -0.02649022 -0.18456118 -0.16851254 -0.071391895 -0.02352344 -0.010378573
-0.109497495 0.031841747 0.11891479 0.045163747 -0.054951705 0.035848208 0.047888495 0.08228975
-0.12598622 0.020362988 -0.0031200992 -0.018830912 0.12247734 0.07696711 -0.032823678 0.03506032
-0.07805518 -0.047669526 0.07803585 0.00040292917 0.031289488 0.08475079 0.02538261 0.014412158

cl1.layer_0.weight f4 [64, 64]
00000000: 3ec3 d3bd 516d 133e 3737 a23e 5836 0cbe
00000010: c0e4 fe3e 2d1b cd3b 2c90 0cbf 6c21 84b8
00000020: 00bb 1b3f 9283 c0be 2f9c 1c3b 74e1 8f3a
00000030: 4465 913c 751b 71ba 4fe9 e8bd ec98 d13e
00000040: eb4b 36bd 0162 eabb 4b0f 61be a89c 14bc
00000050: d9c1 e8be 39c8 0c3d 7311 da3b 4968 d63c
00000060: 3cc5 8a3e 75c0 9ebe ab96 ec3c 3801 13bf
00000070: a4cf 6a3e d2e8 1cbf 6d1f 733c 0ce9 8dbe
00000080: f74e 6c3d 8a76 ddbb dea7 0ebe 7830 923d
00000090: 66b2 9bbd 6b35 2a3c 244a 01be 1e44 97be
000000a0: 3137 abbd 7697 213c 87c6 48b9 8b40 cf3d
000000b0: 336e f73b f1ba 0ebf 644c 483c 33e3 f43e
000000c0: e8c3 dd3e f79b 34be 5fa0 f53a 1e74 9dbe
000000d0: 6525 253f 29fd cabd ea54 973e 11f9 943e
000000e0: f29c 983b 29a6 50be c2e8 12be a336 303e
000000f0: bd61 153f 550d 0dbb 9482 b1be f121 8ebe
00000100: c50b cdb4 5ff5 d0b3 7f8e a935 52f5 5eb5
00000110: 9ac8 0d32 2fee e035 8e66 f535 2b8c b8b5
00000120: 6ead a835 b3fa 9a35 7ed1 e3b5 a9e0 a535
00000130: 4279 b7b2 9155 93b1 1aeb 9cb5 74e0 3734
00000140: 6daf b8b5 b31e 4bb6 32ae 9735 3706 1634
00000150: 7d2a 1034 3114 7036 a2b8 b535 84f1 75b6
00000160: 434c 6935 6394 d635 dbbf cab4 afa7 b335
00000170: 0cd4 4234 ed33 7436 3119 09b3 7969 6232
00000180: 5c85 91b5 fe26 a432 cf71 80b2 3b9a ebb5
00000190: d2ed 9835 06ba 99b5 b4a4 ba35 e3c1 3e35
000001a0: 5a59 efb5 4a76 7bb5 0933 a135 329e f6b5
000001b0: b2df 7135 28eb e2b4 5960 7cb6 d307 c4b5
000001c0: 106c 0c35 8608 93b5 7073 74b3 97b7 5636
000001d0: aba9 f0b5 240f b435 4c1a 0c34 afd7 e2b4
000001e0: 266c afb5 bc1d 5bb6 a2f1 b235 feaf ab35
000001f0: 7fdd 7fb6 7db8 a335 807c f0b4 e62e e835
00000200: ac25 afbd 1d58 78be f21f ab3d 13bb 8bbd
00000210: e8c6 cb3e efa3 8ebe fdb1 99bc 7edd aabd
00000220: 2383 59be 7616 1abd fae1 aabe ddb5 59be
00000230: bf12 90be fbf7 22be 5850 173d 16ab 643e
00000240: 5e3d a0be 3374 fb3d 57c2 a83e 9d64 08bc
00000250: 2761 013f 3522 363e 79b1 db3d 4c8c 51be
00000260: b445 ff3c 30e7 aabd 7bad d83d fdcc 1a3f
00000270: f0e3 3dbf 2ca5 ba3d 1284 49ba edde 5bbd
00000280: d2c6 5d3d f386 05bd 0e43 4d3d 6a8c 85bc
00000290: 8f97 e83e fb61 4dbd 7b8e 96bd 7b2e ae3d
000002a0: 2ad1 5f3e 63be 1a3c bb1d 023e 6afc c53c
000002b0: ac0b dcbe 7134 9dbd 9bf5 243e c0d7 30be
000002c0: 3f9d a03d 1064 7e3d 9878 96ba 322a e8be
000002d0: f0f9 413e b739 133f 7673 9c3c 3d90 b23d
000002e0: 8c9e 883d dd7e 553f 1b3b 39be 13c5 b13e
000002f0: 094c c6be 4f1a 1abf 2ae5 2bbf 7e14 843d
00000300: d225 3abe fe11 cfbe 5d0b 053c 8dfd b1be
00000310: 2ec9 dcbe fcfc 183f 07bc 973d a6a4 b73c
00000320: 6795 cdbe 9544 b7bd 67c4 623e 4c37 3c3f
00000330: 5041 d73e 2fd6 47be ca68 c73d aeb3 68be
00000340: ab12 ed3a 26ae c1be 5a74 80be 090b 4bbe
00000350: 6032 27bf 150e 273e 677e ab3c b8a2 c53d
00000360: 3120 cabb fb3f 7cbe 582a 003e 15ff 05be
00000370: 991e 10be c286 0f3f 017c 5fbd 49ac 4bbe
00000380: 986b c83e c3b8 e2b8 02f5 ab3e 21a1 e03e
00000390: df54 033d a4f1 cebe 7f7a 00be 399d f0bb
000003a0: d701 983e 0bef fbbe cea9 81bd c71e b8bc
000003b0: e3b4 10bf 9e94 2bbe 3124 5e3e 8b56 803d
000003c0: f4c8 9d3d a7fd 5f3e ef50 87bc 5b95 b33e
000003d0: c787 13be e60e ad3f 8738 c33d 372d 983d
000003e0: a6d1 34be ec42 8bbe 2c62 babc b921 ac3b
000003f0: aff4 db3e 9bc5 a63e 4a88 1c3f 545d 45be
-0.10339974 0.1439717 0.3168275 -0.13692605 0.49783897 0.006259343 -0.5490749 -6.300476e-05
0.60832214 -0.3760038 0.0023896804 0.0010977224 0.017748483 -0.0009197512 -0.11372625 0.40936983
-0.044505995 -0.0071527963 -0.2197849 -0.009070553 -0.45460394 0.034370635 0.006654912 0.026172774
0.27103603 -0.31006208 0.028880438 -0.57423735 0.22930771 -0.61292756 0.014839035 -0.27716863
0.057692494 -0.0067585157 -0.13931224 0.07138151 -0.07602386 0.010388712 -0.12625939 -0.29544157
-0.08360136 0.009862771 -0.00019147444 0.101197325 0.0075509786 -0.55754 0.012225244 0.4782959
0.43313527 -0.17637621 0.0018739811 -0.30752653 0.64510185 -0.09911568 0.29556972 0.29096273
0.004657381 -0.20375885 -0.14346603 0.17208342 0.5835226 -0.002152284 -0.34669936 -0.2776027
-3.819279e-07 -9.7303875e-08 1.2632953e-06 -8.305843e-07 8.252892e-09 1.6758621e-06 1.828377e-06 -1.3749863e-06
1.256745e-06 1.1546857e-06 -1.6973788e-06 1.2358843e-06 -2.1359146e-08 -4.287991e-09 -1.1691329e-06 1.7124859e-07
-1.3760124e-06 -3.0267227e-06 1.1301074e-06 1.39721e-07 1.3426502e-07 3.577454e-06 1.3539286e-06 -3.6648426e-06
8.691024e-07 1.5987429e-06 -3.7765025e-07 1.3385342e-06 1.81448e-07 3.6389058e-06 -3.192071e-08 1.3178913e-08
-1.0842155e-06 1.9109844e-08 -1.4952915e-08 -1.7553751e-06 1.1394097e-06 -1.1453528e-06 1.3906015e-06 7.106266e-07
-1.7832892e-06 -9.367692e-07 1.2010288e-06 -1.8374469e-06 9.0105016e-07 -4.226688e-07 -3.7607008e-06 -1.4605415e-06
5.2311316e-07 -1.0954834e-06 -5.6915667e-08 3.1995348e-06 -1.7930773e-06 1.3415452e-06 1.3048083e-07 -4.225271e-07
-1.3069991e-06 -3.265085e-06 1.3332358e-06 1.2791713e-06 -3.8126889e-06 1.219814e-06 -4.479407e-07 1.7298996e-06
-0.08552107 -0.24252363 0.083557025 -0.06822791 0.3980019 -0.27859446 -0.01876163 -0.083430275
-0.21241431 -0.037619077 -0.3337553 -0.21260782 -0.28139302 -0.1591491 0.036941856 0.22330889
-0.3129682 0.122780226 0.3296077 -0.008324769 0.5053887 0.17786486 0.107272096 -0.20463675
0.031161167 -0.08344877 0.10579964 0.6046904 -0.7417593 0.09113535 -0.00076872215 -0.053679395
0.054144688 -0.0325994 0.050112776 -0.016302306 0.4542813 -0.05014227 -0.07351395 0.08504959
0.21857134 0.009444806 0.12706654 0.024168212 -0.42977655 -0.07676018 0.16109316 -0.17269802
0.07842492 0.062107146 -0.0011480032 -0.45344692 0.18943 0.5750994 0.019098025 0.087189175
0.066708654 0.83396703 -0.18088953 0.34720668 -0.38729885 -0.60196394 -0.6714655 0.06449221
-0.1817849 -0.40443414 0.008120385 -0.34763756 -0.43122238 0.59761024 0.0740891 0.022417378
-0.40153047 -0.08948628 0.22145234 0.73521876 0.42042017 -0.19515298 0.09736784 -0.22724792
0.0018087229 -0.37828177 -0.2508877 -0.19828428 -0.6531124 0.16313966 0.020934297 0.09650177
-0.0061683883 -0.24633782 0.12516153 -0.13085587 -0.14074172 0.56065 -0.05456162 -0.1988994
0.39144588 -0.00010810934 0.33585364 0.43872932 0.03206336 -0.40418732 -0.12546729 -0.007342961
0.29688904 -0.49205813 -0.06331216 -0.022475613 -0.5652601 -0.16755912 0.21693493 0.06266507
0.077043444 0.21874104 -0.016518084 0.35074887 -0.14407264 1.3520172 0.09532266 0.07430499
-0.176581 -0.27199495 -0.02275189 0.0052530435 0.42960116 0.32572636 0.6114546 -0.19273883

cl1.layer_0.bias f4 [64]
00000000: d605 edbc e3dd ce35 fe68 a43d 67b6 e5bd
00000010: 8c55 c639 c7e4 a7b5 9903 c635 1779 8835
00000020: 5807 713d d309 1b3d 5abf ebb5 dd87 213d
00000030: d9d6 94bb 447e f3bd 13a9 713d 5bf3 8cbc
00000040: 0971 98bc dad3 acb5 3b52 c5bd aac0 2ebc
00000050: 5685 4c3d 74eb 22bd d393 2c3d 9222 26be
00000060: 744a cf3d 21e9 1f3e e49f 20bd 6557 0fb5
00000070: 319f 74b5 41c3 2b3e d146 c4b5 0d50 db35
00000080: a728 dc3d a83f 7ebd ab09 b2b5 8685 1dbc
00000090: 4ba0 653d 1e2f abbd 629b 9eb5 d7b7 06bd
000000a0: 94a6 6c3d 5ae6 53b4 b6cd 6b3d 6737 8535
000000b0: 896f 75b6 2c64 f2b5 299d c93d 74ec 80b6
000000c0: 3378 02be e420 5abd 5e36 a5bd 57db a13d
000000d0: 240b d33b ff3f a735 826e c03c a0d5 8635
000000e0: 8bea 7335 8c4e e4b5 bae8 71b4 853b edbc
000000f0: affc 83bd 1364 99bd 510a 93bb 7ab8 fd33
-0.028933447 1.5412774e-06 0.08027838 -0.11216431 0.0003782924 -1.2509053e-06 1.4753197e-06 1.0168031e-06
0.058844894 0.037851166 -1.7564555e-06 0.03943621 -0.0045422134 -0.11889318 0.058999132 -0.017205885
-0.018608587 -1.2876656e-06 -0.09634825 -0.010666052 0.049931847 -0.039775327 0.042133164 -0.16224125
0.10121623 0.15616275 -0.039214984 -5.3398827e-07 -9.112874e-07 0.16773702 -1.4623748e-06 1.6340069e-06
0.10749941 -0.062072426 -1.3264847e-06 -0.009614354 0.05606107 -0.08358596 -1.181714e-06 -0.032890167
0.05777605 -1.9734708e-07 0.057569228 9.925396e-07 -3.6572767e-06 -1.8059559e-06 0.09844429 -3.842224e-06
-0.12741165 -0.053254023 -0.0806701 0.07903164 0.006440537 1.2461095e-06 0.023490194 1.0045951e-06
9.086586e-07 -1.7010184e-06 -2.252954e-07 -0.028959045 -0.0644468 -0.07489791 -0.004487314 1.1814787e-07

cl1.layer_1.weight f4 [64, 64]
00000000: ec55 aab5 931f 9d35 bb8c b53c ae84 a53d
00000010: 97ad 42b6 075c 65b5 376a f035 44fc 1cb6
00000020: ba31 1b3f f05b 8a3c 0880 6135 2354 32bd
00000030: a38f 823d ce98 a7bb af2f dabe 3685 a6b9
00000040: 3a71 aeb5 1118 1434 e993 33b5 2ce1 873d
00000050: 09db 8bbe 1aeb fc35 c447 cb3c 4e39 8f35
00000060: aeda 8d3d 9b4a c63c 6d10 a13c 54e8 e535
00000070: c7a8 e9b5 b55e e33c e6fa 9735 ea2a eab5
00000080: 9656 913c 98cf 0137 6299 af35 e8d6 d838
00000090: c1a7 05bd 7371 3ab9 872c 8136 c3a8 04b7
000000a0: 9ec8 7c3d b095 98b5 536b 083d 34d0 a435
000000b0: 2b4d aeb5 9acb 1435 49b4 b23c dfab e7b5
000000c0: bc9a 523b 8850 0938 e7e8 05b8 3be3 b63c
000000d0: 0351 71b5 b4cd b3b5 84f2 4b3c 2aa6 e9b5
000000e0: 69cb 65b4 77da 62b5 278a a735 bbb7 15b8
000000f0: 4567 95b7 8f7c a839 d596 ddb8 b39f b135
00000100: 5388 cd3d a348 0635 5f2d a2be 907c 4d3f
00000110: 89b1 8d3e a2a8 36b6 7b82 ceb4 58dd e2b5
00000120: 3d29 d03d f05f 103e 50f3 aeb5 b5cf 4c3d
00000130: 8139 9fbd 8657 1d3e 5434 47be ca1d e93d
00000140: 9c53 13bf 293c d0b5 ae74 95b5 268d b13d
00000150: b95e 653b a8b9 d4be af3f 7fbe fd70 1bbf
00000160: a9a8 893f f850 00bf 1d2f 7b3e f990 7bb6
00000170: 54fc 4f35 3469 233d fd97 ae35 8ff4 7436
00000180: 5251 21be 20a5 193d df5e 0b34 1c89 66bd
00000190: 9b45 b8bf 8563 51b9 3eff e9b4 97bd f2ba
000001a0: 1863 76be d394 5fb2 e99c 98bf 317d cf35
000001b0: 2c45 8f35 9b9c 8131 2a38 25be e22b 4936
000001c0: 4aee ae3f b281 ea35 2ff8 acb5 db23 95be
000001d0: 1235 0abe 80e5 8535 3beb 083f f7de 7fb6
000001e0: 975f 77b5 5ac3 42b6 4fa3 4935 3784 b135
000001f0: 9209 ebb5 d4c5 f2bc 484f 163d d3ba 9335
00000200: 90d0 7b3c 845e 98b5 081e 04be 7860 7ebe
00000210: 76c1 3dbe 7011 bab5 a6a6 b4b5 1877 ec35
00000220: ada7 f53e 73da eebe 980d a935 d577 e7be
00000230: 1ad1 10be bb6d bfbc 1299 bb3d 6c9d 8dbd
00000240: 62df 17bf bba9 1435 77d8 0b3d 9717 48be
00000250: 7b0b ba3e be18 ccbe e77c 413e a184 2bbe
00000260: 1a73 b9be 351a 05bf 7b13 4c3d 5aad 5635
00000270: dca1 fb35 4337 2d3f 0d39 99b5 db51 bfb5
00000280: f73b d7ba cfe4 dcbd 0d15 9fb5 dc6f ce3e
00000290: c613 553d c5aa 1bbe e7bb 8eb4 5099 87be
000002a0: 75b6 313e 5747 8a34 3060 2d3f 6f49 8fb6
000002b0: d64e 95b5 4c22 3d36 80a0 2f3f 4f50 9ab6
000002c0: 2ae6 08bf f623 b93e a4a0 af3e 65d2 f9bd
000002d0: eb99 a8be f333 a3b5 f091 fa3e d08c 7636
000002e0: 6b7c 7536 b800 87b5 9ee4 7bb5 504e 53bd
000002f0: 7b2d cf3e fa2c 14be ff67 113f aeba 71b5
00000300: 120d 3fbe 4f79 a833 03a8 cebd 30e0 cbbc
00000310: 2b75 4d3f 91dc a5b5 cf49 a835 83e4 9cb5
00000320: 87d9 e63d 9def fd3d 86cc a035 c682 76be
00000330: 257e e4be 77cc 38bd cf44 403f a96c 933c
00000340: 7347 2a3f 7aa8 a435 6eeb d0b9 cbc2 b0bc
00000350: 458f 113f b7a1 79bd 08d5 63bf 96d5 113d
00000360: 41e7 85be 1277 29be 289c f43e 49fc cf35
00000370: 0815 e335 cca4 28bf a3f5 0933 52e0 f733
00000380: 1c5f a83c 8b6c 71bd 06a8 49b1 4b99 76bd
00000390: 03bf dd3e 7fa1 8fbd ae86 3e33 1d4d 7dbd
000003a0: 2923 eabe 5972 aab5 d49c c23e ca76 6cb5
000003b0: 51e6 aa33 e79e a135 7ea4 4e3f 7165 dbb2
000003c0: 555c 15bf 3f9d b6be 4050 94bb 23c5 3cbf
000003d0: 9da8 d63e 9b31 7535 b241 5a3e 5fa9 bc34
000003e0: d3c6 7d35 d758 e135 e60c 3d36 68a1 2cb9
000003f0: 08f1 41bd 42f7 3d3d d184 1ebd eb25 adb5
-1.2690994e-06 1.1706601e-06 0.022161832 0.08081947 -2.9009295e-06 -8.5443065e-07 1.7912306e-06 -2.339265e-06
0.6062275 0.016889542 8.400534e-07 -0.04353727 0.06375053 -0.0051146513 -0.42614505 -0.00031761237
-1.2996964e-06 1.379233e-07 -6.6897934e-07 0.06634745 -0.27315548 1.8843887e-06 0.024814494 1.0671008e-06
0.069264755 0.024205497 0.019661153 1.7129446e-06 -1.7408973e-06 0.02775512 1.1323398e-06 -1.7446848e-06
0.017741483 7.737333e-06 1.3083156e-06 0.00010339712 -0.032630686 -0.00017780605 3.8496833e-06 -7.907106e-06
0.06171476 -1.1368447e-06 0.033305477 1.2279547e-06 -1.2986469e-06 5.5430576e-07 0.021814482 -1.7260862e-06
0.0032135686 3.2738346e-05 -3.192658e-05 0.022325149 -8.9897384e-07 -1.3396407e-06 0.012447957 -1.7408213e-06
-2.1401287e-07 -8.450947e-07 1.2482677e-06 -3.569548e-05 -1.7810273e-05 0.0003213626 -0.00010566196 1.3234006e-06
0.100357674 5.002459e-07 -0.3167524 0.8026819 0.2767451 -2.721827e-06 -3.8465427e-07 -1.6902732e-06
0.101641156 0.14099097 -1.3034823e-06 0.050002772 -0.0777464 0.15365419 -0.19453555 0.11382635
-0.5754945 -1.5514717e-06 -1.1135323e-06 0.086695 0.0034999086 -0.41547894 -0.24926637 -0.6071928
1.0754596 -0.5012355 0.24529691 -3.74863e-06 7.7480695e-07 0.03989525 1.3008245e-06 3.6501185e-06
-0.15753677 0.03751099 1.2979898e-07 -0.0562831 -1.4396242 -0.00019968867 -4.3585345e-07 -0.0018519637
-0.24061239 -1.3014147e-08 -1.1922885 1.5459137e-06 1.0674462e-06 3.772198e-09 -0.16134706 2.9976877e-06
1.366647 1.7472105e-06 -1.288723e-06 -0.29128918 -0.13496807 9.976065e-07 0.53483933 -3.8127744e-06
-9.215377e-07 -2.9021962e-06 7.511598e-07 1.3226007e-06 -1.751165e-06 -0.029635347 0.036696702 1.1006726e-06
0.015369549 -1.135239e-06 -0.12902081 -0.24841487 -0.1853083 -1.3863155e-06 -1.3459546e-06 1.7618031e-06
0.4797949 -0.4665104 1.2595438e-06 -0.45208612 -0.14142266 -0.023367753 0.09160055 -0.069147915
-0.5932523 5.5381287e-07 0.034141984 -0.19540249 0.36336884 -0.39862627 0.18895303 -0.16749813
-0.36220628 -0.51993114 0.049823266 7.997347e-07 1.8748065e-06 0.6766245 -1.1415992e-06 -1.4254432e-06
-0.0016421069 -0.10785829 -1.185255e-06 0.40319717 0.05202081 -0.15201862 -2.6586278e-07 -0.26484156
0.17354758 2.575641e-07 0.67724895 -4.270281e-06 -1.1124309e-06 2.8183158e-06 0.6860428 -4.598907e-06
-0.534762 0.3616025 0.34302247 -0.12198333 -0.3292993 -1.2159566e-06 0.48939466 3.673882e-06
3.6580266e-06 -1.0058493e-06 -9.383747e-07 -0.051588356 0.40464386 -0.14470282 0.5679931 -9.005115e-07
-0.1865733 7.8451755e-08 -0.100906394 -0.024887174 0.8025691 -1.2357651e-06 1.2538457e-06 -1.1689411e-06
0.11271959 0.12399218 1.1980453e-06 -0.24073324 -0.4462749 -0.045116868 0.75104994 0.01799615
0.6651527 1.2267985e-06 -0.0003984826 -0.02157726 0.56859237 -0.06094524 -0.88996935 0.035604082
-0.26152995 -0.16549328 0.47775388 1.5496126e-06 1.6918939e-06 -0.6587646 3.2121203e-08 1.15426374e-07
0.020553164 -0.058941405 -2.934486e-09 -0.060204785 0.43309793 -0.07013225 4.4360313e-08 -0.06184112
-0.4572995 -1.2699267e-06 0.38010275 -8.808971e-07 7.958136e-08 1.2041681e-06 0.80719745 -2.5541086e-08
-0.5834401 -0.35666844 -0.004526168 -0.73738307 0.41925517 9.13418e-07 0.21314123 3.5140962e-07
9.453917e-07 1.6789662e-06 2.8170703e-06 -0.00016463327 -0.047349006 0.04637838 -0.038700882 -1.290054e-06

cl1.layer_1.bias f4 [64]
00000000: b21a e83b 3ff1 c8bd 45df 453e 48fa 113d
00000010: db59 b23c 30bc cebc 035f dbb5 8cdd fabc
00000020: 8d27 383e 18bc cfbd e931 7abe b9eb f8bc
00000030: 5798 43b9 468b e9bb a0f7 a0bd ac25 9a35
00000040: 6d15 a635 f756 4ebd a325 97b6 16a2 d03b
00000050: dcb4 fc3d ea00 f33d 5afe 57bd e017 3538
00000060: e8eb 1ebe ccb8 e235 e4e9 32be d5f0 56bd
00000070: f597 88bd 9a07 ccb8 60b2 ffbc 1682 2338
00000080: b23f afb5 cd01 2a35 7084 d1bc b39e 163d
00000090: e03b cbbc 1c58 a835 7a75 afbc 513e a33d
000000a0: 06d0 b5b5 58ce 9635 66c0 80bd ae80 af3c
000000b0: b034 08ba 1293 b8bb 5bcd 8335 cc8c 3f3e
000000c0: 6552 833d 7dbe 2e3d 5858 90bd 597e 2b3d
000000d0: 57e2 ff3b d99a a0b5 50e1 96b5 3634 9735
000000e0: c31b 9bbd 2752 68bd 87f1 ba35 c6d8 80bc
000000f0: a75b 7d36 db84 f5bc d8e5 78bd b8ea f23c
0.0070832605 -0.09811639 0.19323452 0.035639077 0.021771362 -0.02523622 -1.6344424e-06 -0.03062322
0.17983837 -0.10143298 -0.24433102 -0.030385839 -0.000186534 -0.0071271984 -0.07859731 1.1484858e-06
1.23742e-06 -0.050375905 -4.504532e-06 0.0063669784 0.12339184 0.11865409 -0.052732803 4.3175998e-05
-0.15519679 1.6892095e-06 -0.17472035 -0.05247577 -0.066696085 -9.728894e-05 -0.031212986 3.898338e-05
-1.3057054e-06 6.3332556e-07 -0.025575846 0.03677244 -0.024808824 1.2542619e-06 -0.021418322 0.0797087
-1.3546094e-06 1.1235925e-06 -0.06286697 0.021423664 -0.00051958393 -0.0056327665 9.820027e-07 0.18706053
0.064122 0.042662133 -0.070481 0.04186854 0.0078089642 -1.1965996e-06 -1.1241445e-06 1.1265572e-06
-0.075736545 -0.05671897 1.3928374e-06 -0.015728366 3.7753287e-06 -0.029970577 -0.06076607 0.029652938

cl1.layer_2.weight f4 [64, 64]
00000000: 217a 9036 80e0 b2b5 5c2f a6b5 589d a3b5
00000010: e961 a835 c5f5 ef35 88f6 7236 14d2 b635
00000020: eb7b a1b5 176c 80b6 1ce8 ab35 075e a635
00000030: 416c 6235 d1a1 b335 d691 7236 f5ef acb5
00000040: e587 e8b5 139b ac35 028d 1235 a8f6 9036
00000050: ef15 a135 bb5d cb35 c042 e7b5 c0e5 0eb5
00000060: c5ce e535 ed52 b135 86b6 acb5 8023 9735
00000070: cebe 9bb5 de70 bc35 f6b1 af35 951a ae35
00000080: fda7 ea35 69cd eab5 a6f2 a535 f603 6db5
00000090: d7a7 64b5 b86f ae35 f793 eab5 ab9e 70b6
000000a0: 0cc1 a4b5 f800 95b5 19a8 bb35 0d0f b8b5
000000b0: 3eb8 6c35 2fc8 acb5 4572 80b6 25e2 6bb6
000000c0: 8b9f 74b6 f4ac 7935 45b7 a6b5 515b 8136
000000d0: eddc 1535 ae88 90b6 94a6 7fb6 f66c b235
000000e0: 1789 50b4 c93c e935 4858 a435 124d b0b5
000000f0: 6c86 a4b5 35b3 ab35 3138 b235 b041 a135
00000100: dd0a 4e39 9556 0cbf e9ae 323e 987f 893e
00000110: a6e6 ca3e af0d 1dbe 9705 7335 574d a0bd
00000120: 0222 bdbe 221e a2b8 4547 223d 365f 363f
00000130: 5c56 7bbe e864 1f3e c1c2 3f3d fad5 3034
00000140: 926b a835 ae5f 14bb a2e6 a1b5 dbec 443f
00000150: bf7f 223e 2c8a 863c 862b 23bf 646b 89b9
00000160: 3129 ecbe 0089 bc33 2261 403f a94e 723e
00000170: 5c6e c1bc d58c 6ab7 81e2 ffbe bdc8 07b6
00000180: 1963 9635 77a1 b5b5 535d c2bc ce43 4bbd
00000190: b5ac 5439 1409 b0b5 f982 0f3d b233 333f
000001a0: 710a 7635 f110 c835 4075 6dbe e2ad 8f3e
000001b0: 289e 633d 4fa6 073f 780c b3b5 dd05 1fbe
000001c0: 64c0 4fbe efdb 033e 0901 893e 0821 6d3d
000001d0: 2245 c2be 0193 9f35 d04d aa35 5186 be35
000001e0: 4143 19bd 3492 9cbd 8436 6d35 fe90 d2be
000001f0: 6b0b e8b3 863d 813e 79c1 373e 5bc5 b9be
00000200: 5290 943c e977 4f3f 65e3 0fbf 2416 c13e
00000210: c224 d43e 7b40 b4be f7a6 a4b5 9c39 5abd
00000220: 3075 303f 355c b9bc 2112 ddbe 315c b2be
00000230: e49f f4bc a920 833d d2ed a9be eb81 ad35
00000240: e29a 9635 33a2 ccbd 9d3d cd34 1466 823b
00000250: 27f2 0c3e 943b 1e3f 5794 3fbe c0fe 133c
00000260: 41b2 d7bd 220b a5b3 bb7d 9b3e 6afb 213f
00000270: 8fb5 11be 9215 0237 bd7d 423b 8376 01b6
00000280: 21da 08b5 d4f1 e035 12dc 4bbb 3593 b9be
00000290: 1ee5 0fbc f2fe acb5 641f 613d 9492 313f
000002a0: 3c84 6a36 9d48 9835 41e6 8fbc 8d03 493e
000002b0: 022a 27be e7ff 8b3e 6828 9735 4d1c a2be
000002c0: 561e 173d 79b8 a8be f3d3 df3d 6e35 733e
000002d0: 53dc 57bf 3fa6 a3b5 11b5 81b6 691b 30b4
000002e0: 1c9a 36be 6773 663d 5ad0 a9b5 3542 c7be
000002f0: d514 dd35 a6af 32b8 63a2 8f3e 8c18 2c3d
00000300: c6be df33 cccb 69b5 9872 5eb5 f75d 57b5
00000310: 1a8f eab5 0b75 b1b5 3a42 bdb5 fbb4 6534
00000320: 7c6a 0ab5 73cc 5334 7f06 e932 1255 b1b5
00000330: 2bd5 9a35 3256 09b5 0297 bc35 98aa b735
00000340: f549 90b6 b32f 9d35 4909 ea35 a56a a3b5
00000350: 89fd 3ab4 d0b7 d534 43f9 9835 ab71 8036
00000360: 0bb6 b935 eeb0 9036 7848 5835 afbf c935
00000370: 31ef 9ab5 64a4 9036 2c10 a635 af53 da34
00000380: 5441 b1b5 69fb ea35 013c f035 70e0 1235
00000390: 476e 1db6 2573 a0b5 2f6b aeb5 dd0a d835
000003a0: 011f eab5 f689 ea35 6126 8335 6414 ea35
000003b0: 9d6f dc35 1c70 e7b4 9ec0 9ab5 8d63 9635
000003c0: d09b eab5 cee3 f235 0746 b335 09af 2cb3
000003d0: 3560 9835 6aab 7fb6 5f3e ea35 2ffe e935
000003e0: bdc1 44b1 f06f e8b5 b5df b035 b71b a835
000003f0: e46d b135 7e1c b235 39f9 9935 2f98 e235
4.305752e-06 -1.3327372e-06 -1.2381747e-06 -1.2190239e-06 1.2545471e-06 1.7878416e-06 3.620431e-06 1.3621197e-06
-1.20315e-06 -3.8272806e-06 1.2808046e-06 1.2395329e-06 8.434909e-07 1.3383634e-06 3.6145698e-06 -1.2884835e-06
-1.7324897e-06 1.2860131e-06 5.459443e-07 4.320249e-06 1.2001818e-06 1.5151958e-06 -1.7230268e-06 -5.323345e-07
1.7122007e-06 1.3211662e-06 -1.286812e-06 1.1260709e-06 -1.1603931e-06 1.403994e-06 1.309031e-06 1.2971747e-06
1.748325e-06 -1.7494141e-06 1.2364078e-06 -8.8295144e-07 -8.518086e-07 1.2996525e-06 -1.7477422e-06 -3.5855144e-06
-1.2275136e-06 -1.1101647e-06 1.3981509e-06 -1.3713449e-06 8.818496e-07 -1.287326e-06 -3.828e-06 -3.5149362e-06
-3.64517e-06 9.301141e-07 -1.2421302e-06 3.85513e-06 5.5828315e-07 -4.307446e-06 -3.8094922e-06 1.3293745e-06
-1.9421383e-07 1.7377544e-06 1.2244645e-06 -1.3135452e-06 -1.2258074e-06 1.2792649e-06 1.3278387e-06 1.2014552e-06
0.00019649738 -0.54819614 0.17449535 0.2685516 0.39629096 -0.15337251 9.053269e-07 -0.078272514
-0.36940008 -7.730375e-05 0.03961875 0.7123903 -0.24544662 0.15565836 0.04681659 1.6469122e-07
1.2548282e-06 -0.0022640037 -1.2062558e-06 0.7692391 0.15869044 0.016423307 -0.63738286 -0.00026210689
-0.46125177 8.7793524e-08 0.7514821 0.23662819 -0.023612194 -1.3980277e-05 -0.49977496 -2.0233413e-06
1.1204712e-06 -1.3532543e-06 -0.023726141 -0.04962521 0.00020282234 -1.3115664e-06 0.035037015 0.70000756
9.1657336e-07 1.4906092e-06 -0.23189259 0.2806235 0.05557075 0.5298814 -1.3340168e-06 -0.1552958
-0.20288235 0.12876867 0.26758602 0.05789283 -0.3794337 1.1889207e-06 1.2688633e-06 1.4195194e-06
-0.037417654 -0.076450735 8.836871e-07 -0.41126245 -1.0805419e-07 0.2524225 0.17944898 -0.36283383
0.018135224 0.81042343 -0.5620635 0.37712204 0.41434294 -0.35205445 -1.2267545e-06 -0.053277597
0.68928814 -0.022626976 -0.43177894 -0.3483596 -0.029861398 0.06402714 -0.33189255 1.2927316e-06
1.1220948e-06 -0.099918745 3.8229055e-07 0.003979454 0.13764249 0.6180966 -0.18708931 0.009032905
-0.10532046 -7.685436e-08 0.30369362 0.6327425 -0.14229415 7.753626e-06 0.0029676997 -1.929148e-06
-5.098137e-07 1.6759682e-06 -0.0031106514 -0.36245123 -0.008782653 -1.2889197e-06 0.054961577 0.69364285
3.4945688e-06 1.1346016e-06 -0.017565848 0.19630261 -0.16324618 0.27343675 1.1262136e-06 -0.31662217
0.036894165 -0.3295324 0.10929098 0.2375085 -0.84320563 -1.219283e-06 -3.8655785e-06 -1.6401249e-07
-0.17832226 0.0562624 -1.265212e-06 -0.389177 1.6471846e-06 -4.2602092e-05 0.2805358 0.042015597
1.0418948e-07 -8.709583e-07 -8.28682e-07 -8.023048e-07 -1.7476007e-06 -1.3221592e-06 -1.4100872e-06 2.1393127e-07
-5.156396e-07 1.9725285e-07 2.7127724e-08 -1.3212286e-06 1.1535934e-06 -5.116191e-07 1.4051041e-06 1.3684212e-06
-4.300144e-06 1.1711294e-06 1.7437061e-06 -1.2175484e-06 -1.7414835e-07 3.9808083e-07 1.1397427e-06 3.82793e-06
1.3836556e-06 4.3121318e-06 8.0571726e-07 1.5031454e-06 -1.1543508e-06 4.310672e-06 1.237267e-06 4.0666552e-07
-1.3206541e-06 1.7507529e-06 1.7898857e-06 5.471584e-07 -2.3459013e-06 -1.195444e-06 -1.2995205e-06 1.6096416e-06
-1.7443382e-06 1.747451e-06 9.77143e-07 1.7440293e-06 1.6423761e-06 -4.3108673e-07 -1.1529953e-06 1.1204844e-06
-1.7479706e-06 1.8096705e-06 1.335692e-06 -4.0206064e-08 1.1352882e-06 -3.8097737e-06 1.7452511e-06 1.743383e-06
-2.8631881e-09 -1.7317925e-06 1.3178129e-06 1.2525041e-06 1.321951e-06 1.3270326e-06 1.1471922e-06 1.6882603e-06

cl1.layer_2.bias f4 [64]
00000000: e3b7 9b35 30cb 913b 10ba 1abd 98da 9935
00000010: 0a64 3c3d 7c76 8138 cf58 d5ba 8010 7435
00000020: 7b75 153d 471f 12bd 4696 173d 005f abb5
00000030: a79d a93c d30a 1639 d579 b435 a4f8 b035
00000040: b06c 293e 79c2 9cb5 c0fe abb5 895f 3a3e
00000050: 18a7 95b5 2dfe 1cb6 7c96 773a d73f afb5
00000060: 230c 2bbe f514 fe37 f906 abb5 94a7 cfbd
00000070: db6d ac35 0c4b 65ba d53f 1039 400c 0335
00000080: 6c02 8036 6a11 833b e906 eebb 246b 1ebb
00000090: c6f2 acb5 5011 0c3e 5935 6abb 25f1 f235
000000a0: 407a 203e 4513 7e3d 25cd 92bb 41b7 00bd
000000b0: 9f93 a935 4dd4 aabc b7d5 ea38 31cf b035
000000c0: c053 193d 37bc 1c3a 3de1 ed39 6f22 b7bd
000000d0: 754e c33a 7d17 813e cbbf a43d f244 a1b7
000000e0: f2e7 11b5 824e b735 1644 02bb 6cea 123a
000000f0: 18f6 453c fe75 bdb5 601c a235 c261 0439
1.1601918e-06 0.0044492707 -0.0377751 1.1463007e-06 0.045993842 6.173269e-05 -0.0016277077 9.0921094e-07
0.03648899 -0.03567436 0.037008546 -1.2768141e-06 0.020705057 0.00014309147 1.3446503e-06 1.3185386e-06
0.16545367 -1.1679505e-06 -1.2814635e-06 0.18200506 -1.1149996e-06 -2.3393761e-06 0.0009444726 -1.3057096e-06
-0.16703849 3.0288918e-05 -1.2742522e-06 -0.10139385 1.2846971e-06 -0.00087468396 0.0001375669 4.881913e-07
3.814979e-06 0.0039998787 -0.0072640073 -0.0024172748 -1.2885655e-06 0.13678479 -0.0035737364 1.8100587e-06
0.15671635 0.062030096 -0.0044800215 -0.031424765 1.2634445e-06 -0.020853186 0.00011197797 1.3173322e-06
0.037433386 0.0005978974 0.00045371978 -0.089421146 0.0014900701 0.25213233 0.08044394 -1.92248e-05
-5.4354234e-07 1.3657411e-06 -0.0019877008 0.00056043896 0.012082599 -1.4115938e-06 1.2078199e-06 0.00012624919

cl2.layer_0.weight f4 [64, 64]
00000000: 2f3e 4e34 6f05 103d cc04 06b8 e8c9 a8b5
00000010: f321 cd3b 18e3 ea39 6f1a 10bd 1e15 7fb6
00000020: 90ad 81b9 4030 143d 68b6 773e 8714 aa35
00000030: c405 3b3e cd9f 86b6 d2bf ab35 e8c2 76b6
00000040: e1f3 7d3b 9b7f 9b35 d166 9035 dbc8 63bd
00000050: e793 73b6 62ba dc35 1d97 aa3d 369e 81b5
00000060: 9e84 bc3b e967 b435 1120 0635 45b5 eb3b
00000070: 9a07 e9b5 5bbb bcb8 fcd5 69b8 209d 2035
00000080: 1e57 b935 c264 8b3d af20 b1b5 55ed 363e
00000090: 0275 a1b5 04e6 25bf 3f0f 073f 910e 66b5
000000a0: 74fd 1f3c 4201 3a3c d4c8 263d 2824 8335
000000b0: 94a4 0a35 4475 a23d 5aa8 2b3b a4e6 80b3
000000c0: 4b8d 2e3b 5336 c83c bfc4 8fbb 7aa3 ebbc
000000d0: 6599 d9b8 e5d4 e03c 210b 16bf 48c0 acb6
000000e0: ab8a afb5 3028 9d35 2147 2ebc 4495 a13d
000000f0: 8442 0bbe b07a a435 0e19 9a35 ba99 35b7
00000100: 87b5 e635 2fbc 8e3d c4f4 08bb a611 afb5
00000110: 222c af3c 1cc2 6d3e dc48 9d3d 1d29 a7b5
00000120: 65c4 1bbc c88d 033e a0dd 443e fc15 ebb5
00000130: 70e4 903e fb92 023e ad19 80b6 20f7 1ab5
00000140: eb7d f03e 93df 7e35 a605 cdb5 303c 2fbf
00000150: d7c4 99b5 4de5 5ab5 465f 413c f56b a3b5
00000160: c8a0 343e 3fcc 7936 d934 7736 5059 a23c
00000170: c457 b435 1508 c1b9 7368 af3e cc10 a0b3
00000180: de92 93b3 117e 9ebe 514c ea35 5301 a1bd
00000190: 56b0 67b5 38e8 1dbf 0c2e a63e 4ffd f535
000001a0: 4cae 153e 55cd 5f3d bf49 59bf aa86 a4b5
000001b0: a7bf 20b5 14d4 7abe 9afb 0b3d d3ff a835
000001c0: 1f8a ac3d 4e25 1239 a4a8 423e a2c3 c13d
000001d0: 7314 70bd 16e4 a3be 20a4 f43c 6530 e3b8
000001e0: a722 a2b5 58e6 9835 105f 293d 0304 66be
000001f0: de56 973d 2ffe e6b5 a142 afb5 c4e7 7d3b
00000200: ee4d 4f34 760a b7b5 7563 b8b5 b781 9036
00000210: 91df 6db6 fd3b ed35 3c6e 5eb5 128a ae35
00000220: 0b30 a7b5 2f18 a235 2fbe bbb5 9305 6635
00000230: f22e 8135 6e21 96b5 280d afb5 fd04 ea35
00000240: 7d42 d835 cd29 9535 7b21 9335 d144 aeb5
00000250: bcab b735 fea4 b2b5 3c97 3d36 0669 ae35
00000260: 363d 56b5 7b45 73b6 2b97 9036 948a b435
00000270: 3678 9036 e88f ba35 0b1b 9eb5 7da2 7fb6
00000280: 2bf6 96b5 836f db35 94f1 76b6 2248 e935
00000290: 2780 80b6 501c 0a35 b441 69b6 943f b2b5
000002a0: 59d3 a5b5 83b2 a3b5 665e b6b5 d33a a135
000002b0: e7e0 7fb6 cdf0 cfb4 3b18 9cb5 9408 dcb4
000002c0: 23f1 a9b5 9a1c c233 6104 b735 ba12 9f33
000002d0: 536e 1c35 ab7e 6db5 45bc a1b5 f051 a535
000002e0: 0684 90b6 7bf7 61b5 0f00 6435 516a a5b5
000002f0: 6a8f bc33 2347 b2b5 2ae8 ae35 db70 bab5
00000300: c596 cd35 b98e 723d b57f 983b d81e d3b4
00000310: 68cd eabb 939c c7bc 33fc 013f 983f 9cb5
00000320: 8177 c2be 98c8 db3d c499 403e e872 af35
00000330: ed49 803d 6b00 39be affd 7736 c216 7f36
00000340: a037 093f 79ec b1b5 bdd4 b935 938a 08bf
00000350: 7550 cfb5 b6f6 76b3 e9eb 15bf 1d89 e234
00000360: 1185 593e 6ef1 9b35 3abd af35 8c51 e9bd
00000370: b5ca ae35 62aa f7bd 442d e23e bdb2 6eb5
00000380: 74b2 7835 b4ea 1a3e 8761 b1b5 bb78 123a
00000390: 8335 aab5 a068 0ebf 3104 8b3d b25d 8d33
000003a0: 66e3 d3be 647b af3d 5c69 4b3e c9ee 54b4
000003b0: 46af 4234 2696 843d 2ba6 933e 7df7 6c36
000003c0: 1968 f2bd 477e 0f3d 2fb6 7fbc 56c2 c53d
000003d0: 852c 1ebf 87ab 5ebf 1e79 3b3f 45b9 d4ba
000003e0: 82a0 8632 8d60 c3b5 988d 693b 4261 343e
000003f0: 518a a53d 4d28 9d35 cc1c 7134 61c1 393c
1.9207867e-07 0.035161432 -3.1952557e-05 -1.2575738e-06 0.0062601506 0.00044801156 -0.03518146 -3.8010253e-06
-0.00024734112 0.036178827 0.24190676 1.2671961e-06 0.18263918 -4.0121145e-06 1.279632e-06 -3.6770307e-06
0.00387501 1.1585538e-06 1.075876e-06 -0.055611473 -3.6295912e-06 1.6445522e-06 0.08329604 -9.657294e-07
0.005753114 1.3441287e-06 4.996555e-07 0.00719324 -1.7362065e-06 -8.999436e-05 -5.5750817e-05 5.983329e-07
1.3808929e-06 0.068063274 -1.319704e-06 0.17863972 -1.2029489e-06 -0.648041 0.5275764 -8.5702874e-07
0.009765018 0.011352839 0.04071887 9.770783e-07 5.16485e-07 0.07932523 0.0026192875 -6.002418e-08
0.002663451 0.024439966 -0.0043874676 -0.028764475 -0.00010375938 0.027445266 -0.5861073 -5.148384e-06
-1.3078874e-06 1.1709108e-06 -0.010637076 0.07889798 -0.13599592 1.2254659e-06 1.1481186e-06 -1.0824233e-05
1.7189167e-06 0.06969487 -0.0020897845 -1.3043652e-06 0.021383349 0.23218578 0.076799124 -1.2454435e-06
-0.009507273 0.12847054 0.19225168 -1.7515263e-06 0.28299284 0.12751381 -3.8176863e-06 -5.7729085e-07
0.46971068 9.4947717e-07 -1.5275334e-06 -0.68451214 -1.1456676e-06 -8.1545005e-07 0.0118025 -1.2175866e-06
0.17639458 3.7222778e-06 3.683663e-06 0.019817978 1.3436588e-06 -0.0003681785 0.34259376 -7.453636e-08
-6.871936e-08 -0.30955556 1.745657e-06 -0.07861581 -8.631081e-07 -0.6168246 0.32457006 1.8327645e-06
0.1461727 0.05463918 -0.8487815 -1.2258145e-06 -5.9883536e-07 -0.24494964 0.034175493 1.259143e-06
0.08424782 0.00013937542 0.19009644 0.09461142 -0.058613252 -0.32009953 0.029863417 -0.00010833218
-1.2080026e-06 1.1391921e-06 0.041350424 -0.22462468 0.073896155 -1.7210313e-06 -1.3057908e-06 0.003874288
1.9306728e-07 -1.3637607e-06 -1.3738014e-06 4.306635e-06 -3.5445885e-06 1.7675335e-06 -8.2861857e-07 1.3004194e-06
-1.2456452e-06 1.2076979e-06 -1.3987936e-06 8.568979e-07 9.624912e-07 -1.11856e-06 -1.3042345e-06 1.743581e-06
1.6112605e-06 1.1113531e-06 1.0962098e-06 -1.2984038e-06 1.3684544e-06 -1.3310053e-06 2.8251225e-06 1.2994576e-06
-7.9810286e-07 -3.6250265e-06 4.3091327e-06 1.3451377e-06 4.305529e-06 1.3899962e-06 -1.1779788e-06 -3.8092542e-06
-1.1247515e-06 1.6349226e-06 -3.6797474e-06 1.7380846e-06 -3.829616e-06 5.1450206e-07 -3.475795e-06 -1.3280537e-06
-1.2354968e-06 -1.21964e-06 -1.358753e-06 1.2012555e-06 -3.8128871e-06 -3.873196e-07 -1.1629958e-06 -4.0984435e-07
-1.2661661e-06 9.0390316e-08 1.3635837e-06 7.407421e-08 5.827507e-07 -8.8473706e-07 -1.2050228e-06 1.2317305e-06
-4.306904e-06 -8.4179163e-07 8.4936704e-07 -1.23244e-06 8.780519e-08 -1.3282737e-06 1.3031579e-06 -1.3890925e-06
1.531757e-06 0.059218142 0.0046538957 -3.9324254e-07 -0.0071655996 -0.024366653 0.5077545 -1.1641414e-06
-0.379818 0.107316196 0.18808657 1.3071958e-06 0.062641 -0.18066566 3.6953531e-06 3.8011208e-06
0.536005 -1.325635e-06 1.3845489e-06 -0.5333645 -1.5446118e-06 -5.750072e-08 -0.58563095 4.2195543e-07
0.21242167 1.1618665e-06 1.3093588e-06 -0.11392507 1.3023006e-06 -0.12093045 0.4417516 -8.892201e-07
9.2646883e-07 0.15128595 -1.3215912e-06 0.0005587448 -1.2681561e-06 -0.55628395 0.06787909 6.582867e-08
-0.4138443 0.08568457 0.1986441 -1.9830908e-07 1.8131422e-07 0.06473951 0.28837714 3.5310798e-06
-0.11836261 0.035032537 -0.015607401 0.09656207 -0.6178668 -0.8698048 0.73231685 -0.0016229531
1.5672644e-08 -1.4556732e-06 0.0035637375 0.17615226 0.080830224 1.1709141e-06 2.245535e-07 0.011337609

cl2.layer_0.bias f4 [64]
00000000: b1e2 beb6 4602 3fb9 f618 9835 deb1 7bbc
00000010: db2b b438 f227 b2b5 9210 5abc fb82 1bb8
00000020: fb72 8f38 37f6 2934 337c 01ba c33c a5b5
00000030: 8648 90b6 eb6e 77b6 b915 24b9 a629 cd39
00000040: 8fce b0b5 0dff e1bc a139 99b7 c94d ac3c
00000050: 4042 adb5 1fc6 283e 6509 e8b5 4b91 c1ba
00000060: 929b 72b6 9983 7ab8 2700 e8b5 0441 1cb6
00000070: 029d a1bd ac7d 1435 9818 b235 e7c7 64b3
00000080: 30fd 2f38 3615 45bd 4b61 0d3d bb22 cc3d
00000090: ecdb 7136 381f 7f38 79d8 26bc c8a8 7a36
000000a0: 8d6f ea35 4663 0739 9cc1 9db8 0474 5fb5
000000b0: c31c 793c e485 82bb 9de3 ef35 6adb 2e39
000000c0: 4574 1db6 523f 0d35 a590 6cbd 0345 3939
000000d0: 5c25 be3c 72b5 e53d 2e79 f93d f5ff a5b5
000000e0: ade1 56b5 3388 c8b8 ea35 2339 45f4 6535
000000f0: 0266 8b3d ded0 033b c73a 2f3e 296e b035
-5.6888316e-06 -0.00018216026 1.1332147e-06 -0.015362231 8.5912376e-05 -1.3273659e-06 -0.013309615 -3.7076865e-05
6.840188e-05 1.5828924e-07 -0.00049394666 -1.2311142e-06 -4.2999773e-06 -3.687043e-06 -0.00015648351 0.00039131677
-1.3173138e-06 -0.027587438 -1.8265857e-05 0.021033185 -1.2908786e-06 0.16481827 -1.7288081e-06 -0.0014768032
-3.6151364e-06 -5.9727205e-05 -1.7285391e-06 -2.3283656e-06 -0.07891275 5.5317173e-07 1.3269191e-06 -5.3267197e-08
4.195905e-05 -0.04811593 0.034516614 0.09967562 3.603981e-06 6.0825812e-05 -0.010183447 3.7351147e-06
1.7466824e-06 0.00012911586 -7.522406e-05 -8.32428e-07 0.015204611 -0.003983246 1.7873132e-06 0.00016675671
-2.34625e-06 5.2618736e-07 -0.05775513 0.00017668684 0.023211174 0.112162486 0.12181316 -1.2367951e-06
-8.0049614e-07 -9.562112e-05 0.00015564976 8.5664607e-07 0.06806566 0.0020113508 0.17112266 1.3145083e-06

cl2.layer_1.weight f4 [64, 64]
00000000: 32fe a6b5 8b34 b935 c366 a035 ac4c abb5
00000010: 0abf b1b5 846a b2b5 40d8 e232 96b3 c0b4
00000020: d127 66b2 0109 6235 03c4 98b5 207a 90b6
00000030: 2d55 8036 dd35 d5b4 4166 ae35 58e4 74b4
00000040: 363c a035 8afb 6335 5af6 ed35 d81c 1b36
00000050: 0202 12b5 97d7 6eb6 2a9c eab5 250c 28b4
00000060: d09c 90b6 865a b535 586f b2b5 61de eab5
00000070: 0af3 fdb4 fb09 a0b5 05ce db34 220b eb35
00000080: 89fa f035 4ae4 f7b5 f471 acb5 d03d 7ab5
00000090: 4689 3db4 2eeb a935 e3f4 92b5 89a7 eab5
000000a0: 6c8b a4b5 a12c d632 3b33 3d36 1f15 eab5
000000b0: 22b4 b735 6fa5 a235 1f42 bdb5 f0e5 6035
000000c0: 779d a0b5 9bd6 a8b5 6f64 9e35 fca9 a0b5
000000d0: 7955 bb34 f391 2435 5267 ebb5 52c0 11b5
000000e0: fc0e b135 164e 60b5 cab4 7cb6 f17f 8036
000000f0: 7880 6f36 7155 9c35 df8c a134 2671 b2b5
00000100: 1d61 a235 5084 6535 1188 9ab5 0de8 5032
00000110: 820d bb34 3662 b235 56c3 93b5 d26c 9635
00000120: 4a1e 4032 7256 b2b5 f3f9 df35 259b eab5
00000130: 053c e835 d445 7f36 ef35 b0b5 0fa8 b935
00000140: b986 d534 480b 62b5 ae5a a135 1f67 7eb6
00000150: 66eb a535 3bd6 9f35 ed5b ea35 fb24 b3b5
00000160: 36b3 9036 6666 65b5 8fc6 9635 4d79 8036
00000170: 8955 c3b5 6be9 94b5 29f4 7f36 8931 6635
00000180: e333 77b6 e146 2433 8d77 a435 f372 b235
00000190: 910f eab5 49b9 e7b5 82b2 b235 34a0 ea35
000001a0: ff30 a5b5 c062 e8b5 1c00 b135 380c b1b5
000001b0: 78c1 a334 ad8a 6635 a5df eab5 98b2 4c36
000001c0: d05c 7236 ee0d 71b6 1a07 a435 7562 b235
000001d0: 6da6 f833 22de 8cb5 8a6f 8fb5 98b1 a4b5
000001e0: 771f eab5 d3e0 6035 3213 4b36 26d2 b735
000001f0: ffde d5b5 0eeb ebb5 5553 7636 87a8 90b6
00000200: a5f9 b0b5 4a51 b135 9e36 7236 3a48 a835
00000210: 6b0a 9f35 1147 b235 ab1e 6eb5 c8cf b0b5
00000220: 6b41 4db4 a279 9036 642f 7cb5 aa71 b2b5
00000230: 6249 0ab5 a874 b235 6a9e a0b5 bd0b b535
00000240: 209e b135 76cc b235 4518 a5b5 b771 b035
00000250: ec38 b7b5 308a 9fb5 bdeb 7b35 6195 be33
00000260: 5253 1235 6b1b 9bb5 e63b ae35 d29f d433
00000270: 1bfd 6133 466a ae35 ddc8 9635 bd62 ea35
00000280: b944 a335 aad6 3436 0239 83b5 2e2a ebb5
00000290: 7d7a eab5 4b9e 65b5 5122 6c34 0c96 aeb5
000002a0: 5765 ea35 17b0 e9b5 3e2c bcb4 3dac 6135
000002b0: bfb5 afb5 7af9 7ab6 83ef eab5 e5bd 4035
000002c0: d2e7 e9b5 55ca eab5 44b5 d435 0444 0bb4
000002d0: 7dc3 a1b5 5faf ee31 1fa7 d2b5 580e eab5
000002e0: 6655 77b6 366d 7931 6dc1 8035 a88c aeb5
000002f0: 1372 4134 3cf8 abb5 29c6 acb5 a571 80b6
00000300: a896 283a d064 aabd 93c5 9eb5 fadf 313e
00000310: 9d68 6d3c 3b12 9e35 f847 8cbe 698a 26be
00000320: 8310 45bd 3e4d aeb5 3c0b ec3e 3c61 b635
00000330: ce9d a4b5 b387 9b35 babb 66be c952 83be
00000340: bf3d 8035 8993 96bb 2215 d439 15e9 14be
00000350: 01ff d2b5 c817 ee3d 44e6 cfb4 dd6b 04be
00000360: 7101 ee35 fdf1 f4be ba71 adb5 088e 7536
00000370: c8d4 e0bd f271 4434 fc2f 3634 1152 a5b5
00000380: 0bfc dbbd 8eff fe3d f01a 65be cf27 cc3e
00000390: fe05 83b6 4315 5dbe 7df5 c5be db1f aa35
000003a0: 3087 b2b5 df1f e1be 267e ac3e ef94 6f33
000003b0: 452a 293f 07ad 16be 36e8 a535 7f49 55bf
000003c0: aef1 c434 5706 b2b5 4d5e a3be 8b47 71bd
000003d0: 3c46 28bf 6c27 cb3e 754c 0abd a2fd 76b6
000003e0: b1e3 7135 9dd4 7fbd f8fa 01bf 1c1b a1b5
000003f0: 08b6 0c3f 0bba 8c3e 5fe1 a93e 4373 b0b5
-1.2441944e-06 1.3798866e-06 1.1950837e-06 -1.2762807e-06 -1.3243127e-06 -1.3293034e-06 2.6408202e-08 -3.5893453e-07
-1.3396815e-08 8.4204663e-07 -1.1381929e-06 -4.3057516e-06 3.824613e-06 -3.9713532e-07 1.299377e-06 -2.2807342e-07
1.1938453e-06 8.493013e-07 1.7729574e-06 2.311359e-06 -5.439216e-07 -3.5590253e-06 -1.7479808e-06 -1.5650637e-07
-4.30979e-06 1.3511897e-06 -1.3294439e-06 -1.7499079e-06 -4.7301756e-07 -1.1923834e-06 4.0941828e-07 1.7512104e-06
1.7954309e-06 -1.8469375e-06 -1.2848163e-06 -9.3222206e-07 -1.7651936e-07 1.2659928e-06 -1.0949119e-06 -1.7483118e-06
-1.2259529e-06 2.4933174e-08 2.8193015e-06 -1.7440506e-06 1.3686988e-06 1.2118088e-06 -1.4100841e-06 8.3781106e-07
-1.1966757e-06 -1.2579434e-06 1.1801147e-06 -1.1970401e-06 3.4893654e-07 6.1307145e-07 -1.7538935e-06 -5.429657e-07
1.3191889e-06 -8.356013e-07 -3.765616e-06 3.8295916e-06 3.5688554e-06 1.1647772e-06 3.0091084e-07 -1.3294964e-06
1.2098204e-06 8.550169e-07 -1.1513495e-06 1.2159956e-08 3.4841293e-07 1.3290617e-06 -1.1009204e-06 1.1207542e-06
1.1182758e-08 -1.3287192e-06 1.668754e-06 -1.7479512e-06 1.7302815e-06 3.8038606e-06 -1.3128719e-06 1.3832486e-06
3.9772365e-07 -8.4207977e-07 1.2021826e-06 -3.7908974e-06 1.2361968e-06 1.1908772e-06 1.7461113e-06 -1.3347302e-06
4.3123973e-06 -8.545816e-07 1.1233659e-06 3.8288185e-06 -1.4553526e-06 -1.1094793e-06 3.814008e-06 8.575376e-07
-3.683607e-06 3.824869e-08 1.2253746e-06 1.3295488e-06 -1.7438889e-06 -1.7264766e-06 1.3313986e-06 1.7480984e-06
-1.2307718e-06 -1.7314087e-06 1.318756e-06 -1.3191084e-06 3.0501883e-07 8.5883477e-07 -1.7499448e-06 3.0502324e-06
3.6114834e-06 -3.5919907e-06 1.2221019e-06 1.3290688e-06 1.15786726e-07 -1.0495462e-06 -1.0686792e-06 -1.2270639e-06
-1.7443516e-06 8.3773665e-07 3.026053e-06 1.3695724e-06 -1.5934637e-06 -1.7577274e-06 3.6705362e-06 -4.3111536e-06
-1.3185678e-06 1.3211186e-06 3.6092601e-06 1.2537996e-06 1.1849455e-06 1.3282717e-06 -8.8706537e-07 -1.3173494e-06
-1.9115912e-07 4.3056943e-06 -9.394628e-07 -1.3295114e-06 -5.151579e-07 1.3295985e-06 -1.1967034e-06 1.3488967e-06
1.3233548e-06 1.3321539e-06 -1.2300521e-06 1.3146117e-06 -1.3651129e-06 -1.1886641e-06 9.384783e-07 8.874736e-08
5.4510485e-07 -1.155638e-06 1.2981443e-06 9.9010904e-08 5.2617093e-08 1.299494e-06 1.123433e-06 1.7463095e-06
1.2164447e-06 2.694704e-06 -9.776852e-07 -1.752114e-06 -1.7470007e-06 -8.5539494e-07 2.1991697e-07 -1.300768e-06
1.7463852e-06 -1.7411102e-06 -3.504992e-07 8.406967e-07 -1.3091411e-06 -3.7398117e-06 -1.7504066e-06 7.1801907e-07
-1.7427321e-06 -1.7493245e-06 1.5847986e-06 -1.2970128e-07 -1.2052329e-06 6.946649e-09 -1.5694858e-06 -1.7438533e-06
-3.6855577e-06 3.6296348e-09 9.593037e-07 -1.3004947e-06 1.8016026e-07 -1.2812739e-06 -1.2872671e-06 -3.8279272e-06
0.0006431141 -0.0832001 -1.1829419e-06 0.17370597 0.014490274 1.1777223e-06 -0.27398658 -0.16263737
-0.04811145 -1.2986491e-06 0.4610232 1.3588356e-06 -1.2264879e-06 1.1587894e-06 -0.2253255 -0.25649098
9.554714e-07 -0.0045952243 0.00040451536 -0.14542039 -1.5720435e-06 0.1162563 -3.8724295e-07 -0.12931772
1.7732801e-06 -0.47840872 -1.2922603e-06 3.6590518e-06 -0.10978085 1.8295376e-07 1.6967527e-07 -1.2317342e-06
-0.10741433 0.12451087 -0.22373557 0.39874122 -3.904802e-06 -0.21590142 -0.38663855 1.2675258e-06
-1.3301378e-06 -0.43969628 0.33689994 5.5781978e-08 0.66080123 -0.14714442 1.236104e-06 -0.8331527
3.668369e-07 -1.3263879e-06 -0.31907883 -0.05890612 -0.6573217 0.39678514 -0.03376432 -3.680449e-06
9.011083e-07 -0.062458623 -0.5077357 -1.2003325e-06 0.5496526 0.2748569 0.33179757 -1.3146567e-06

cl2.layer_1.bias f4 [64]
00000000: 8e2b 69b5 eee2 b3b5 790c b4b5 606b 3738
00000010: 7b40 62b4 c779 aab6 2466 443e 0895 b035
00000020: 4126 1338 09eb 16b8 67e3 9d35 d950 e837
00000030: 931a e835 697e a8b8 fcfa b135 40a1 77b7
00000040: c43d 8135 2664 1db8 31fb fdb8 a8bc 9ab5
00000050: ea84 b035 fd95 93b6 f78a c932 5634 3bb7
00000060: ffd1 943c ee62 8ebc 3ee1 9435 2957 e435
00000070: d1a2 c934 c036 a9b6 906a 3cb7 753d 9a35
00000080: 29e3 10b5 4d3a 91b7 7689 0b39 a8f1 dfb7
00000090: 065b d6b5 6778 9e38 488b e835 942f a835
000000a0: 84aa e9b5 3d99 48b8 d341 2539 3a34 64b6
000000b0: de4b a4b5 0fba 56b8 04fd 073e 8c49 1e36
000000c0: f773 6936 a1a8 c839 fef6 afb5 0b41 9cb6
000000d0: 9d98 8db9 0cb8 6338 4b73 1c36 8680 37b7
000000e0: bbb4 c6b7 00dd eeb9 9d22 35bd 4156 a2b8
000000f0: b94d 5f34 a99e dab6 134b a235 bdd8 e336
-8.6862644e-07 -1.3402584e-06 -1.3414675e-06 4.37306e-05 -2.1071348e-07 -5.0805716e-06 0.19179589 1.3156396e-06
3.5083158e-05 -3.598168e-05 1.1763594e-06 2.7694203e-05 1.7293081e-06 -8.03441e-05 1.3260574e-06 -1.4759891e-05
9.629225e-07 -3.7524987e-05 -0.00012110768 -1.15288e-06 1.3151705e-06 -4.3984023e-06 2.3462674e-08 -1.1158254e-05
0.01816654 -0.017381158 1.1092413e-06 1.7012691e-06 3.7557632e-07 -5.042966e-06 -1.1230484e-05 1.149178e-06
-5.397474e-07 -1.7312495e-05 0.00013307281 -2.6696202e-05 -1.5970734e-06 7.556454e-05 1.7325883e-06 1.2530822e-06
-1.7409479e-06 -4.782643e-05 0.00015760148 -3.4005047e-06 -1.2241032e-06 -5.1194856e-05 0.13280112 2.3586645e-06
3.4787206e-06 0.0003827261 -1.31104e-06 -4.6567343e-06 -0.00027007321 5.4292424e-05 2.331292e-06 -1.0937574e-05
-2.3687599e-05 -0.00045559555 -0.044222463 -7.740828e-05 2.0796769e-07 -6.5153768e-06 1.209179e-06 6.790359e-06
