experiments/bess_chp_hwt/classifier/1551963312_0.1369/1551967582_0_classifier_final.pth (torch_old, 890417 bytes, 52 tensors)

cl0.weight f4 [64, 9]
0.32636538 -0.5840162 -0.38824475 -0.47845036 -0.1007922 -0.27484635 0.81864166 -0.47622964
0.83163065 0.08272799 0.49385467 0.6633578 -0.88124174 -0.68991977 0.9498419 0.18767644
0.03212753 -0.0821791 0.12288521 -0.39206943 -0.25192428 -0.6221918 0.46251816 -0.035792705
0.81937516 -0.88712615 0.5274279 -0.59782547 -0.0858027 0.42195725 0.65041816 -0.3339979
-0.10672921 0.047271267 -0.53912354 -0.17435463 0.74754345 -0.2319502 0.0077145286 -0.484137
-0.30766553 0.48168126 0.3767003 -0.12055238 0.67729914 0.7548607 -0.78820384 0.2992079
-0.6188072 0.8572199 -0.4020764 0.6329944 -0.02199656 -0.13903134 -0.23043628 0.073723
0.6613203 0.39762607 1.0701542 -0.7289148 0.32463202 -0.29497638 -0.1938042 0.42763135
-0.69080144 -0.6629023 0.27849028 0.073744275 0.14086974 -0.52273005 -0.4797965 0.56981707
-0.3560782 0.040744204 -0.42424646 -0.58603466 0.18112135 -0.5522983 0.7915425 -0.094116695
-0.15011479 -0.3689772 -0.07324752 0.37343487 -0.4730786 0.4008528 -0.64780015 0.94786394
-0.44179776 0.084429726 -0.008470996 -0.13258655 -0.18277994 -0.4276257 0.6018132 -0.52078307
0.6840326 0.14219655 0.07572006 -0.06108265 0.6494206 -0.6629051 0.80722815 0.64911944
0.31706053 -0.4980918 -0.55944765 -0.40286693 -0.024597267 0.6148172 0.3893515 -0.5544346
-0.010848061 1.2841046 -0.3703372 0.55732334 -0.8775035 0.32627755 0.22527593 0.16136852
-0.2097551 -0.456537 -1.7964998 0.97630984 0.2147299 -0.016039053 -0.4260316 -0.4117406
-0.41284433 0.0034866382 -0.30340442 -0.09493074 -0.0085128695 1.0875679 0.6750411 -0.23550813
0.14089288 0.65354675 -0.35341653 -0.091677256 0.6500045 -1.3741847 -0.9945675 0.37343347
0.30273688 0.23806512 0.31941256 0.5978584 0.4177755 -1.021294 0.42878884 -0.6955736
-0.27306625 0.6228846 0.6039542 -0.7367 -0.87513334 -1.0194163 -0.2900149 1.5359263
-0.23993622 0.9429127 -0.54150754 0.70390576 -0.02980161 0.6219869 0.28296438 0.033328712
-0.5065832 -1.0470778 0.7301021 0.5876071 -0.043687306 0.21151552 1.2164925 -0.34844598
-0.73395574 -0.52994233 -0.63749963 -0.22245686 -0.19005933 0.52595866 0.030025985 0.5704433
-0.10015142 0.16198884 -1.7972893 -0.053044707 0.67658657 0.97930914 -0.48600686 -0.22671315
1.0454642 0.27525085 -0.6910887 -0.28349727 -0.48857257 -0.7022374 0.43381152 -0.018924301
0.23228216 0.7738034 -0.20251414 -1.321363 1.0096459 0.5337255 -0.57061034 0.21629333
0.038645416 -0.6115154 0.7725491 -0.10500023 -0.07771226 -0.33327404 0.6827142 -0.06321472
0.17764698 0.4021724 0.7054771 -0.89270467 -0.007905342 -0.72406363 2.038514 0.04766092
-0.49136457 0.3329598 -0.4652644 0.35767448 -0.6311769 0.46877733 -0.8725684 1.4278866
-0.14657281 0.2620138 0.5167157 0.07499798 -0.7713538 -0.06368415 0.6215197 -1.1079348
0.606091 0.77013093 -0.1377863 0.3892778 0.7170497 -0.6978238 -0.8537031 -0.6000314
1.0868807 -0.30857855 0.27845883 0.12994021 0.96054643 0.8211501 0.16759297 0.90130526
00000000: 5d19 a73e 1682 15bf 04c8 c6be 72f7 f4be
00000010: 246c cebd a9b8 8cbe 8092 513f 5fd4 f3be
00000020: bfe5 543f 4b6d a93d 85da fc3e d1d1 293f
00000030: 0f99 61bf 959e 30bf d728 733f 412e 403e
00000040: 2898 033d 844d a8bd 3eab fb3d 53bd c8be
00000050: 38fc 80be f647 1fbf 2ecf ec3e 5f9b 12bd
00000060: 92c2 513f b31a 63bf 8405 073f 170b 19bf
00000070: 53b9 afbd c80a d83e ce81 263f c601 abbe
00000080: d894 dabd 849f 413d 0004 0abf 058a 32be
00000090: 025f 3f3f 5a84 6dbe 28ca fc3b cee0 f7be
000000a0: 5686 9dbe ed9e f63e ddde c03e 2be4 f6bd
000000b0: 7a63 2d3f 8d3e 413f bac7 49bf c731 993e
000000c0: 266a 1ebf c372 5b3f f5dc cdbe ec0b 223f
000000d0: 2132 b4bc 3b5e 0ebe 7df7 6bbe 16fc 963d
000000e0: 4a4c 293f a595 cb3e d0fa 883f 299a 3abf
000000f0: 2b36 a63e 2507 97be 9c74 46be 7ff2 da3e
00000100: 5dd8 30bf f7b3 29bf 4796 8e3e 3d07 973d
00000110: 2840 103e a3d1 05bf e3a7 f5be 88df 113f
00000120: e24f b6be 65e3 263d d536 d9be 5e06 16bf
00000130: e077 393e 6c63 0dbf 87a2 4a3f 41c0 c0bd
00000140: b1b7 19be 94ea bcbe cc02 96bd db32 bf3e
00000150: 5c37 f2be 943c cd3e 3bd6 25bf 36a7 723f
00000160: 5133 e2be 7ee9 ac3d efc9 0abc c5c4 07be
00000170: aa2a 3bbe c1f1 dabe 6e10 1a3f 0a52 05bf
00000180: c31c 2f3f f99b 113e 1e13 9b3d cd31 7abd
00000190: 6e40 263f 26b4 29bf 81a6 4e3f b12c 263f
000001a0: c255 a23e e305 ffbe f637 0fbf 9344 cebe
000001b0: 3580 c9bc a964 1d3f 1459 c73e 6def 0dbf
000001c0: 11bc 31bc 8a5d a43f d69c bdbe beac 0e3f
000001d0: 12a4 60bf da0d a73e bcae 663e ca3d 253e
000001e0: 0aca 56be 38bf e9be b5f3 e5bf 71ef 793f
000001f0: 28e2 5b3e 5564 83bc d020 dabe aacf d2be
00000200: 5560 d3be 1580 643b d357 9bbe 0c6b c2bd
00000210: 9079 0bbc 6d35 8b3f 7ecf 2c3f 0b29 71be
00000220: 3946 103e d74e 273f 03f3 b4be 49c1 bbbd
00000230: b266 263f 49e5 afbf fa9b 7ebf ac32 bf3e
00000240: 5400 9b3e 58c7 733e 0b8a a33e 400d 193f
00000250: ace6 d53e c3b9 82bf 368a db3e 1d11 32bf
00000260: 57cf 8bbe 5d75 1f3f be9c 1a3f 5f98 3cbf
00000270: bd08 60bf 3c7c 82bf d57c 94be 3c99 c43f
00000280: d7b1 75be ba62 713f 3da0 0abf 2b33 343f
00000290: 8222 f4bc 893a 1f3f b5e0 903e b083 083d
000002a0: 70af 01bf a506 86bf f9e7 3a3f 6b6d 163f
000002b0: 76f1 32bd 8697 583e 07b6 9b3f 8367 b2be
000002c0: 86e4 3bbf 4daa 07bf 2d33 23bf bbcb 63be
000002d0: ea9e 42be 3aa5 063f 0ef9 f53c 9208 123f
000002e0: 301c cdbd 67e0 253e 930d e6bf 6845 59bd
000002f0: c734 2d3f 01b4 7a3f e4d5 f8be 7e27 68be
00000300: c5d1 853f aeed 8c3e 30eb 30bf 8e26 91be
00000310: 2f26 fabe d5c5 33bf 8b1c de3e 2307 9bbc
00000320: 60db 6d3e fb17 463f de5f 4fbe 6c22 a9bf
00000330: 143c 813f 3ca2 083f 8513 12bf 007c 5d3e
00000340: a84a 1e3d 468c 1cbf c7c5 453f 5c0a d7bd
00000350: 9b27 9fbd e5a2 aabe 5cc6 2e3f b876 81bd
00000360: 17e9 353e 8ae9 cd3e 269a 343f 4b88 64bf
00000370: 6885 01bc 3c5c 39bf 0377 0240 1938 433d
00000380: 2394 fbbe b579 aa3e 2337 eebe 1c21 b73e
00000390: cf94 21bf 9503 f03e a560 5fbf fdc4 b63f
000003a0: 2f17 16be ac26 863e 7b47 043f 8a98 993d
000003b0: 7177 45bf d66c 82bd ea1b 1f3f cfd0 8dbf
000003c0: c828 1b3f 4d27 453f da17 0dbe 6b4f c73e
000003d0: 9290 373f 95a4 32bf 498c 5abf a89b 19bf
000003e0: e81e 8b3f 02fe 9dbe 2892 8e3e 0c0f 053e
000003f0: 5fe6 753f e536 523f 7e9d 2b3e f1bb 663f

cl0.bias f4 [64]
-0.043650966 0.041127022 0.012492698 0.1627333 -0.1886254 -0.11004493 -0.020937735 0.00084272056
0.12854591 0.009625234 -0.09017119 0.084383614 0.21084312 -0.09675588 -0.054358546 -0.010623674
-0.03849741 -0.042244986 0.057124995 -0.011486946 -0.031143393 0.013064441 0.015718024 -0.08767524
-0.041923977 -0.06654375 -0.14799899 -0.06732508 -0.07100529 -0.10071079 0.012946787 0.05008584
-0.059833344 0.15328726 -0.02637143 -0.18471739 -0.16859949 -0.07155507 -0.02344312 -0.010077392
-0.10948339 0.031853836 0.11877426 0.045109563 -0.054838926 0.035705313 0.047948614 0.0823033
-0.12592493 0.02052373 -0.0029584577 -0.018811647 0.12310595 0.07712736 -0.032808926 0.035259217
-0.078133136 -0.04734242 0.07809172 0.00047240025 0.031304877 0.08471181 0.025342315 0.014495224
00000000: 5bcb 32bd cf74 283d 2cae 4c3c 8fa3 263e
00000010: 0427 41be 3c5f e1bd 9d85 abbc 05ea 5c3a
00000020: 8aa1 033e 28b3 1d3c acab b8bd 51d1 ac3d
00000030: 42e7 573e f227 c6bd 11a7 5ebd eb0e 2ebc
00000040: 76af 1dbd 1409 2dbd e6fb 693d be33 3cbc
00000050: 6e20 ffbc 3d0c 563c 16c3 803c 148f b3bd
00000060: 7ab8 2bbd 1748 88bd 0c8d 17be bbe1 89bd
00000070: 396b 91bd 7541 cebd c31e 543c cf26 4d3d
00000080: cf13 75bd 56f7 1c3e e608 d8bc 8e26 3dbe
00000090: 58a5 2cbe 778b 92bd c90b c0bc a51b 25bc
000000a0: d438 e0bd 2b79 023d eb3f f33d cec4 383d
000000b0: c89e 60bd bc3f 123d c465 443d a28e a83d
000000c0: 77f2 00be 6221 a83c afe2 41bb e21a 9abc
000000d0: f91e fc3d f3f4 9d3d a762 06bd f86b 103d
000000e0: 4404 a0bd 20ea 41bd 8dee 9f3d 7dac f739
000000f0: 8b39 003d 637d ad3d b09a cf3c 607d 6d3c

cl1.layer_0.weight f4 [64, 64]
-0.1024948 0.14392789 0.31688154 -0.13721415 0.49834856 0.0067675738 -0.54838365 0.00016239138
0.60734195 -0.37544632 0.0020705585 0.00040663505 0.016584365 -1.157029e-05 -0.11370363 0.40953308
-0.04359847 -0.0072721173 -0.21884891 -0.007693869 -0.4534434 0.03469799 0.007119502 0.025636243
0.27110726 -0.30937487 0.028414914 -0.57468027 0.23005089 -0.6122682 0.015019633 -0.27696744
0.057420596 -0.0073629366 -0.13936429 0.07144766 -0.07518941 0.009665192 -0.1257183 -0.29466808
-0.08284669 0.0089888675 -1.8749706e-05 0.10135756 0.0075672143 -0.55779725 0.011393919 0.47866288
0.4337247 -0.17564692 0.0020696537 -0.30767047 0.64419556 -0.099404596 0.29619032 0.29032052
0.005093865 -0.20349252 -0.1424628 0.17193323 0.5827051 -0.0026526842 -0.3467126 -0.27685067
-1.782267e-13 1.9812168e-13 -2.9510625e-13 1.21774615e-14 1.6548992e-13 1.859751e-13 -1.2179088e-14 -1.2184834e-14
-2.03582e-13 -1.7826692e-13 4.1007636e-14 1.1086948e-14 2.8485196e-14 -1.6624793e-13 2.035929e-13 2.8628288e-13
-4.1425278e-14 4.650509e-14 2.035955e-13 -3.072586e-14 -5.4819152e-14 -2.954291e-13 -1.0905398e-14 -4.1525892e-14
-1.0595469e-13 -1.9814196e-13 3.1193594e-13 2.06549e-14 -2.1870402e-13 -1.0296641e-13 1.9386924e-13 1.1494304e-13
4.0998095e-14 -1.2203753e-14 -1.218684e-14 -1.0901549e-14 -4.1981518e-14 1.1951272e-13 2.036033e-13 -1.6550255e-13
1.1961908e-13 3.806544e-14 2.1861218e-13 -2.9540172e-13 -1.2172366e-14 4.0535883e-14 -4.0530408e-14 1.6546596e-13
4.5252566e-14 -1.15770574e-14 1.9384197e-13 1.196412e-13 -1.8612629e-13 1.8620716e-13 1.7834856e-13 3.9695616e-14
1.0595187e-13 2.1863208e-13 5.4881548e-14 1.9386246e-13 -1.8577577e-13 1.6553768e-13 -8.0456224e-14 -1.655147e-13
-0.08667303 -0.24236524 0.08192548 -0.06792532 0.39773825 -0.27938658 -0.018653972 -0.083910115
-0.21289018 -0.03859702 -0.33502546 -0.21177801 -0.28082523 -0.15851206 0.036354404 0.222829
-0.31232554 0.123119935 0.3301749 -0.0073286933 0.50604475 0.17809373 0.10823714 -0.2035984
0.03061971 -0.08410479 0.10586111 0.6048296 -0.74073386 0.0907375 -0.0004271006 -0.05311007
0.0544444 -0.032972317 0.05066324 -0.01795551 0.45348746 -0.050024077 -0.074313946 0.08550382
0.21889982 0.010261842 0.1266959 0.023158671 -0.42828256 -0.07690546 0.1609998 -0.17319487
0.07811114 0.06193785 -0.00014131312 -0.45352766 0.19043994 0.5743279 0.019372275 0.08764742
0.0670508 0.83500993 -0.1809744 0.34753105 -0.38829777 -0.60217535 -0.6717329 0.06526782
-0.18081093 -0.4042175 0.0093424935 -0.34855413 -0.43050528 0.5978541 0.074106835 0.02262242
-0.4012062 -0.08903471 0.22274795 0.73529 0.4204852 -0.1951853 0.097371764 -0.22700757
0.0016702375 -0.37766722 -0.25072122 -0.19903414 -0.6530072 0.16238518 0.019941391 0.09619021
-0.0058127614 -0.24594034 0.12563401 -0.13047113 -0.14077604 0.5610851 -0.055445183 -0.1986302
0.3916132 0.00043684716 0.3355923 0.43980244 0.032531273 -0.40390983 -0.12464583 -0.007212167
0.29713684 -0.49186507 -0.06373425 -0.022154765 -0.5654923 -0.16745658 0.21649814 0.06289278
0.076564156 0.21852481 -0.016870316 0.35119116 -0.14440767 1.3520119 0.09447765 0.07373987
-0.1760993 -0.2723957 -0.023268437 0.0053581833 0.4298905 0.3256886 0.6122342 -0.19322814
00000000: cbe8 d1bd d561 133e 4c3e a23e de81 0cbe
00000010: 8b27 ff3e 86c2 dd3b df62 0cbf 9b47 2a39
00000020: c37a 1b3f 803a c0be 35b2 073b a231 d539
00000030: efdb 873c 041e 42b7 73dd e8bd 52ae d13e
00000040: 4f94 32bd f14a eebb ee19 60be da1c fcbb
00000050: bc29 e8be 7b1f 0e3d b64a e93b 1903 d23c
00000060: 92ce 8a3e 6266 9ebe 65c6 e83c 3f1e 13bf
00000070: 7692 6b3e 9cbd 1cbf e814 763c adce 8dbe
00000080: dc31 6b3d ca44 f1bb 83b5 0ebe 2753 923d
00000090: e8fc 99bd c15a 1e3c 4cbc 00be bcde 96be
000000a0: 87ab a9bd 0b46 133c b048 9db7 8d94 cf3d
000000b0: 65f6 f73b cdcb 0ebf 8fad 3a3c 4d13 f53e
000000c0: 2a11 de3e c9dc 33be 07a3 073b fc86 9dbe
000000d0: 00ea 243f a394 cbbd 42a6 973e e4a4 943e
000000e0: 70ea a63b 5860 50be c5e1 11be 440f 303e
000000f0: 292c 153f a8d8 2dbb 5084 b1be 5fbf 8dbe
00000100: 59aa 48aa b010 5f2a 4b21 a6aa a15e 5b28
00000110: 3953 3a2a ac63 512a 2166 5ba8 a180 5ba8
00000120: 8436 65aa f1b5 48aa 96ae 3829 86b9 4728
00000130: 3249 0029 b42d 3baa a839 652a b629 a12a
00000140: 1890 3aa9 b870 5129 683a 652a 8160 0aa9
00000150: 2ee2 76a9 d24f a6aa 4574 44a8 1804 3ba9
00000160: b896 eea9 8816 5faa b59a af2a f50a ba28
00000170: 243d 76aa 18dc e7a9 0147 5a2a 136a 012a
00000180: 96a3 3829 e1d7 5ba8 e189 5ba8 8562 44a8
00000190: 6511 3da9 328f 062a a83c 652a dd56 3aaa
000001a0: daad 062a 776e 2b29 ac22 762a e04b a6aa
000001b0: 2147 5ba8 b18e 3629 6188 36a9 514c 3a2a
000001c0: a8cc 4b29 c18d 50a8 253f 5a2a 3ab4 062a
000001d0: 408f 51aa 8fa6 512a 79cd 482a eec5 3229
000001e0: 1895 ee29 6828 762a 1e2a 7729 0d45 5a2a
000001f0: 382a 51aa fd60 3a2a db2b b5a9 5d5a 3aaa
00000200: a181 b1bd 982e 78be 8cc8 a73d 6e1c 8bbd
00000210: 59a4 cb3e c20b 8fbe 37d0 98bc 11d9 abbd
00000220: e2ff 59be e917 1ebd 7588 abbe 56dc 58be
00000230: 53c8 8fbe fc50 22be 5be8 143d 492d 643e
00000240: 22e9 9fbe 4e26 fc3d af0c a93e 8925 f0bb
00000250: 268c 013f 345e 363e 6fab dd3d 197c 50be
00000260: 30d6 fa3c 223f acbd b6cd d83d 1dd6 1a3f
00000270: bca0 3dbf 95d4 b93d 79ec dfb9 f289 59bd
00000280: 1701 5f3d fb0d 07bd 4284 4f3d 6f17 93bc
00000290: 822f e83e 0ce6 4cbd e931 98bd a01c af3d
000002a0: 4627 603e 4921 283c 92bc 013e 41b7 bd3c
000002b0: da47 dbbe 9c80 9dbd 22dd 243e ff59 31be
000002c0: bcf8 9f3d 8bb2 7d3d 742d 14b9 c734 e8be
000002d0: b002 433e 2707 133f 9bb2 9e3c 7e80 b33d
000002e0: ee51 893d 36c3 553f 5a51 39be 97ef b13e
000002f0: f7ce c6be 2a28 1abf b0f6 2bbf 23ab 853d
00000300: 8026 39be 99f5 cebe 4211 193c b075 b2be
00000310: 306b dcbe f70c 193f 53c5 973d a752 b93c
00000320: e66a cdbe d457 b6bd 0a18 643e f73b 3c3f
00000330: d649 d73e a8de 47be d96a c73d ac74 68be
00000340: dfeb da3a 995d c1be 885e 80be 9bcf 4bbe
00000350: 7b2b 27bf 4d48 263e 215c a33c 5fff c43d
00000360: fa78 bebb c9d7 7bbe 34a6 003e 399a 05be
00000370: 9827 10be 46a3 0f3f 7d1a 63bd b765 4bbe
00000380: 8681 c83e a208 e539 c1d2 ab3e c92d e13e
00000390: 833f 053d 45cd cebe 5046 ffbd 0b54 ecbb
000003a0: 5222 983e bdd5 fbbe 1a87 82bd e97d b5bc
000003b0: 1ac4 10bf bd79 2bbe b0b1 5d3e eecd 803d
000003c0: abcd 9c3d f8c4 5f3e 9e33 8abc 54cf b33e
000003d0: 9bdf 13be ba0e ad3f 807d c13d ee04 973d
000003e0: 6053 34be 7377 8bbe 739d bebc b393 af3b
000003f0: 9c1a dc3e a8c0 a63e 61bb 1c3f 99dd 45be

cl1.layer_0.bias f4 [64]
-0.028222905 4.052553e-14 0.08090623 -0.11204632 0.0001385308 1.7832525e-13 -2.9499021e-13 2.062064e-14
0.058967046 0.03885921 1.9386138e-13 0.0394305 -0.00450498 -0.11858661 0.05928081 -0.015604264
-0.018752357 -1.6554787e-13 -0.09647421 -0.010634826 0.04998929 -0.03982113 0.042023107 -0.16215
0.101215445 0.15633821 -0.038052954 3.1183983e-13 -3.072846e-14 0.1678041 1.7460054e-14 -2.0369985e-13
0.10757477 -0.06082055 2.9497005e-13 -0.009631224 0.05606461 -0.08407473 2.0687426e-14 -0.03311081
0.057829794 2.9540574e-13 0.05749864 -2.0594674e-14 1.138133e-13 -1.6552966e-13 0.09849606 -3.9678377e-14
-0.1277829 -0.05320725 -0.08067527 0.07898618 0.0064034164 -1.654638e-13 0.023597367 1.1256068e-14
-1.7832631e-13 -1.0300506e-13 -2.0358303e-13 -0.030402923 -0.06445691 -0.07503903 -0.004487599 -1.8577734e-13
00000000: b933 e7bc c182 3629 2ab2 a53d 8b78 e5bd
00000010: 9442 1139 c1c6 482a 9210 a6aa f5bb b928
00000020: 6e87 713d d62a 1f3d bd44 5a2a e081 213d
00000030: 839e 93bb 89dd f2bd 6fd0 723d 07a9 7fbc
00000040: 8b9e 99bc ed63 3aaa 4594 c5bd b13d 2ebc
00000050: 92c1 4c3d 7b1b 23bd 6c20 2c3d a60a 26be
00000060: 0b4a cf3d 2017 203e 6add 1bbd db8c af2a
00000070: 8163 0aa9 d7d4 2b3e 2544 9d28 7c58 65aa
00000080: 2950 dc3d f81e 79bd aa0d a62a 48cc 1dbc
00000090: 01a4 653d 5f2f acbd f555 ba28 339f 07bd
000000a0: efde 6c3d 744c a62a b283 6b3d 1680 b9a8
000000b0: 7324 002a ad5e 3aaa 4db8 c93d 0eb2 32a9
000000c0: 85d9 02be d8ef 59bd 1339 a5bd 82c3 a13d
000000d0: c0d3 d13b b14b 3aaa 444f c13c 74c5 4a28
000000e0: 0fc7 48aa 60f2 e7a9 d036 65aa 8d0f f9bc
000000f0: fc01 84bd 10ae 99bd b50c 93bb ac2a 51aa

cl1.layer_1.weight f4 [64, 64]
3.345279e-14 -1.9812916e-13 0.021475347 0.080400184 -1.3739916e-12 -1.0873712e-14 1.9813784e-13 1.7831159e-13
0.6066743 0.017205779 2.846785e-14 -0.042285465 0.06351271 -0.0020525777 -0.42531645 -2.5221408e-10
2.0399483e-13 2.8451904e-14 -1.2749304e-13 0.06605203 -0.27268258 4.090669e-13 0.02367485 1.5338035e-13
0.069195054 0.023579944 0.020168252 2.1860785e-13 2.0357256e-13 0.027516965 4.5133913e-14 -2.1858963e-13
0.017964402 1.467334e-13 1.7824307e-13 9.5043114e-14 -0.0324873 -4.0321742e-13 5.473499e-14 2.8296918e-13
0.061035834 -5.481411e-14 0.03270094 -2.0364916e-13 3.1183842e-13 4.1971326e-14 0.021812422 -1.1937345e-13
0.0015843731 3.0632274e-12 1.9715778e-12 0.02263242 1.3184205e-13 2.0609311e-14 0.012742102 -1.15845384e-14
-2.0359089e-13 -1.6553833e-13 1.7713776e-13 -9.0716226e-14 1.6748407e-12 2.288735e-12 3.7088284e-12 1.7829587e-13
0.09941332 -3.116137e-13 -0.31707937 0.8030011 0.2761482 -4.4782496e-14 -2.9537147e-13 1.938488e-13
0.101491414 0.1410658 4.5211597e-14 0.050257362 -0.078272715 0.15386549 -0.19459961 0.11478947
-0.57453394 1.195853e-13 4.787103e-14 0.08613885 0.0038653382 -0.41440323 -0.24930286 -0.6079487
1.0752431 -0.5011574 0.24473423 1.15933205e-14 -1.653594e-13 0.040017765 1.8578021e-13 4.197729e-14
-0.1577648 0.036380645 -1.9386723e-13 -0.055673916 -1.4394146 -0.00022230668 -4.097923e-14 -0.0016047205
-0.24040154 -1.9812786e-13 -1.1926376 -4.4798868e-14 -2.9510826e-13 -1.7827052e-13 -0.16137089 -1.7834024e-13
1.3690348 -2.9495964e-13 -4.520352e-14 -0.2914176 -0.13382573 2.850837e-14 0.5350788 -1.2163204e-14
-2.8440575e-14 1.8613903e-13 -2.954008e-13 1.0859834e-14 -1.1200356e-14 -0.028081981 0.03636894 -1.6552632e-13
0.014749422 2.1863625e-13 -0.12866938 -0.2481486 -0.18452278 -1.7834566e-13 4.2047203e-14 -2.0601939e-14
0.4799443 -0.46662652 1.1954925e-13 -0.45216185 -0.14088818 -0.023228224 0.09186303 -0.07049424
-0.5928368 -1.7833764e-13 0.034590974 -0.1949164 0.36328024 -0.39772472 0.18902683 -0.16695231
-0.3617415 -0.51987183 0.050564818 -2.8510024e-14 -1.7872809e-13 0.6765225 -1.7824556e-13 -3.1156517e-13
-0.0017503807 -0.10833989 -3.823875e-14 0.40320662 0.05225796 -0.15256563 3.1161922e-13 -0.2651542
0.1736911 -1.9385758e-13 0.6775571 2.9538622e-13 1.847519e-13 2.0269783e-13 0.68613976 -2.0623512e-14
-0.53470516 0.3623511 0.34375528 -0.12214439 -0.32873383 1.6557189e-13 0.4890906 3.1193722e-13
-2.9536123e-13 -1.1381026e-13 -1.6544618e-13 -0.05066852 0.4054332 -0.14603347 0.56727827 1.7712795e-13
-0.18541239 1.7555396e-14 -0.10140387 -0.024829527 0.8015636 -1.1938755e-13 -1.7834669e-13 1.9385813e-13
0.112711094 0.124124855 2.0642974e-14 -0.24071111 -0.44609824 -0.04524729 0.75062084 0.01794974
0.6647067 -2.0357354e-13 -0.00028162214 -0.021386137 0.5681708 -0.06179298 -0.890606 0.035824373
-0.2614596 -0.16534545 0.4782521 -4.1368222e-14 -1.6550797e-13 -0.6589387 -5.4860352e-14 3.8035462e-14
0.020280408 -0.05838388 -1.7829218e-13 -0.05993201 0.43224975 -0.06974941 -1.7875817e-13 -0.06207504
-0.45698705 1.8598117e-13 0.379331 2.8453856e-14 -2.0672356e-14 -4.0546834e-14 0.80692905 1.2205163e-14
-0.5842508 -0.35730237 -0.0051822085 -0.73757005 0.4188191 2.0605408e-14 0.21331498 -1.194842e-13
-1.6624844e-13 3.1191743e-13 -2.1865056e-13 -0.0014679598 -0.04803209 0.04607963 -0.038170848 -1.7834325e-13
00000000: 71a8 1629 d812 5faa 11ed af3c daa8 a43d
00000010: 445f c1ab 25e2 43a8 5815 5f2a d1c2 482a
00000020: 024f 1b3f 22f3 8c3c 3235 0029 8633 2dbd
00000030: f412 823d 8a84 06bb 14c3 d9be faa7 8aaf
00000040: 82ad 652a d022 0029 5e8b 0faa 4946 873d
00000050: 0d9d 8bbe c148 e62a c2f1 c13c e0b0 2c2a
00000060: 23b6 8d3d ba2a c13c e437 a53c 6c21 762a
00000070: cc33 652a 426b e13c dc43 4b29 2c1c 76aa
00000080: 152a 933c 0635 252a 11af 482a a004 d629
00000090: 6711 05bd c1fd e2aa 2681 7629 284c 9f2a
000000a0: b600 7a3d 5edc 76a9 6cf1 053d e049 65aa
000000b0: a78c af2a a505 3d29 f7af b23c 0e67 06aa
000000c0: bdaa cf3a 338e 572c cabc 0a2c a067 b93c
000000d0: e270 142a d6a1 b928 40c4 503c 41b0 50a8
000000e0: 1439 65aa 2d61 3aaa 7c70 472a 5846 cca9
000000f0: 7fb6 eb2b 2f0e 212c 287e 822c 49be 482a
00000100: 3699 cb3d 446c afaa 3a58 a2be 7b91 4d3f
00000110: 4c63 8d3e b4ae 49a9 8447 a6aa 1d41 5a2a
00000120: bbda cf3d 8e73 103e 6c9d 4b29 aada 4d3d
00000130: 724d a0bd ea8e 1d3e 1f45 47be be16 eb3d
00000140: a814 13bf 1ea4 062a 8a97 5729 9169 b03d
00000150: 9d51 7d3b a92c d4be 4049 7fbe 87a2 1bbf
00000160: 91a1 893f da4b 00bf 9c9b 7a3e c1d8 5028
00000170: 9a2d 3aaa abe9 233d 802b 512a 850c 3d29
00000180: 198d 21be df03 153d 6d46 5aaa 550a 64bd
00000190: bd3e b8bf ff1a 69b9 d68d 38a9 7c55 d2ba
000001a0: d22b 76be 7812 5faa 59a8 98bf 94c1 49a9
000001b0: 9521 a6aa fbb6 48aa 693e 25be 13cb 48aa
000001c0: 883c af3f 2a0c a6aa 1c94 4ba9 b034 95be
000001d0: 9d09 09be ea63 0029 edfa 083f e11c 5ba8
000001e0: c015 00a9 ec92 512a be4b a6aa 25a2 4328
000001f0: 86c4 49a8 2f0c e6bc 99f7 143d b75d 3aaa
00000200: 8fa7 713c 9c29 762a e8c1 03be ab1a 7ebe
00000210: 8af3 3cbe a3cc 48aa 205d 3d29 d690 b9a8
00000220: 42bb f53e ace9 eebe ba99 062a c281 e7be
00000230: fe44 10be 1e49 bebc af22 bc3d 495f 90bd
00000240: 27c4 17bf 53ca 48aa 44af 0d3d 2a98 47be
00000250: deff b93e 93a2 cbbe 4090 413e 8cf5 2abe
00000260: 2f36 b9be 5216 05bf 0e1d 4f3d d265 00a9
00000270: dd3a 49aa 9430 2d3f c9af 48aa 4665 afaa
00000280: 086d e5ba 4ee1 ddbd 4736 2ca9 1971 ce3e
00000290: 710c 563d 2a3a 1cbe 106d af2a 4bc2 87be
000002a0: 14dc 313e a543 5aaa 6274 2d3f a449 a62a
000002b0: 1c03 502a ac37 642a dba6 2f3f 95c2 b9a8
000002c0: 70e2 08bf 1586 b93e b100 b03e d726 fabd
000002d0: cd4f a8be d96a 3a2a 156a fa3e e49a af2a
000002e0: 0a46 a6aa 9323 00aa 9d46 3aaa cb89 4fbd
000002f0: f194 cf3e cc89 15be 2639 113f a86d 472a
00000300: bfdc 3dbe fd1f 9e28 d5ac cfbd 4b67 cbbc
00000310: 4633 4d3f 1e6b 06aa efcc 48aa cd43 5a2a
00000320: 13d5 e63d 2c35 fe3d 75ef b928 f97c 76be
00000330: fd66 e4be 3955 39bd b028 403f 550b 933c
00000340: 382a 2a3f 1434 65aa afa6 93b9 fb31 afbc
00000350: a473 113f a31a 7dbd c1fe 63bf 94bc 123d
00000360: 08de 85be 5150 29be 76dd f43e 504e 3aa9
00000370: 6d58 3aaa 35b0 28bf ae11 77a9 e74b 2b29
00000380: 1923 a63c ef23 6fbd 39bd 48aa 447b 75bd
00000390: d74f dd3e c7d8 8ebd 8943 49aa 6642 7ebd
000003a0: 35fa e9be 6c65 512a ac37 c23e 1025 0029
000003b0: 3533 baa8 519b 36a9 e792 4e3f 61de 5b28
000003c0: 7691 15bf 56f0 b6be 84cf a9bb 64d1 3cbf
000003d0: 756f d63e d698 b928 3e6f 5a3e fa86 06aa
000003e0: da2d 3baa 0a98 af2a bc2d 76aa 8f68 c0ba
000003f0: 4cbd 44bd febd 3c3d 0959 1cbd f1cb 48aa

cl1.layer_1.bias f4 [64]
0.0064019696 -0.098021574 0.19331093 0.035343032 0.022311153 -0.02547319 1.6553465e-13 -0.030725801
0.1800497 -0.101336226 -0.2442054 -0.030265037 -0.0005075112 -0.00698917 -0.07827059 1.862128e-13
3.1147112e-13 -0.049873773 -1.6557688e-13 0.006231443 0.12322661 0.11859745 -0.052514736 4.3082283e-12
-0.15517282 -2.9495248e-13 -0.1744154 -0.052071456 -0.06648158 -3.0971878e-13 -0.030824773 1.2232322e-12
1.1573154e-14 3.116467e-13 -0.02451072 0.036715124 -0.024475222 -1.7875313e-13 -0.02105609 0.07986694
2.1865772e-13 -4.2609013e-14 -0.06273506 0.021667797 -9.752936e-05 -0.005667097 -4.200744e-14 0.18722442
0.06412408 0.04291379 -0.07024666 0.042049512 0.007918335 -1.8474409e-13 -3.1188458e-13 1.6618944e-13
-0.075448744 -0.0565879 -1.107719e-14 -0.015754467 -4.4765474e-14 -0.029126657 -0.060188595 0.029738313
00000000: 9dc7 d13b 89bf c8bd 4df3 453e dbc3 103d
00000010: e1c5 b63c 27ad d0bc 1d60 3a2a adb4 fbbc
00000020: f35e 383e 5e89 cfbd fb10 7abe 62ee f7bc
00000030: 800a 05ba 6805 e5bb 554c a0bd 2fa8 512a
00000040: b857 af2a 7148 4cbd 496c 3aaa 2231 cc3b
00000050: 3c5e fc3d 38e3 f23d b119 57bd 1295 972c
00000060: a0e5 1ebe 220b a6aa f399 32be e148 55bd
00000070: 7f27 88bd 2e5b aeaa 3c84 fcbc 9627 ac2b
00000080: c17b 5028 0671 af2a b5ca c8bc 9962 163d
00000090: 4380 c8bc 1542 49aa d27d acbc 4791 a33d
000000a0: cc2f 762a d9e4 3fa9 3d7b 80bd aa80 b13c
000000b0: ad88 ccb8 0eb3 b9bb 482f 3da9 c2b7 3f3e
000000c0: 7c53 833d 5fc6 2f3d 7bdd 8fbd 1c3c 2c3d
000000d0: e7bb 013c dc00 50aa 4e93 afaa d81c 3b2a
000000e0: df84 9abd b7c8 67bd 868c 47a8 830f 81bc
000000f0: 149b 49a9 079b eebc 5188 76bd c39d f33c

cl1.layer_2.weight f4 [64, 64]
-1.2146074e-14 -2.1867995e-13 -1.15871405e-14 -1.2152091e-14 -4.131038e-14 2.95205e-13 1.09027955e-14 1.8599656e-13
-5.4870327e-14 4.513863e-14 1.6625061e-13 1.7713055e-13 -1.6556132e-13 1.8599483e-13 4.512822e-14 -2.0364895e-13
1.2180497e-14 -1.7870938e-13 1.12875644e-14 1.6544227e-13 1.196548e-13 -2.0666393e-14 -1.1964098e-13 -4.0598547e-14
1.196245e-13 -2.9542297e-13 -1.1607307e-14 2.0359528e-13 1.1945325e-13 -4.04788e-14 -1.1958273e-13 -1.7823277e-13
-4.1974806e-14 -1.6557883e-13 -2.0669645e-14 -1.7870656e-13 3.118655e-13 -1.7829511e-13 4.137321e-14 1.981361e-13
1.6625031e-13 3.1157677e-13 1.8577918e-13 1.2170523e-14 1.12491295e-14 -2.0362574e-13 -1.78774e-13 -4.1313632e-14
-1.9814955e-13 -1.654794e-13 1.8577625e-13 -1.1966608e-13 -1.9386496e-13 1.0296988e-13 1.059497e-13 1.649648e-13
-4.1005902e-14 1.1951358e-13 2.035692e-13 1.8610807e-13 1.859752e-13 1.8620949e-13 2.0363182e-13 2.949796e-13
2.7596345e-05 -0.54817486 0.17464472 0.26807514 0.39563608 -0.15346755 -3.1159217e-13 -0.07854113
-0.36879358 5.40232e-05 0.039712373 0.71200454 -0.24420428 0.15537734 0.046670187 1.8604026e-13
4.512562e-14 -0.0022429023 4.196944e-14 0.76857615 0.15812594 0.016202647 -0.6365227 7.3856194e-05
-0.46172622 -3.115628e-13 0.75156534 0.23639081 -0.023816109 8.286999e-12 -0.5000577 1.460649e-12
4.5165247e-14 -1.938326e-13 -0.023228437 -0.049194403 1.608368e-13 1.0595295e-13 0.034200035 0.69995403
2.9521107e-13 2.1864406e-13 -0.23161325 0.28022063 0.05526075 0.5296872 1.671329e-13 -0.15519565
-0.20251034 0.12932353 0.26692906 0.057649102 -0.37916175 -4.2219022e-14 1.1959875e-13 2.953929e-13
-0.037784938 -0.07651892 -2.1869556e-13 -0.41051984 -2.03564e-13 0.25308442 0.1788835 -0.3626386
0.017499052 0.81037486 -0.562131 0.3763776 0.4144534 -0.35256305 -1.9000559e-13 -0.05350473
0.6893582 -0.023006996 -0.42956555 -0.34860712 -0.029378919 0.06321159 -0.3317222 -1.8578363e-13
-1.6550039e-13 -0.099847384 -1.1229683e-14 0.0033457628 0.13751368 0.6176163 -0.18713528 0.010319079
-0.10605469 3.1158865e-13 0.30360776 0.632703 -0.14197232 8.9229654e-13 0.0024893698 4.2221226e-13
1.1573263e-14 -1.0845739e-14 -0.001767097 -0.36262354 -0.008615713 1.8611024e-13 0.055350445 0.69349134
5.46926e-14 1.196496e-13 -0.017507166 0.19628784 -0.1634278 0.27246237 1.6555931e-13 -0.31643182
0.037021395 -0.3291951 0.10928475 0.23684338 -0.8430177 2.1868759e-13 2.9541696e-13 -1.7873318e-13
-0.1782308 0.056241002 -2.0270428e-13 -0.38949996 2.0651214e-14 5.6418107e-14 0.28055885 0.04204512
1.782738e-13 1.7869908e-13 -2.063018e-14 1.6550017e-13 -1.1494e-13 -4.512871e-14 1.7871063e-13 3.1192375e-13
1.1959886e-13 2.1867626e-13 -1.1257803e-14 -4.0604835e-14 -1.0838584e-14 -1.9816727e-13 -1.1494434e-13 2.0664875e-14
-3.114741e-13 -1.2205163e-14 1.1197618e-14 -2.0695612e-14 1.6556907e-13 -1.1950594e-13 -1.029676e-13 -3.115791e-13
1.7542657e-14 1.1231418e-14 4.0957113e-14 1.8631222e-13 5.4719487e-14 -1.2139731e-14 1.860087e-13 -2.0642811e-14
1.654388e-13 -2.1859196e-13 -5.4723743e-14 -4.2038015e-14 -1.7832417e-13 1.1587466e-14 1.7825884e-13 1.7824448e-13
2.8494412e-14 2.8493057e-14 2.9500187e-13 -2.1869838e-13 -2.0657069e-14 -1.2188249e-14 -2.95456e-13 -2.1869664e-13
-4.521306e-14 -2.0356552e-13 1.9817373e-13 -2.8518156e-14 -1.1961409e-13 5.4902582e-14 -1.0297183e-13 -2.0358801e-13
-2.0627307e-14 -1.7822621e-13 1.0839234e-14 -1.8599965e-13 -3.1148063e-13 4.054293e-14 -4.520867e-14 -4.513218e-14
00000000: e1cd 5aa8 3436 76aa 41bc 50a8 a1e9 5aa8
00000010: a00b 3aa9 862f a62a 4568 4428 dc69 512a
00000020: 2e1d 77a9 4c49 4b29 7a2e 3b2a 686e 472a
00000030: cd67 3aaa 5c69 512a 4c3d 4b29 d049 65aa
00000040: a16c 5b28 7935 49aa b456 4b28 7d45 3a2a
00000050: 26b8 062a 7525 baa8 2ab4 06aa f0d6 36a9
00000060: 6aaf 062a f04e a6aa 4119 51a8 583a 652a
00000070: 0e7e 062a e14c 36a9 60a3 06aa 19ac 48aa
00000080: a809 3da9 d96c 3aaa f52c baa8 a934 49aa
00000090: 8e90 af2a 11be 48aa 1054 3a29 d814 5f2a
000000a0: 642e 3b2a f266 af2a 342b 512a a13e 5b28
000000b0: 74a5 4a28 2043 65aa 1948 49aa 600f 3aa9
000000c0: b818 5faa 3150 3aaa 5c2a 512a 66bb 06aa
000000d0: c545 5aaa 18de e729 d893 ee29 debb 392a
000000e0: 96ac 38a9 728f 062a d432 652a 008a 512a
000000f0: b463 512a 3ba7 512a e044 652a 0a0f a62a
00000100: b37e e737 3055 0cbf 11d6 323e 2541 893e
00000110: d090 ca3e 9926 1dbe 2a69 afaa 2cda a0bd
00000120: 83d2 bcbe f896 6238 71a9 223d ee45 363f
00000130: b010 7abe 3d1b 1f3e 3d29 3f3d 7476 512a
00000140: 4c3a 4b29 a8fd 12bb 7803 3d29 68c1 443f
00000150: c4eb 213e 6abb 843c 27f3 22bf 3ee3 9a38
00000160: 6167 ecbe ee64 afaa 9666 403f 6f10 723e
00000170: 001a c3bc 53c9 112d c803 00bf 6d91 cd2b
00000180: fc67 4b29 713c 5aaa 9049 bebc 1280 49bd
00000190: 0d16 352a b895 ee29 5615 0c3d 3030 333f
000001a0: 6630 a62a dc2b 762a 062c 6dbe 1479 8f3e
000001b0: 1959 623d 9599 073f c72c 3c2a 9ceb 1ebe
000001c0: df5e 4fbe 636d 043e edaa 883e 7721 6c3d
000001d0: 7d21 c2be 3823 3ea9 fea7 062a 9a4a a62a
000001e0: 61c4 1abd f4b5 9cbd b43a 76aa a82f d2be
000001f0: 5431 65aa 4894 813e 3c2d 373e c4ab b9be
00000200: 2c5a 8f3c ba74 4f3f d1e7 0fbf 91b4 c03e
00000210: 3c33 d43e 2583 b4be 62ed 55aa c727 5bbd
00000220: c779 303f 2b79 bcbc 04f0 dbbe a27c b2be
00000230: 0fac f0bc 1475 813d 7ed7 a9be 7c2c 51aa
00000240: 3d56 3aaa c97c ccbd c64b 4aa8 9644 5b3b
00000250: 63d0 0c3e 1a1c 1e3f 64a0 3fbe 5b11 293c
00000260: 3433 d9bd a868 af2a 7a72 9b3e d3f8 213f
00000270: 3161 11be be28 7b2b b224 233b 33af ed2a
00000280: 417c 5028 2561 43a8 f09d e7ba cba9 b9be
00000290: eb28 0dbc a08a 512a 26b7 623d a688 313f
000002a0: 4650 7629 a6b6 062a 306b 8fbc aeff 483e
000002b0: 9e59 27be 3080 8b3e 3967 3a2a 5a03 a2be
000002c0: bfa3 173d 438c a8be afd0 df3d 1287 723e
000002d0: 02d0 57bf 6838 762a 124e a62a 553c 49aa
000002e0: 2382 36be f75c 663d 8839 64aa 8a6c c7be
000002f0: 7502 ba28 a615 7e29 69a5 8f3e 8137 2c3d
00000300: edb7 482a 8132 492a f5d1 b9a8 2d56 3a2a
00000310: 3369 01aa dc3d 4ba9 d535 492a f398 af2a
00000320: 06a8 062a 2435 762a 74cd 4aa8 30de 36a9
00000330: 2540 43a8 d41d 5faa 736a 01aa f521 ba28
00000340: 2658 afaa 61de 5ba8 e6b7 4928 d568 baa8
00000350: 096a 3a2a 3e8d 06aa c8dc e7a9 4867 afaa
00000360: 9d02 9e28 c653 4a28 5674 3829 d7c4 512a
00000370: 466f 7629 a1b0 5aa8 5c6d 512a 15ef b9a8
00000380: 7d44 3a2a d81c 76aa 2e74 76a9 8852 3da9
00000390: 71c6 48aa c1bd 5028 9db3 482a 79af 482a
000003a0: d253 0029 4252 0029 4012 a62a 843b 76aa
000003b0: f50f baa8 6190 5ba8 b253 a6aa 043b 76aa
000003c0: 1c9f 4ba9 c431 65aa b01f 5f2a 326f 00a9
000003d0: 6aac 06aa 5e42 7729 38df e7a9 4038 65aa
000003e0: 55cb b9a8 35aa 48aa 2543 4328 c06a 51aa
000003f0: 1759 afaa d196 3629 0c9a 4ba9 dc41 4ba9

cl1.layer_2.bias f4 [64]
-5.4708564e-14 0.0045421976 -0.03750295 2.0595433e-14 0.04573151 -4.893634e-06 -0.0014219465 1.1052199e-14
0.036550656 -0.03499679 0.036750395 1.1965675e-13 0.020573547 -7.685723e-06 -5.4750604e-14 1.196193e-13
0.1654843 -1.1965242e-13 -1.1960135e-13 0.18203142 1.1216781e-14 2.8514415e-14 0.00038897363 1.1953554e-13
-0.16680104 4.9829276e-05 -1.218169e-14 -0.10048922 -3.115804e-13 -0.00069250027 0.00041550113 -2.9542568e-13
-4.1977398e-14 0.0035249935 -0.0073087197 -0.0022976927 -4.4746284e-14 0.13718311 -0.0032387346 -1.05762174e-13
0.15624353 0.061991155 -0.0044391514 -0.031400133 1.6554679e-13 -0.02064287 0.00017995565 -1.7826009e-13
0.03683928 -4.5768443e-06 0.0005510959 -0.08916861 0.0014223655 0.25225997 0.08071162 3.0344338e-06
1.7833341e-13 4.515484e-14 -0.0018956413 0.0006257132 0.012370208 1.196239e-13 4.474791e-14 -1.2978244e-05
00000000: ae62 76a9 b7d6 943b b19c 19bd d681 b928
00000010: f750 3b3d ff33 a4b6 9b60 baba 4619 4728
00000020: 24b6 153d cb58 0fbd 9587 163d b6b8 062a
00000030: db89 a83c eef1 00b7 2693 76a9 eaad 062a
00000040: b774 293e 76b7 06aa bea8 06aa 7266 3a3e
00000050: 4610 4a28 e26a 0029 28ef cb39 c695 062a
00000060: e4cd 2abe c7ff 5038 2172 5ba8 4bcd cdbd
00000070: 7867 afaa e888 35ba 9ed7 d939 544f a6aa
00000080: a50c 3da9 9403 673b fc7d efbb e394 16bb
00000090: f484 49a9 bb79 0c3e f340 54bb be27 eea9
000000a0: 4efe 1f3e 70ea 7d3d 4d76 91bb 6d9d 00bd
000000b0: 9d63 3a2a 3c1b a9bc 7ab2 3c39 f9b3 48aa
000000c0: c9e4 163d cb92 99b6 6b77 103a 089e b6bd
000000d0: ab6e ba3a 3828 813e 224c a53d 2da3 4b36
000000e0: 1bc9 482a fc5b 4b29 2b77 f8ba e706 243a
000000f0: 6aac 4a3c 3eaf 062a d486 4929 22bd 59b7

cl2.layer_0.weight f4 [64, 64]
-2.0358086e-13 0.036521684 -5.238389e-13 4.515614e-14 0.007009051 8.5985674e-05 -0.03455567 3.1182302e-13
4.1184274e-05 0.035822477 0.2432559 1.1949098e-13 0.18312773 -6.227333e-14 -4.5190238e-14 5.486485e-14
0.0052460106 -2.0673386e-14 3.1193808e-13 -0.055438407 -4.5179125e-14 1.1963707e-13 0.08166357 -4.1339843e-14
0.0071769673 -2.2107572e-13 1.0895531e-14 0.008350893 -1.2178979e-14 -1.0468138e-12 -1.1420789e-10 2.0608227e-14
1.6557623e-13 0.06816158 4.1190867e-14 0.17850748 4.198607e-14 -0.6463807 0.5285747 1.408003e-13
0.010751993 0.012200792 0.04057514 1.178472e-13 3.51818e-14 0.079458416 0.002638187 2.0613646e-14
0.0035832177 0.023999477 -0.0044594673 -0.028113684 3.2945425e-06 0.027170695 -0.58480257 -1.870593e-12
4.05187e-14 1.7874711e-13 -0.009285423 0.07906722 -0.1354058 1.1184472e-14 -2.0370484e-13 -9.443958e-13
3.1158214e-13 0.069527425 -0.0010728168 -2.9545772e-13 0.020916734 0.2315488 0.07685618 -1.029586e-13
-0.009897512 0.12762195 0.1921569 5.4705962e-14 0.28268296 0.12692727 1.6552012e-13 3.0680675e-14
0.4695184 2.0688673e-14 -1.2200718e-14 -0.68509555 -1.7822713e-13 3.06707e-14 0.011194869 -2.0600963e-14
0.1765345 1.2419041e-14 -4.1953664e-14 0.020217784 -1.21452065e-14 8.753432e-08 0.34244123 -1.1264308e-14
1.08483414e-14 -0.3101991 1.7824556e-13 -0.07943993 -2.1868754e-13 -0.6170091 0.32426378 -2.0682222e-14
0.14599411 0.054617617 -0.84967935 -4.099029e-14 -1.1959794e-13 -0.244984 0.034196883 1.2202127e-14
0.08374716 3.076147e-09 0.19026178 0.09444798 -0.059018955 -0.32061338 0.029345244 -0.00033668842
-1.1966217e-13 4.0608142e-14 0.04115091 -0.2249289 0.07372631 -2.9500214e-13 4.0570794e-14 0.0034354958
4.4772955e-14 1.9814223e-13 1.1240959e-14 3.803839e-14 2.0370224e-13 -1.1964472e-13 4.474921e-14 1.1950399e-13
-2.0656852e-14 -5.469604e-14 1.1577274e-14 2.065967e-14 -1.8477036e-13 -1.7832373e-13 -1.8476122e-13 3.067108e-14
1.0616727e-13 2.035692e-13 3.1148632e-13 3.1157737e-13 4.0602016e-14 1.859842e-13 2.18678e-13 2.9544563e-13
1.1960482e-13 -3.1192806e-13 3.8054544e-14 1.6624194e-13 -1.21911224e-14 4.5193545e-14 3.1187618e-13 -3.8033294e-14
4.101024e-14 -1.7830977e-13 2.8517777e-14 -2.026865e-13 -3.971795e-14 -1.1607307e-14 1.1961263e-13 -1.7715695e-13
-1.7828641e-13 -3.1182216e-13 -3.5209977e-14 1.4079509e-13 -4.1194336e-14 -1.217551e-14 1.8631807e-13 2.0641456e-14
-4.145043e-14 2.9500014e-13 4.1990418e-14 -2.851794e-14 2.9541484e-13 -1.7825407e-13 2.8497556e-14 1.6550255e-13
4.0527318e-14 -1.12279486e-14 -1.9816202e-13 3.8056875e-14 1.7826898e-13 -2.061278e-14 -4.136047e-14 1.15884416e-14
-4.1374076e-14 0.05958831 0.0062220925 -2.0642378e-14 -0.0075496724 -0.024257796 0.507932 -4.650997e-14
-0.3799804 0.10719479 0.18849398 1.6624836e-13 0.06274397 -0.1789411 4.0952125e-14 -3.9708627e-14
0.5361787 -4.5307372e-14 3.1156853e-13 -0.5337473 -4.0569114e-14 -1.2194538e-14 -0.58686346 1.1965892e-13
0.21316467 7.010047e-14 1.6555004e-13 -0.11291576 -4.135112e-14 -0.11993032 0.44083607 -2.852689e-14
-1.6548906e-13 0.15124625 -1.1595814e-14 0.00026815434 2.1867322e-13 -0.5561289 0.068021215 2.954562e-13
-0.4134175 0.08588542 0.19837739 -4.1873094e-14 1.0865472e-14 0.06470889 0.28873387 -1.0901711e-14
-0.118309334 0.035219997 -0.014895072 0.096728764 -0.61805665 -0.8701424 0.7323177 -0.0013294334
1.1381292e-13 4.203346e-14 0.003657134 0.17616312 0.08100507 -3.068111e-14 -2.9509313e-13 0.011256565
00000000: 3036 65aa c397 153d 9272 13ab 7c5d 4b29
00000010: 2eac e53b 3553 b438 3f8a 0dbd 6f8a af2a
00000020: 47bd 2c38 97ba 123d 1318 793e ee88 062a
00000030: d685 3b3e 213a 8ca9 cc84 4ba9 de16 7729
00000040: bae6 ab3b 9535 baa8 049b af2a 6213 63bd
00000050: fc77 4ba9 0ab3 062a 3b3f a73d 982d 3aa9
00000060: c42c eb3b bde8 78aa c546 4428 2fd2 083c
00000070: a165 5ba8 7153 93ab 5425 fbae 569f b928
00000080: 196c 3a2a 4c98 8b3d d681 3929 aaca 363e
00000090: a516 3d29 3579 25bf ac50 073f ec86 1e2a
000000a0: 2129 303c d5e5 473c 1e32 263d 25af 042a
000000b0: db71 1e29 18bb a23d 6fe5 2c3b d5ab b928
000000c0: 6bd4 6a3b 8d9a c43c b920 92bb ab4e e6bc
000000d0: cf17 5d36 1495 de3c 9fb5 15bf 9ca1 03ac
000000e0: e17a 3629 5940 492a e321 18bc ffed a13d
000000f0: d1a7 0abe 467b 4928 ec59 65aa 72e9 84ab
00000100: b867 af2a 6564 8e3d c29d 8cba f253 a6aa
00000110: 9259 ab3c 211b 6d3e c666 9d3d 98d7 e7a9
00000120: 2d29 22bc 54af 023e c7c4 443e ae5f 7629
00000130: d2bb 903e 39f9 013e ed5b 3a2a 692c 0a29
00000140: b764 f03e d558 ba28 e1c9 5ba8 6c62 2fbf
00000150: 79aa 48aa e920 0a29 af6a 373c 968e b9a8
00000160: 76c5 343e b8b8 5f28 48f1 3ca9 c49f a53c
00000170: e1c9 5aa8 80fa bb33 7554 af3e 74eb 4aa8
00000180: 256d 4328 6bd2 9ebe c9af 482a 67b1 a2bd
00000190: 6438 76aa 4ff4 1dbf e705 a63e f549 baa8
000001a0: 7b7f 153e b9b6 5f3d 9684 59bf 969a 38a9
000001b0: c2a7 06aa 16dd 7abe 0812 0c3d 61d0 5b28
000001c0: a283 ab3d 2664 5331 fcd3 423e f16d c13d
000001d0: dcbd 71bd 7027 a4be 7065 f03c 8e85 b0b9
000001e0: 46ba 06aa 00e2 3629 db8d 283d c353 66be
000001f0: d2fd 963d 4a12 a6aa f1b6 3629 0e26 613b
00000200: b4a3 4929 9c16 5f2a c67f 4a28 474f 2b29
00000210: 2c59 652a 3eb5 06aa 5488 4929 ae8c 062a
00000220: 750f baa8 3e54 76a9 c18e 5028 f515 ba28
00000230: 6e08 50aa 51c6 48aa cc05 50aa 5921 0a29
00000240: 4411 ef29 d432 652a e959 af2a 0867 af2a
00000250: f0da 3629 4c66 512a a435 762a 3452 a62a
00000260: bea9 062a 9299 afaa e761 2b29 fa2b 3b2a
00000270: a19d 5ba8 9c88 4b29 1892 af2a 6749 2ba9
00000280: 96b1 3829 4bc2 48aa c26e 0029 6834 64aa
00000290: aedf 32a9 4119 51a8 feab 062a 0476 47aa
000002a0: 8fbb 48aa 4f8a afaa 5792 1ea9 6c85 1e2a
000002b0: d685 39a9 a155 5ba8 87c6 512a f5eb b928
000002c0: 18ad 3aa9 0012 a62a a81b 3d29 f26e 00a9
000002d0: c44d a62a 3db2 48aa 7257 0029 dd56 3a2a
000002e0: d184 3629 c643 4aa8 501c 5faa 9764 2b29
000002f0: 89b6 482a d6a9 b9a8 6045 3aa9 41c2 5028
00000300: 1055 3aa9 df12 743d b2e2 cb3b 15ee b9a8
00000310: 3e63 f7bb 49b8 c6bc d507 023f 5876 51a9
00000320: ca8c c2be f188 db3d 9104 413e d42d 3b2a
00000330: e97f 803d 563c 37be 966e 3829 eed4 32a9
00000340: 0243 093f d80b 4ca9 c265 af2a aaa3 08bf
00000350: 01b5 36a9 61ad 5ba8 af3c 16bf 56b9 062a
00000360: d747 5a3e 2bda 9d29 8d64 3a2a 6140 e7bd
00000370: 983a 3aa9 079e f5bd 44b5 e13e 4479 00a9
00000380: f952 3aaa 4ce0 1a3e 41e4 50a8 1197 8c39
00000390: 4434 762a 775e 0ebf b54e 8b3d ba53 a62a
000003a0: 75ab d3be b2e4 af3d 7123 4b3e 6494 3ca9
000003b0: 25bc 4328 1886 843d edd4 933e 4563 44a8
000003c0: 2a4c f2bd d842 103d 760a 74bc bb19 c63d
000003d0: f638 1ebf a7c1 5ebf 2c79 3b3f 6240 aeba
000003e0: 5724 002a 484d 3d29 87ac 6f3b 1b64 343e
000003f0: fce5 a53d e92c 0aa9 671f a6aa 756d 383c

cl2.layer_0.bias f4 [64]
-1.5467606e-11 -6.265842e-07 2.9547228e-13 -0.014743625 -3.2219443e-05 -3.517226e-14 -0.012906795 -1.0351601e-10
4.177977e-05 -4.5146436e-14 0.000106475105 -2.0360786e-13 1.7878528e-13 1.755827e-14 -1.03060465e-07 2.4772813e-05
2.1865989e-13 -0.026826244 -1.0369568e-12 0.020241776 5.470943e-14 0.16475438 -1.2140544e-14 -0.00142712
3.0670484e-14 0.00011704295 -2.9539175e-13 2.0698214e-14 -0.07837069 3.9726408e-14 2.068412e-14 3.8031993e-14
6.160436e-06 -0.047859948 0.03416046 0.09930705 2.1863387e-13 1.115775e-06 -0.009332431 -2.186832e-13
-1.160362e-14 2.37587e-05 -3.5150494e-12 -1.8578222e-13 0.014794704 -0.0032124608 -1.7827966e-13 0.00017360078
-1.74555e-14 2.1870098e-13 -0.057098377 -8.21031e-05 0.022656435 0.11223432 0.12175214 2.0632782e-14
3.1148145e-13 -3.1452866e-05 -2.0896681e-05 4.512307e-14 0.068117045 0.0016669817 0.17123888 1.127412e-14
00000000: f40d 88ad 8a32 28b5 0b56 a62a 3f8f 71bc
00000010: 5d23 07b8 db66 1ea9 0677 53bc 55a2 e3ae
00000020: b03c 2f38 4c52 4ba9 634b df38 f83d 65aa
00000030: 594b 492a 9d26 9e28 1752 ddb3 36cf cf37
00000040: 6c30 762a b6c2 dbbc 4ef0 91ab 15d2 a53c
00000050: ae63 7629 5fb5 283e 61b4 5aa8 330e bbba
00000060: a920 0a29 f574 f538 704a a6aa d56e ba28
00000070: d080 a0bd 6ee9 3229 554e ba28 e747 2b29
00000080: beb5 ce36 cb08 44bd d7eb 0b3d 7f61 cb3d
00000090: ec28 762a bdc1 9535 0de7 18bc 2437 76aa
000000a0: 4108 51a8 6b4d c737 8059 77ac 142c 51aa
000000b0: 7c65 723c 2688 52bb 9db9 48aa 9b08 3639
000000c0: a539 9da8 443c 762a fddf 69bd c42e acb8
000000d0: fd99 b93c 1bdb e53d 3059 f93d f5d7 b928
000000e0: 3559 af2a 42ec 03b8 484b afb7 5c37 4b29
000000f0: f380 8b3d a07e da3a 3f59 2f3e b418 4b28

cl2.layer_1.weight f4 [64, 64]
2.0626657e-14 -3.119381e-13 -3.8033728e-14 5.47454e-14 2.954105e-13 -1.1949445e-13 1.654857e-13 2.18691e-13
-4.6505958e-14 -1.6551752e-13 -1.0296771e-13 -1.6551968e-13 4.0526288e-14 -2.1869274e-13 -1.2167053e-14 1.7824296e-13
-1.7872971e-13 4.517197e-14 -1.6533103e-13 -4.0504658e-14 2.0635384e-14 -4.0966003e-14 -1.2182232e-14 1.9815128e-13
-3.0676772e-14 -1.2176594e-14 -1.1959804e-13 -1.196219e-13 4.142002e-14 -4.118203e-14 1.6551123e-13 -3.8058773e-14
2.0358281e-13 -1.8599748e-13 -1.2151224e-14 -3.8051454e-14 -2.9542265e-13 4.4770136e-14 -1.8612542e-13 4.525148e-14
-1.8474474e-13 -1.1592995e-14 -2.0363588e-13 -4.053686e-14 2.1869014e-13 -1.7870103e-13 1.2187382e-14 2.8443448e-14
-1.1939362e-13 4.13763e-14 -3.1157677e-13 3.0673303e-14 1.7731837e-14 2.9536117e-13 2.0709273e-14 1.8613583e-13
-3.1193545e-13 -2.187058e-13 3.9711012e-14 1.861419e-13 2.9535592e-13 -3.1159342e-13 -1.12470305e-14 -2.954039e-13
3.116086e-13 -1.8600074e-13 -3.1158892e-13 -1.1598416e-14 1.1052199e-14 2.0659074e-14 1.6547903e-13 1.9532028e-13
-5.474014e-14 2.0602372e-14 -1.1937454e-13 1.8474344e-13 -1.7827684e-13 -1.1964553e-13 2.9497894e-13 -4.053545e-14
1.0297248e-13 -2.070125e-14 -2.949926e-13 -1.671329e-13 1.6551296e-13 4.144718e-14 -1.1961956e-13 -1.8621626e-13
1.7829161e-13 4.1991828e-14 -3.5214585e-14 -2.9511232e-13 -4.053442e-14 1.1113457e-14 -4.5126107e-14 -1.9817123e-13
1.7833059e-13 -2.1865767e-13 4.09872e-14 -2.0668615e-14 -2.0667477e-14 3.1188284e-13 4.05406e-14 1.6625235e-13
-2.848964e-14 -1.9520563e-13 1.654897e-13 1.0896453e-14 -1.2148188e-14 4.1325125e-14 -2.0666664e-14 -2.9542823e-13
-1.1291901e-14 -1.8599776e-13 -3.1182714e-13 -1.1959007e-13 2.0637336e-14 2.0657719e-14 -4.135063e-14 -1.2198658e-14
2.849311e-14 -4.051859e-14 2.0656418e-14 4.5118084e-14 -1.2202561e-14 -3.1157303e-13 1.0594406e-13 -1.8600312e-13
1.7874446e-13 -4.119157e-14 -1.7828359e-13 -1.2202886e-14 2.951089e-13 2.061278e-14 -2.0616465e-14 -2.9539522e-13
1.7828532e-13 1.1595814e-14 1.19649e-13 1.8578048e-13 -1.7828915e-13 -4.4758427e-14 -1.1246163e-14 3.0671568e-14
-2.845364e-14 -4.099945e-14 -2.0356812e-13 -2.0685204e-14 -4.1974796e-14 1.1048784e-14 -2.064021e-14 2.0634083e-14
3.1162329e-13 5.4853982e-14 -1.4079926e-13 1.7829053e-13 -2.9499406e-13 2.9543772e-13 -4.1372342e-14 -2.1862866e-13
-2.0673169e-14 -1.1257803e-14 4.4788134e-14 1.0838584e-14 -1.1206183e-14 4.48096e-14 2.8454886e-14 -1.0894989e-14
-1.6549952e-13 -1.1962477e-13 -1.6551621e-13 2.0356807e-13 -4.1342445e-14 -4.4784014e-14 2.0649262e-14 3.1156956e-13
3.9718818e-14 1.7832262e-13 -1.938326e-13 1.12042045e-14 1.6544276e-13 1.1950529e-13 3.8054544e-14 2.0643841e-14
2.9541614e-13 -3.066658e-14 -1.1220576e-14 -5.4861382e-14 -4.0490292e-14 2.1872863e-13 4.5121282e-14 -1.6547702e-13
-4.2238453e-06 -0.08280424 4.4787267e-14 0.17309998 0.014886094 1.8475385e-13 -0.27426308 -0.16178313
-0.0473184 1.7822735e-13 0.461283 1.0600543e-13 1.1951624e-13 -1.8610569e-13 -0.22422826 -0.25642896
-2.9495547e-13 -0.0045408644 4.7055706e-12 -0.14570506 1.08388005e-14 0.11658515 -1.1948794e-13 -0.12987415
-2.954393e-13 -0.47801644 -1.2187816e-14 -1.7833674e-13 -0.10946504 1.1087599e-14 -1.8475515e-13 -1.9814364e-13
-0.10749459 0.124026075 -0.22335045 0.3987756 1.1085701e-14 -0.21579196 -0.38648587 1.7828096e-13
3.0667448e-14 -0.43913236 0.336655 -5.4737187e-14 0.6605057 -0.14734244 3.824352e-14 -0.83280784
2.9546507e-13 -2.0358975e-13 -0.3193074 -0.05815518 -0.65746874 0.396984 -0.03356536 -4.2034572e-14
-1.1589092e-14 -0.06269984 -0.5071522 -3.1148632e-13 0.5495377 0.27529928 0.33154535 1.7873226e-13
00000000: d5c9 b928 059b afaa e749 2ba9 268d 7629
00000010: 244d a62a ee89 06aa 0152 3a2a 6439 762a
00000020: b871 51a9 2d5b 3aaa d8dc e7a9 cd5b 3aaa
00000030: a183 3629 e439 76aa a12e 5ba8 09af 482a
00000040: 553b 49aa bc6f 4b29 6d25 3aaa b16a 36a9
00000050: f5dd b928 967e 38a9 a174 5ba8 3819 5f2a
00000060: e927 0aa9 a15a 5ba8 caa7 06aa aaae 06aa
00000070: 088a 3a29 a677 39a9 5d59 3a2a c766 2ba9
00000080: c036 652a 206a 51aa a1e5 5aa8 575e 2ba9
00000090: e44e a6aa 74a0 4929 008f 51aa 68cb 4b29
000000a0: 0c01 50aa 41d7 50a8 0c46 65aa d18f 36a9
000000b0: 2439 762a 1133 49aa 618c 5b28 1019 0029
000000c0: de6c 06aa a057 3a29 f266 afaa e923 0a29
000000d0: d5b6 9f28 0846 a62a 5588 ba28 0092 512a
000000e0: a39a afaa a83d 76aa aed7 3229 c093 512a
000000f0: 4645 a62a 5869 afaa c69b 4aa8 304c a6aa
00000100: 886b af2a 106b 51aa b268 afaa 41f0 50a8
00000110: 4619 4728 9514 ba28 1550 3a2a 3de9 5b2a
00000120: 1687 76a9 d691 b928 5e67 06aa ac00 502a
00000130: cdb8 48aa 7ab5 06aa f20e a62a 318e 36a9
00000140: 98df e729 d575 baa8 ea10 a6aa c72c 3caa
00000150: dd59 3a2a 58a9 3a29 fead 06aa 2fa9 51aa
00000160: 0fbd 482a 481d 3d29 a797 1ea9 2b22 a6aa
00000170: 018d 36a9 c633 4828 dc3a 4ba9 f81e 5faa
00000180: 4bc8 482a c82f 76aa 0697 3829 952a baa8
00000190: f527 baa8 0e93 af2a 2194 3629 fa2e 3b2a
000001a0: 524e 00a9 31c8 5baa 2953 3a2a 054b 4428
000001b0: a1d7 5aa8 a01c 3a29 1526 baa8 b24f a6aa
000001c0: b46a 4ba8 346a 51aa 078b afaa 7ea5 06aa
000001d0: 75e2 b928 7511 ba28 083a 3aa9 61c0 5ba8
000001e0: 5252 0029 c17a 36a9 750e ba28 9c31 4b29
000001f0: 61d2 5ba8 6866 afaa 9890 ee29 c06b 51aa
00000200: 953f 492a a682 39a9 bfba 48aa e1d3 5ba8
00000210: ad21 a62a d6a9 b928 55b2 b9a8 f04a a6aa
00000220: 3fbb 482a 41e4 5028 7ab6 062a 942b 512a
00000230: 59bc 48aa f492 49a9 c697 4aa8 e921 0a29
00000240: d024 00a9 26a5 38a9 8432 65aa d550 baa8
00000250: a509 3da9 8609 4728 15e9 b9a8 f5da b928
00000260: a66d af2a 560a 7729 a086 1eaa bfbc 482a
00000270: 2011 a6aa 1051 a62a 1053 3aa9 6c27 76aa
00000280: 1535 baa8 74cd 4aa8 34b5 4929 2540 4328
00000290: 66df 49a8 f4cd 4929 4026 0029 4544 44a8
000002a0: fd55 3aaa 7eaf 06aa cd5a 3aaa 8032 652a
000002b0: 9830 3aa9 74b0 49a9 f5fd b928 e865 af2a
000002c0: aee0 3229 ffc5 482a 713c 5aaa 46d6 4928
000002d0: a145 3a2a 0e8d 062a e761 2b29 75f1 b928
000002e0: f44d a62a 291c 0aa9 c621 4aa8 de12 77a9
000002f0: 215a 36a9 3c44 762a 4c35 4b29 814f 3aaa
00000300: 8eba 8db6 4595 a9bd 34b4 4929 1f41 313e
00000310: cee4 733c ac03 502a 366c 8cbe 7aaa 25be
00000320: f0d0 41bd 89aa 482a 492d ec3e f8b3 ee29
00000330: 3690 062a 5089 51aa 189c 65be a84a 83be
00000340: 900b a6aa 88cb 94bb 0390 a52c b533 15be
00000350: 2541 4328 32c4 ee3d 0e88 06aa bbfd 04be
00000360: 4a51 a6aa 92be f4be 618e 5ba8 11ca 48aa
00000370: 352f e0bd 86bc 4728 0c04 50aa 0417 5faa
00000380: 2026 dcbd 6201 fe3d fbb5 64be 512c cc3e
00000390: c6b3 4728 91f8 5cbe 7ae1 c5be fdb9 482a
000003a0: 291d 0a29 f5d5 e0be 0b5e ac3e ae83 76a9
000003b0: e716 293f f0e0 16be c73b 2c29 e532 55bf
000003c0: 0155 a62a c038 65aa 427c a3be 2034 6ebd
000003d0: df4f 28bf 7d41 cb3e d57b 09bd 904e 3da9
000003e0: 41c5 50a8 c668 80bd bad4 01bf e959 afaa
000003f0: 81ae 0c3f 07f4 8c3e 50c0 a93e 113c 492a

cl2.layer_1.bias f4 [64]
4.517609e-14 2.0656255e-14 2.0656201e-14 -6.8427005e-07 -4.4783364e-14 3.4456884e-06 0.19164401 1.1933615e-13
0.00011179059 7.429224e-06 -5.4717237e-14 -1.1687747e-11 2.0672952e-14 -5.517094e-11 -1.1962694e-13 -1.18572316e-07
4.531713e-14 2.6622445e-05 -6.617434e-13 1.7834043e-13 -1.6553985e-13 8.131218e-06 -1.4079487e-13 -4.5492243e-06
0.017870989 -0.016137406 1.0300002e-13 -4.6388566e-12 -1.9386756e-13 4.2892773e-12 -1.8290679e-07 -1.6550516e-13
4.4748886e-14 -2.4533242e-06 1.2572455e-06 2.4329344e-07 -1.8906967e-13 -2.9190002e-08 -2.0648829e-14 -1.1957338e-13
-1.6555178e-13 2.5310602e-12 1.1991168e-08 1.6447229e-06 1.7833588e-13 -1.3329352e-05 0.13241862 -2.9545946e-13
1.1915642e-13 5.2790823e-05 -1.9812716e-13 2.5677544e-12 2.7451236e-12 -1.6567762e-07 -4.2036497e-14 -5.1178926e-08
1.4661378e-12 -2.4178316e-05 -0.04371683 -2.1927765e-11 1.9385596e-13 4.475849e-06 -4.5136895e-14 -2.1651227e-09
00000000: 7c74 4b29 150e ba28 f50d ba28 aeae 37b5
00000010: b4af 49a9 7a3c 6736 543e 443e 4e5c 062a
00000020: 1e71 ea38 8c48 f936 ae6c 76a9 ef9c 4dad
00000030: 9534 ba28 f5a4 72ae 1eb0 06aa d2a1 feb3
00000040: 1817 4c29 4453 df37 a343 3aab 21cb 482a
00000050: 9d61 3aaa 516b 0837 5c85 1eaa 8aa5 98b6
00000060: 2e66 923c 9832 84bc 78ef e729 1b37 a3ac
00000070: 8546 5aaa 60ea 962c 0965 44b4 9d57 3aaa
00000080: f487 4929 caa3 24b6 a0be a835 ff9d 8234
00000090: 9fdf 54aa 7ebd fab2 f5fc b9a8 aea0 06aa
000000a0: 0d65 3aaa 871b 322c b701 4e32 40c0 dc35
000000b0: d1c9 482a 22a1 5fb7 bf98 073e 3254 a6aa
000000c0: 8028 062a b76b 5d38 4412 5faa 8db0 342c
000000d0: c02b 412c 1ee5 31b4 c850 3da9 d3cf 5bb3
000000e0: 2e57 ce2b 8ad2 cab7 6b10 33bd f0e0 c0ad
000000f0: 2d43 5a2a 402f 9636 4c47 4ba9 3ec9 14b1
