experiments/bess_chp_hwt/transition/1552212199_0.0033/1552214431_0_transition_90000.pth (torch_old, 619128 bytes, 64 tensors)

tr0.weight f4 [64, 412]
0.00093784067 -0.015205075 -0.014324167 0.000354069 -0.0011055379 0.00012546188 -0.00013135538 -0.0029738566
-0.004294596 0.00052236166 -0.00038676546 -0.000515403 0.0003050933 -0.0005192376 -0.0012077189 0.0004203601
-0.005119133 -0.0025041543 0.001196969 -0.0016345049 -0.0030665249 -0.0009998464 0.00019438134 0.00024371262
-0.0010449861 -0.0002582691 -0.0013923 -0.000327399 -0.0019029912 -0.00342876 0.00051087793 -0.0008336394
-0.0006465781 -0.002763866 0.0045629763 -0.00034319863 0.003107565 -1.3872234e-05 -0.0038891442 -0.0021955965
6.776064e-05 -0.007274212 0.0073746783 0.014457585 0.0013694271 0.0020524582 0.0007508766 0.00034184134
-0.0004601149 -0.00013589684 -0.0008579699 -0.0023607332 0.0004492563 -0.0010125843 -0.00036422478 -0.0047188657
0.00034716353 0.0002396706 0.0014406501 -0.0010004322 0.0042947913 -0.0016885425 -0.003158764 -8.442432e-05
-0.0034366369 -0.00011145181 -0.003967319 0.0028853975 0.0007858583 -8.09946e-07 -0.0015972409 -0.007701937
0.001352411 -0.0032158275 -0.0018631173 -0.005431283 -0.002256021 -2.5763395e-05 -0.0004158909 0.000697621
0.00015784697 -0.0012036099 0.00091638917 -2.8596112e-05 0.007067185 -0.0014133069 -0.0004966276 -0.0018349914
-0.00032553368 -0.0002877185 0.0006673725 0.0006434666 0.0010096742 -0.0001632513 -0.0046806755 0.006283419
-0.004836829 -0.0037517825 -0.0011994378 -9.301861e-05 -0.0026478022 0.00019869786 -0.0049352446 -0.00037583197
-0.0003247288 -0.0028441306 -0.0004380036 0.00079443963 -0.0014332719 -0.006475957 -0.0010839703 -0.0053660786
-6.921035e-05 -0.0016684126 -0.0005684205 -0.0006330361 -0.0013236963 -0.002940467 -0.010512518 -0.0035701164
-0.0051440294 -0.003189077 0.007639428 0.00082154904 -0.0017001523 0.00020980884 -0.0014054027 -0.003745871
-0.00022190769 -0.0060811276 0.0001466056 -0.00029761167 0.00043203396 0.009691852 -0.00025118762 -0.00022841693
0.0009792924 -0.0016605561 0.0017323337 0.0036170655 -0.0016810161 0.0016798903 -0.0023719207 0.00014170486
9.364059e-06 3.2027703e-05 0.0008239291 0.0012456189 -0.0025192131 0.00024178956 0.00017305384 0.009581033
-0.00078909576 -0.0022720308 -9.272121e-06 0.0003016483 -4.9279708e-05 -0.0029540213 0.014076537 -0.00035789746
-1.9196888e-05 -0.005568845 0.0009616896 0.0035185814 0.004414085 8.488314e-05 0.0013020805 -0.00041545814
-4.8973347e-05 -0.0009693243 0.0011105052 0.00042862294 -3.516827e-05 -3.231516e-06 -0.0002995794 0.0006069283
-0.0003309001 -0.0005061322 -4.924306e-05 -0.0013090484 -0.001823291 -0.0006229573 -0.001747293 -0.0029813417
-0.000102232516 -0.00059143134 4.6226065e-05 -0.001097164 0.0027665826 1.2987376e-05 -0.0019491758 0.00051958766
0.00014535818 0.00058357883 0.0004943656 0.0026960948 0.0016530317 0.0037714518 -0.0017697999 -0.0018257537
-1.7051747e-06 0.0002515437 0.000835596 0.00013496871 -0.0007566414 0.0053379103 -0.001813571 -0.0009377284
0.00036547155 0.0040728636 0.00093066704 0.00015567146 -0.00034480242 0.0005466565 -0.0035792424 0.005200092
-2.4501027e-05 -0.0024371995 -0.0043511046 0.0031348816 0.003031209 -0.00038899807 -0.00029302007 0.0003049001
-0.00021892348 -0.00053653633 -0.00014792687 0.0027877227 0.0025574516 0.0011037679 0.0005977496 0.00565548
0.00018912277 4.1436546e-05 0.002868445 -1.8675689e-07 -0.0007261284 -0.0003168635 0.0009126711 0.0047789873
0.0043714303 -0.0012910183 -3.3162705e-05 3.9429137e-06 -0.0013537228 -0.0010865693 0.0027988222 -0.0059490264
-0.00041096544 0.00042039214 0.0031451003 0.003733752 -0.0003091102 0.0021573019 4.404519e-06 0.00025994738
00000000: 6cd9 753a b51e 79bc e9af 6abc 56a2 b939
00000010: b2e7 90ba 6b8e 0339 71bc 09b9 09e5 42bb
00000020: afb9 8cbb 19ef 083a c8c6 cab9 1c1c 07ba
00000030: eef4 9f39 721d 08ba 524c 9eba c763 dc39
00000040: 66be a7bb bd1c 24bb 9de3 9c3a e23c d6ba
00000050: c0f7 48bb 470d 83ba d8d2 4b39 1c8d 7f39
00000060: eaf7 88ba 4b68 87b9 d67d b6ba c0a6 abb9
00000070: ca6d f9ba 0cb5 60bb 70ec 053a 9888 5aba
00000080: 1f7f 29ba fa21 35bb 0585 953b 57ef b3b9
00000090: 4aa8 4b3b cbbc 68b7 03e1 7ebb ffe3 0fbb
000000a0: b71a 8e38 835c eebb 49a7 f13b 82df 6c3c
000000b0: 597e b33a 8982 063b 7ad6 443a 2b39 b339
000000c0: 943b f1b9 887f 0eb9 63e9 60ba 88b6 1abb
000000d0: 298a eb39 b1b8 84ba 6cf5 beb9 b7a0 9abb
000000e0: 8003 b639 1650 7b39 32d4 bc3a ef20 83ba
000000f0: 52bb 8c3b 1652 ddba 4403 4fbb f60c b1b8
00000100: 3339 61bb 3cbb e9b8 4900 82bb f018 3d3b
00000110: 0f02 4e3a 116b 59b5 835a d1ba 8860 fcbb
00000120: 6243 b13a a2c0 52bb d833 f4ba e7f8 b1bb
00000130: c0d9 13bb 781e d8b7 ef0b dab9 8ee0 363a
00000140: b983 2539 72c2 9dba d639 703a afe1 efb7
00000150: d893 e73b b63e b9ba 1d30 02ba 1884 f0ba
00000160: 64ac aab9 ecd8 96b9 9cf2 2e3a 50ae 283a
00000170: 0b57 843a 702e 2bb9 5a60 99bb 24e5 cd3b
00000180: 437e 9ebb 77e0 75bb 7436 9dba fc12 c3b8
00000190: c086 2dbb 8d59 5039 d5b7 a1bb 500b c5b9
000001a0: 5d40 aab9 9864 3abb d9a3 e5b9 f141 503a
000001b0: a0dc bbba 4434 d4bb 0214 8eba eed5 afbb
000001c0: 0625 91b8 a3ae daba 0e02 15ba 55f2 25ba
000001d0: e17f adba dab4 40bb b23c 2cbc 9df8 69bb
000001e0: 3f8f a8bb d5ff 50bb 2b54 fa3b 395d 573a
000001f0: a5d7 deba 2200 5c39 7d35 b8ba 497d 75bb
00000200: e4af 68b9 3244 c7bb 24ba 1939 c308 9cb9
00000210: 9e82 e239 93ca 1e3c d5b1 83b9 3483 6fb9
00000220: 9a5b 803a 04a7 d9ba 790f e33a 4a0c 6d3b
00000230: 8a55 dcba c42f dc3a 3a72 1bbb 9c96 1439
00000240: 541a 1d37 7c55 0638 f2fc 573a 0944 a33a
00000250: 6219 25bb e488 7d39 c975 3539 c4f9 1c3c
00000260: 52db 4eba 5ae6 14bb 758f 1bb7 8d26 9e39
00000270: afb1 4eb8 4198 41bb 47a1 663c 2fa4 bbb9
00000280: 0109 a1b7 dc7a b6bb e619 7c3a 0098 663b
00000290: 07a4 903b 4a03 b238 92aa aa3a d9d1 d9b9
000002a0: bb68 4db8 411a 7eba 5f8e 913a ccb8 e039
000002b0: a481 13b8 06dd 58b6 de10 9db9 451a 1f3a
000002c0: a97c adb9 f5ad 04ba 558a 4eb8 6094 abba
000002d0: 7efb eeba f54d 23ba 6d05 e5ba 9d62 43bb
000002e0: aa65 d6b8 490a 1bba dce2 4138 b7ce 8fba
000002f0: 8e4f 353b 5be4 5937 7d7b ffba f034 083a
00000300: 4a6b 1839 50fb 183a 5098 013a f7b0 303b
00000310: 8aaa d83a 762a 773b a1f8 e7ba 214e efba
00000320: 5bdd e4b5 a0e1 8339 e60b 5b3a 6386 0d39
00000330: 5859 46ba a3e9 ae3b 58b5 edba e3d1 75ba
00000340: c39c bf39 a875 853b 02f8 733a bd3b 2339
00000350: 99c6 b4b9 7f4d 0f3a b991 6abb 8965 aa3b
00000360: 8e87 cdb7 6cb9 1fbb b693 8ebb 9672 4d3b
00000370: 40a7 463b 70f2 cbb9 7da0 99b9 00db 9f39
00000380: d38e 65b9 58a6 0cba d11c 1bb9 3ab2 363b
00000390: eb9a 273b 4eac 903a 4cb2 1c3a 9b51 b93b
000003a0: 424f 4639 27cc 2d38 85fc 3b3b 5887 48b4
000003b0: a759 3eba b320 a6b9 5240 6f3a 0d99 9c3b
000003c0: 373e 8f3b 6337 a9ba 2f18 0bb8 5f4d 8436
000003d0: 666f b1ba 376b 8eba 726c 373b 0df0 c2bb
000003e0: d976 d7b9 1468 dc39 071e 4e3b f7b1 743b
000003f0: 1210 a2b9 8561 0d3b 88ca 9336 8c49 8839

tr0.bias f4 [64]
0.017668959 0.020208254 0.0068034013 -0.009767866 0.0002678265 -0.010656716 0.0029129016 -0.16766214
-0.069123745 -0.021194668 0.19437206 0.012986068 -0.010545424 2.938166e-05 0.0007977783 0.2199735
-0.0014799708 -0.17889753 0.10857648 -0.020596994 -0.20513743 0.0002549854 -0.053305898 -0.037395388
-0.026568875 0.021784434 -0.0492008 -0.00911102 -0.015528024 -0.019302774 0.022085136 -0.059787616
0.13317578 -0.06132672 0.0025759665 -0.020018717 0.021712974 -0.021276202 0.015062566 0.022378135
0.0016954349 0.015964378 0.0020206259 -0.0025481025 0.15424515 -0.04766776 -0.013624884 -0.019179555
-0.00444415 0.017438114 -0.107700154 -0.009690946 -0.014027534 0.010979445 -0.025308926 -0.038614336
-0.013165162 0.00434913 0.075895764 -0.02573757 0.0030131836 0.0131584015 0.037351783 0.04193813
00000000: 7ebe 903c c88b a53c 11ef de3b 6609 20bc
00000010: 106b 8c39 8299 2ebc 61e6 3e3b a0af 2bbe
00000020: c090 8dbd 71a0 adbc 7809 473e 84c3 543c
00000030: b7c6 2cbc a278 f637 ff21 513a bc40 613e
00000040: 94fb c1ba ea30 37be 585d de3d 07bb a8bc
00000050: 8c0f 52be 90af 8539 4957 5abd e82b 19bd
00000060: f8a6 d9bc 4575 b23c c786 49bd 6346 15bc
00000070: 4169 7ebc da20 9ebc e3eb b43c dce3 74bd
00000080: 3b5f 083e ba31 7bbd 8cd1 283b 4bfe a3bc
00000090: 68df b13c 6e4b aebc fbc8 763c 5a52 b73c
000000a0: 5b39 de3a bac7 823c 7a6c 043b 11fe 26bb
000000b0: 71f2 1d3e 453f 43bd e83a 5fbc 711e 9dbc
000000c0: 3ba0 91bb 60da 8e3c e691 dcbd c6c6 1ebc
000000d0: bed3 65bc 21e3 333c aa54 cfbc 112a 1ebd
000000e0: b1b2 57bc 2683 8e3b 3d6f 9b3d 99d7 d2bc
000000f0: d578 453b 5696 573c 2ffe 183d 51c7 2b3d

tr1.layer_0.weight f4 [64, 64]
1.0082696e-05 -1.1609173e-06 -1.9079323e-06 2.8029735e-06 -9.268387e-06 -1.26877785e-05 -1.5815704e-05 -2.4645208e-06
7.662657e-06 -1.0975486e-07 -1.3438939e-06 8.66355e-06 8.665925e-06 1.6064429e-05 -5.247357e-06 6.5437206e-07
-9.742904e-06 -1.0100113e-06 -8.7222514e-07 -1.3402525e-05 -7.5864307e-07 -3.91958e-06 5.2935875e-06 -1.7558212e-06
-1.0138897e-06 5.6724816e-06 2.4441638e-06 -1.6956761e-05 2.2468266e-06 1.5201854e-05 1.3347388e-05 -3.1710954e-06
3.2283205e-07 -8.540609e-06 1.9187255e-06 7.437331e-06 -7.710721e-07 5.7553566e-06 -2.1330463e-05 -1.2927434e-05
8.101783e-06 9.235796e-06 -1.6199883e-05 -1.15136e-06 -9.0789086e-07 1.6059812e-06 -1.6527638e-05 -8.785919e-06
4.710888e-06 2.0920117e-05 9.4168115e-07 -1.5875843e-05 4.1547114e-06 1.3591564e-05 -4.085064e-07 -1.0758843e-05
3.5831065e-06 1.361366e-06 1.2412984e-06 7.9113136e-07 -7.1246395e-06 -1.7634908e-05 -4.921589e-06 -1.9799538e-06
-5.931567e-06 -9.069811e-06 7.792145e-06 8.283511e-06 -9.332313e-06 2.1866263e-06 5.9462463e-06 -6.0632487e-06
7.36939e-06 0.0004975539 1.6321901e-06 7.410839e-06 -1.0643867e-05 1.4929837e-05 6.221014e-06 2.0386922e-06
-1.191246e-05 2.7425915e-06 -1.6281095e-06 -4.7422877e-06 5.3204694e-06 -8.065208e-06 5.1595293e-06 1.487896e-05
4.1388384e-06 -3.6860617e-06 -4.4291164e-06 -3.504106e-06 1.4475759e-07 -2.6106686e-06 -3.1371635e-06 -6.0597768e-06
7.772982e-09 -9.916302e-06 1.251458e-06 -5.7657303e-07 -4.316113e-06 -2.0982941e-05 -1.871265e-05 2.0365123e-05
1.0422987e-05 -9.921618e-06 -3.269096e-06 -1.6838283e-06 -5.5021383e-06 -6.183958e-06 -8.294758e-06 1.1347457e-05
-6.02116e-06 -7.4372388e-06 -2.1257354e-06 2.8207005e-06 -1.6203852e-05 3.3031683e-06 6.6632224e-06 -6.4423983e-07
-5.7590555e-06 -3.7199181e-06 1.7809543e-06 2.0897717e-06 8.880804e-07 4.432514e-06 -2.320772e-05 5.99536e-07
8.032131e-06 -2.3443756e-06 4.7596636e-06 -2.008856e-06 -2.6409887e-06 7.139212e-06 -1.990605e-05 3.4188688e-06
1.2839832e-05 -5.2932523e-07 1.4446975e-06 -2.7435435e-06 9.478112e-06 1.4137275e-05 -1.05504305e-05 4.07127e-06
-3.8494572e-06 -9.3138783e-07 3.3579178e-07 -4.9799287e-06 2.563665e-07 -1.16818965e-05 5.329259e-06 8.0112966e-07
-3.08308e-06 7.843012e-07 -1.1082682e-06 -2.7863407e-06 7.573864e-06 4.2093093e-06 -1.0784297e-05 -1.1281845e-05
1.974995e-06 -1.390401e-05 3.8582016e-06 6.888043e-06 -1.0892361e-06 9.4513025e-06 -6.628619e-06 -3.2269347e-06
-8.3775484e-07 5.2997702e-06 1.0310825e-05 5.6239305e-06 -7.1829777e-06 4.8778825e-06 6.132953e-06 1.9872092e-05
9.411492e-06 2.1336189e-06 6.939085e-06 -1.9275187e-05 -1.28962665e-05 -1.7247396e-05 -2.861605e-06 -1.2832654e-05
6.379908e-06 -1.2347513e-06 -4.2175534e-06 5.8979936e-06 1.3817103e-05 4.330349e-06 -1.177639e-06 8.779821e-07
7.944246e-06 6.5252593e-06 1.8041457e-06 -4.3781197e-06 -1.1555727e-05 3.386546e-06 6.0609214e-06 3.16524e-06
-7.786248e-06 0.0028626726 -2.7290914e-06 -6.862891e-06 6.7258e-06 2.9531197e-06 3.3378542e-06 -1.9214542e-05
3.7365842e-06 -7.3236833e-07 1.2911643e-06 -6.5467543e-06 2.8284921e-06 -3.3603383e-06 -1.8062245e-06 2.2800746e-06
1.4910148e-06 9.4330755e-07 -8.673353e-06 5.783431e-06 1.6503629e-05 1.664056e-06 5.2498544e-06 -3.9911206e-06
0.0016338624 -4.8405923e-06 -1.5543705e-05 1.4135165e-05 -1.3254415e-06 5.2634146e-06 1.6608885e-05 -7.819322e-06
-9.8259425e-06 -1.1915166e-06 -6.0475827e-07 4.9283253e-06 -9.024706e-07 2.871789e-06 -3.6966294e-06 1.2039549e-06
-6.033058e-06 5.382358e-06 1.4866397e-06 1.0103241e-06 -8.762206e-06 -1.38030755e-05 5.5923374e-06 3.0608e-06
1.5044737e-06 7.792138e-06 1.93165e-06 -1.4179299e-06 -9.919715e-06 -2.1289696e-05 2.7753946e-05 -2.6289906e-06
00000000: d928 2937 d1d0 9bb5 070a 00b6 b81a 3c36
00000010: 6b7f 1bb7 98dd 54b7 f7ab 84b7 2564 25b6
00000020: dc8e 0037 5fb2 ebb3 d85f b4b5 aa59 1137
00000030: dd63 1137 19c2 8637 7412 b0b6 1ba8 2f35
00000040: 7475 23b7 b98f 87b5 db22 6ab5 68db 60b7
00000050: 8ea5 4bb5 f084 83b6 929f b136 8fa9 ebb5
00000060: fc14 88b5 3f56 be36 6a06 2436 5e3e 8eb7
00000070: 30c8 1636 770b 7f37 98ee 5f37 01cf 54b6
00000080: b351 ad34 a349 0fb7 74c3 0036 308e f936
00000090: acfb 4eb5 231e c136 d2ee b2b7 e8e2 58b7
000000a0: e5ec 0737 71f3 1a37 fce4 87b7 6e88 9ab5
000000b0: c9b5 73b5 188d d735 d5a4 8ab7 3c67 13b7
000000c0: 3812 9e36 9c7d af37 d6c7 7c35 1d2d 85b7
000000d0: b368 8b36 5307 6437 b150 dbb4 e180 34b7
000000e0: 4d75 7036 2eb8 b635 b09a a635 225e 5435
000000f0: 3010 efb6 adee 93b7 2124 a5b6 59df 04b6
00000100: c607 c7b6 8b2a 18b7 02bb 0237 69f9 0a37
00000110: fb91 1cb7 f4bd 1236 de85 c736 e972 cbb6
00000120: 9446 f736 476e 023a a011 db35 9faa f836
00000130: 1093 32b7 297b 7a37 1abe d036 77d0 0836
00000140: a0db 47b7 5d0d 3836 6b85 dab5 f11f 9fb6
00000150: 7c86 b236 ce4f 07b7 0520 ad36 a6a0 7937
00000160: 5ae0 8a36 0f5e 77b6 d29d 94b6 1528 6bb6
00000170: aa6e 1b34 f232 2fb6 0f88 52b6 1655 cbb6
00000180: f089 0532 315e 26b7 c5f7 a735 ccc5 1ab5
00000190: 21d3 90b6 8604 b0b7 1cf9 9cb7 c5d5 aa37
000001a0: 63de 2e37 0675 26b7 a462 5bb6 e6ff e1b5
000001b0: 029f b8b6 cb7f cfb6 b729 0bb7 f560 3e37
000001c0: 5f09 cab6 658d f9b6 dba7 0eb6 444b 3d36
000001d0: 82ed 87b7 00ac 5d36 a594 df36 d3ef 2cb5
000001e0: e93d c1b6 b5a3 79b6 2009 ef35 013e 0c36
000001f0: 6c64 6e35 01bb 9436 33ae c2b7 cdef 2035
00000200: bdc1 0637 1154 1db6 33b5 9f36 e2cf 06b6
00000210: d73b 31b6 5d8d ef36 ebfb a6b7 b86f 6536
00000220: a96a 5737 f416 0eb5 6ee7 c135 b81d 38b6
00000230: 2e04 1f37 222f 6d37 c101 31b7 f19b 8836
00000240: 962a 81b6 7c04 7ab5 df46 b434 4319 a7b6
00000250: bea2 8934 5dfd 43b7 fcd1 b236 360d 5735
00000260: e9e6 4eb6 c588 5235 cebf 94b5 f8fc 3ab6
00000270: ff22 fe36 b13d 8d36 34ee 34b7 2847 3db7
00000280: 288a 0436 4545 69b7 b375 8136 d71f e736
00000290: de31 92b5 0991 1e37 676b deb6 518e 58b6
000002a0: 13e2 60b5 aed4 b136 a8fc 2c37 32b5 bc36
000002b0: 4f05 f1b6 b1ac a336 aac9 cd36 feb2 a637
000002c0: 0de6 1d37 4b2f 0f36 49d6 e836 26b1 a1b7
000002d0: 0b5d 58b7 80ae 90b7 000a 40b6 d44b 57b7
000002e0: fe12 d636 bbb9 a5b5 8284 8db6 61e7 c536
000002f0: 01d0 6737 6a4d 9136 5e0f 9eb5 78ae 6b35
00000300: 4748 0537 8df3 da36 f925 f235 c3e7 92b6
00000310: 78df 41b7 6b44 6336 eb5e cb36 696a 5436
00000320: aea1 02b7 ad9b 3b3b 6f25 37b6 c947 e6b6
00000330: 2fae e136 362e 4636 e6ff 5f36 ea2e a1b7
00000340: 07c2 7a36 f897 44b5 114c ad35 31ac dbb6
00000350: 20d1 3d36 2c82 61b6 676d f2b5 6203 1936
00000360: e11e c835 9a37 7d35 c483 11b7 4b0f c236
00000370: 4671 8a37 8758 df35 e827 b036 77eb 85b6
00000380: 5327 d63a 5f6c a2b6 da63 82b7 1226 6d37
00000390: d3e5 b1b5 639c b036 4f53 8b37 bb2f 03b7
000003a0: 1ada 24b7 33ec 9fb5 ac56 22b5 fe5d a536
000003b0: 4f41 72b5 f6b8 4036 9c13 78b6 9397 a135
000003c0: 936f cab6 1a9a b436 8d88 c735 799a 8735
000003d0: 6301 13b7 c293 67b7 d0a5 bb36 2568 4d36
000003e0: 53ed c935 faba 0237 7fa1 0136 b34f beb5
000003f0: da6c 26b7 4697 b2b7 25d1 e837 b76d 30b6

tr1.layer_0.bias f4 [64]
3.208956e-07 -0.00017744016 -1.5097814e-07 -0.0032151476 -6.174231e-05 1.3972264e-06 2.3407723e-07 -0.0023773855
-4.068505e-06 -0.0006309817 1.1976124e-05 9.543361e-07 -0.000499442 -0.00017237617 -0.0010285082 -0.0016637581
-8.740411e-06 -0.23894994 -5.448914e-06 7.850409e-06 0.054101445 -0.00202741 -0.002229446 -0.0010138527
2.1867262e-08 -0.0028955908 -3.0611468e-06 7.5772766e-07 -2.56893e-06 -0.0021141877 -0.3200123 -0.0029634745
-0.00024383383 -0.00074324076 6.8823687e-07 6.4666125e-07 -0.0007655649 -0.002134029 -2.4321588e-07 -9.357844e-07
-0.0018296379 -0.0031868152 -0.001319325 -0.5018217 -0.0006769317 -0.003666463 6.6068624e-06 -0.17638786
-8.5108127e-07 -0.002459326 -0.0010000656 5.207678e-08 2.4912124e-06 -4.787064e-06 1.5548139e-06 -3.80772e-07
-5.760281e-06 -0.0038736123 -0.0034990949 -0.2546061 -0.086515434 1.6665883e-08 -0.060646154 4.8523975e-07
00000000: 8e47 ac34 3b0f 3ab9 8e1c 22b4 3ab5 52bb
00000010: a67b 81b8 5588 bb35 a956 7b34 e9cd 1bbb
00000020: 3184 88b6 7768 25ba 10ed 4837 bd16 8035
00000030: fcec 02ba e0bf 34b9 02cf 86ba 7512 daba
00000040: c8a3 12b7 4baf 74be d1d5 b6b6 40b5 0337
00000050: 7a99 5d3d 4cde 04bb e61b 12bb 40e3 84ba
00000060: 9ed6 bb32 f4c3 3dbb 1a6e 4db6 a666 4b35
00000070: e265 2cb6 2f8e 0abb a7d8 a3be da36 42bb
00000080: a5ad 7fb9 0bd6 42ba 47bf 3835 3996 2d35
00000090: 31b0 48ba 11db 0bbb 5693 82b4 9d32 7bb5
000000a0: 76d0 efba e3d9 50bb 33ed acba 6377 00bf
000000b0: 1e74 31ba 0b49 70bb 84b0 dd36 059f 34be
000000c0: dc75 64b5 a52c 21bb a214 83ba 06ab 5f33
000000d0: b42e 2736 91a0 a0b6 00af d035 e86c ccb4
000000e0: 7048 c1b6 6edc 7dbb 1251 65bb bb5b 82be
000000f0: 012f b1bd aa28 8f32 1a68 78bd 6c41 0235

tr1.layer_1.weight f4 [64, 64]
1.6387793e-06 1.1718867e-05 6.064049e-06 -2.5361073e-06 -4.6560942e-07 6.2286367e-06 -2.058301e-06 1.466369e-05
5.6597764e-06 -1.4942437e-05 1.2863167e-05 -1.5013902e-05 3.520279e-06 -7.459114e-06 2.5542353e-05 -3.781985e-06
-1.432826e-05 0.00066074403 8.813485e-06 1.28807405e-05 0.40042153 -1.5325614e-06 3.9503993e-06 9.740647e-06
-7.107252e-06 7.215694e-06 -2.0036208e-05 1.2840185e-05 9.15749e-07 -6.11427e-06 0.00021254302 -5.349608e-06
-8.158653e-06 8.448675e-06 1.9255415e-06 -2.124522e-06 -2.829959e-06 8.420784e-06 -1.6904269e-05 1.4728257e-05
3.3984115e-06 -1.1078869e-05 -2.1382994e-05 -3.084965e-06 1.3260975e-05 -1.3244067e-05 -9.272847e-06 0.5460875
5.8844453e-06 -4.858105e-06 -3.8653948e-08 -2.8009774e-06 1.1460167e-05 7.6098568e-06 -3.6609406e-06 8.2638235e-06
-1.8782152e-05 3.4106533e-06 -3.5121095e-06 0.0008387312 0.30352563 -8.053302e-06 0.18273832 2.9950347e-06
-6.5475383e-06 -5.395082e-06 -6.563212e-06 2.9043736e-06 1.5742385e-06 -2.4165356e-06 4.4520666e-06 -1.1808092e-05
-6.04169e-07 -1.4595637e-05 -3.3770004e-06 2.0905838e-07 -7.726042e-06 8.831568e-06 1.8336443e-05 -6.964286e-06
-1.7062317e-05 -8.2827355e-06 -1.1442553e-06 2.7733745e-06 1.641903e-05 -1.4039398e-06 -1.1072453e-05 -9.133841e-06
-2.2137243e-05 1.3993952e-06 -1.331078e-05 -1.6958512e-06 6.750283e-06 5.448169e-06 1.4579149e-05 3.88312e-07
1.3005936e-05 -2.9407502e-06 -1.048635e-05 -7.8015665e-07 -6.3479033e-06 5.0214544e-06 1.1401974e-06 1.6028102e-05
4.8287357e-06 -2.1080185e-05 -7.123561e-06 -8.194738e-06 5.0207445e-06 9.957757e-06 -1.06270045e-05 -5.4687416e-06
3.836092e-06 -1.4948662e-06 3.234132e-07 1.4342688e-05 -9.874713e-06 -1.8035471e-05 1.7154598e-05 1.264664e-05
1.8890481e-05 3.3199522e-06 6.361445e-06 1.7513792e-05 3.6207603e-06 -6.193251e-06 -6.177207e-06 7.4114296e-06
-4.926528e-06 4.9094238e-06 1.1671934e-05 1.4372103e-05 -1.4442844e-05 1.7955657e-05 -1.3006816e-05 -1.1700098e-05
-7.0227193e-06 7.3325373e-06 1.2854805e-05 2.9590542e-06 -3.9409942e-06 -1.6190364e-05 -8.074988e-06 1.149853e-05
-1.693011e-06 6.1112078e-06 1.45582e-05 -7.1188792e-06 -2.523962e-06 -7.0753727e-06 -3.1986206e-06 -5.6287654e-06
8.4393705e-06 1.6781816e-05 -3.0356782e-07 -7.178411e-06 4.905252e-06 -9.272161e-06 4.8282136e-06 -1.4561968e-05
-3.2836717e-06 9.93599e-06 -3.1288175e-06 -8.749846e-06 1.4411673e-05 -3.7710167e-06 -6.5421445e-06 3.3403111e-09
-3.2751207e-06 -6.9192324e-06 -9.24124e-06 -3.5683927e-06 1.6264612e-05 1.1355493e-05 4.944219e-06 7.5429716e-06
5.8862734e-06 5.4363322e-06 -9.234321e-06 -2.7386603e-05 -1.605529e-05 -3.5002838e-06 7.10734e-06 -3.6485496e-06
3.5169821e-06 -1.7512519e-05 2.1452067e-06 -7.758373e-06 -5.940232e-07 5.9845884e-06 1.5441083e-05 -2.238781e-06
-2.1574751e-06 -1.4325062e-05 -5.474099e-06 -1.0592356e-05 -6.4162664e-06 1.350738e-06 1.0880621e-05 1.10411365e-05
-1.9323545e-06 1.6387841e-05 -1.4906383e-06 4.638444e-06 3.846061e-06 -1.1269844e-05 -7.964164e-08 -7.0549136e-06
6.172393e-06 0.40825683 5.0061068e-08 -5.98684e-06 -0.15428801 -9.601933e-06 -1.8563713e-05 -9.975783e-06
1.951765e-05 -4.8647535e-06 2.0287885e-06 -5.662796e-06 -7.9982065e-06 -8.046393e-06 0.2863552 8.601549e-06
-3.7388975e-06 5.988946e-06 -1.7650927e-05 1.5050054e-05 1.5236283e-05 2.833709e-06 -1.3795707e-05 2.7361627e-06
4.6946966e-06 3.0028032e-06 2.1196502e-05 0.4908549 1.7333658e-05 -7.895947e-06 8.25428e-06 -0.12236146
-2.0287756e-07 2.6352807e-05 1.0234719e-05 -1.9041134e-06 -1.6565413e-05 1.0428218e-05 -8.758492e-06 -4.3902696e-06
-4.1066837e-06 -1.13341375e-05 1.1013561e-05 0.5844625 -1.0856444e-07 -4.537007e-06 -0.14539917 6.333097e-07
00000000: 07f4 db35 279c 4437 c979 cb36 fe31 2ab6
00000010: dff8 f9b4 95ff d036 5821 0ab6 1204 7637
00000020: 1ce9 bd36 47b1 7ab7 e2ce 5737 38e4 7bb7
00000030: ef3d 6c36 4d49 fab6 c943 d637 02ce 7db6
00000040: 6863 70b7 c835 2d3a a1dd 1337 5c1a 5837
00000050: 0d04 cd3e 69b2 cdb5 ac8d 8436 c36b 2337
00000060: d47a eeb6 571e f236 6e13 a8b7 2d6c 5737
00000070: cbd1 7535 2e29 cdb6 15de 5e39 c880 b3b6
00000080: 26e1 08b7 c8be 0d37 8d38 0136 0393 0eb6
00000090: 53ea 3db6 fe46 0d37 a4cd 8db7 6219 7737
000000a0: 4410 6436 61df 39b7 a15f b3b7 4c07 4fb6
000000b0: 747b 5e37 d632 5eb7 9392 1bb7 64cc 0b3f
000000c0: 0073 c536 ce02 a3b6 7704 26b3 6df8 3bb6
000000d0: 0b45 4037 2c58 ff36 7bae 75b6 daa4 0a37
000000e0: 5d8e 9db7 94e2 6436 95b1 6bb6 4cde 5b3a
000000f0: b667 9b3e ab1c 07b7 c11f 3b3e 4efe 4836
00000100: edb2 dbb6 6707 b5b6 9039 dcb6 c2e8 4236
00000110: 6c4a d335 c42b 22b6 f662 9536 5e1b 46b7
00000120: 2d2e 22b5 c9df 74b7 6da0 62b6 8879 6034
00000130: 199f 01b7 4c2b 1437 36d1 9937 c3ae e9b6
00000140: 0c21 8fb7 14f6 0ab7 5094 99b5 361e 3a36
00000150: 99bb 8937 016f bcb5 d3c3 39b7 8c3d 19b7
00000160: 5eb3 b9b7 dad2 bb35 5d51 5fb7 019d e3b5
00000170: 7d80 e236 6acf b636 f898 7437 3279 d034
00000180: 1234 5a37 b459 45b6 88ee 2fb7 f56b 51b5
00000190: 1300 d5b6 f77d a836 e208 9935 1674 8637
000001a0: 8606 a236 5ad5 b0b7 ec06 efb6 227c 09b7
000001b0: de77 a836 3e10 2737 a34a 32b7 2280 b7b6
000001c0: c8b7 8036 36a3 c8b5 92a1 ad34 60a1 7037
000001d0: 92ab 25b7 e14a 97b7 38e7 8f37 e82c 5437
000001e0: 0077 9e37 58cc 5e36 6574 d536 95ea 9237
000001f0: 30fc 7236 9fcf cfb6 ce45 cfb6 b2af f836
00000200: 8e4e a5b6 a1bb a436 93d2 4337 b61f 7137
00000210: 8b4f 72b7 7b9f 9637 d937 5ab7 8a4b 44b7
00000220: b3a4 ebb6 040a f636 f8aa 5737 2a94 4636
00000230: e23c 84b6 8bd0 87b7 cf79 07b7 cfe9 4037
00000240: 6a3b e3b5 e00e cd36 fe3e 7437 b5de eeb6
00000250: 5661 29b6 fd68 edb6 e2a7 56b6 bade bcb6
00000260: d296 0d37 adc6 8c37 0bfa a2b4 15de f0b6
00000270: cb97 a436 a18f 1bb7 0a02 a236 2d4f 74b7
00000280: 0d5d 5cb6 c1b2 2637 adf8 51b6 4dcc 12b7
00000290: aac9 7137 9311 7db6 9884 dbb6 608b 6531
000002a0: 25ca 5bb6 c12b e8b6 d30a 1bb7 8578 6fb6
000002b0: fd6f 8837 7983 3e37 85e6 a536 a219 fd36
000002c0: b482 c536 bd69 b636 1bed 1ab7 48bc e5b7
000002d0: 79ae 86b7 6be6 6ab6 967b ee36 9bd9 74b6
000002e0: 4b05 6c36 d9e7 92b7 5ff6 0f36 f529 02b7
000002f0: f774 1fb5 39cf c836 7987 8137 f73d 16b6
00000300: 24c9 10b6 ac55 70b7 27ae b7b6 d3b5 31b7
00000310: 4f4b d7b6 014b b535 e98b 3637 523d 3937
00000320: 99ad 01b6 9f78 8937 f111 c8b5 eea3 9b36
00000330: 6a0d 8136 9d13 3db7 7407 abb3 3fb9 ecb6
00000340: 741c cf36 0a07 d13e ba02 5733 90e2 c8b6
00000350: adfd 1dbe fd17 21b7 45b9 9bb7 a95d 27b7
00000360: d6b9 a337 ea3b a3b6 5226 0836 0c03 beb6
00000370: 0930 06b7 fffe 06b7 269d 923e 5f4f 1037
00000380: c5e9 7ab6 a8f4 c836 1411 94b7 7d7f 7c37
00000390: 569f 7f37 c02a 3e36 1c74 67b7 eb9e 3736
000003a0: 2387 9d36 c483 4936 24cf b137 5551 fb3e
000003b0: bf67 9137 d678 04b7 dd7b 0a37 a598 fabd
000003c0: 8fd6 59b4 3910 dd37 c9b5 2b37 d790 ffb5
000003d0: f4f5 8ab7 dbf4 2e37 70f1 12b7 2150 93b6
000003e0: 25cc 89b6 c027 3eb7 e2c6 3837 569f 153f
000003f0: ef23 e9b3 983c 98b6 85e3 14be b600 2a35

tr1.layer_1.bias f4 [64]
-0.002612714 -4.35701e-06 -3.5749938e-05 -0.36520427 -1.6327143e-06 -0.00071116036 -0.001056458 3.379107e-07
-0.0005581231 -0.001316033 0.076134786 -0.00010169628 -4.049449e-05 -4.3345726e-06 -0.00047100557 -0.00036647418
-1.2483867e-05 -0.0010564747 -0.09846768 0.14764427 0.004682646 -0.0012531298 -0.0028745278 -5.4212625e-05
-1.388632e-05 -3.720461e-07 -0.0011633978 7.124354e-06 -0.00066612253 2.8325763e-07 -0.0025100154 -1.1619192e-05
-0.0008630922 1.8976826e-07 0.3325472 1.708879e-05 -9.638529e-05 -0.0035179825 -0.0020896762 -0.0030515294
-0.00026336446 0.001111614 -0.0010314857 -1.2387743e-05 -0.00016010717 5.0496024e-06 -0.0015738554 -0.0031810491
-7.634401e-06 3.5780045e-06 0.28439477 -0.0009996083 -0.0033766143 -6.194844e-05 -0.0026843941 -8.495646e-09
-9.0956377e-07 -5.9001195e-08 -0.001114526 -7.459257e-05 -0.0001810693 -6.4542735e-05 -0.00018673851 -2.340351e-07
00000000: 113a 2bbb 6e32 92b6 34f2 15b8 0efc babe
00000010: a323 dbb5 2a6d 3aba d978 8aba 186a b534
00000020: 024f 12ba bd7e acba 8eec 9b3d c645 d5b8
00000030: a1d8 29b8 b271 91b6 4cf1 f6b9 5523 c0b9
00000040: cd71 51b7 6979 8aba 6ca9 c9bd 0f30 173e
00000050: e270 993b 0f40 a4ba 9362 3cbb 5d62 63b8
00000060: 4af9 68b7 a0bd c7b4 277d 98ba bc0d ef36
00000070: ba9e 2eba a212 9834 127f 24bb 0df0 42b7
00000080: 2341 62ba 1ac3 4b34 a043 aa3e e659 8f37
00000090: 7522 cab8 f48d 66bb f3f2 08bb 2bfc 47bb
000000a0: 2e14 8ab9 94b3 913a eb32 87ba f3d4 4fb7
000000b0: 71e2 27b9 c16f a936 d349 ceba 2679 50bb
000000c0: 8115 00b7 a61d 7036 319c 913e 4a05 83ba
000000d0: 304a 5dbb 51ea 81b8 a9ec 2fbb 3ff4 11b2
000000e0: bf28 74b5 8068 7db3 4915 92ba 956e 9cb8
000000f0: 6cdd 3db9 1e5b 87b8 3dcf 43b9 144b 7bb4

tr1.layer_2.weight f4 [64, 64]
8.92443e-06 -5.7330612e-06 -1.3370006e-05 -1.6723534e-05 5.40013e-06 3.6873957e-06 4.846089e-06 -6.937895e-06
1.6897073e-05 -1.6935302e-05 -3.859248e-06 -3.3639983e-06 7.4734485e-06 -3.6495442e-06 7.4174395e-06 -7.1001677e-06
-1.2580569e-05 3.1711354e-06 -1.7767423e-05 1.3673712e-05 -9.575052e-06 -1.6633746e-06 -9.7903585e-06 -1.4579764e-05
-8.4944995e-06 3.5012621e-07 6.4743626e-06 -2.1311685e-05 1.0506012e-06 -5.9362173e-06 -2.9016626e-06 5.915049e-06
2.0996263e-06 4.417529e-06 -1.9152898e-05 2.2909167e-06 1.3860809e-05 1.34566e-05 4.606889e-06 -2.3831342e-05
6.168602e-06 1.4160112e-05 -1.8887102e-05 9.333886e-06 -2.0444218e-06 -1.0596525e-05 1.4562262e-05 -1.8039096e-05
2.5522472e-06 -5.710166e-06 -2.6968968e-05 4.8579486e-06 -4.453798e-06 -2.826877e-06 -3.8445023e-06 3.4742775e-06
-1.3457839e-05 -4.9603464e-06 1.6765664e-05 9.413162e-06 2.1325579e-07 3.9405945e-06 4.9230503e-06 9.800216e-08
5.966469e-06 -8.418971e-06 -1.6382393e-06 1.3154805e-05 -6.744761e-07 1.9053236e-06 5.3489675e-06 3.520978e-06
5.7293646e-06 -1.8037554e-05 7.1512623e-06 1.6789987e-05 3.2898338e-06 -1.8558917e-06 2.9367961e-06 2.1300898e-06
6.0781513e-06 -2.1519327e-06 1.0341008e-05 -2.5392449e-06 -5.332074e-06 1.1519228e-05 -1.5050165e-06 -1.2677864e-05
2.6915936e-06 -3.457626e-06 4.739718e-06 5.939841e-06 1.6284466e-05 -1.7567052e-06 8.886205e-06 1.3224704e-06
-2.101849e-06 -1.1032304e-05 4.537305e-06 6.619069e-06 3.4579025e-06 7.4272625e-06 -1.9170935e-05 -3.5648889e-06
3.4425218e-06 -7.0015667e-06 1.5860262e-05 1.102726e-05 9.406901e-06 3.6481945e-06 1.785466e-05 -9.545811e-06
1.6219408e-06 -3.9116585e-06 6.162905e-06 3.207098e-06 -6.72721e-06 -1.4118331e-05 -3.265875e-06 1.5765279e-06
3.2018802e-06 -6.7293317e-06 1.5057124e-06 -4.454872e-06 6.658934e-06 2.1311349e-05 7.984406e-06 -1.8893857e-05
1.55786e-05 2.5477848e-06 -2.1314116e-05 -1.3130316e-05 -3.561351e-06 7.1759205e-06 6.0124175e-06 -8.544976e-06
-7.4771583e-06 -1.0682161e-05 -3.099493e-06 -3.6907559e-06 -8.0064165e-06 -5.709471e-06 4.8052634e-06 -8.674757e-06
-2.2202826e-06 7.984206e-06 6.4098676e-06 5.83248e-07 -8.604658e-06 7.099995e-06 1.8883173e-05 -1.0432776e-05
3.5838293e-06 -2.0330317e-05 -6.3799826e-06 -4.8486827e-06 -5.3461226e-06 9.556762e-06 1.8334234e-05 -8.0024465e-06
-3.6924234e-06 -4.454688e-06 -6.8016266e-06 3.196425e-06 1.1971105e-05 -1.9614994e-05 -3.846312e-06 2.8405975e-06
-1.2574733e-05 4.6191876e-06 -2.2308027e-06 -3.4479754e-06 6.185558e-06 8.52351e-06 8.532057e-06 1.38202495e-05
2.0600096e-06 -1.4383097e-05 -9.632546e-06 -1.6172582e-05 9.40899e-07 3.2000882e-09 -5.7209145e-06 3.5369576e-06
-2.6950006e-06 8.173313e-06 -1.6826152e-05 2.0457244e-07 3.6481472e-06 3.4657958e-06 7.1025215e-06 -1.9621257e-05
-3.5711264e-07 -1.1739808e-05 3.474129e-06 3.0534968e-06 1.102953e-05 -1.8891882e-05 1.1989259e-05 2.69471e-06
-5.753912e-06 1.291829e-05 2.793084e-06 -7.3009696e-06 -1.2924706e-05 6.1653213e-06 1.6181706e-05 5.766705e-06
8.145013e-06 -3.50766e-06 -1.640111e-05 7.755607e-06 3.0017018e-06 -2.0624916e-06 -4.9073733e-06 -6.493126e-06
1.0062677e-05 -1.4499437e-05 -6.158912e-06 -3.6885954e-06 6.3362127e-06 1.679644e-05 -1.2435146e-05 7.4672193e-06
9.561911e-06 7.4346735e-06 9.282734e-07 1.4717769e-05 -1.5672025e-06 1.8899336e-05 -1.25345905e-05 -1.0466474e-06
-2.0781285e-06 -1.3382623e-05 3.9386496e-06 -7.2829394e-06 -2.2604121e-08 -6.938108e-06 -4.459569e-06 3.2581934e-06
-1.4532116e-05 3.5217952e-06 -1.916606e-05 -3.2013609e-06 1.6786857e-05 -9.667649e-06 7.980787e-06 1.876607e-05
-1.693591e-05 -5.70523e-06 -1.1978305e-05 -3.9080423e-06 9.797519e-06 7.102417e-06 3.6879983e-06 7.1675213e-06
00000000: 23ba 1537 9f5e c0b6 bd4f 60b7 8449 8cb7
00000010: c332 b536 fa74 7736 969b a236 10cc e8b6
00000020: 30be 8d37 4910 8eb7 b07e 81b6 0dc1 61b6
00000030: 6fc4 fa36 b1ea 74b6 52e3 f836 fa3d eeb6
00000040: 2211 53b7 b1cf 5436 400b 95b7 2568 6537
00000050: 89a4 20b7 1e41 dfb5 4541 24b7 9c9b 74b7
00000060: 9983 0eb7 fbf8 bb34 5a3e d936 7fc6 b2b7
00000070: 6202 8d35 b82f c7b6 2fba 42b6 e279 c636
00000080: 4ee7 0c36 493a 9436 89aa a0b7 a6bd 1936
00000090: b98b 6837 a8c3 6137 e094 9a36 6be9 c7b7
000000a0: e3fb ce36 3891 6d37 be6f 9eb7 bc98 1c37
000000b0: e632 09b6 bac7 31b7 7050 7437 aa52 97b7
000000c0: 4647 2b36 f499 bfb6 6b3b e2b7 7601 a336
000000d0: d571 95b6 61b5 3db6 0600 81b6 a227 6936
000000e0: fac8 61b7 0d71 a6b6 fda3 8c37 39ed 1d37
000000f0: 4efb 6434 7339 8436 ae30 a536 4275 d233
00000100: 9433 c836 353f 0db7 79e1 dbb5 75b3 5c37
00000110: a50d 35b5 6cba ff35 487b b336 f149 6c36
00000120: de3e c036 5a4f 97b7 e0f4 ef36 39d8 8c37
00000130: eac6 5c36 f417 f9b5 c615 4536 aaf2 0e36
00000140: ecf2 cb36 ec69 10b6 4b7e 2d37 e567 2ab6
00000150: 2bea b2b6 b542 4137 f9ff c9b5 03b3 54b7
00000160: 3aa1 3436 9009 68b6 de09 9f36 d84e c736
00000170: a09a 8837 eec7 ebb5 f615 1537 bd7f b135
00000180: 7e0d 0db6 6317 39b7 273f 9836 5f19 de36
00000190: 500e 6836 b337 f936 45d1 a0b7 533c 6fb6
000001a0: 1306 6736 00ef eab6 a70b 8537 b901 3937
000001b0: 55d2 1d37 81d3 7436 97c6 9537 f226 20b7
000001c0: 76b1 d935 e440 83b6 f3ca ce36 8639 5736
000001d0: 4bba e1b6 c5dd 6cb7 4e2b 5bb6 1699 d335
000001e0: e2df 5636 85cc e1b6 e217 ca35 0f7b 95b6
000001f0: cf6f df36 c6c5 b237 c3f4 0537 407e 9eb7
00000200: caae 8237 9cfa 2a36 b7cb b2b7 474a 5cb7
00000210: 8bff 6eb6 b0c8 f036 46be c936 645c 0fb7
00000220: 4de4 fab6 8837 33b7 e200 50b6 b4ae 77b6
00000230: 4c53 06b7 fc93 bfb6 e63c a136 cc89 11b7
00000240: 2a00 15b6 e7f3 0537 5814 d736 7f90 1c35
00000250: ba5c 10b7 7e3c ee36 4e67 9e37 6f08 2fb7
00000260: b881 7036 068b aab7 a213 d6b6 deb1 a2b6
00000270: d862 b3b6 fb55 2037 78cc 9937 3f42 06b7
00000280: 5acb 77b6 7b79 95b6 8739 e4b6 2a82 5636
00000290: 81d7 4837 e18a a4b7 920f 81b6 18a1 3e36
000002a0: 11f8 52b7 85fe 9a36 e6b4 15b6 c463 67b6
000002b0: 8a8d cf36 3200 0f37 e824 0f37 85dd 6737
000002c0: b23e 0a36 ee4e 71b7 789b 21b7 5baa 87b7
000002d0: 1692 7c35 8ce8 5b31 48f6 bfb6 785c 6d36
000002e0: c2db 34b6 1d20 0937 e325 8db7 72a8 5b34
000002f0: b1d2 7436 eb95 6836 3252 ee36 5498 a4b7
00000300: 30b9 bfb4 17f6 44b7 1525 6936 adea 4c36
00000310: 780b 3937 027a 9eb7 7a25 4937 c4d6 3436
00000320: ba11 c1b6 a2bb 5837 d170 3b36 dafa f4b6
00000330: 31d7 58b7 b5df ce36 f3bd 8737 9e7f c136
00000340: 91a6 0837 2465 6bb6 1e95 89b7 141e 0237
00000350: d870 4936 5669 0ab6 04aa a4b6 87df d9b6
00000360: ded2 2837 9c42 73b7 a7a8 ceb6 9689 77b6
00000370: a79b d436 15e6 8c37 8ca0 50b7 ed8e fa36
00000380: 186c 2037 5c77 f936 762e 7935 56ec 7637
00000390: ab58 d2b5 048a 9e37 a84b 52b7 887a 8cb5
000003a0: fa75 0bb6 ee85 60b7 be28 8436 f95f f4b6
000003b0: fd2a c2b2 e5cd e8b6 68a3 95b6 56a7 5a36
000003c0: f7ce 73b7 fb57 6c36 cdc6 a0b7 f6d6 56b6
000003d0: 80d1 8c37 3c32 22b7 38e5 0537 d46b 9d37
000003e0: 9711 8eb7 8d6f bfb6 6ef6 48b7 d421 83b6
000003f0: 0660 2437 4c51 ee36 547f 7736 8a80 f036

tr1.layer_2.bias f4 [64]
4.13679e-06 7.412612e-06 -5.5159803e-06 1.816171e-06 1.5925469e-06 1.2643802e-05 -1.1741904e-05 0.24978141
0.035765793 0.36511946 -0.00013480603 -3.368073e-06 -2.3906116e-05 0.046801038 -5.176713e-06 0.20989466
1.8559906e-06 -2.7923493e-06 3.6383983e-07 7.386575e-06 5.437496e-07 1.0057721e-05 0.041370787 -1.6817077e-05
-0.00036861052 1.820036e-05 0.061678484 2.7576375e-06 8.611758e-06 0.009576686 -1.7343526e-05 -2.1381043e-06
0.3051053 -2.5717189e-05 -3.2047435e-06 1.2476179e-05 -2.8391653e-06 5.676505e-06 7.275037e-06 2.0840876e-06
-1.0786777e-05 1.6523821e-06 8.1743765e-06 1.7847664e-06 -0.00078500906 2.2889697e-06 1.4189318e-06 -9.4339777e-07
8.201779e-06 -8.6363825e-06 0.12464013 0.029445892 -1.0986741e-05 -1.855492e-05 8.398753e-06 -7.64362e-06
0.008915559 3.4545012e-06 2.1787698e-06 -8.115579e-06 1.6527169e-05 -2.3910943e-06 2.2391007e-06 -0.0008977185
00000000: c1ce 8a36 dab9 f836 e915 b9b6 29c3 f335
00000010: 7fbf d535 b720 5437 18ff 44b7 b3c6 7f3e
00000020: 277f 123d f0f0 ba3e b85a 0db9 0e07 62b6
00000030: fe89 c8b7 72b2 3f3d a0b3 adb6 a0ee 563e
00000040: 5a1b f935 3264 3bb6 c455 c334 32da f736
00000050: 30f6 1135 95bd 2837 6a74 293d 6612 8db7
00000060: 1142 c1b9 faac 9837 94a2 7c3d da0f 3936
00000070: 387b 1037 88e7 1c3c f07c 91b7 5a7c 0fb6
00000080: c336 9c3e 3ebb d7b7 1311 57b6 c850 5137
00000090: 7d88 3eb6 cf78 be36 181c f436 5adc 0b36
000000a0: dbf8 34b7 6bc7 dd35 ae24 0937 1b8c ef35
000000b0: 11c9 4dba 339c 1936 2072 be35 cd3d 7db5
000000c0: 5f9a 0937 fbe4 10b7 5343 ff3d 8338 f13c
000000d0: b153 38b7 63a6 9bb7 5fe8 0c37 193d 00b7
000000e0: 9112 123c e1d3 6736 fb36 1236 2528 08b7
000000f0: d3a3 8a37 b076 20b6 7543 1636 de54 6bba

tr1g.layer_0.weight f4 [64, 64]
-0.032125287 -0.032452613 0.04050641 0.056992188 0.0037720737 -0.0004214343 0.0003451752 -0.015970914
-0.17340153 -0.44879833 -0.15373945 0.0004398225 -0.041816738 0.013871498 0.0002124414 -0.19596346
-0.044605147 0.086831085 -0.2421981 -0.00034458807 0.16950276 0.009568219 -0.13360265 0.005013436
0.09045215 -8.782808e-05 0.012274322 -0.061461333 -0.0030041097 -0.00093618623 -0.00921954 -0.041349936
-0.44251 -0.036090776 -0.00026397224 -0.019210782 0.001125965 0.029263591 -0.0003261633 0.00031583925
-0.06381074 0.002559223 0.019867836 0.0054429895 -0.16393845 -0.11029533 0.0049967864 0.017865047
-0.021754643 0.056591548 0.02043936 0.0052232905 -1.6766633e-05 -0.0001284161 0.0009554038 -0.005924355
4.2534823e-05 0.030028753 -0.008908796 -0.001710897 0.00040647373 0.00035212561 -0.043326467 -0.06556785
-2.6449297e-06 1.3424209e-05 2.5922329e-05 1.3156241e-05 2.9433882e-06 2.4556584e-06 4.938362e-06 9.618799e-07
-1.6413134e-05 3.4199786e-06 2.7700394e-06 -8.357337e-06 -7.4470486e-06 1.2049001e-05 -5.6177228e-06 8.279458e-06
8.662547e-07 9.942674e-06 -1.7347785e-06 8.170059e-06 -4.5917295e-06 9.376171e-06 -4.613037e-06 -1.7810926e-05
7.9169195e-06 -4.823939e-06 -3.6100046e-06 1.0075177e-05 -7.246023e-06 1.4653108e-05 -1.196911e-05 -9.617703e-06
5.8885294e-06 1.7223836e-05 -1.1134194e-05 3.8293424e-06 -2.2858347e-07 1.9519568e-06 -4.9850296e-06 1.1526996e-05
7.9091825e-07 -9.549018e-06 -1.052981e-05 1.7828854e-05 8.516847e-06 -7.895656e-07 7.0989854e-06 -2.190781e-06
-5.596585e-06 -7.1084887e-06 -9.914841e-06 4.4120534e-06 4.5404227e-06 -1.1924276e-05 -4.7146023e-06 1.3102697e-06
1.9294293e-06 2.0502266e-05 -7.479895e-06 4.02327e-06 -9.77034e-07 -2.3365458e-06 7.811456e-06 -1.27700005e-05
-4.3717746e-06 -9.512941e-06 3.4647505e-06 -1.2721514e-05 1.6633478e-05 -9.949743e-06 1.4327042e-05 -2.513599e-06
-1.4604806e-06 -2.9942356e-07 3.9018704e-07 2.1390083e-06 8.026124e-06 4.4790236e-06 3.5979544e-06 -2.1676792e-06
-1.3371961e-05 -4.1086e-06 3.477085e-07 1.820371e-05 1.14016395e-07 1.49355155e-05 -2.8168943e-06 7.622226e-06
4.3781115e-06 2.4391284e-07 1.162412e-08 -7.3444817e-06 1.4162221e-05 -1.345645e-06 2.134029e-06 -1.3253374e-05
-4.612343e-08 -1.1783411e-05 4.5423117e-06 -1.3384678e-06 8.945522e-07 1.034639e-06 -6.9986127e-06 3.0386427e-06
1.8925319e-05 -5.007528e-07 -1.0610829e-05 6.7181704e-06 6.2560393e-06 1.1481882e-05 -9.391644e-06 1.5196517e-05
-5.380557e-06 6.092007e-06 -3.6649493e-07 -2.448927e-05 -1.1551306e-05 -6.727415e-06 -1.9993666e-05 -5.3841427e-06
-4.4403194e-07 1.8488588e-05 1.6734779e-06 -1.1852533e-05 -6.712984e-06 -1.6546957e-05 1.0427221e-05 -8.091191e-06
8.851165e-06 2.2907268e-06 5.460675e-06 4.14038e-06 -5.334931e-06 -1.3021635e-05 1.555186e-05 -1.4683381e-07
-1.874041e-05 5.0390435e-07 -6.5722574e-08 1.4384434e-06 -7.6311435e-06 1.3647159e-06 -1.505537e-06 9.52529e-06
-1.352777e-05 4.441159e-06 -2.455644e-06 -3.339276e-06 2.3159644e-06 1.3562185e-06 -3.838e-06 4.838285e-06
-6.242394e-06 -3.1079378e-06 -2.348618e-06 1.182808e-05 -2.0299603e-05 1.7412484e-06 -1.2252647e-06 -6.314862e-06
-7.197231e-07 1.9359638e-06 3.544413e-06 2.5081716e-05 -9.766088e-07 1.5972079e-06 -1.2621132e-05 1.22627835e-05
-8.784659e-06 -7.2276953e-06 5.8570126e-06 2.0868713e-06 1.516521e-06 1.0215814e-06 1.3126362e-05 6.4476503e-06
-2.806914e-06 -5.954174e-06 -3.99484e-06 7.0636856e-06 1.3150849e-05 -6.4287497e-06 9.50194e-06 8.759106e-06
5.630674e-07 2.8232549e-05 -4.765743e-06 -1.2836505e-06 -3.2777043e-06 -2.9884188e-06 -2.8002174e-05 2.2414447e-06
00000000: ce95 03bd 08ed 04bd 0dea 253d a470 693d
00000010: e534 773b f4f3 dcb9 a2f8 b439 6fd5 82bc
00000020: 2c90 31be e5c8 e5be e06d 1dbe fa97 e639
00000030: 0748 2bbd 4845 633c cec2 5e39 a5aa 48be
00000040: e3b3 36bd 7fd4 b13d c702 78be d4a9 b4b9
00000050: 2292 2d3e 05c4 1c3c 22cf 08be c047 a43b
00000060: fa3e b93d 5730 b8b8 3d1a 493c e1be 7bbd
00000070: 99e0 44bb 656a 75ba 8e0d 17bc 8d5e 29bd
00000080: ac90 e2be ecd3 13bd c165 8ab9 ee5f 9dbc
00000090: 1e95 933a 33ba ef3c e600 abb9 3a97 a539
000000a0: 35af 82bd a3b8 273b dfc1 a23c 1b5b b23b
000000b0: 7bdf 27be 85e2 e1bd 15bc a33b b859 923c
000000c0: cb36 b2bc 8acc 673d 7270 a73c 2328 ab3b
000000d0: 12a6 8cb7 6fa7 06b9 1074 7a3a 1721 c2bb
000000e0: 6b67 3238 dcfe f53c 33f6 11bc 2d40 e0ba
000000f0: fb1b d539 809d b839 1877 31bd 7048 86bd
00000100: 8c7f 31b6 8a38 6137 c773 d937 a0b9 5c37
00000110: 0687 4536 e4cb 2436 35b4 a536 f119 8135
00000120: f0ae 89b7 c982 6536 eae4 3936 7d36 0cb7
00000130: a9e1 f9b6 1126 4a37 df7f bcb6 00e8 0a37
00000140: 9288 6835 76cf 2637 89d6 e8b5 2312 0937
00000150: a812 9ab6 594e 1d37 b0c9 9ab6 ac68 95b7
00000160: e9d2 0437 52dd a1b6 6843 72b6 8e08 2937
00000170: dd22 f3b6 9fd6 7537 f0ce 48b7 b85b 21b7
00000180: 1596 c536 e87b 9037 00cd 3ab7 cd7d 8036
00000190: 8c70 75b4 5dfe 0236 1445 a7b6 1264 4137
000001a0: 7d4f 5435 b834 20b7 31a9 30b7 2c8f 9537
000001b0: 94e3 0e37 89f2 53b5 d233 ee36 5505 13b6
000001c0: 4dca bbb6 7485 eeb6 eb57 26b7 400b 9436
000001d0: ef59 9836 600e 48b7 2032 9eb6 86dc af35
000001e0: 587b 0136 48fc ab37 cffb fab6 a0ff 8636
000001f0: a222 83b5 8dcd 1cb6 f30d 0337 bc3e 56b7
00000200: 42b1 92b6 c599 1fb7 f683 6836 7d6e 55b7
00000210: 1f88 8b37 d2ed 26b7 2d5e 7037 4daf 28b6
00000220: bb05 c4b5 76c0 a0b4 e67a d134 e28b 0f36
00000230: f1a7 0637 854a 9636 6374 7136 7278 11b6
00000240: 2358 60b7 9bdc 89b6 b1ac ba34 2bb4 9837
00000250: 2dd9 f433 8d93 7a37 e009 3db6 6cc2 ff36
00000260: b1e7 9236 20f3 8234 6cb3 4732 9e70 f6b6
00000270: 479a 6d37 039c b4b5 5736 0f36 cf5a 5eb7
00000280: 3f19 46b3 5db1 45b7 296a 9836 67a5 b3b5
00000290: 2921 7035 eddd 8a35 a0d5 eab6 7ceb 4b36
000002a0: d0c1 9e37 786b 06b5 2a05 32b7 a56c e136
000002b0: f8ea d136 4fa2 4037 ce90 1db7 8bf4 7e37
000002c0: a28a b4b6 f169 cc36 aec2 c4b4 4f6e cdb7
000002d0: 7bcc 41b7 0ebc e1b6 12b8 a7b7 6fa9 b4b6
000002e0: 4963 eeb4 f117 9b37 439c e035 3eda 46b7
000002f0: 1840 e1b6 52ce 8ab7 93f0 2e37 67bf 07b7
00000300: 777f 1437 63ba 1936 d73a b736 98ed 8a36
00000310: b502 b3b6 7f77 5ab7 5d75 8237 5fa9 1db4
00000320: b934 9db7 0b44 0735 5e23 8db3 8a10 c135
00000330: 8307 00b7 482b b735 dc11 cab5 cfce 1f37
00000340: 54f5 62b7 4405 9536 a5cb 24b6 5318 60b6
00000350: f76b 1b36 5007 b635 2bc8 80b6 8d58 a236
00000360: c275 d1b6 f791 50b6 f39c 1db6 3771 4637
00000370: 1149 aab7 d7b4 e935 c673 a4b5 40e4 d3b6
00000380: ff32 41b5 9beb 0136 8ddc 6d36 9366 d237
00000390: 0614 83b5 a55f d635 59bf 53b7 41bc 4d37
000003a0: d361 13b7 6e85 f2b6 5b87 c436 2d0c 0c36
000003b0: 448b cb35 451d 8935 4c39 5c37 e558 d836
000003c0: 6a5e 3cb6 f7c9 c7b6 6a0b 86b6 9904 ed36
000003d0: 77a2 5c37 8ab6 d7b6 866a 1f37 13f4 1237
000003e0: b225 1735 f0d4 ec37 6ce9 9fb6 e549 acb5
000003f0: 88f6 5bb6 a58c 48b6 36e6 eab7 ba6b 1636

tr1g.layer_0.bias f4 [64]
0.06254643 1.1867451e-06 1.6824657e-07 -4.9473248e-09 -0.00050200516 -5.238772e-06 -0.13978057 -0.022221234
-3.32349e-06 -2.863114e-06 -0.0005523464 4.1558366e-07 -4.770559e-07 -0.0027173636 -0.0016082654 1.0678124e-06
-3.2855258e-08 -1.1100004e-06 -0.0021196455 -3.8842967e-07 0.17445424 -4.8636366e-07 -2.1266946e-05 1.6430411e-06
3.7677482e-06 -1.0081114e-06 -0.0009910961 -3.5588857e-06 5.152451e-06 -0.0017335522 -0.0016139215 -2.4781866e-06
0.19485761 -7.7306674e-07 9.981974e-07 -0.3235106 -7.3073245e-08 4.0708137e-06 2.6463936e-06 2.8400348e-06
-0.0029601397 -1.6427321e-06 1.4391256e-06 -3.2303146e-06 -2.3987897e-07 -0.16752066 2.725706e-06 -4.3306946e-07
2.6026862e-06 -8.111014e-07 -8.7862634e-07 3.946966e-06 1.6852531e-06 2.0324787e-06 -0.0003580011 2.277834e-06
8.21573e-09 9.122314e-07 1.1089768e-06 -4.3623872e-06 0.20584224 -0.20379926 -7.2763985e-05 3.050597e-06
00000000: 5818 803d 4048 9f35 44a7 3434 21fd a9b1
00000010: ff98 03ba b5c8 afb6 a322 0fbe 4e09 b6bc
00000020: 2009 5fb6 ed23 40b6 57cb 10ba 621d df34
00000030: 080f 00b5 cc15 32bb 6fcc d2ba c151 8f35
00000040: bd1c 0db3 53fb 94b5 c0e9 0abb 5e89 d0b4
00000050: 22a4 323e a88e 02b5 6b66 b2b7 7686 dc35
00000060: 6cd9 7c36 724e 87b5 abe7 81ba 31d5 6eb6
00000070: 38e3 ac36 5c38 e3ba 388a d3ba ec4e 26b6
00000080: c188 473e be84 4fb5 cdf9 8535 2ea3 a5be
00000090: 71ec 9cb3 0698 8836 b298 3136 6d97 3e36
000000a0: e7fe 41bb d87b dcb5 fb27 c135 62c8 58b6
000000b0: b7c8 80b4 898a 2bbe 46eb 3636 9d80 e8b4
000000c0: cfa9 2e36 77ba 59b5 beda 6bb5 2e70 8436
000000d0: db30 e235 b865 0836 18b2 bbb9 e4dc 1836
000000e0: 2a25 0d32 11e0 7435 27d8 9435 9f60 92b6
000000f0: 4fc8 523e c1b0 50be de98 98b8 dbb8 4c36

tr1g.layer_1.weight f4 [64, 64]
-3.1314794e-06 1.34742695e-05 3.2149526e-08 -6.711735e-06 -2.1170426e-06 -1.00608595e-05 7.700563e-06 -7.264973e-06
-4.273154e-06 -6.472027e-06 6.090046e-06 2.2125416e-05 -1.4401298e-05 -4.8858383e-06 -7.034985e-06 -3.7640523e-06
-1.4401178e-05 -1.0315878e-06 1.8025976e-05 1.6453805e-05 -2.042587e-07 -3.5339208e-06 1.3833005e-05 -1.0522268e-05
1.766645e-05 -1.009582e-06 -8.759914e-06 9.278075e-06 -5.466506e-06 1.168562e-05 -7.705703e-06 2.105911e-06
3.9542647e-06 1.792301e-05 -2.054418e-05 -7.1901204e-06 -2.647945e-05 3.4230525e-06 -2.1133848e-05 1.2949037e-06
-3.636135e-06 4.4071253e-06 -1.6808397e-05 2.146969e-06 9.873401e-06 7.7885325e-06 -6.6322673e-07 3.272714e-06
-3.5055239e-06 -1.6601532e-06 -1.6226106e-06 -1.5520807e-07 -1.8466186e-05 2.047183e-06 4.160116e-06 3.5080932e-06
-1.7759854e-08 -4.627412e-06 2.1306594e-05 -4.8835577e-06 4.876566e-06 -2.1296762e-06 -1.2682259e-05 -5.9339927e-06
-0.04011919 1.2892134e-05 1.3391982e-06 8.379139e-06 -4.1417216e-08 -2.4386363e-06 0.0002536602 0.00093947194
-6.316599e-06 -1.7368993e-06 4.712244e-06 -1.703703e-05 -6.572902e-06 -7.1093314e-06 8.60344e-07 -2.5761246e-06
-3.9392658e-06 -1.5668036e-05 -1.1397656e-06 4.845732e-06 0.20592278 -2.192716e-07 2.1336115e-05 1.542915e-06
-1.3424709e-06 8.59493e-06 9.948903e-06 1.9425057e-05 -1.0654215e-05 1.2323412e-05 2.4727706e-07 -3.801566e-06
0.18777491 3.1944985e-06 -5.0194035e-06 3.9666347e-06 5.740947e-06 -3.5032845e-06 -1.720756e-05 9.836224e-06
-3.4501932e-06 -2.0684588e-06 5.6387944e-06 7.4138297e-06 -2.2326373e-07 -0.02165931 -1.0349103e-06 -1.5500398e-05
-8.252944e-07 1.6828695e-05 -1.3591008e-06 -3.986619e-06 -2.2856816e-06 -1.5076586e-05 1.1742027e-06 -1.1874932e-05
2.1326978e-06 -6.139659e-07 -5.4047e-06 1.4008867e-05 0.16461523 -0.2589962 2.4886463e-06 -7.1667814e-06
2.1487306e-06 -6.3262746e-06 1.2612987e-05 -2.1200827e-05 1.4515269e-05 -7.853901e-06 -4.222502e-06 -3.430836e-06
1.4289518e-05 -3.8347475e-06 -7.4958184e-06 -1.0549886e-05 -1.6571641e-05 -1.06376065e-05 -2.1012009e-05 3.4472225e-06
3.8963794e-06 1.6275551e-05 -3.0058995e-06 3.7646837e-06 -1.6768718e-06 -9.706617e-06 5.7008367e-07 6.753301e-06
4.585627e-06 5.812508e-06 -3.4888092e-06 2.2140759e-05 9.660749e-06 2.3758073e-06 5.701617e-06 -9.433416e-06
8.776854e-07 1.1949987e-05 1.3317226e-05 -3.980592e-06 -2.9222076e-07 -4.229621e-06 -3.430755e-06 1.7852823e-05
-2.129676e-05 8.458002e-06 2.130142e-05 -5.6359686e-06 -9.736435e-06 1.0272094e-06 1.6782333e-05 1.3774567e-06
-9.709162e-06 2.5597226e-05 4.9029622e-06 -9.475957e-06 -1.1993445e-05 6.1030582e-06 5.497902e-06 8.641183e-06
3.4579305e-06 -3.2859255e-06 -3.134035e-06 -1.428223e-05 -4.1303258e-07 1.39763e-05 1.5815094e-06 7.649412e-06
-6.0155005e-05 -7.1890217e-06 8.167744e-06 -7.763857e-06 -1.8505189e-05 1.4751937e-05 -4.617292e-05 4.988162e-05
2.2821265e-05 -1.2465192e-05 1.4803101e-06 1.0250752e-06 -5.2408673e-06 1.3381917e-06 -2.1097399e-06 5.874677e-06
-2.3277182e-07 2.6516068e-06 2.2787333e-07 3.2447504e-06 -0.00053711195 9.927506e-06 -3.0263834e-07 -6.5293875e-06
-1.961515e-05 5.6035988e-06 1.3210567e-06 1.2530354e-05 -1.2818032e-05 -1.833077e-05 -1.8865406e-06 3.5939136e-06
-0.0009109302 -1.9873465e-05 -2.7089404e-06 -0.00016628025 -1.0019655e-05 -5.9375966e-06 -3.7293914e-06 7.920287e-06
-1.7458951e-05 -3.874214e-06 3.67676e-06 -9.80413e-06 7.3141437e-06 0.0004762242 1.981155e-05 -2.884518e-06
-1.8192632e-05 -7.576534e-06 9.570405e-06 -2.515929e-05 -3.35532e-06 8.024283e-06 1.233192e-05 1.4352174e-05
-1.649497e-05 -1.1066672e-05 -1.7950675e-06 3.25133e-06 -0.0010024434 0.00017534143 1.2209762e-05 1.224978e-07
00000000: 6826 52b6 8c0f 6237 c714 0a33 5d35 e1b6
00000010: 8412 0eb6 10cb 28b7 ab31 0137 a5c5 f3b6
00000020: 1d62 8fb6 4a2a d9b6 1959 cc36 f899 b937
00000030: 1b9d 71b7 08f1 a3b6 100e ecb6 ed99 7cb6
00000040: 979c 71b7 1675 8ab5 7d36 9737 4706 8a37
00000050: 3452 5bb4 4c28 6db6 4e14 6837 cc88 30b7
00000060: 6a32 9437 f980 87b5 8bf7 12b7 07a9 1b37
00000070: ee6c b7b6 5b0d 4437 be47 01b7 4753 0d36
00000080: e0ae 8436 5f59 9637 4a56 acb7 aa42 f1b6
00000090: 3020 deb7 98b7 6536 9848 b1b7 8dcc ad35
000000a0: 5304 74b6 ebe0 9336 c2ff 8cb7 a614 1036
000000b0: efa5 2537 7eab 0237 9808 32b5 cca0 5b36
000000c0: 7140 6bb6 6ed2 deb5 7ac8 d9b5 45a7 26b4
000000d0: d5e7 9ab7 5662 0936 2097 8b36 956c 6b36
000000e0: 558e 98b2 2b45 9bb6 90bb b237 71dd a3b6
000000f0: 62a1 a336 8feb 0eb6 e3c5 54b7 9c1c c7b6
00000100: 0554 24bd 4b4b 5837 80be b335 2194 0c37
00000110: b6e2 31b3 74a7 23b6 b2fd 8439 e546 763a
00000120: 2cf3 d3b6 681f e9b5 de1d 9e36 beea 8eb7
00000130: cc8c dcb6 b18c eeb6 64f2 6635 7ce1 2cb6
00000140: 092e 84b6 da6e 83b7 0cfa 98b5 8598 a236
00000150: 6cdd 523e eb70 6bb4 f5fa b237 2816 cf35
00000160: f32e b4b5 f132 1037 37ea 2637 fef2 a237
00000170: 81bf 32b7 a7c0 4e37 80c1 8434 681e 7fb6
00000180: 1148 403e 1161 5636 596c a8b6 2219 8536
00000190: 5ca2 c036 f819 6bb6 f458 90b7 4306 2537
000001a0: de89 67b6 dacf 0ab6 e034 bd36 50c4 f836
000001b0: 44ba 6fb4 de6e b1bc 3fe7 8ab5 da06 82b7
000001c0: cd89 5db5 592b 8d37 596a b6b5 ccc4 85b6
000001d0: b663 19b6 72f1 7cb7 4c99 9d35 723a 47b7
000001e0: 781f 0f36 6acf 24b5 055a b5b6 a007 6b37
000001f0: e590 283e 269b 84be 9e02 2736 2f7a f0b6
00000200: e932 1036 4946 d4b6 5e9c 5337 6ed8 b1b7
00000210: 9b86 7337 3fc4 03b7 04af 8db6 503d 66b6
00000220: 03bd 6f37 3bac 80b6 9784 fbb6 6aff 30b7
00000230: 5403 8bb7 2c78 32b7 f242 b0b7 d556 6736
00000240: a5bd 8236 7b87 8837 f6b8 49b6 c6a4 7c36
00000250: e010 e1b5 9ad9 22b7 da07 1935 6a9a e236
00000260: 3cde 9936 1009 c336 4921 6ab6 ebba b937
00000270: 9a14 2237 0f70 1f36 8450 bf36 3744 1eb7
00000280: 159a 6b35 ce7c 4837 0d6d 5f37 0691 85b6
00000290: 84e2 9cb4 2bec 8db6 ec3b 66b6 a5c2 9537
000002a0: 72a6 b2b7 d8e6 0d37 73b0 b237 9a1c bdb6
000002b0: ab59 23b7 a5de 8935 c9c7 8c37 0de1 b835
000002c0: 89e4 22b7 a0b9 d637 2084 a436 edfa 1eb7
000002d0: 7437 49b7 dfc8 cc36 9e7a b836 99f9 1037
000002e0: cb0e 6836 c583 5cb6 5052 52b6 b69d 6fb7
000002f0: c4be ddb4 c07b 6a37 4044 d435 f955 0037
00000300: f24e 7cb8 3a39 f1b6 3208 0937 8341 02b7
00000310: 973b 9bb7 167f 7737 cca9 41b8 fb37 5138
00000320: 4b70 bf37 9821 51b7 11af c635 5195 8935
00000330: b5da afb6 eb9b b335 0e95 0db6 171f c536
00000340: d5ef 79b4 42f2 3136 58ad 7434 63c0 5936
00000350: f9cc 0cba 508e 2637 4c7a a2b4 0317 dbb6
00000360: 378b a4b7 8c06 bc36 2a4f b135 7639 5237
00000370: 070d 57b7 07c5 99b7 0b35 fdb5 f72e 7136
00000380: 7ecb 6eba f1b5 a6b7 3ecb 35b6 845b 2eb9
00000390: 171a 28b7 913b c7b6 7546 7ab6 60e1 0437
000003a0: d074 92b7 3fff 81b6 41be 7636 6b7c 24b7
000003b0: 046c f536 bbad f939 fb30 a637 a493 41b6
000003c0: 619c 98b7 ee39 feb6 9490 2037 2a0d d3b7
000003d0: f52b 61b6 08a0 0637 31e5 4e37 1eca 7037
000003e0: ae5e 8ab7 ffaa 39b7 0dee f0b5 6d31 5a36
000003f0: 6b64 83ba dbdb 3739 87d8 4c37 f087 0334
