experiments/bess_chp_hwt/transition/1552212199_0.0033/1552215946_0_transition_final.pth (torch_old, 619128 bytes, 64 tensors)

tr0.weight f4 [64, 412]
0	0x3819c59e	3.6662088e-05
1	0xbc4accd9	-0.012377941
2	0xbc4e62cc	-0.012596797
3	0xb589d1c8	-1.026835e-06
4	0xb95809a4	-0.00020602957
5	0xb63cbd3a	-2.8124327e-06
6	0xb7c4db17	-2.3467042e-05
7	0xb8019327	-3.0893043e-05
8	0xbb696ecc	-0.0035619019
9	0xb13cc94b	-2.7472022e-09
10	0x3720b472	9.578756e-06
11	0xb740fef0	-1.1503449e-05
12	0xb73e8b23	-1.1357278e-05
13	0x361d1a9c	2.3410312e-06
14	0x3920df6c	0.0001534202
15	0x369e5cab	4.719555e-06
16	0xb59a62b7	-1.1502624e-06
17	0xb79a8e38	-1.8424456e-05
18	0xb68be5b8	-4.1692656e-06
19	0x36935626	4.3909704e-06
20	0xb4c971b6	-3.7521903e-07
21	0xb4ba0fc4	-3.465667e-07
22	0xb396e79a	-7.0270474e-08
23	0x3641a1f4	2.885351e-06
24	0x385ea9ea	5.308717e-05
25	0xb5c00959	-1.4307835e-06
26	0x390905d5	0.00013067511
27	0xb4003c89	-1.1942952e-07
28	0x382311c8	3.887879e-05
29	0xb71ac6fb	-9.225444e-06
30	0xb8bfe530	-9.150279e-05
31	0xb8324608	-4.250373e-05
32	0xb789aa82	-1.6411072e-05
33	0x370d80e5	8.4342655e-06
34	0xb6f082d8	-7.1677896e-06
35	0x3914cb60	0.00014190143
36	0xb6ecd8c1	-7.0585816e-06
37	0xb4f481f0	-4.5543084e-07
38	0x36bf2b24	5.697266e-06
39	0x3732c9e9	1.0656638e-05
40	0x372d9d50	1.0348231e-05
41	0x371eab81	9.457465e-06
42	0x35564621	7.9823263e-07
43	0xb686c5e9	-4.016551e-06
44	0xb6a016c8	-4.7710237e-06
45	0x37123d24	8.716514e-06
46	0xb5b9e977	-1.3851521e-06
47	0xb6bd2fc7	-5.638201e-06
48	0x36bbf3c5	5.601413e-06
49	0x352c6b53	6.423117e-07
50	0xb75ecd21	-1.3279991e-05
51	0xb4535ad6	-1.9683952e-07
52	0xb7c2092e	-2.3130877e-05
53	0xb6ad0840	-5.156762e-06
54	0xb70bedcd	-8.340413e-06
55	0x3455227b	1.9849715e-07
56	0x3515ccb8	5.580473e-07
57	0x35460804	7.377241e-07
58	0xb7445106	-1.1701375e-05
59	0xb7a39476	-1.9500247e-05
60	0xaf8b7dcc	-2.5373337e-10
61	0x34a34760	3.0413048e-07
62	0xb8fb07f6	-0.000119700955
63	0x358b9f24	1.0402623e-06
64	0x370c8662	8.375939e-06
65	0x350cd9b0	5.247084e-07
66	0x363e1bdd	2.8328425e-06
67	0x358d3a3d	1.0522268e-06
68	0xb7e0b81b	-2.6788612e-05
69	0xb77c5bad	-1.5041715e-05
70	0xb7414236	-1.1519112e-05
71	0xb56b80bf	-8.773167e-07
72	0x36eb5b3f	7.014168e-06
73	0xb70642df	-8.002592e-06
74	0x340b743d	1.2987671e-07
75	0xb828e41c	-4.0266765e-05
76	0xb6e4b562	-6.8160452e-06
77	0x376bf7ed	1.4064816e-05
78	0xb6c14a34	-5.7604866e-06
79	0xb68f32ae	-4.267632e-06
80	0xb6a268d8	-4.8401816e-06
81	0xb7014500	-7.7050645e-06
82	0xb5cae5c2	-1.5117041e-06
83	0xb7510810	-1.2459248e-05
84	0x387dd21e	6.0515587e-05
85	0xb699bdf7	-4.58187e-06
86	0xb78fb274	-1.7130027e-05
87	0xb4bdb0c5	-3.533261e-07
88	0xb83d863a	-4.518612e-05
89	0xb87086cb	-5.7345995e-05
90	0xb68400fe	-3.934022e-06
91	0x38fe95f6	0.00012139596
92	0xb5defff6	-1.6614783e-06
93	0x335ff277	5.2141754e-08
94	0xb7827053	-1.5549513e-05
95	0xb8995bd8	-7.312716e-05
96	0xb62f7909	-2.6147484e-06
97	0x35ba6c3b	1.3889579e-06
98	0xb6d789a2	-6.423522e-06
99	0x36312fc6	2.6402863e-06
100	0xb62c40de	-2.5667755e-06
101	0xb517cbb2	-5.65483e-07
102	0xb6710e19	-3.5920004e-06
103	0xb6c8e33a	-5.986917e-06
104	0x3241557f	1.1253518e-08
105	0xb662e108	-3.380761e-06
106	0xb8aac755	-8.14336e-05
107	0x378c4099	1.6719381e-05
108	0x33bbb990	8.74162e-08
109	0x37cd89bc	2.4502042e-05
110	0xb51ee0fd	-5.918699e-07
111	0xb73bab0d	-1.1185894e-05
112	0x341e5ea9	1.4749334e-07
113	0xb85686d2	-5.1147137e-05
114	0xb49178c1	-2.7096215e-07
115	0xb7cba4ad	-2.4276169e-05
116	0xb7b145a8	-2.113248e-05
117	0x34c61c5d	3.690101e-07
118	0xb799e923	-1.8347584e-05
119	0xb90970db	-0.0001310738
120	0xb9153ba1	-0.00014231961
121	0xb803e167	-3.1442756e-05
122	0x38cc7d22	9.750786e-05
123	0x392287ec	0.00015500159
124	0xb747bdf2	-1.1905549e-05
125	0xb54bf53e	-7.598027e-07
126	0xb83e543e	-4.5377987e-05
127	0xb73d0277	-1.1265852e-05
128	0xb71d5562	-9.377809e-06
129	0xb6df17ef	-6.648704e-06
130	0x37d2fb95	2.5151103e-05
131	0xb554bac0	-7.924791e-07
132	0xb78e10e6	-1.6935588e-05
133	0xb5d3b128	-1.5772284e-06
134	0xb75120f2	-1.2465041e-05
135	0xb70dfa00	-8.462463e-06
136	0xb7bc7883	-2.2467464e-05
137	0x38955865	7.1213384e-05
138	0xb7943e32	-1.7671937e-05
139	0x36b184c7	5.2904684e-06
140	0xb79a2a1f	-1.8377845e-05
141	0x3466cc6a	2.1494785e-07
142	0xb383b409	-6.132911e-08
143	0xb6c8d436	-5.985169e-06
144	0x365a5689	3.2534901e-06
145	0x387d47b5	6.0386683e-05
146	0x379fd29f	1.9052355e-05
147	0xb54a00f6	-7.525226e-07
148	0xb7ae47b6	-2.077581e-05
149	0xb652686e	-3.1353225e-06
150	0xb2c67885	-2.310504e-08
151	0xb1eaee07	-6.837357e-09
152	0xb403c2b5	-1.227116e-07
153	0xb7c6edf2	-2.3714241e-05
154	0x342b8e48	1.5977378e-07
155	0xb6430f55	-2.9066189e-06
156	0xb826d6b6	-3.977745e-05
157	0xb6e78f95	-6.9010516e-06
158	0xb779627f	-1.48644895e-05
159	0xb7f3e98f	-2.9076617e-05
160	0xb6fa9b8c	-7.4686886e-06
161	0xb6e0086b	-6.6767e-06
162	0xb6e0de6c	-6.7016135e-06
163	0xb6a19f65	-4.81673e-06
164	0x38c8db57	9.5775984e-05
165	0x3910a4e4	0.00013794337
166	0xb641dee8	-2.888899e-06
167	0xb7ac31b2	-2.0527139e-05
168	0xb63ae0de	-2.784705e-06
169	0xb6b049ee	-5.2538153e-06
170	0x372b637a	1.0215555e-05
171	0xb706881a	-8.018711e-06
172	0xb63d5062	-2.8209984e-06
173	0xb6046063	-1.9725637e-06
174	0x336a48bc	5.4548522e-08
175	0xb6e0a289	-6.694642e-06
176	0x38612a55	5.3683605e-05
177	0x38276678	3.9911334e-05
178	0xb652cac9	-3.1410475e-06
179	0x38cbb742	9.713929e-05
180	0xb6fae637	-7.477381e-06
181	0xb5d0d2af	-1.5558525e-06
182	0xb624763b	-2.4506724e-06
183	0xb66a8e8b	-3.4951688e-06
184	0xb78fe10c	-1.7151724e-05
185	0xb8349df7	-4.306246e-05
186	0xb60af1dc	-2.0704383e-06
187	0xb7d206ae	-2.5037061e-05
188	0xb84848bf	-4.7751466e-05
189	0xb5e7a90b	-1.7260039e-06
190	0xb7931fdd	-1.7538603e-05
191	0x35bf3b0a	1.4247792e-06
192	0x34ea3696	4.3625613e-07
193	0xb7a4d37c	-1.9648804e-05
194	0xb8c860ff	-9.55481e-05
195	0xb78468b0	-1.5784375e-05
196	0xb547ea83	-7.4474536e-07
197	0xb6c9cefe	-6.014364e-06
198	0xb8c9811c	-9.6084754e-05
199	0xb6d874ab	-6.4508836e-06
200	0xb76bd7ed	-1.4057366e-05
201	0xb7bf5af6	-2.2811331e-05
202	0xb6954e90	-4.449692e-06
203	0x388bf7bd	6.674181e-05
204	0xb8001fd2	-3.0547213e-05
205	0xb79f4707	-1.8987352e-05
206	0x349dda0f	2.9402187e-07
207	0xb74d28d5	-1.2228459e-05
208	0xb7357733	-1.0816194e-05
209	0x38d88297	0.00010324007
210	0x36c897ec	5.9781505e-06
211	0x373d109a	1.1269143e-05
212	0xb6969b85	-4.488453e-06
213	0x36315ac2	2.6427883e-06
214	0x362f4c2c	2.612137e-06
215	0x3304654c	3.0825774e-08
216	0x31dbb81f	6.394671e-09
217	0x3380efe2	6.004099e-08
218	0xb5d03e33	-1.551531e-06
219	0x35898105	1.0244845e-06
220	0xb583bc0e	-9.814992e-07
221	0x35f28d10	1.807146e-06
222	0x377edfe5	1.5191709e-05
223	0x349d2d77	2.927661e-07
224	0x3534ef87	6.7403784e-07
225	0x36d03d03	6.2059858e-06
226	0xb5d1e348	-1.5637861e-06
227	0xb62c2356	-2.5650565e-06
228	0xb62efbf9	-2.6074688e-06
229	0x35f02749	1.7892827e-06
230	0x3609b2df	2.0518708e-06
231	0x36842fd9	3.9394768e-06
232	0x360da2f2	2.1105484e-06
233	0x37af454f	2.08939e-05
234	0xb61e7942	-2.3614416e-06
235	0xb6610ba0	-3.353438e-06
236	0xb62b8b23	-2.5561974e-06
237	0xb5945b39	-1.1053409e-06
238	0x370e5ce9	8.485492e-06
239	0x378f3dbc	1.7075676e-05
240	0xb70d4936	-8.421301e-06
241	0x35fd12ee	1.8855478e-06
242	0x367eabd8	3.7948976e-06
243	0xb6254b3e	-2.4630713e-06
244	0x3540a9a2	7.177242e-07
245	0xb79b304d	-1.8499932e-05
246	0xb4bc0a9d	-3.502545e-07
247	0xb6d0adcd	-6.219116e-06
248	0x35806e7a	9.568896e-07
249	0x3680953a	3.8320695e-06
250	0x37e8e46c	2.7762922e-05
251	0x376f592e	1.4266274e-05
252	0x3590cd56	1.0788597e-06
253	0x358d316e	1.0519705e-06
254	0xb67d63d4	-3.7758045e-06
255	0xb20f7419	-8.350093e-09

tr0.bias f4 [64]
0	0x3c83cf08	0.016089931
1	0x3c844be5	0.01614947
2	0x3bd0a826	0.006367701
3	0xbbdbac0e	-0.00670386
4	0x38df7290	0.000106548076
5	0xbbb5b6e5	-0.0055454844
6	0x3ae466a7	0.0017425612
7	0xbe2af064	-0.16693264
8	0xbd7d50d3	-0.061844658
9	0xbca8c4c5	-0.02060164
10	0x3e48263d	0.19545837
11	0x3c2967bb	0.010339673
12	0xbc090485	-0.008362894
13	0x3a995fe6	0.0011701554
14	0x388ee531	6.813778e-05
15	0x3e5dbec8	0.21654809
16	0xb7425222	-1.1582424e-05
17	0xbe373273	-0.17890339
18	0x3ddc8296	0.10767095
19	0xbc9a5769	-0.018840509
20	0xbe52e233	-0.205941
21	0xb7407528	-1.1471369e-05
22	0xbd48acd8	-0.04899296
23	0xbd049356	-0.032367073
24	0xbcd910bf	-0.026497243
25	0x3c813e04	0.015776642
26	0xbd390118	-0.04516706
27	0xbbbbd5e8	-0.0057322867
28	0xbc44a52b	-0.01200227
29	0xbc97f7d4	-0.01855079
30	0x3c90af10	0.017661601
31	0xbd5cbf76	-0.05389353
32	0x3e06dc8c	0.1317007
33	0xbd4b7389	-0.04967073
34	0x3ad523f6	0.0016261328
35	0xbc90a1d3	-0.017655289
36	0x3cb972d8	0.02263777
37	0xbcaad71b	-0.020854523
38	0x3c4dcb2f	0.01256065
39	0x3ca562b3	0.020188665
40	0xb9839576	-0.00025097624
41	0x3c1ade67	0.009452439
42	0x39d2126b	0.00040068044
43	0xba6e6c78	-0.00090951426
44	0x3e1e213a	0.15442362
45	0xbd46133b	-0.048358183
46	0xbc4a950c	-0.012364637
47	0xbc42dcec	-0.011893492
48	0xba82cfce	-0.0009980144
49	0x3c8e2d55	0.0173556
50	0xbdd6b735	-0.10484163
51	0xbbcc35fc	-0.0062320214
52	0xbc233d71	-0.009963379
53	0x3c47fd12	0.012206333
54	0xbcaa56e2	-0.020793382
55	0xbd0f94fa	-0.035054184
56	0xbc611334	-0.013737489
57	0x3a857f15	0.0010184968
58	0x3d99586f	0.074875705
59	0xbcb21653	-0.02173916
60	0x3ac49f8d	0.0015001163
61	0x3c7028c3	0.014658156
62	0x3d06fa65	0.03295364
63	0x3d21aecd	0.039473344

tr1.layer_0.weight f4 [64, 64]
0	0xb45637fc	-1.995067e-07
1	0xb305ae33	-3.112491e-08
2	0xb319504b	-3.5696115e-08
3	0xb2750a51	-1.4263223e-08
4	0x3420df00	1.4982288e-07
5	0x35276688	6.236155e-07
6	0x317f6f35	3.7170598e-09
7	0x3443ef95	1.824795e-07
8	0x32d55986	2.4837174e-08
9	0x3402b783	1.2173955e-07
10	0x3400e37e	1.200369e-07
11	0x34161cf1	1.3980367e-07
12	0x32f7adbb	2.8833588e-08
13	0xb421c24a	-1.5064975e-07
14	0x33fdc791	1.18175315e-07
15	0x3409198d	1.2768415e-07
16	0xb3e372c1	-1.0591385e-07
17	0x33bbc036	8.742829e-08
18	0x32d8762c	2.5199448e-08
19	0x339860dc	7.09567e-08
20	0xb4185018	-1.4185241e-07
21	0x3316fea0	3.5156177e-08
22	0x345cb15a	2.0553617e-07
23	0xb44b1ed1	-1.8917059e-07
24	0x3456acdb	1.9993188e-07
25	0x33a6924c	7.7565886e-08
26	0x3397c8f5	7.068039e-08
27	0xb413ffde	-1.3783526e-07
28	0x340b88c9	1.2995146e-07
29	0xb3df6400	-1.04024366e-07
30	0x32b05429	2.0527368e-08
31	0x33a68b6f	7.75534e-08
32	0xb450e1c1	-1.9453638e-07
33	0x300fe5d2	5.234969e-10
34	0x33d24df0	9.793064e-08
35	0x333cbcd1	4.394389e-08
36	0x339e33c2	7.366863e-08
37	0x3411611c	1.3539506e-07
38	0x347010fb	2.2357919e-07
39	0x34d33d94	3.9346617e-07
40	0xb417d70e	-1.4141207e-07
41	0x331980f7	3.574038e-08
42	0x33a70ea9	7.77921e-08
43	0x335f90d7	5.2052965e-08
44	0x3403fcc5	1.2292283e-07
45	0x3428aa8b	1.5708262e-07
46	0xb40fc616	-1.3389976e-07
47	0xb3f7ab51	-1.1532996e-07
48	0x34093640	1.2778855e-07
49	0xb47d3eb5	-2.3585274e-07
50	0x33196758	3.571708e-08
51	0xb38b49ef	-6.48614e-08
52	0x338a8682	6.4505926e-08
53	0x33f898a0	1.1576162e-07
54	0x330c1b17	3.2620928e-08
55	0xb387e9fd	-6.3289896e-08
56	0xb2775da0	-1.439858e-08
57	0xb3766ff2	-5.7378152e-08
58	0x34323e8b	1.6600295e-07
59	0x34a74d22	3.1162295e-07
60	0x339b4684	7.230577e-08
61	0xb3988737	-7.102647e-08
62	0x314a42da	2.943287e-09
63	0x3470c37e	2.2422861e-07
64	0xb3e34555	-1.0583123e-07
65	0xb44acc93	-1.888714e-07
66	0x33d2bb0c	9.812911e-08
67	0xb381cd4c	-6.044374e-08
68	0xb38b3508	-6.482338e-08
69	0xb49710f6	-2.8138282e-07
70	0xb386753e	-6.2611875e-08
71	0x33efd92a	1.1168807e-07
72	0xb4294e0c	-1.5767745e-07
73	0xb380f01e	-6.0041415e-08
74	0x33d4c6c0	9.908172e-08
75	0x33ac3e61	8.020721e-08
76	0x3082bb4f	9.511981e-10
77	0x33f62e9e	1.1463747e-07
78	0xb3c655c2	-9.235693e-08
79	0xb2dc0c65	-2.5617007e-08
80	0xb3c95009	-9.37435e-08
81	0xb37846c1	-5.780635e-08
82	0x3313a0ba	3.4372285e-08
83	0x33b318b6	8.339832e-08
84	0xb465bcde	-2.1395996e-07
85	0x3320de10	3.7454868e-08
86	0xb348212b	-4.6596295e-08
87	0xb2f0b538	-2.8022086e-08
88	0xb40f9790	-1.3373051e-07
89	0x33b314f2	8.339147e-08
90	0x33e9fb19	1.08955824e-07
91	0x34609bc4	2.0918293e-07
92	0x3229f6fa	9.893251e-09
93	0xb3800e82	-5.9631034e-08
94	0xb2da6b81	-2.5427427e-08
95	0x3450c1b9	1.9441985e-07
96	0x33b8c0c6	8.603233e-08
97	0xb3b6a73b	-8.5054545e-08
98	0xb4364d0e	-1.6978103e-07
99	0x3313dffc	3.4429817e-08
100	0x347eeed2	2.3742476e-07
101	0x345e9479	2.0729375e-07
102	0x3389f4e5	6.424106e-08
103	0x337839d5	5.7794598e-08
104	0x33d3288a	9.832827e-08
105	0x3243b59d	1.1391788e-08
106	0xb201f745	-7.565011e-09
107	0xb4848c77	-2.4689118e-07
108	0x33212de9	3.752749e-08
109	0xb394d2f9	-6.930163e-08
110	0xb0b2e3c9	-1.3015945e-09
111	0xb272d042	-1.4133606e-08
112	0xb4619abe	-2.1011053e-07
113	0xb482725d	-2.4297597e-07
114	0xb3a2f22a	-7.587762e-08
115	0xb4545d62	-1.9778011e-07
116	0x34706ccd	2.2391323e-07
117	0x33097334	3.2002575e-08
118	0x33088d8d	3.1793707e-08
119	0xb45df4d2	-2.0671294e-07
120	0x33c2d12b	9.0718764e-08
121	0xb3480757	-4.6572804e-08
122	0xb1afe90a	-5.119664e-09
123	0x32cb4b20	2.3666473e-08
124	0x339a3594	7.1809296e-08
125	0x33d5e3bc	9.96001e-08
126	0x3324cc21	3.836988e-08
127	0xb3246fff	-3.8286085e-08
128	0xb38d0ab7	-6.567773e-08
129	0x3379ce8f	5.8162694e-08
130	0x3459d0a1	2.0285599e-07
131	0x3416140f	1.3977136e-07
132	0xb3e3b45c	-1.06033184e-07
133	0x336f04ca	5.565088e-08
134	0x33d89645	1.0085618e-07
135	0x348d1813	2.6280813e-07
136	0xb38a36fd	-6.436128e-08
137	0x343a3c46	1.7344527e-07
138	0x335061ab	4.8517602e-08
139	0xb3d42958	-9.87954e-08
140	0x31808aa4	3.741052e-09
141	0xb44a45e6	-1.8838145e-07
142	0x344fb0c1	1.934268e-07
143	0xb3e068aa	-1.0449851e-07
144	0xb447ce0a	-1.8608276e-07
145	0xb4686454	-2.1643183e-07
146	0xb3e329af	-1.05780934e-07
147	0x32ade5d0	2.0244357e-08
148	0x34128351	1.3645082e-07
149	0x32289b59	9.814209e-09
150	0x340e0258	1.3225633e-07
151	0x3345fb4b	4.6096186e-08
152	0x3455035a	1.983839e-07
153	0x34580be5	2.0120895e-07
154	0x33d9671e	1.0123607e-07
155	0xb481e67b	-2.419582e-07
156	0xb3dc96be	-1.0271968e-07
157	0xb4703084	-2.2369392e-07
158	0xb35c8af6	-5.1349126e-08
159	0x33393a7e	4.3126867e-08
160	0xb4a139ee	-3.0030736e-07
161	0xb435b053	-1.6921085e-07
162	0xb3d421be	-9.878157e-08
163	0xb3d25083	-9.793532e-08
164	0xb4384deb	-1.7164682e-07
165	0xb3ed306e	-1.1044982e-07
166	0xb42819d6	-1.5655618e-07
167	0xb2754414	-1.4276356e-08
168	0x33e465fc	1.0635628e-07
169	0x330869fd	3.1761363e-08
170	0x33a6b692	7.763187e-08
171	0xb4972a04	-2.8156512e-07
172	0x33f99022	1.1621184e-07
173	0x34941454	2.758194e-07
174	0xb46094d6	-2.0915772e-07
175	0x3480fa96	2.4024183e-07
176	0xb4180e6c	-1.416135e-07
177	0xb47019a3	-2.2361068e-07
178	0x32fe6b54	2.9618299e-08
179	0x328d540b	1.6452779e-08
180	0x342253b9	1.5117884e-07
181	0xb3a66c47	-7.749673e-08
182	0xb39aa4e8	-7.20118e-08
183	0xb38e78fd	-6.634398e-08
184	0x348b301b	2.592577e-07
185	0xb4154a10	-1.390365e-07
186	0xb39ce6fc	-7.306332e-08
187	0x345aa2dc	2.036208e-07
188	0xb44f7c45	-1.9323586e-07
189	0xb1a94419	-4.926289e-09
190	0xb37a09be	-5.821652e-08
191	0x34241e10	1.5284627e-07
192	0x326bb45f	1.3719812e-08
193	0x34567d3b	1.9975862e-07
194	0xb398ad3f	-7.109565e-08
195	0x3456a98b	1.9991982e-07
196	0x32d4960a	2.4748278e-08
197	0x348263e7	2.4287075e-07
198	0x34228bcf	1.5138288e-07
199	0x33fddeac	1.1821734e-07
200	0xb30054a5	-2.9879306e-08
201	0xb3e1b57c	-1.0510391e-07
202	0xb3c2682e	-9.052779e-08
203	0xb456fc7f	-2.002216e-07
204	0xb40018d9	-1.1929968e-07
205	0xb38db717	-6.599128e-08
206	0x3292351a	1.7020785e-08
207	0x3378d006	5.7931196e-08
208	0x34159d1f	1.3933867e-07
209	0xb4547af2	-1.9788766e-07
210	0xb46c986e	-2.2034666e-07
211	0x33d951d2	1.0119733e-07
212	0x34253061	1.5384423e-07
213	0xb5276b6a	-6.2368656e-07
214	0xb3c4c60d	-9.1629865e-08
215	0xb245b97b	-1.1509083e-08
216	0xb35a6b3f	-5.085462e-08
217	0xb4589f81	-2.0174595e-07
218	0xb4523220	-1.957601e-07
219	0xb3d305c8	-9.826505e-08
220	0xb3793c2e	-5.8029563e-08
221	0x3482a963	2.4337632e-07
222	0x3425607b	1.5401922e-07
223	0x33ae44ed	8.115044e-08
224	0xb41d1da4	-1.4632548e-07
225	0xb3a25cbb	-7.5605804e-08
226	0xb4590446	-2.0211255e-07
227	0x33f8655c	1.1566837e-07
228	0xb415120d	-1.3883273e-07
229	0xb397c811	-7.067877e-08
230	0x32220432	9.430595e-09
231	0xb3da7e9a	-1.0174445e-07
232	0x33826378	6.07169e-08
233	0xb527c25a	-6.2495167e-07
234	0x3313c208	3.4402575e-08
235	0xb3f36f3f	-1.1335805e-07
236	0x348df33f	2.6440281e-07
237	0x347e6c9a	2.3695102e-07
238	0x3375cc09	5.7229077e-08
239	0x33870ed5	6.289125e-08
240	0x345e7561	2.0718063e-07
241	0xb3def008	-1.0381342e-07
242	0x337d8271	5.902479e-08
243	0xb383fe8c	-6.146465e-08
244	0x344d67a7	1.9129821e-07
245	0xb3e29fd4	-1.0553018e-07
246	0x33d9506d	1.0119479e-07
247	0xb43f9719	-1.784323e-07
248	0xb2d472a6	-2.4732184e-08
249	0x33f5ac6f	1.1440067e-07
250	0xb40ae4ab	-1.293544e-07
251	0x345ad970	2.0381935e-07
252	0xb42bcb27	-1.5999522e-07
253	0x34f261b5	4.5147104e-07
254	0xb38c56a4	-6.535018e-08
255	0xb40a1f2d	-1.2863593e-07

tr1.layer_0.bias f4 [64]
0	0x3476162f	2.2918606e-07
1	0x337b4c18	5.85097e-08
2	0x33c217b8	9.0381434e-08
3	0x338b8740	6.497294e-08
4	0xb47b7207	-2.341768e-07
5	0x33d64078	9.976878e-08
6	0x338a4c63	6.4400204e-08
7	0x3457f07e	2.0110926e-07
8	0x33e64921	1.0723512e-07
9	0xb44ce2b4	-1.9081455e-07
10	0x3306b792	3.1366262e-08
11	0x336212cb	5.2636818e-08
12	0xb3bc4f93	-8.768907e-08
13	0xb32c9c99	-4.0189295e-08
14	0x32c3a80d	2.2777408e-08
15	0x33778fa5	5.7639813e-08
16	0xb184c2ce	-3.8638523e-09
17	0xbe611892	-0.21982029
18	0xb1d1c37a	-6.1049237e-09
19	0xb32ae015	-3.978501e-08
20	0x3da0fea0	0.07861066
21	0x308c26f0	1.0197407e-09
22	0x3353ddae	4.9328882e-08
23	0xb41f1203	-1.4814582e-07
24	0xb32d172d	-4.030078e-08
25	0x33f99293	1.1621628e-07
26	0xb1741552	-3.5518792e-09
27	0x33b00d66	8.198076e-08
28	0xb45e629d	-2.0711236e-07
29	0xb3521fef	-4.892348e-08
30	0xbe91e7c8	-0.28497148
31	0x3315665e	3.478487e-08
32	0x345c91fe	2.0542208e-07
33	0xb0c47d48	-1.4296484e-09
34	0xb243c097	-1.1394284e-08
35	0x345fbf43	2.0838074e-07
36	0xb20c4d1e	-8.166607e-09
37	0xb2939bfa	-1.7183982e-08
38	0x34012988	1.202917e-07
39	0xb442f835	-1.8157955e-07
40	0x334fb99f	4.8364765e-08
41	0xb3f35f09	-1.1332856e-07
42	0xb33af644	-4.3530477e-08
43	0xbef01d6b	-0.46897444
44	0xb2d3e276	-2.4666615e-08
45	0xb402f348	-1.2195699e-07
46	0xb482fe2c	-2.439932e-07
47	0xbe20443a	-0.15651026
48	0x33e23028	1.0532705e-07
49	0xb3514644	-4.872551e-08
50	0xb2316913	-1.0326647e-08
51	0xb360f82f	-5.2379786e-08
52	0x33f68d42	1.1480962e-07
53	0x339753a0	7.046697e-08
54	0xb4032e55	-1.2217181e-07
55	0x339429d8	6.8993984e-08
56	0xb4894c33	-2.557368e-07
57	0xb34cd847	-4.7694154e-08
58	0x32d893ef	2.5212982e-08
59	0xbe7c6ea7	-0.24651586
60	0xbd95252d	-0.07282481
61	0x3307878c	3.1555416e-08
62	0xbd1cdbef	-0.038295683
63	0xb3be1b56	-8.852537e-08

tr1.layer_1.weight f4 [64, 64]
0	0xb482ed98	-2.438726e-07
1	0x331fca2d	3.720395e-08
2	0xb386306a	-6.248668e-08
3	0x33afbd9d	8.183563e-08
4	0x3455c5a7	1.9909076e-07
5	0x33a63db7	7.741203e-08
6	0xb2803401	-1.492481e-08
7	0x344b07dc	1.8908707e-07
8	0x32c9d657	2.349695e-08
9	0x34580634	2.0118824e-07
10	0xb45709cd	-2.0027001e-07
11	0x344568a5	1.8385124e-07
12	0x33a5bf03	7.718156e-08
13	0x345bc172	2.046634e-07
14	0xb467bdcf	-2.1582603e-07
15	0xb3eb2c53	-1.0951103e-07
16	0x33f5abd8	1.143996e-07
17	0xb81f18d7	-3.7931688e-05
18	0x329da02d	1.8350045e-08
19	0xb3892aeb	-6.3873664e-08
20	0x3ebe318f	0.37147185
21	0x31d7ac0d	6.2768835e-09
22	0xb3624b03	-5.268795e-08
23	0x3206f109	7.854632e-09
24	0xb4a69d08	-3.1034165e-07
25	0x33a67e26	7.7529236e-08
26	0x33898612	6.403947e-08
27	0xb0cb7aa3	-1.4805049e-09
28	0xb2cb1868	-2.3643409e-08
29	0x33ce68fb	9.611718e-08
30	0x3458316a	2.0134544e-07
31	0xb19b9e18	-4.529067e-09
32	0x345676fe	1.9973592e-07
33	0x3462fd0e	2.1139951e-07
34	0x32df7ac3	2.6016442e-08
35	0x31ce9ac9	6.012986e-09
36	0xb37b6b51	-5.8538095e-08
37	0x33a5cf5b	7.721129e-08
38	0x32f579d6	2.8577158e-08
39	0x33c649e8	9.233537e-08
40	0xb27d4bcd	-1.4743773e-08
41	0xb3915c14	-6.7688376e-08
42	0x32977d89	1.76358e-08
43	0x361cc578	2.3360753e-06
44	0xb3f85482	-1.1563772e-07
45	0xb459bc31	-2.0278164e-07
46	0x339123a4	6.758572e-08
47	0x3eff5e5e	0.49876684
48	0xb2aeb007	-2.0336314e-08
49	0x33360139	4.237629e-08
50	0x3394ede0	6.935056e-08
51	0xb3a6b725	-7.763291e-08
52	0x344c195c	1.9008206e-07
53	0xb21eccdb	-9.243389e-09
54	0xb43a6252	-1.7358369e-07
55	0xb4200d0d	-1.4905909e-07
56	0x33a28b53	7.569056e-08
57	0xb3dab616	-1.0184537e-07
58	0xb3f9ae91	-1.16267195e-07
59	0xb7fa9b2d	-2.9874582e-05
60	0x3e6bfe0a	0.23046127
61	0x3327340b	3.893005e-08
62	0x3df92db4	0.1216692
63	0xb4811a38	-2.40472e-07
64	0xb3eb75cc	-1.09644674e-07
65	0x33518917	4.8786287e-08
66	0xb251629a	-1.21878205e-08
67	0x3381e5dc	6.048842e-08
68	0x32ec21c1	2.7489365e-08
69	0xb4835591	-2.446291e-07
70	0xb24daf52	-1.1972434e-08
71	0xb2bf4f12	-2.2271283e-08
72	0x338256f6	6.069415e-08
73	0x338b0dd7	6.475209e-08
74	0xb2770e45	-1.4380537e-08
75	0x33f361d3	1.13333634e-07
76	0x33e3517b	1.05853324e-07
77	0xb380fd16	-6.0065005e-08
78	0xb481d59c	-2.4183544e-07
79	0xb45a8a2c	-2.0353099e-07
80	0x3430207e	1.6403098e-07
81	0x33f324af	1.1322242e-07
82	0xb4a6a156	-3.1037297e-07
83	0xb49710c0	-2.813813e-07
84	0xb2d2238d	-2.4463384e-08
85	0xb3da033a	-1.0152003e-07
86	0x305f5034	8.1240903e-10
87	0xb2ef156d	-2.7833005e-08
88	0xb4375e27	-1.7077456e-07
89	0xb418cfb7	-1.423167e-07
90	0x33a4fb69	7.682576e-08
91	0x33d86c26	1.0077956e-07
92	0x33d29d47	9.8074956e-08
93	0xb3f26332	-1.1287047e-07
94	0xb410b476	-1.3476696e-07
95	0xb31e51b0	-3.6861536e-08
96	0x3379ce9d	5.8162744e-08
97	0xb3a68a9e	-7.755192e-08
98	0x33f37aef	1.1337931e-07
99	0x32ee866d	2.7767976e-08
100	0x3249485e	1.1716194e-08
101	0x3310c8f4	3.371038e-08
102	0xb357eb79	-5.027275e-08
103	0x3306022c	3.120128e-08
104	0xb45d4b96	-2.0609727e-07
105	0xb527a11c	-6.2446793e-07
106	0xb4aaff02	-3.185051e-07
107	0x3344deaf	4.5837336e-08
108	0xb4565689	-1.9961784e-07
109	0x33d8be5b	1.0092909e-07
110	0x3527b1ec	6.247126e-07
111	0xb23d8dd7	-1.1033499e-08
112	0xb3d89cde	-1.0086818e-07
113	0xb38dd4b4	-6.6045146e-08
114	0xb30ee244	-3.326774e-08
115	0x33b91796	8.619024e-08
116	0x340a0c79	1.2856789e-07
117	0x33672d01	5.382481e-08
118	0xb4754892	-2.2843804e-07
119	0x32011d66	7.515473e-09
120	0x335c115c	5.123853e-08
121	0x322bb538	9.994714e-09
122	0x345c740e	2.0531317e-07
123	0x34d53270	3.971104e-07
124	0xb28ccac9	-1.6390361e-08
125	0xb4158f49	-1.3928833e-07
126	0xb28fba68	-1.6732159e-08
127	0x3246a292	1.1562081e-08
128	0xb46455d9	-2.1265386e-07
129	0xb3daff30	-1.01978344e-07
130	0xb4119a32	-1.3560273e-07
131	0x32b03897	2.051483e-08
132	0xb421908b	-1.5046878e-07
133	0xb243b40e	-1.1391434e-08
134	0xb2d5397f	-2.482261e-08
135	0xb0645034	-8.305989e-10
136	0x3306199c	3.1222598e-08
137	0xb3a6aa5e	-7.760967e-08
138	0x30d0baee	1.518712e-09
139	0xb3e2bbc5	-1.05581e-07
140	0x34ac7808	3.212483e-07
141	0xb428031e	-1.5647353e-07
142	0x345de404	2.066518e-07
143	0xb38ce4ef	-6.560901e-08
144	0xb3d43a03	-9.8825716e-08
145	0xb4abeb38	-3.2022376e-07
146	0x347d2b52	2.3578221e-07
147	0x345cea52	2.0574342e-07
148	0x31d84c35	6.295091e-09
149	0xb45b1367	-2.0403023e-07
150	0x34188fbf	1.4208398e-07
151	0x33e08f18	1.04568414e-07
152	0x34ac7d72	3.212877e-07
153	0x345e6b28	2.0714344e-07
154	0x33a61b10	7.7349e-08
155	0xb428ecc4	-1.5732354e-07
156	0x34609866	2.0917068e-07
157	0xb1a2ad1f	-4.734502e-09
158	0x331959d5	3.570479e-08
159	0x343f10b8	1.7794343e-07
160	0xb3d2c75f	-9.8151524e-08
161	0xb37fefdc	-5.9589965e-08
162	0xb27129c5	-1.4037544e-08
163	0x34705dd2	2.2385873e-07
164	0xb322b312	-3.7881428e-08
165	0xb2bde071	-2.210456e-08
166	0xb44332f7	-1.8179331e-07
167	0x3310fbf4	3.3756763e-08
168	0x33ab6d16	7.9826506e-08
169	0xb3821546	-6.057466e-08
170	0x34d34ab1	3.9356158e-07
171	0xb3ab927e	-7.989455e-08
172	0xb41b7a31	-1.4479953e-07
173	0x3481cf5c	2.4178996e-07
174	0xb4181686	-1.4164297e-07
175	0x3411bb8b	1.3572405e-07
176	0x345e5e90	2.0709763e-07
177	0xb382d4b6	-6.0922886e-08
178	0xb4d4c1ff	-3.9629228e-07
179	0xb481d2b8	-2.418144e-07
180	0xb3d8d60b	-1.0097218e-07
181	0x34a21015	3.0186553e-07
182	0xb3a9af03	-7.90151e-08
183	0xb148cb26	-2.9219307e-09
184	0xb30afdb6	-3.2361378e-08
185	0x33121b14	3.40179e-08
186	0xb3d447fc	-9.885113e-08
187	0x32ce3b58	2.4008543e-08
188	0x33a5c303	7.718884e-08
189	0x338a6eb7	6.446265e-08
190	0x3395153c	6.942216e-08
191	0xb4878170	-2.5239888e-07
192	0x34115540	1.3535191e-07
193	0xb3995cb1	-7.141478e-08
194	0xb3d6e240	-1.0006306e-07
195	0x33870264	6.286862e-08
196	0xb421ff4e	-1.5087173e-07
197	0x32607392	1.3064794e-08
198	0xb44c11b1	-1.9005417e-07
199	0xb459d171	-2.0285894e-07
200	0xb4a689cb	-3.1020167e-07
201	0xb3846ea0	-6.1668516e-08
202	0xb3fbc7a6	-1.1724414e-07
203	0x33ca0413	9.407099e-08
204	0xb0997603	-1.1165756e-09
205	0xb354c03c	-4.9534933e-08
206	0x321467af	8.638309e-09
207	0xb0ae9de6	-1.2705044e-09
208	0xb49c67a8	-2.9132684e-07
209	0x3ecf7825	0.4052135
210	0x342248d7	1.5113925e-07
211	0xb3f52d17	-1.1416903e-07
212	0xbe146465	-0.14491422
213	0xb386647e	-6.258141e-08
214	0xb459a98c	-2.027138e-07
215	0x3208765a	7.943152e-09
216	0x34a679b8	3.1008472e-07
217	0x3466780f	2.1464096e-07
218	0x3496d333	2.8093345e-07
219	0x32d49ca5	2.4751282e-08
220	0xb30c9dd1	-3.2739823e-08
221	0x32b3982b	2.090754e-08
222	0x3e55e031	0.20886303
223	0xb34b593f	-4.734579e-08
224	0xb34b8c50	-4.7392234e-08
225	0xb320fc2d	-3.7482256e-08
226	0xb4320170	-1.6578065e-07
227	0x332661e0	3.8738904e-08
228	0x348a72f3	2.578814e-07
229	0xb3893c2d	-6.3905055e-08
230	0x338bd625	6.5116446e-08
231	0xb43bd09a	-1.7491621e-07
232	0xb3b81948	-8.572766e-08
233	0xb2ce30a4	-2.4003675e-08
234	0xb3d17416	-9.753437e-08
235	0x3e97115f	0.2950544
236	0x3451b269	1.9529547e-07
237	0x3388db88	6.372926e-08
238	0x33dcde97	1.0285037e-07
239	0xbdce5305	-0.100744285
240	0x34200d39	1.4905972e-07
241	0xb411301f	-1.3521684e-07
242	0xb34d8825	-4.7854105e-08
243	0xb3ec4d59	-1.1003676e-07
244	0xaf20e0ad	-1.4631736e-10
245	0xb39d6254	-7.328768e-08
246	0x32193b3e	8.919242e-09
247	0xb21dbc05	-9.1813535e-09
248	0xb34b08b1	-4.7272525e-08
249	0xb39b1093	-7.220765e-08
250	0x317c8fbc	3.675253e-09
251	0x3f15ba5e	0.584875
252	0xb328f7c7	-3.93409e-08
253	0xb2cd8b6a	-2.392854e-08
254	0xbdd39010	-0.10330212
255	0xb31524db	-3.4725286e-08

tr1.layer_1.bias f4 [64]
0	0x3ac5cb1e	0.0015090441
1	0x3372b8c7	5.651307e-08
2	0x341d6fcb	1.4662434e-07
3	0xbeb517bf	-0.3536968
4	0xb27ea597	-1.4822397e-08
5	0x336b9401	5.484981e-08
6	0x343272da	1.6619325e-07
7	0xb44530b3	-1.8364771e-07
8	0xb40bfb84	-1.3036885e-07
9	0xb31d2c28	-3.659457e-08
10	0x3d9a3bb5	0.075309195
11	0x32fbfb88	2.9334629e-08
12	0x3404ceba	1.2368665e-07
13	0xb38c8be5	-6.544705e-08
14	0xb43e137a	-1.7702214e-07
15	0x342cdbdb	1.6098731e-07
16	0xb3ce26ba	-9.599667e-08
17	0x319ceaf0	4.566907e-09
18	0xbdbd923f	-0.0925641
19	0x3e161b1e	0.14658782
20	0x3ba25484	0.0049539227
21	0xb2f05ac6	-2.7980956e-08
22	0xb43a9ad4	-1.7378926e-07
23	0xb319b1c4	-3.5784765e-08
24	0xb3d19dde	-9.761037e-08
25	0xb2b10d64	-2.0611601e-08
26	0xb4214a29	-1.5021273e-07
27	0x33dfd1f8	1.042244e-07
28	0xb3c9e696	-9.401735e-08
29	0x33edcabd	1.10730504e-07
30	0x3a14ac27	0.00056714047
31	0xb48863bc	-2.540454e-07
32	0xb3296f20	-3.9449446e-08
33	0x33dbc7de	1.0234338e-07
34	0x3ea9e2d1	0.3318086
35	0xb1e3055c	-6.607179e-09
36	0x34007856	1.1964707e-07
37	0x32fec611	2.9659562e-08
38	0x3aa1d87f	0.0012347846
39	0x345ed2aa	2.0752e-07
40	0x342e68df	1.6243165e-07
41	0x3abae1f3	0.0014258012
42	0x34360458	1.6951651e-07
43	0x335eaa79	5.1843447e-08
44	0x33a1ad87	7.528711e-08
45	0xb402eefb	-1.2194134e-07
46	0xb378836e	-5.7861534e-08
47	0xb04331c5	-7.1011313e-10
48	0xb3417c94	-4.5049617e-08
49	0x33fb9a40	1.1716156e-07
50	0x3e9136c6	0.283621
51	0xb31c0892	-3.6329375e-08
52	0xb3cc86cd	-9.5240104e-08
53	0xb3b2d9d9	-8.328397e-08
54	0xb44c7c4a	-1.9044197e-07
55	0xb39570c3	-6.9588644e-08
56	0xb37f5b5a	-5.9454898e-08
57	0xb36c249c	-5.4981328e-08
58	0x316ea541	3.4727494e-09
59	0xb35b6fb0	-5.109149e-08
60	0xb384351f	-6.156392e-08
61	0x338d6d90	6.5857535e-08
62	0xb3cbd3e9	-9.4914704e-08
63	0x308b3270	1.0127916e-09

tr1.layer_2.weight f4 [64, 64]
0	0xb42a2126	-1.5844543e-07
1	0x33825d06	6.0705176e-08
2	0x3314022d	3.4460914e-08
3	0x3410cd16	1.3485655e-07
4	0x33d96526	1.0123249e-07
5	0x33172da1	3.5198926e-08
6	0x347d4eda	2.3591147e-07
7	0xb455d463	-1.9914437e-07
8	0xb42284b4	-1.5135703e-07
9	0x3322bd12	3.7890523e-08
10	0x3395c469	6.97408e-08
11	0x34a68c5e	3.102204e-07
12	0x305d8e8d	8.060191e-10
13	0x34b64f68	3.3957917e-07
14	0x34a21149	3.0187428e-07
15	0xb481bf70	-2.4167412e-07
16	0xb2710d32	-1.40310465e-08
17	0xb4186245	-1.4191853e-07
18	0xb410099b	-1.341454e-07
19	0xb35daa90	-5.1610698e-08
20	0x33caf8a0	9.4515826e-08
21	0xb3d86cc3	-1.00780674e-07
22	0xb5279d72	-6.244146e-07
23	0xb3093d9c	-3.195383e-08
24	0xb13fbce2	-2.7901526e-09
25	0x33ac153e	8.013238e-08
26	0xb437408e	-1.7066688e-07
27	0x3411af76	1.356801e-07
28	0x3458714f	2.0157789e-07
29	0x32787c05	1.4463699e-08
30	0xb405b32b	-1.2451771e-07
31	0x34078a14	1.2623087e-07
32	0xb4899178	-2.562408e-07
33	0xb418cef3	-1.4231391e-07
34	0x32a0e4af	1.8730445e-08
35	0xb322e001	-3.7922295e-08
36	0x337a3251	5.8253423e-08
37	0xb456a7d1	-1.9991354e-07
38	0xb302ef02	-3.048536e-08
39	0xb45cec1e	-2.0574996e-07
40	0x32308161	1.0273966e-08
41	0xb44f6db9	-1.9318294e-07
42	0xb455cbc7	-1.9911305e-07
43	0x3322bf12	3.789234e-08
44	0xb310b5e4	-3.369304e-08
45	0xb41867fd	-1.4193934e-07
46	0xb41b20e9	-1.4447473e-07
47	0xb435b943	-1.6924336e-07
48	0x337510e0	5.7058855e-08
49	0x33d2ab8f	9.8100934e-08
50	0x33f5e6dd	1.1450695e-07
51	0xb4381976	-1.7145598e-07
52	0xb4566495	-1.9966895e-07
53	0x3422b100	1.5151818e-07
54	0xb527a8a7	-6.245777e-07
55	0x33462acb	4.6139387e-08
56	0x345ced5e	2.057545e-07
57	0x32450402	1.14678205e-08
58	0xb420f607	-1.4990665e-07
59	0xb3d3139f	-9.829022e-08
60	0x3447ba7c	1.8601162e-07
61	0x33df00c8	1.0384389e-07
62	0xb38c872c	-6.5438456e-08
63	0xb323f7a2	-3.8176616e-08
64	0x3308e815	3.1876045e-08
65	0xb399fc14	-7.1704704e-08
66	0xb44924cd	-1.8732972e-07
67	0x338a9fe3	6.455209e-08
68	0xb4569b5f	-1.9986827e-07
69	0x331285ec	3.4115075e-08
70	0x33bad5c7	8.700186e-08
71	0xb4162429	-1.3982994e-07
72	0xb45cecbe	-2.0575223e-07
73	0x322f8738	1.0217086e-08
74	0x33d86633	1.0076874e-07
75	0x322cc529	1.0056547e-08
76	0x3322d3f2	3.7911327e-08
77	0xb3d02ab0	-9.6935196e-08
78	0x345d4e0e	2.0610625e-07
79	0x32824d3b	1.5169112e-08
80	0xb2aee6d7	-2.036124e-08
81	0x343665a6	1.698705e-07
82	0xb385aad6	-6.22437e-08
83	0x348a4c6c	2.5760107e-07
84	0x343631b5	1.6968154e-07
85	0xb4375f07	-1.7077774e-07
86	0x33821916	6.05816e-08
87	0x34573813	2.0043835e-07
88	0xb428f2e4	-1.5734582e-07
89	0x3270c085	1.40136125e-08
90	0x3420d567	1.4978797e-07
91	0x34585f8d	2.0151329e-07
92	0x328942a5	1.5979206e-08
93	0xb3f52a92	-1.1416445e-07
94	0x33987e63	7.101041e-08
95	0x341589e1	1.3926866e-07
96	0xb3d11c7d	-9.737503e-08
97	0xb2c89f76	-2.3355579e-08
98	0x33e37b1f	1.0592907e-07
99	0x34a5cb06	3.0881364e-07
100	0x344d7691	1.9135247e-07
101	0x3270a872	1.4008139e-08
102	0xb220ecf5	-9.3671035e-09
103	0x331a133d	3.5873416e-08
104	0x317a3bd1	3.641379e-09
105	0xb372be54	-5.6518118e-08
106	0x3420c419	1.4972501e-07
107	0xb3800c9e	-5.9627595e-08
108	0xb4469036	-1.849265e-07
109	0xb3b94266	-8.6268116e-08
110	0xb4140428	-1.3785086e-07
111	0x33da142a	1.0155084e-07
112	0x324045c2	1.1191732e-08
113	0xb44f81fa	-1.9325662e-07
114	0x3455757c	1.9879911e-07
115	0xb37fc7a4	-5.9553386e-08
116	0x33e52b5a	1.0671529e-07
117	0x34a6b044	3.104816e-07
118	0xb4645535	-2.1265153e-07
119	0xb3d867d3	-1.0077169e-07
120	0xb46bf664	-2.1975717e-07
121	0x33d2f477	9.823355e-08
122	0x33def908	1.0382979e-07
123	0x313faae2	2.7891294e-09
124	0xb3e50152	-1.06638836e-07
125	0x33d2c327	9.814385e-08
126	0xb41871ce	-1.4197505e-07
127	0x32bca96e	2.1963128e-08
128	0x34833890	2.4441806e-07
129	0xb3216f56	-3.7586993e-08
130	0xb482bf42	-2.4353545e-07
131	0x32ebc204	2.7445829e-08
132	0x33580909	5.0299636e-08
133	0x331da6d9	3.6706158e-08
134	0xb3898fe9	-6.405737e-08
135	0x32dd443f	2.575882e-08
136	0xb3449aaf	-4.577549e-08
137	0xb319ae2d	-3.57815e-08
138	0xb30aed57	-3.2346488e-08
139	0x345e31e4	2.0693511e-07
140	0xb344ccbf	-4.582102e-08
141	0xb45d4b36	-2.060959e-07
142	0xb4971e20	-2.814786e-07
143	0x34835621	2.4463318e-07
144	0xb36f4b91	-5.571525e-08
145	0x3319a87d	3.5776328e-08
146	0x34595bc3	2.0243083e-07
147	0xb45e0729	-2.0677966e-07
148	0xb3985d73	-7.09505e-08
149	0x33e1793a	1.049943e-07
150	0xb4181306	-1.4163024e-07
151	0x33ed0dc3	1.1038676e-07
152	0xb33d3913	-4.40569e-08
153	0xb2c7e7c6	-2.3272047e-08
154	0xb2d5aeff	-2.4876043e-08
155	0x330e19ec	3.3085527e-08
156	0xb36edce1	-5.561458e-08
157	0x3251235a	1.2173439e-08
158	0x33dff762	1.04292454e-07
159	0x3345e91b	4.6079645e-08
160	0xb3d45edb	-9.8892734e-08
161	0xb3d45e34	-9.889155e-08
162	0xb40a9d68	-1.2909516e-07
163	0x342168fb	1.5032485e-07
164	0x34230118	1.5180956e-07
165	0x3437230b	1.7055952e-07
166	0xb44f1b58	-1.9288325e-07
167	0xb36ee301	-5.5620152e-08
168	0xb45e3764	-2.0695512e-07
169	0xb43a0a17	-1.732627e-07
170	0x33ab8281	7.9865465e-08
171	0xb3c4e157	-9.16795e-08
172	0x33ca3400	9.415817e-08
173	0xb235d6ae	-1.0584399e-08
174	0xb2bf4fd2	-2.2271625e-08
175	0xb3f52b32	-1.1416559e-07
176	0x314e46c3	3.0017169e-09
177	0x338a5f77	6.443491e-08
178	0x3489365b	2.5557787e-07
179	0xb3a6d0de	-7.76797e-08
180	0xb4301b9a	-1.6401319e-07
181	0x345e776c	2.0718807e-07
182	0x34970bca	2.813452e-07
183	0xb420ed73	-1.4987545e-07
184	0xb3ed1243	-1.1039494e-07
185	0x34a6ae88	3.1046898e-07
186	0x33519847	4.88001e-08
187	0xb384fc35	-6.192605e-08
188	0x33d7ceab	1.00493104e-07
189	0x33f5407a	1.142043e-07
190	0xb3f89a70	-1.1576492e-07
191	0x34157e29	1.3922603e-07
192	0xb407bbab	-1.2641128e-07
193	0x33f4266c	1.1369124e-07
194	0xb140aae2	-2.8036813e-09
195	0x33aaac32	7.947564e-08
196	0xb32209a2	-3.7727325e-08
197	0x3357feb9	5.0290257e-08
198	0x33e3c977	1.06071575e-07
199	0x347a4254	2.3307194e-07
200	0xb3ed630b	-1.1054188e-07
201	0xb229186e	-9.842649e-09
202	0x33b1ca2b	8.278979e-08
203	0x337b6a21	5.8537015e-08
204	0x33a61ee8	7.735599e-08
205	0xb4971ed0	-2.814836e-07
206	0x33e35a2a	1.0586912e-07
207	0xb4608906	-2.0911475e-07
208	0xb35171b7	-4.8765028e-08
209	0xb39e8340	-7.3813226e-08
210	0x33eb92df	1.0969756e-07
211	0x33f210b5	1.1272042e-07
212	0x33511669	4.8681986e-08
213	0xb2452e42	-1.1477427e-08
214	0xb420d27f	-1.4977739e-07
215	0xb270f585	-1.4025663e-08
216	0xb456a791	-1.9991263e-07
217	0x3148b726	2.9207938e-09
218	0x3253b621	1.2323228e-08
219	0xb3dd5d10	-1.03080424e-07
220	0x328ab245	1.6146382e-08
221	0x33827117	6.074168e-08
222	0xb3ab3eeb	-7.974253e-08
223	0x34d34027	3.934849e-07
224	0x31e78e13	6.739137e-09
225	0xb458b2ab	-2.0181567e-07
226	0x31cb14b3	5.910431e-09
227	0xb40fd294	-1.339452e-07
228	0x32b5488f	2.1104169e-08
229	0xb3a9c1ab	-7.904904e-08
230	0x3422ac9c	1.515022e-07
231	0xb2c95a11	-2.3440437e-08
232	0xb5279d15	-6.244093e-07
233	0x34827a5e	2.430342e-07
234	0xb351c387	-4.8839436e-08
235	0x338221ce	6.059746e-08
236	0x3353a059	4.92731e-08
237	0xb410ea22	-1.3496222e-07
238	0xb3de2168	-1.0343757e-07
239	0xb3f25932	-1.1285228e-07
240	0x32d56d1f	2.4846086e-08
241	0x33772755	5.754494e-08
242	0x33d23c51	9.7898585e-08
243	0x33a0b932	7.4842674e-08
244	0xb4a66858	-3.099583e-07
245	0xb3d45cfb	-9.888932e-08
246	0xb3d41e73	-9.877558e-08
247	0x3423026c	1.5181439e-07
248	0xb475605c	-2.2852458e-07
249	0xb48b507f	-2.5949336e-07
250	0x3212bfc8	8.5419245e-09
251	0xb3e3449b	-1.05829905e-07
252	0xb22910ae	-9.840887e-09
253	0xb3b3d68a	-8.3743615e-08
254	0xb4374b1e	-1.707053e-07
255	0xb4569d85	-1.9987608e-07

tr1.layer_2.bias f4 [64]
0	0x34122c90	1.3613521e-07
1	0xb4028de6	-1.2158816e-07
2	0x318e3f8a	4.1399675e-09
3	0x342a96d8	1.588736e-07
4	0xb3911503	-6.755911e-08
5	0x340881ac	1.2713161e-07
6	0x342e0192	1.6205584e-07
7	0x3e78af8c	0.24285716
8	0x3d0b0917	0.033944216
9	0x3eba9621	0.36442664
10	0x34544084	1.9767509e-07
11	0x34369af7	1.7006447e-07
12	0xb39b4059	-7.229455e-08
13	0x3d314634	0.04327984
14	0xb4176016	-1.4097927e-07
15	0x3e569d9b	0.20958559
16	0x3470a3c7	2.2411324e-07
17	0x33cf7769	9.660909e-08
18	0x3303badc	3.0670762e-08
19	0x317e9d7c	3.7051384e-09
20	0x32e3efb4	2.6535282e-08
21	0x33f2d3ae	1.13075075e-07
22	0x3d2eb57e	0.042653553
23	0xb38070d1	-5.980986e-08
24	0x33d55586	9.934142e-08
25	0xb4428471	-1.811584e-07
26	0x3d6b9bb9	0.057521556
27	0x339270d7	6.81918e-08
28	0x345c9ad9	2.054543e-07
29	0x33e69189	1.0736682e-07
30	0xb3812140	-6.013079e-08
31	0xb40ff710	-1.3407794e-07
32	0x3e9ba909	0.304024
33	0xb3e66fe8	-1.0730565e-07
34	0xb3d90855	-1.01063655e-07
35	0xb4163004	-1.3987307e-07
36	0x32599b35	1.2666352e-08
37	0xb3d29b94	-9.8071865e-08
38	0xb0ba5013	-1.355604e-09
39	0x34220610	1.5089631e-07
40	0xb443a4f8	-1.8220805e-07
41	0xb3a19519	-7.5242674e-08
42	0xb3390f02	-4.308732e-08
43	0x34444304	1.8278303e-07
44	0x3420265e	1.4915119e-07
45	0xb43f7bac	-1.7833253e-07
46	0x342a27b9	1.5846935e-07
47	0xb4a680d2	-3.101364e-07
48	0xb3aa8ac7	-7.941485e-08
49	0xb4839200	-2.450688e-07
50	0x3df62bc4	0.120200664
51	0x337f5658	5.9450343e-08
52	0xb477bea0	-2.3073017e-07
53	0xb3b18a54	-8.2673665e-08
54	0xb45cc788	-2.0561686e-07
55	0xb3f66db0	-1.147522e-07
56	0x33883ab9	6.343675e-08
57	0xb388b608	-6.366105e-08
58	0x33686ef2	5.4117614e-08
59	0x3374d92d	5.7008197e-08
60	0x32262357	9.670507e-09
61	0x3419d296	1.4325846e-07
62	0xb4358693	-1.6905896e-07
63	0x34082134	1.2678066e-07

tr1g.layer_0.weight f4 [64, 64]
0	0xb40c0083	-1.3038702e-07
1	0x342eaac1	1.6267133e-07
2	0xb44f9e1b	-1.9335896e-07
3	0x349bab15	2.8995478e-07
4	0xb3e66c6c	-1.07299314e-07
5	0x342971c6	1.5780742e-07
6	0x3552acf8	7.84828e-07
7	0xbc3e90a0	-0.011631161
8	0xbe2754cf	-0.16340946
9	0xbee6c1d5	-0.45069757
10	0xbe1be670	-0.15224624
11	0x3428a33e	1.5705606e-07
12	0x34f2801b	4.5169222e-07
13	0x3b67cb83	0.0035369105
14	0xb702e494	-7.801824e-06
15	0xbe49dce9	-0.19713177
16	0x3398fe80	7.124345e-08
17	0x3db351a2	0.087558046
18	0xbe73f1e7	-0.23822747
19	0x3480baac	2.397768e-07
20	0x3e2c6219	0.16834296
21	0xb480b1d6	-2.397125e-07
22	0xbe08f1b9	-0.1337346
23	0xb5931bdc	-1.0960462e-06
24	0x3db43d11	0.0880071
25	0xb50781ec	-5.048048e-07
26	0x3c151869	0.009100058
27	0x3293b7d0	1.719664e-08
28	0x3318302d	3.5434073e-08
29	0x338104ba	6.0078904e-08
30	0xb62ecd1c	-2.604741e-06
31	0xbb0f5d40	-0.002187565
32	0xbee0ddbc	-0.4391917
33	0xbb5a050c	-0.0033267168
34	0x3617f89e	2.2645468e-06
35	0x341e660a	1.4752018e-07
36	0x37add8d8	2.0724183e-05
37	0xb5ff88ce	-1.9038796e-06
38	0xb356819c	-4.9943637e-08
39	0x3302a2a6	3.041591e-08
40	0x32c44143	2.284708e-08
41	0x33d466b6	9.890702e-08
42	0x35106dc2	5.38039e-07
43	0x3415344a	1.3895729e-07
44	0xbe247657	-0.16060768
45	0xbdd50640	-0.10401583
46	0xb39ec6ab	-7.393586e-08
47	0xb62d8afc	-2.5859908e-06
48	0xb433344a	-1.6689697e-07
49	0xb3bfed3d	-8.937284e-08
50	0x3ca8f740	0.02062571
51	0x3486a090	2.507627e-07
52	0x33b84133	8.580027e-08
53	0xb3cf01db	-9.639526e-08
54	0x35b47aba	1.3446763e-06
55	0xb4d095ff	-3.8852156e-07
56	0xb4d78d44	-4.0149655e-07
57	0x34dae45e	4.0771823e-07
58	0xbc6cce79	-0.014453524
59	0x344284ca	1.8115966e-07
60	0x35fc6e3b	1.8807544e-06
61	0xb44ea7a4	-1.9246232e-07
62	0xb3771a0d	-5.7532862e-08
63	0xbd7dfea9	-0.06201044
64	0xb527a123	-6.244683e-07
65	0x335f4d5b	5.1991588e-08
66	0xb2be7026	-2.216991e-08
67	0xb403aea7	-1.2263864e-07
68	0x323fe6c2	1.11701315e-08
69	0x35246cf8	6.125333e-07
70	0x34cb94a3	3.7919844e-07
71	0x3408a9ac	1.2727713e-07
72	0xb37c9482	-5.880839e-08
73	0x344953a4	1.8750012e-07
74	0x33ff0a3d	1.1876225e-07
75	0x322f9be4	1.0221786e-08
76	0xb2cedb92	-2.4081405e-08
77	0xb2883eb0	-1.586099e-08
78	0xb45d0521	-2.0584095e-07
79	0x2ea4cf18	7.494644e-11
80	0xb3067779	-3.1307966e-08
81	0xb4a8f953	-3.1473846e-07
82	0xb48b0978	-2.5897657e-07
83	0x33d292f3	9.805617e-08
84	0xb388a610	-6.3632e-08
85	0xb33269bc	-4.154002e-08
86	0xb454ba63	-1.9811846e-07
87	0x33979fa1	7.060522e-08
88	0xb394ee88	-6.9351756e-08
89	0x338300ad	6.100286e-08
90	0xb38fe50c	-6.70062e-08
91	0xb40b85ff	-1.2994131e-07
92	0xb2ee8cc7	-2.7770865e-08
93	0xb423e850	-1.5265073e-07
94	0xb3117a02	-3.387141e-08
95	0xb3daec2e	-1.0194377e-07
96	0x330b4100	3.2422577e-08
97	0xb37a2f0d	-5.8250453e-08
98	0xb3d95853	-1.0120916e-07
99	0x322be675	1.000591e-08
100	0xb20214ee	-7.571755e-09
101	0x330352e2	3.0576196e-08
102	0x33abd72a	8.001946e-08
103	0x340b7f8e	1.2991788e-07
104	0xb4aa010a	-3.1665724e-07
105	0x32bc7b4f	2.1942155e-08
106	0x3482b526	2.434619e-07
107	0xb3ec5b5b	-1.1006224e-07
108	0xb3276bef	-3.8980883e-08
109	0xb458cadf	-2.0190372e-07
110	0x34092a60	1.2774535e-07
111	0x32be8e2c	2.2183563e-08
112	0x32d4da2d	2.4779263e-08
113	0x3459cd44	2.0284375e-07
114	0x3386cf3d	6.277558e-08
115	0x33ed1aea	1.1041068e-07
116	0x348a6a47	2.578183e-07
117	0xb2bf8804	-2.229718e-08
118	0x319f31f0	4.6331863e-09
119	0x346efe61	2.225802e-07
120	0xb417d635	-1.4140899e-07
121	0xb458dfc4	-2.0197973e-07
122	0x315a1076	3.1732532e-09
123	0x33d8c92f	1.0094879e-07
124	0xb3031625	-3.0520955e-08
125	0xb4b6671b	-3.397516e-07
126	0x33d024a0	9.692417e-08
127	0xb220f65a	-9.36924e-09
128	0x33d81f5c	1.0063988e-07
129	0xb40948d9	-1.2785621e-07
130	0x33f3885c	1.1340373e-07
131	0xb4377957	-1.7087346e-07
132	0x339a0006	7.171188e-08
133	0x33d86167	1.0076001e-07
134	0x3459d610	2.0287575e-07
135	0x321b4d0b	9.039705e-09
136	0xb30c778a	-3.270501e-08
137	0xb2930ed7	-1.71198e-08
138	0xb4122ad7	-1.3612895e-07
139	0xb388dc37	-6.37305e-08
140	0x339a14ac	7.174944e-08
141	0xb421333b	-1.5012931e-07
142	0xb03c5c39	-6.852506e-10
143	0x31648252	3.3252445e-09
144	0x34970fb7	2.8137376e-07
145	0xb3a15f42	-7.514474e-08
146	0xb26b7903	-1.3706315e-08
147	0xb345874b	-4.5990685e-08
148	0xb43dea37	-1.7687204e-07
149	0x34609919	2.0917322e-07
150	0x345ff02a	2.0855865e-07
151	0x341b270d	1.4449706e-07
152	0xb3a121f7	-7.503325e-08
153	0xb3ec0f6b	-1.0992411e-07
154	0xb22f5433	-1.0205485e-08
155	0x334482f2	4.57539e-08
156	0xb44d77c1	-1.9135679e-07
157	0x32c3902c	2.276655e-08
158	0x3395963a	6.965679e-08
159	0xb3821af2	-6.058498e-08
160	0x3322a3db	3.786759e-08
161	0xb43f9049	-1.7840752e-07
162	0x344939ab	1.8740563e-07
163	0x3345ffef	4.6100407e-08
164	0xb3df60ed	-1.04018774e-07
165	0x34608e96	2.0913498e-07
166	0xb420cbfb	-1.4975369e-07
167	0x33506a0d	4.8525227e-08
168	0x3383189f	6.1046414e-08
169	0xb3cc0c9f	-9.501786e-08
170	0x34377cef	1.7088654e-07
171	0xb3041afe	-3.0758194e-08
172	0xb00e9a9a	-5.1879e-10
173	0xb3748808	-5.6934397e-08
174	0x3418db21	1.4235822e-07
175	0x337975a9	5.808184e-08
176	0xb45864d8	-2.0153254e-07
177	0x342a4efd	1.586122e-07
178	0x349c16fd	2.907399e-07
179	0x330e7bf6	3.3174693e-08
180	0x33f540a8	1.14204624e-07
181	0x33ca3602	9.416182e-08
182	0x339e0e79	7.360081e-08
183	0x3435cedc	1.6932194e-07
184	0xb235d8fe	-1.0584925e-08
185	0x33f4f1a0	1.1406087e-07
186	0x345f712d	2.0809667e-07
187	0xb41147ed	-1.3530344e-07
188	0x347ddddd	2.3643175e-07
189	0x341af95b	1.4433083e-07
190	0xb42251b7	-1.5117153e-07
191	0xb31eed7d	-3.7003236e-08
192	0x33823411	6.0630676e-08
193	0xb414597a	-1.3816125e-07
194	0x33df77cc	1.04060376e-07
195	0x33ed7d1f	1.1058932e-07
196	0x335b4dcd	5.106067e-08
197	0xb3eb7a8b	-1.0965331e-07
198	0xb48998c6	-2.5629396e-07
199	0xb3429dbb	-4.53126e-08
200	0xb03ba423	-6.8263456e-10
201	0x340f1088	1.3323927e-07
202	0x343c2546	1.7522424e-07
203	0xb2cc7496	-2.3801743e-08
204	0xb49c24a2	-2.9083918e-07
205	0x33d67cf6	9.987882e-08
206	0xb411131d	-1.351113e-07
207	0x3403f789	1.2290378e-07
208	0xb3820d18	-6.0559785e-08
209	0xb3f78d0e	-1.15274915e-07
210	0xb444992b	-1.8309645e-07
211	0xb3d4d43f	-9.9106266e-08
212	0x33a0a329	7.480259e-08
213	0xb4221e2e	-1.5098405e-07
214	0xb4452676	-1.8361047e-07
215	0x34756c82	2.2856878e-07
216	0xb456e271	-2.0012682e-07
217	0x3401dc22	1.2094145e-07
218	0xb3e2d4fe	-1.0562688e-07
219	0x348e53ff	2.6510676e-07
220	0xb411011c	-1.3504581e-07
221	0x3438285e	1.7151021e-07
222	0x34f0b1b2	4.4832774e-07
223	0xb4586a04	-2.0155136e-07
224	0xb365cda4	-5.3505246e-08
225	0xb397f74a	-7.076467e-08
226	0xb4366eb2	-1.6990342e-07
227	0x3344f101	4.5853998e-08
228	0xb25046c6	-1.21232855e-08
229	0x34972dc9	2.8159255e-07
230	0x3345a9b9	4.6022e-08
231	0x33829147	6.0800225e-08
232	0x33c13071	8.996074e-08
233	0xb22ea448	-1.0165486e-08
234	0x33cafbd5	9.452166e-08
235	0xb33dd9b9	-4.420301e-08
236	0xb3dedcb2	-1.0377825e-07
237	0xb3aa2c45	-7.9242945e-08
238	0x34096ba8	1.2798284e-07
239	0xb23748ad	-1.06685265e-08
240	0x33f54b04	1.1422347e-07
241	0x32d4ccdd	2.477321e-08
242	0x34401e2c	1.789237e-07
243	0xb46c099d	-2.198271e-07
244	0x344357e4	1.8192765e-07
245	0xb30de218	-3.3034752e-08
246	0xb3f0f2bd	-1.1220025e-07
247	0x342a993e	1.5888233e-07
248	0xb3d0290c	-9.693221e-08
249	0x35276560	6.235987e-07
250	0xb3880d91	-6.335461e-08
251	0x3418ff53	1.424899e-07
252	0x33ebf05a	1.098676e-07
253	0xb230cdf5	-1.02913775e-08
254	0x3319c22b	3.5799683e-08
255	0x32275b43	9.74143e-09

tr1g.layer_0.bias f4 [64]
0	0x3d84b96d	0.0648068
1	0xb302e941	-3.0480127e-08
2	0xb42ad8dc	-1.5911377e-07
3	0x33eb606a	1.0960578e-07
4	0x340a71d3	1.289366e-07
5	0x33f8c9d0	1.15851094e-07
6	0xbe084045	-0.13305767
7	0xbcaec5ea	-0.021334607
8	0x3274eb1a	1.4256125e-08
9	0xb34ae9ad	-4.7244317e-08
10	0x33a760ff	7.794187e-08
11	0x33d60321	9.965721e-08
12	0x346b1fe5	2.1897684e-07
13	0xb1de7c27	-6.475165e-09
14	0xb34c06c4	-4.7503605e-08
15	0x331c067a	3.632747e-08
16	0x33d197b8	9.7599184e-08
17	0x34ec4f5f	4.4016176e-07
18	0xb251edaf	-1.2219444e-08
19	0xb41eb5e9	-1.4781075e-07
20	0x3e325c53	0.17418031
21	0xb30bef7f	-3.258128e-08
22	0xb34206c2	-4.517529e-08
23	0x329a0484	1.7930013e-08
24	0x328c0560	1.630059e-08
25	0xb308903b	-3.1796144e-08
26	0x34b66801	3.3975815e-07
27	0xb4170dab	-1.4067943e-07
28	0x3341a1b8	4.5083397e-08
29	0xafa774fd	-3.0460248e-10
30	0x34211dd3	1.5005143e-07
31	0x33cb70e7	9.473461e-08
32	0x3e470b21	0.19437839
33	0x31fac149	7.2979316e-09
34	0xb4a5d580	-3.0888987e-07
35	0xbea3ceac	-0.31993616
36	0x33b9abc9	8.645981e-08
37	0xb4544709	-1.9769881e-07
38	0x33911b54	6.7570596e-08
39	0x33af91ef	8.175618e-08
40	0xb3a6687e	-7.7489844e-08
41	0x34a4cbab	3.0695568e-07
42	0xb41a4c53	-1.4370134e-07
43	0x339b4d6f	7.231835e-08
44	0xb315bdfa	-3.486455e-08
45	0xbe2949e0	-0.16532087
46	0xb34986ae	-4.692145e-08
47	0x328a9928	1.6134962e-08
48	0xb38f0ab9	-6.660907e-08
49	0x33ae7f20	8.12563e-08
50	0xb1fb1001	-7.306881e-09
51	0xb3680f4e	-5.403063e-08
52	0xb1cd19d3	-5.969221e-09
53	0x32f76b68	2.8803427e-08
54	0xb134bc0e	-2.6300344e-09
55	0x34452e55	1.836391e-07
56	0x322295ed	9.46373e-09
57	0x34a08a1a	2.9902804e-07
58	0xb3efa013	-1.1158422e-07
59	0xb43fce5d	-1.7863336e-07
60	0x3e54664d	0.2074215
61	0xbe547447	-0.20747481
62	0x32b4d33a	2.1050813e-08
63	0xb32a4876	-3.9647112e-08
