experiments/bess/transition/1552984806_0.000001/1552989898_1_transition_80000.pth (torch_old, 564053 bytes, 63 tensors)

tr0.weight f4 [64, 203]
000000 de f3 b8 3a 3d b2 6e 3b ea 39 81 3c 2a d6 19 3c
       0.0014110764 0.0036422156 0.015774686 0.00938944
000010 16 66 8d 3c 2e b0 23 3c b1 eb 8f 3b e2 ff 8e 3b
       0.017260592 0.009990735 0.0043921103 0.0043639997
000020 54 b0 42 3c d8 d4 e1 bb ec 72 eb 3b de f8 15 3c
       0.01188286 -0.006891828 0.0071853306 0.009153573
000030 67 92 70 bc 98 b8 0f 3b 4c 08 9c 3a d4 a1 fe 3b
       -0.014683343 0.0021930095 0.0011904328 0.0077707563
000040 2b ba 8b 3b ae 91 e6 35 ae d7 1c bc 08 76 08 bc
       0.0042641363 1.7178734e-06 -0.009572906 -0.008328922
000050 4a e2 1d 3c ad 89 f9 3a f7 e5 a8 3b 82 29 53 bb
       0.009636471 0.0019038223 0.005154367 -0.0032220786
000060 25 08 74 bc a9 1d ae 3b 98 17 2c 3b 32 a7 ca 3b
       -0.01489452 0.0053135944 0.002625918 0.006184482
000070 59 26 bf ba cf 35 47 37 b9 2e 30 39 eb 33 10 3a
       -0.0014583572 1.1873853e-05 0.00016802074 0.00055009004
000080 50 9e be ba 0d 7c bc bc 63 7b 11 3b 6d f5 6f 3c
       -0.001454303 -0.02300837 0.0022198788 0.014645916
000090 d8 67 45 bc f8 49 ef ba 34 e3 da 3b a5 eb 25 3c
       -0.012048684 -0.0018256297 0.0066799168 0.010126983
0000a0 18 c7 8c 3c 66 21 e9 bb 8f 59 3a 3c 7c 2c 31 bc
       0.017184779 -0.007114577 0.0113738915 -0.010813829
0000b0 c7 15 b8 bb 3a c0 a0 3a a2 01 06 bc 9b 05 48 3b
       -0.0056178304 0.0012264319 -0.0081791 0.003052092
0000c0 7b 29 87 3c f7 9f d7 bb 0e 0f 29 3c 09 6b 52 bc
       0.016499272 -0.0065803486 0.010318531 -0.012842902
0000d0 c2 2d 1b 3c a1 0f c0 bb 03 f4 34 bc 5b c9 74 bc
       0.009471359 -0.005861238 -0.011044505 -0.014940585
0000e0 8b 5b ac b9 93 53 5c ba b7 3d ae bb 4a 32 3c b9
       -0.000328746 -0.00084047875 -0.0053174156 -0.00017947811
0000f0 15 d7 3f 3c 83 f4 14 bc 39 8f b3 3c 6b 56 9c 3c
       0.011708994 -0.009091499 0.02191888 0.019084176
000100 57 f2 d0 3b fa 4d 7b 3b cf d4 c3 bb 17 0c 93 bb
       0.0063765454 0.0038346038 -0.0059762965 -0.004487525
000110 3d 98 c9 bc bc 7a 9f 3a 1b 1a 59 bc 50 6d 88 3c
       -0.024608726 0.0012167315 -0.013250853 0.016653687
000120 1c 45 13 3c 75 a2 66 bc 1e b5 d5 ba 59 8b e2 b9
       0.008988645 -0.014076819 -0.0016304587 -0.000432099
000130 33 7b 2f 3c d2 24 84 bc e2 ad 4f 3c e9 a8 15 bb
       0.010710525 -0.016130839 0.012675734 -0.0022836274
000140 51 b1 1d 3b e7 0e 4d bc e8 aa ce bb df 58 cb 3b
       0.0024061988 -0.01251576 -0.0063069947 0.0062056626
000150 33 5d 81 bc 8c 27 11 bc 14 f0 40 bb d8 d4 5a bc
       -0.015791511 -0.008859526 -0.0029439973 -0.01335641
000160 25 6f 92 bb ae 97 e7 bb ef 86 c8 bb 8b b1 dd ba
       -0.004468816 -0.007067642 -0.006119601 -0.0016913874
000170 05 c4 f9 3b d1 a4 43 3b 15 82 07 ba ce 72 76 bc
       0.0076222443 0.0029852877 -0.0005169225 -0.01504202
000180 d0 4f a0 bc a4 0d f6 3b a2 2e 39 bb 2a b9 23 bb
       -0.019569308 0.0075089503 -0.0028256555 -0.0024982193
000190 28 78 82 3c 77 8e a6 bb e8 72 2a bc a4 70 3b bb
       0.015926436 -0.005082901 -0.010403372 -0.0028601075
0001a0 59 69 9b 3b f4 2b d5 3c 70 b7 05 bc 19 c2 6d 3b
       0.004742783 0.026021935 -0.008161411 0.0036279021
0001b0 e3 50 9d 3a 7c 23 1c bc 82 78 a9 3c 37 07 93 b9
       0.0012002256 -0.0095299445 0.020687345 -0.000280434
0001c0 75 63 67 3a de a1 cc bb 91 42 62 3c ce f7 51 bc
       0.0008826771 -0.006244882 0.013809816 -0.012815429
0001d0 35 9a e2 3b 3c e5 42 3b ac 0b cd bc 49 d9 55 3c
       0.0069153556 0.0029738685 -0.02502998 0.013052293
0001e0 29 b3 f2 3a a6 8d 31 39 ce 13 cb 3b ca 48 01 3c
       0.0018516529 0.00016932804 0.0061974293 0.007890889
0001f0 57 df e0 3b a5 13 64 3c 44 06 6c 3b 33 c7 31 bc
       0.0068625617 0.013920699 0.0036014477 -0.010850715
000200 b8 65 ed bb 99 23 c5 3c 40 51 f2 3b a9 4d 0f 3c
       -0.007244792 0.024064826 0.0073949397 0.008746543
000210 5c 47 96 ba ff 4b 44 ba fb c6 24 bc d6 11 9c 3b
       -0.0011465359 -0.0007488131 -0.010057206 0.0047628684
000220 ac b5 2e 3b c9 80 4f 3b 19 63 1e bc 01 7a 25 bc
       0.0026658578 0.0031662455 -0.009667181 -0.010099889
000230 76 74 92 3c af 21 c9 bb 1e 41 ba 3b 13 91 c7 3b
       0.017877799 -0.0061380486 0.005684032 0.0060902922
000240 bb d5 2e 3c c1 ff 4d bc de e0 e0 3b e4 ac ab 3b
       0.0106710745 -0.0125731835 0.0068627438 0.005239116
000250 9a b0 a2 3b 4a 56 d8 3b f9 e1 76 3c 65 cf 8e bc
       0.0049649 0.0066020833 0.0150685245 -0.017432878
000260 a4 e2 1f bc 32 0a fa bb 29 dd 72 3c 99 93 24 3c
       -0.009758625 -0.00763061 0.0148232365 0.010044956
000270 e6 56 ca 3b 8b 34 03 bb 0d f4 74 3c bb 26 33 3c
       0.00617491 -0.0020020332 0.014950764 0.010934527
000280 32 90 22 bc 82 96 3f bc 65 b2 b9 bb 10 f7 0f b9
       -0.009922074 -0.011693599 -0.0056670182 -0.0001372958
000290 da ae 56 3c 76 af 52 bc ff 64 41 bb 36 27 9e 3b
       0.013103211 -0.012859216 -0.0029509661 0.0048264517
0002a0 04 87 45 3a 74 6d 2e 3b 4c 56 f2 3b 95 cc 77 3c
       0.00075350725 0.0026615532 0.0073955413 0.01512446
0002b0 40 29 91 bb 57 36 2a bb d0 b8 d3 3b 4f 7c 6c bc
       -0.004429966 -0.002597233 0.0064612404 -0.014433934
0002c0 e0 4d 1a bc 41 a2 03 3a 54 b6 47 3c ee 32 6f 3c
       -0.009417981 0.0005021431 0.0121894665 0.014599545
0002d0 00 95 00 bc 53 e7 a7 b8 14 d5 59 bb c4 bc 27 3c
       -0.007848024 -8.006268e-05 -0.0033238577 0.010237876
0002e0 25 7c 97 bc d0 0f 8c bb 5b 01 6d 3c 4c 41 30 3c
       -0.018491814 -0.004274346 0.014465655 0.0107577555
0002f0 1e 4c 8f 3c fa 0d 89 38 92 04 26 bc 49 4a cd bb
       0.01749235 6.5352724e-05 -0.010132926 -0.006264959
000300 14 05 12 3c 0e 3f 94 bb ba 3f 37 3c 5c a6 9e ba
       0.0089123435 -0.0045241183 0.011184627 -0.0012104022
000310 95 67 c9 ba 9c 26 a3 3b 3c 19 25 3b 0c 98 81 3c
       -0.0015365953 0.004978968 0.0025192043 0.015819572
000320 f0 3c d5 3b 91 4f 3d 3c 80 6d ed 2e 78 c3 39 3b
       0.0065075085 0.011554615 1.0796963e-10 0.0028345268
000330 1a c6 b5 3b 95 81 89 3b 56 54 08 bc 90 38 1f bc
       0.005547297 0.0041963556 -0.0083208885 -0.009718075
000340 15 e7 26 bc 29 20 3e bc e4 7b 8d bc a4 2c ec bb
       -0.01018693 -0.011604347 -0.01727099 -0.00720747
000350 c2 39 1f bb 84 5d 27 bc 7d 3c 4e bb d1 5d 4a bc
       -0.00242959 -0.010215167 -0.003146916 -0.012351469
000360 29 9e 12 bb 5e 52 f2 bc 1a 78 0d bc d0 ad 68 bb
       -0.0022372103 -0.029580291 -0.0086345915 -0.003550399
000370 4a a1 99 bc a5 32 9b bb 19 58 b7 bb 9f e4 56 bb
       -0.018753666 -0.004736262 -0.005595219 -0.0032790077
000380 60 07 68 bc a7 9e 70 3b db af 64 bc e3 4e 51 3a
       -0.014161915 0.0036715658 -0.013957943 0.00079844723
000390 5f 77 81 bc 59 aa 2a bc 7f c7 a7 bb 79 b5 3d bc
       -0.01580399 -0.010416591 -0.0051202173 -0.011578911
0003a0 45 6b f6 bb 3e 54 39 bc 55 15 a8 bb ae ab a9 bc
       -0.0075201117 -0.011311589 -0.005129496 -0.020711746
0003b0 a0 ad f8 bc a5 ac c7 bb 18 cc 61 bc 1a f1 bc bc
       -0.030356228 -0.006093579 -0.01378157 -0.023064185
0003c0 0e b4 47 bc ba 22 b9 bc de 59 8c bc ae 3c 27 bc
       -0.0121889245 -0.022599567 -0.017132696 -0.010207338
0003d0 db 76 35 3a dd 63 c1 bb 9a 1e 3e bc 2c 43 41 bc
       0.0006922313 -0.005901797 -0.011603976 -0.0117958
0003e0 62 2a 9c bc 9d cf 9e ba e2 0d de bc 41 ff 97 3b
       -0.019063178 -0.0012116317 -0.02710623 0.004638583
0003f0 b7 c1 fe 3b 77 69 02 bc 98 73 a9 bc b4 3b 76 bc
       0.0077745575 -0.007959715 -0.020685002 -0.015028883

tr0.bias f4 [64]
000000 7e cb c7 ba 2e 10 d5 3b b7 77 42 be 33 01 1b bc
       -0.001524314 0.006502173 -0.1899098 -0.009460735
000010 20 55 1f 3b 78 4b 7a ba f1 ed 0e be e3 b3 0d bc
       0.0024312213 -0.0009547989 -0.13957955 -0.008648845
000020 ce 7e 1f bb 61 c9 54 3c 97 44 c0 bb 56 be 71 be
       -0.0024337056 0.012987466 -0.0058675515 -0.23607764
000030 2b 40 82 3b f1 79 a1 3b 44 66 17 bb 50 71 02 3c
       0.0039749346 0.0049278666 -0.0023101727 0.007961586
000040 ee db dd 3b 12 e7 1e 3c 0b 20 42 3c 59 a8 23 3c
       0.0067706024 0.009698646 0.01184846 0.009988868
000050 bf d2 49 3b 1d 32 26 bb 98 38 4a bb d4 cb 80 ba
       0.003079578 -0.002535946 -0.0030856486 -0.000982637
000060 27 1e 64 3b 07 5f 37 3c 64 a6 0a 3c c6 24 6b 3c
       0.0034808011 0.01119209 0.008462522 0.014352029
000070 d5 97 cf 3b 3e 6e 3f bb b4 f2 43 bc f7 f1 17 bc
       0.0063352385 -0.0029209997 -0.01195972 -0.0092739975
000080 d9 a8 85 3d 73 69 ca 3b ff 48 be bb 3a 0b 3d b9
       0.06526346 0.0061771213 -0.0058070417 -0.00018028627
000090 2e a3 c3 3a 37 96 30 3d b4 7e 0c 3c 3b 3e b6 bd
       0.0014925951 0.043112006 0.00857513 -0.08898588
0000a0 f1 33 6c b9 92 3b 80 bb 1d 6f 85 b9 49 81 1a 3c
       -0.00022526064 -0.0039133513 -0.00025450523 0.009430238
0000b0 bd 41 35 bc e6 1b ee 3a f1 0b a6 bb 49 9e cc 3b
       -0.0110630365 0.0018166273 -0.0050673415 0.006244455
0000c0 22 ae 0e 3c 61 88 f9 bb 09 28 f0 bb 85 4c 3f bc
       0.008708509 -0.0076151346 -0.0073289913 -0.0116759585
0000d0 22 93 64 be e7 a3 a5 ba 19 c1 fc 3b 78 75 d6 3b
       -0.22321752 -0.0012637348 0.0077134487 0.006544765
0000e0 de b6 ab bb c3 64 49 bd c8 7d 83 3b 3e 17 04 3a
       -0.0052403053 -0.04916836 0.004012797 0.0005038864
0000f0 f2 87 23 bc cd 49 e2 3b 97 bb 9d bb 05 85 12 3c
       -0.009981142 0.0069057704 -0.004813622 0.008942847

tr1.layer_0.weight f4 [64, 64]
000000 cd 7a d1 ae a8 fb ca ae 6d 38 0a 3e a9 37 f8 3d
       -9.5260334e-11 -9.2305996e-11 0.13498087 0.12119991
000010 a0 ad 2d 3e aa f6 45 bd c5 a9 97 ae 39 0e 33 af
       0.16960764 -0.04833094 -6.896842e-11 -1.6285008e-10
000020 86 59 4a ae 1a ee 73 bd de 35 3a 2e 5d a5 21 3e
       -4.6008995e-11 -0.059553243 4.2339347e-11 0.15785737
000030 d6 dc 60 2f 3c bc c9 3d 7f 56 32 af 16 9a b7 2d
       2.0451138e-10 0.09850356 -1.6219735e-10 2.087312e-11
000040 82 c8 11 af 8f 4d 33 2e 80 99 05 2f 3f b3 c3 2b
       -1.3258908e-10 4.0768774e-11 1.2150814e-10 1.3905334e-12
000050 5d 1a 0b 3d 10 31 47 ae dd 08 17 3e c3 cc e4 ae
       0.03396069 -4.5290938e-11 0.14749475 -1.04046126e-10
000060 7c 16 9a bd 50 09 51 3d 36 aa 12 2e 05 1d e2 2d
       -0.0752382 0.05103427 3.3347734e-11 2.5706113e-11
000070 bc b5 ab ba f1 b7 cf bc e3 f4 cd ad 38 84 7e 3d
       -0.0013100426 -0.025356265 -2.3414553e-11 0.062137812
000080 73 dd 7a ae 0e be 69 bc ea 3b f1 ae 1d 3b 81 2f
       -5.7040105e-11 -0.014266504 -1.0970054e-10 2.3506966e-10
000090 78 46 59 2d 12 7b a9 bc 08 5e 0a 2f 3c 9c 9c 2e
       1.2350669e-11 -0.020688567 1.2584433e-10 7.1218115e-11
0000a0 6d b5 aa ae 8d 58 11 af ce 29 38 2e ad 68 cb ad
       -7.762933e-11 -1.3219133e-10 4.1873886e-11 -2.3124913e-11
0000b0 cc c1 a6 2c 0b 86 c5 3d 17 5b c1 ae 54 5e 06 2f
       4.7395195e-12 0.09644707 -8.792805e-11 1.2220741e-10
0000c0 35 e2 1b bd df e7 9d 2d 2e e8 33 2e 46 a5 3a 3c
       -0.038057525 1.7951805e-11 4.0906105e-11 0.011391943
0000d0 aa e2 06 2e 18 38 8b bd b6 65 11 2f ef 10 97 2e
       3.066939e-11 -0.067978084 1.3223808e-10 6.869693e-11
0000e0 42 ee 94 af 14 dd ce 2e 6d 67 b3 ad bc 15 3e 2f
       -2.7090336e-10 9.407067e-11 -2.0395874e-11 1.7288121e-10
0000f0 05 25 64 3b f5 4b 5b af ac e6 87 af e9 84 60 2e
       0.0034812104 -1.994492e-10 -2.472026e-10 5.104975e-11
000100 05 0a 6f be 01 80 0f bd 66 2e d7 3e b1 6e cb bd
       -0.23343666 -0.035034183 0.42027587 -0.09933222
000110 c4 29 a7 bb e3 77 f9 3c d9 da e4 bd 97 0f 03 be
       -0.0051014144 0.030452674 -0.111745544 -0.12798916
000120 b6 07 e2 bd d5 0c 89 3d ef 35 da 3d f7 84 96 3f
       -0.11036627 0.06691901 0.10654818 1.1759328
000130 29 3d dd 3d 3a 06 63 bd c7 89 16 be 28 e0 2e bd
       0.10802681 -0.05542586 -0.14700995 -0.04269424
000140 b6 b2 13 bc 7f 55 5c bc c8 57 2c bd f3 b6 45 3d
       -0.009014776 -0.013448118 -0.042075902 0.048270177
000150 4e 76 c7 bc 62 51 98 3d 64 b1 fe 3d cf 0d 14 3d
       -0.024348404 0.074373975 0.12436178 0.03614598
000160 f6 15 08 3e 4d 5b 04 3d ce 02 23 bc 1c 46 aa 3d
       0.13289627 0.032313634 -0.009949399 0.083141536
000170 26 9f f2 bd e5 c0 cd 3d b0 9b de bd 82 70 c0 bc
       -0.118467614 0.10046557 -0.10869539 -0.023491148
000180 b3 5b cd 3d 70 ec b4 bd f1 1e d6 bd f4 b1 20 3e
       0.10027256 -0.088341594 -0.1045512 0.15692884
000190 16 37 3a 3d f3 1a 22 be 73 b1 bc 3b e5 6f 2f bd
       0.04546269 -0.15830593 0.0057584583 -0.04283132
0001a0 3f d3 3c be 65 9e a3 bd 46 66 18 3e c2 b7 c1 3d
       -0.18439959 -0.07989196 0.14882764 0.09458877
0001b0 b5 39 3c bd 37 5c 36 be 4b b7 36 bd a4 b9 5e 3d
       -0.04595347 -0.17808615 -0.044608396 0.05437626
0001c0 89 5b c9 bd 58 d7 2e 3e 0a 57 21 be 08 a3 ad bc
       -0.09831912 0.17074335 -0.15755859 -0.021195903
0001d0 53 39 b2 be 13 9c fc bc ed 6b 53 bc da a1 4e bd
       -0.3480936 -0.03083614 -0.0129041495 -0.050447322
0001e0 e7 ef 1c 3e 54 e5 9a bb f7 f9 d5 3b 78 52 fd bc
       0.1532589 -0.004727045 0.0065300423 -0.030923113
0001f0 d0 c9 b8 bc f6 4e 98 bd cf 57 b2 3d 15 71 51 bd
       -0.02255717 -0.074369356 0.087081544 -0.051133234
000200 f1 2e 27 be 7c 70 1e bd 53 8d 95 bf ce c5 6a be
       -0.163265 -0.038681492 -1.1683754 -0.22927019
000210 fe 7d 5d bd 49 c9 b8 3e 67 25 df bd f8 5a a2 3c
       -0.054075234 0.36091068 -0.10895806 0.019818768
000220 7d ef ff bc 0c 3f ad 3e 71 df 68 bc a8 1c cb bf
       -0.031242127 0.33837163 -0.014213429 -1.586812
000230 b0 5b 55 3d 7f d6 16 be 42 99 c3 be ba b1 3c 3d
       0.052089393 -0.14730261 -0.38202864 0.04606793
000240 18 7a 87 be 12 b2 94 3d c1 47 68 3e 40 06 ba bd
       -0.26460338 0.07260527 0.22683622 -0.09083223
000250 1a ff a4 3d 5c 77 b2 3c 87 4b 60 3d 05 72 e4 3d
       0.08056469 0.02178543 0.05475953 0.1115456
000260 29 78 6f 3e 08 cf 0e be c1 b0 f8 3c 23 59 06 be
       0.23385681 -0.13946164 0.03035772 -0.1311994
000270 2a be 2f be 9b d1 51 be fd 6a 82 be 50 7e 09 bd
       -0.17162386 -0.20490114 -0.2547225 -0.033567727
000280 87 3d 7e 3e e1 48 2b 3e be 5f f7 3c 55 80 e3 bd
       0.24828158 0.1672702 0.03019702 -0.11108462
000290 91 06 93 3e 4e ae 7e 3d 20 58 88 bd 6d 14 56 bd
       0.28715947 0.06217795 -0.066574335 -0.052265573
0002a0 d3 9c 1a be 3c 56 83 be 8c 95 a5 bd 6f 7b 0e be
       -0.15098886 -0.2565173 -0.080851644 -0.13914274
0002b0 42 93 04 be 28 58 05 be 36 ec 80 3d 5c 73 eb 3c
       -0.129468 -0.1302191 0.06295054 0.028741531
0002c0 c0 f9 c1 3d 93 1e 79 3d 04 5d 15 bc 38 eb c0 3d
       0.09471464 0.060820173 -0.009116415 0.094198644
0002d0 cf 3d 1c be d6 73 a7 3c 73 fb dc bd 73 3f c2 3d
       -0.15257953 0.020440977 -0.10790148 0.09484758
0002e0 ac 39 d8 bd 28 10 7f 3e 7d ef 74 be 3d 4e 4a 3e
       -0.10557875 0.24908507 -0.23919483 0.19756408
0002f0 e4 b8 d5 bd 70 14 73 3e a7 00 bb be 3e 78 58 3c
       -0.10435656 0.23738265 -0.36523935 0.013212262
000300 28 9d b9 ad 58 c2 46 ae c5 14 f7 ae 8d 28 f1 ae
       -2.1101856e-11 -4.51926e-11 -1.1235949e-10 -1.09666144e-10
000310 ec 57 a5 2d 04 b6 2c 2f b4 7e e1 2e 9b 22 57 af
       1.8797373e-11 1.5707974e-10 1.02543224e-10 -1.956643e-10
000320 91 86 06 2d 1c ca e5 ae ce 2b 5f 2e 48 67 6c ae
       7.646898e-12 -1.0449616e-10 5.0743236e-11 -5.375192e-11
000330 3c 9d e6 ae bf 9d 97 2c 64 5c 49 af c5 4a 1a ad
       -1.04871195e-10 4.3091915e-12 -1.8313667e-10 -8.770489e-12
000340 bb 4e 4d 3c d6 ae 80 2e f9 8a 79 ae 15 89 aa 3c
       0.012530978 5.851823e-11 -5.6739478e-11 0.020817319
000350 b2 a3 94 af 64 51 3d af c3 a1 14 af e8 b0 08 af
       -2.7037356e-10 -1.7218366e-10 -1.3517991e-10 -1.2431978e-10
000360 ef ce 56 ae bc ea 7b 2d 8d 14 74 2e 48 94 4c af
       -4.884176e-11 1.431982e-11 5.549743e-11 -1.8606372e-10
000370 68 67 1a 3c 40 a3 46 2c 62 ee 25 ad 38 04 f8 ae
       0.009424068 2.8228114e-12 -9.432096e-12 -1.1278484e-10
000380 63 25 1e ad 06 3c 9e 2e 29 47 17 af 79 8d 52 2e
       -8.989562e-12 7.1956704e-11 -1.3758651e-10 4.7874125e-11
000390 53 d7 73 ac f5 5b 2e 3c e2 14 c0 ae 8e d0 e8 ae
       -3.4651906e-12 0.010642041 -8.734859e-11 -1.0587185e-10
0003a0 a4 c8 ea 2e 28 0f 5a 2e f5 70 16 2d 21 66 05 ac
       1.0676729e-10 4.9580923e-11 8.551594e-12 -1.895713e-12
0003b0 78 77 b7 2d f9 27 89 2e 3c 14 ab ae cd aa 86 ae
       2.0857746e-11 6.237139e-11 -7.779774e-11 -6.123955e-11
0003c0 dc 88 78 ae 70 5f ea 2d 84 25 84 ae 21 43 3b 2f
       -5.6510227e-11 2.6645103e-11 -6.009329e-11 1.70314e-10
0003d0 08 d7 ae 2e 28 55 9f ae 50 bc 81 ae 0d 4e db 3b
       7.950801e-11 -7.24561e-11 -5.899692e-11 0.006692654
0003e0 06 f0 ff ad ed 0f 5d ae 90 63 51 2f 7b 17 cd ae
       -2.9096735e-11 -5.0263727e-11 1.9043811e-10 -9.326492e-11
0003f0 89 3f 3c 3d 68 0a df 2d 86 d8 71 ae 97 9a 73 ae
       0.04595903 2.5356786e-11 -5.4989367e-11 -5.5389106e-11

tr1.layer_0.bias f4 [64]
000000 a1 6e fa bc a2 b7 79 3e 1d 5f d3 3c a2 d1 75 bd
       -0.03057033 0.24386457 0.02580219 -0.060014375
000010 4e 82 34 bd d5 9e 20 3e bb bb ae bc 3c 27 b4 bc
       -0.04406958 0.1568559 -0.021329751 -0.021991365
000020 11 f8 87 bd 0a 8d b6 3d 9f a4 05 be c2 30 0d bd
       -0.06639112 0.0891362 -0.13051079 -0.034470327
000030 54 6e 82 bd aa 21 45 bd ec 17 01 bb 2b 8f f0 bc
       -0.063687 -0.048127808 -0.0019698096 -0.029365143
000040 46 18 0a bd 0d 1b 63 3e 49 9f 06 bc 90 cc a5 bd
       -0.033714555 0.22178288 -0.0082166875 -0.08095658
000050 a5 7c 1b bc 7b a6 92 bc 05 f2 73 bd 73 51 74 3c
       -0.009490167 -0.01790165 -0.05955698 0.014911997
000060 62 db b1 bc 1c 29 b8 3d 88 39 a1 bc 4d 11 6c be
       -0.021711055 0.08992216 -0.019680753 -0.23053475
000070 12 06 99 bc de bd 27 3d dd a1 83 3e 7c ca ed bd
       -0.018679652 0.040952556 0.2570943 -0.116108865
000080 f8 31 49 bd c0 29 8c 2d 5e 63 f2 bd 4e 51 d6 3d
       -0.04911992 1.5934698e-11 -0.11835359 0.104647264
000090 5d df ff bb 84 fa 9d 3d 1c 0f 02 be 67 a4 d5 bc
       -0.0078086094 0.07713798 -0.12701076 -0.02607937
0000a0 00 36 3b be bd 0b 69 bd 34 c5 16 be 8c 2e 80 bd
       -0.18282318 -0.05689596 -0.14723665 -0.06258878
0000b0 11 f7 8c 3e 23 3f a2 3e d0 f7 81 bc 1f a9 46 bc
       0.27532247 0.31688794 -0.015865237 -0.012125283
0000c0 0e 6c fd bd d9 0c f9 3c 8e e8 80 be d7 ce 51 3e
       -0.123741254 0.030401634 -0.25177425 0.2048906
0000d0 a1 72 7b bd 68 68 e2 bb 2d b9 a8 bd 7d 71 0a be
       -0.061388616 -0.006909419 -0.082384445 -0.13519855
0000e0 d5 74 0c 3d c7 c4 59 bd 43 42 0c be 72 41 26 be
       0.034291107 -0.053166177 -0.13697152 -0.16235903
0000f0 85 4a 80 2c 0b 4d 0b be ac c7 bc 3c 8e c4 05 bd
       3.646252e-12 -0.13603608 0.02304443 -0.032658152

tr1.layer_1.weight f4 [64, 64]
000000 ba 5e 55 2e 4b 57 e1 3d c6 3f 68 3e bb fa 49 2f
       4.8514727e-11 0.11002978 0.22680578 1.8369921e-10
000010 06 8a 0d af 4a 18 16 3d 62 bf 19 2d 34 ab 74 3e
       -1.2872911e-10 0.036644258 8.739539e-12 0.23893434
000020 52 74 c7 3d 95 a1 00 bd ea 7b ca 2e 67 09 1d af
       0.09738983 -0.031404097 9.207908e-11 -1.4282407e-10
000030 6f 69 e4 2e 69 ab db 3e cd e9 a5 bb 7a 40 9c 3e
       1.03869684e-10 0.42904213 -0.0050632716 0.30517942
000040 7d ca 04 bd 6f ec 66 3e 29 e7 3b af 45 b7 7a ad
       -0.03241967 0.2255113 -1.7089676e-10 -1.4251549e-11
000050 46 4d 08 af 53 0e 9e 2e ce 7f 29 bc 78 37 c5 3e
       -1.2396581e-10 7.1875526e-11 -0.010345412 0.38518882
000060 94 80 e9 3e ab 23 a3 3c 30 f4 26 af 5f 64 b0 3d
       0.4560591 0.019914469 -1.5184365e-10 0.08612894
000070 d0 ef fb 2d 96 c7 23 be 4f e2 e9 bd 4a 0d 0a 2f
       2.8641894e-11 -0.15994105 -0.11420118 1.2555748e-10
000080 75 61 8a 2e 20 39 2a 2f 41 c7 b1 3c c9 e3 bb bd
       6.292825e-11 1.5481705e-10 0.021701457 -0.09174306
000090 ef e9 11 af 8c 71 66 bb e7 cd 0e be 6f 11 b6 ae
       -1.3270783e-10 -0.0035162894 -0.13945733 -8.2794986e-11
0000a0 a7 27 db ae fc 38 34 ad 76 4f ed bc 50 a5 c4 3b
       -9.966011e-11 -1.02444685e-11 -0.028968554 0.006001152
0000b0 18 8f 89 bd a2 99 a2 be 52 49 b7 2e 25 ae b8 bd
       -0.06716746 -0.31757838 8.334901e-11 -0.090175904
0000c0 05 bf 7c 3d 7e 81 1f be 8a e3 03 3d 5c e2 98 be
       0.061705608 -0.15576741 0.03219942 -0.29860198
0000d0 4b 26 92 2d 41 f9 9d 3d 24 7f d4 ad ef 82 3a bd
       1.6615284e-11 0.07713557 -2.4158071e-11 -0.045535024
0000e0 27 8a 04 3e f0 48 01 bc 66 ae 6c bd 09 87 ba 3d
       0.12943326 -0.007890925 -0.057783507 0.09107787
0000f0 40 8f 74 3c a6 eb 68 3e 6b a9 61 bd 86 57 a0 3e
       0.014926732 0.22746143 -0.05509321 0.31316775
000100 ab 9a 27 2f 33 ac c3 bd 30 a7 b8 3d c1 d4 d3 ad
       1.524351e-10 -0.09554329 0.090162635 -2.4082404e-11
000110 41 dd 45 ac 71 55 e5 bc d3 cc a3 2e f0 8f 50 3e
       -2.8118204e-12 -0.027994843 7.448766e-11 0.20367408
000120 2e 21 0c 2f fe 79 0d 3c 10 af 2d ad e2 d8 84 2b
       1.2744714e-10 0.008635042 -9.872783e-12 9.439361e-13
000130 1d 1b 82 af 6e 4a dd bd 54 5e ff 32 8c a5 df 3d
       -2.3666127e-10 -0.10805212 2.9728803e-08 0.109202474
000140 81 5f 08 3d c6 b4 e3 bd cd 99 8a bc 38 69 02 2f
       0.033294205 -0.11118464 -0.016919041 1.1860812e-10
000150 6d 16 23 2f f8 d3 ff ae 11 f6 89 bd 1e a4 34 be
       1.4832731e-10 -1.1633711e-10 -0.067363866 -0.1764073
000160 92 3a c3 3d 34 07 86 af 4d c9 c6 ab c5 41 83 bd
       0.09532656 -2.4379576e-10 -1.4124618e-12 -0.06409029
000170 ee 2c a9 2e d6 26 e1 3d 0a 3b da 3c 43 aa 24 ae
       7.693211e-11 0.109937355 0.02663948 -3.7440506e-11
000180 07 62 f4 ae 29 2a 48 ae 44 fd d5 ad 3f 6e 2a bd
       -1.11132485e-10 -4.551218e-11 -2.4327769e-11 -0.041609045
000190 8a 9d 26 af 35 6b 20 bd 24 31 05 2e 98 7a fa 2e
       -1.5153581e-10 -0.03916474 3.0284344e-11 1.1390461e-10
0001a0 7c 3f 0d 3e b8 d2 e8 2e ba 2b 3f ac 8b 14 e1 2d
       0.13793749 1.058757e-10 -2.7167006e-12 2.5588661e-11
0001b0 c0 cf fe 3d 9f ef 25 3e 09 f7 d7 2c 47 4d 15 be
       0.12441969 0.1620469 6.138094e-12 -0.1458026
0001c0 6a d1 63 bd 27 a5 31 3e 16 c0 50 2f ad 2e 85 3c
       -0.055619635 0.17348157 1.8985732e-10 0.016257608
0001d0 c2 ce 86 3c ea 84 31 32 45 a6 bf 2d d1 ec d7 ae
       0.016456012 1.0332977e-08 2.1788025e-11 -9.819135e-11
0001e0 14 bf 5d bd d4 f4 7b bd 48 7a e9 ae 17 f9 64 3e
       -0.054137304 -0.061512783 -1.0617335e-10 0.22360645
0001f0 03 79 f7 bd 75 1f 30 3e a2 89 6f 3d 28 31 a3 bd
       -0.12083628 0.171995 0.058480866 -0.0796836
000200 80 24 a9 ad c6 9e a7 ae dd e9 d4 2d 09 33 db 2e
       -1.9229285e-11 -7.6224846e-11 2.4205466e-11 9.9680326e-11
000210 1a 88 e8 ae b0 d9 27 ad 8d 9f 38 2e af 01 1f bd
       -1.0574315e-10 -9.541187e-12 4.1978466e-11 -0.038819965
000220 9e 3e 64 bd 4d b0 ad 2c 49 76 7c 2f 8f ab 1f 2f
       -0.05572378 4.936529e-12 2.296129e-10 1.4521916e-10
000230 66 65 e7 ae 9d 8c 72 af 10 0e 09 ad dc ad 11 2f
       -1.0522676e-10 -2.2059728e-10 -7.790671e-12 1.324944e-10
000240 6d ba 0f ae e0 43 53 ae 54 43 84 ae 40 31 aa 2f
       -3.2680015e-11 -4.803613e-11 -6.014625e-11 3.0957814e-10
000250 11 11 5a 3c 84 ef 69 ac 24 cd 0e 2f 4a 3a 4a 2f
       0.013309733 -3.324425e-12 1.2987705e-10 1.8392501e-10
000260 30 c5 66 2e 33 ef f5 2d e3 fd 9b 2e 27 4e 59 bd
       5.2471083e-11 2.7959501e-11 7.093683e-11 -0.053053048
000270 e5 cf d1 ad bb 8f 84 ab a5 3c 17 2f 55 6a e5 ae
       -2.3852873e-11 -9.419057e-13 1.3754915e-10 -1.0432603e-10
000280 a5 ae 17 af 14 ed 0a 2e 2e 98 bd ad 6a 76 24 ad
       -1.3795416e-10 3.1588135e-11 -2.1554394e-11 -9.348614e-12
000290 d7 46 c3 2e 17 be ba ae 25 84 d3 ac 9d 04 30 ae
       8.880157e-11 -8.4920675e-11 -6.0116517e-12 -4.0021864e-11
0002a0 b4 11 be 2c 56 40 3f af dc 4f 13 2f 75 d9 f0 ae
       5.4020902e-12 -1.7394206e-10 1.3397944e-10 -1.09525645e-10
0002b0 38 c0 94 ae b2 9e c4 ae 4c fd d1 ad f3 04 fe 2d
       -6.764406e-11 -8.941238e-11 -2.3873035e-11 2.8878655e-11
0002c0 6a 6b 96 ad 2a 53 ac ae b3 34 db 2e dc 80 ff 2c
       -1.7100727e-11 -7.836427e-11 9.968328e-11 7.261842e-12
0002d0 13 d2 10 af 2f a2 e3 bb e6 23 aa 2e b7 5e b9 2d
       -1.3171357e-10 -0.006946824 7.737082e-11 2.1074127e-11
0002e0 db c4 ae ac 18 c1 e5 2e aa c4 c6 ad fe 8a 23 2f
       -4.967233e-12 1.0448015e-10 -2.259733e-11 1.4874144e-10
0002f0 a6 0d 5d 2f ab 78 2f af 08 67 10 af 3f cc 3f 2e
       2.0104682e-10 -1.5959027e-10 -1.3133328e-10 4.360978e-11
000300 a3 7c d5 ad a7 16 ae ae f0 0e 42 2d c5 3c c0 ae
       -2.4270646e-11 -7.916628e-11 1.103094e-11 -8.741944e-11
000310 4a 11 c6 2e eb c5 c8 ae 2e 9a 4c af 6c 59 02 2f
       9.007069e-11 -9.130104e-11 -1.8608468e-10 1.18552e-10
000320 cb ca 8b bd f0 cf 4d bd 7e b2 42 ac fb c3 81 3b
       -0.06825789 -0.050247133 -2.7668141e-12 0.0039601303
000330 45 6c 89 ae 05 09 d6 ab 03 94 c5 2e 9c 8e 8f bd
       -6.249271e-11 -1.5208118e-12 8.984815e-11 -0.070096225
000340 43 2a 22 2e 8e 62 c5 ae 9d 92 ec 2d 86 09 ca ae
       3.687207e-11 -8.9760296e-11 2.6895203e-11 -9.187588e-11
000350 7d e3 84 ad 6d 0f bc 2e 37 f9 85 2e 3f ae bf 2e
       -1.5107688e-11 8.5519904e-11 6.092409e-11 8.716627e-11
000360 ca 7e 05 2e 53 e3 a0 ae 72 8f 07 ae 4c 61 61 ae
       3.035331e-11 -7.3163385e-11 -3.082285e-11 -5.1245494e-11
000370 ad 66 8d 2e 9c 4c 3f af a5 9e 50 bd 64 0c 4d ae
       6.4301765e-11 -1.7398566e-10 -0.050932545 -4.662261e-11
000380 06 b3 0c af 8b 5c a9 ae b1 41 9c ac 9f f9 6b ae
       -1.2796528e-10 -7.701669e-11 -4.44108e-12 -5.3654522e-11
000390 98 93 4f 2f 29 81 e7 2d 86 48 86 ac c0 a3 5e ae
       1.8878976e-10 2.6319018e-11 -3.8165608e-12 -5.0622395e-11
0003a0 1d cb fd 2d 3f cb 17 2f 9c ad b0 ad a3 91 fb ad
       2.885297e-11 1.3805578e-10 -2.0085981e-11 -2.8600072e-11
0003b0 54 2d b6 ae 76 20 fd 2c 34 9b 46 ae 23 b5 92 ae
       -8.284454e-11 7.1942964e-12 -4.5157836e-11 -6.671488e-11
0003c0 46 2f 0f ae 27 6a 72 ae e8 b9 c3 ae b4 9c 85 2e
       -3.2556423e-11 -5.511871e-11 -8.900597e-11 6.075976e-11
0003d0 51 67 00 3c c0 53 53 2f 30 3b c3 ae d6 ae d3 bc
       0.007837133 1.9220092e-10 -8.878087e-11 -0.025840204
0003e0 14 f7 d8 2e 11 03 3d ae 1d aa 0a 3c a9 77 f7 ad
       9.866433e-11 -4.2976348e-11 0.00846341 -2.8133789e-11
0003f0 4c 96 0c 2f 24 4a 6d ae 09 33 60 bd e4 e5 45 2d
       1.2786322e-10 -5.395341e-11 -0.05473617 1.12491995e-11

tr1.layer_1.bias f4 [64]
000000 f8 53 58 3e d7 68 18 bd 93 6e 74 bd f7 0d ca bd
       0.21125782 -0.037209358 -0.059675764 -0.09865945
000010 f3 b4 68 2e 03 64 41 3d a2 70 17 bc 43 03 03 2f
       5.2911408e-11 0.04721452 -0.009243162 1.191554e-10
000020 82 3b 1b af ac 9b 71 2e 70 b0 a8 2e 4c 2d 9c 2e
       -1.4118309e-10 5.493532e-11 7.671097e-11 7.102105e-11
000030 d7 64 b6 3d af 14 35 2e 25 48 ee bc b7 7c ca ad
       0.089059524 4.1173006e-11 -0.029087136 -2.3020126e-11
000040 75 7c 0b af e1 69 d3 2c 81 be fe ae 30 95 04 2f
       -1.2686192e-10 6.0087356e-12 -1.1584423e-10 1.2058332e-10
000050 d2 b6 96 bb 39 1a 59 af e0 7a b1 ae 01 db 68 ae
       -0.0045994306 -1.9745351e-10 -8.070855e-11 -5.2945207e-11
000060 55 dd d9 bd a7 18 50 bc b6 82 ea ae 4a b1 00 ad
       -0.10637919 -0.01270119 -1.0664307e-10 -7.315324e-12
000070 9f 02 f3 2d 5e 83 27 ba b6 4f 62 bd 83 81 e6 bd
       2.7627066e-11 -0.00063901197 -0.0552518 -0.11255171
000080 13 0a c3 ad 77 57 91 bd 5c 02 9b ad cf 23 25 ae
       -2.2173407e-11 -0.07096761 -1.7622508e-11 -3.754846e-11
000090 8f 52 14 3e 1a a4 bf bc 94 96 1e 3d 98 1f 01 bd
       0.14484619 -0.02339368 0.03871782 -0.03152427
0000a0 ee 00 18 af 32 b9 52 3d b3 06 14 be 94 16 ca 2a
       -1.382465e-10 0.051446147 -0.1445568 3.5898075e-13
0000b0 80 8d a5 bc cd bf 74 ba 10 fb d6 2d 94 aa 0c af
       -0.020209074 -0.0009336442 2.4440477e-11 -1.2793527e-10
0000c0 8a 8e ea ae e3 df 87 bb d6 35 a9 ac 8d 2b 47 ae
       -1.0666408e-10 -0.0041465624 -4.809246e-12 -4.5286042e-11
0000d0 6c 74 03 3d 86 a2 3c bd f7 29 e0 bc ac 04 3c bd
       0.03209345 -0.046053432 -0.02736376 -0.045902893
0000e0 e7 8d da bc b0 ae 16 af 91 37 d0 bc 61 1c 00 af
       -0.026678992 -1.3704482e-10 -0.025417121 -1.1651614e-10
0000f0 af a1 87 2e ab 55 0c bd 34 7d 65 2e 2a b7 60 3d
       6.16781e-11 -0.034261387 5.2179774e-11 0.05486218

tr1.layer_2.weight f4 [64, 64]
000000 50 a2 05 af 40 c2 77 bb 81 16 1a af 3e 9f 14 af
       -1.2153945e-10 -0.003780499 -1.4014213e-10 -1.3517096e-10
000010 41 23 58 ac b2 a2 91 bc 61 db 92 ae 57 61 31 af
       -3.0715016e-12 -0.017777774 -6.678281e-11 -1.6132638e-10
000020 d6 c0 d8 ac 7d d1 b0 2e 72 35 67 ac 71 20 1a ad
       -6.1604983e-12 8.040766e-11 -3.2856743e-12 -8.76109e-12
000030 77 1a 06 bc 6d a2 f7 2a 90 9f 3a ae d1 bf 8d bc
       -0.008185021 4.398872e-13 -4.2433224e-11 -0.01730338
000040 ac cb 7b bb f2 a2 22 ae 85 d2 ae 2e 46 b0 69 3c
       -0.0038420958 -3.697926e-11 7.95e-11 0.014263218
000050 25 2e fe 2e 1e f6 92 af 56 5e b2 ac a7 6f 9a ae
       1.15587796e-10 -2.6732122e-10 -5.0695377e-12 -7.0229426e-11
000060 bb de 4b 2e 90 e2 aa af de 69 5c ae db 02 2e 2e
       4.635468e-11 -3.1083802e-10 -5.0116238e-11 3.9565556e-11
000070 09 d6 eb ae db 6c ed 2d 21 1d c3 2e 51 89 57 ae
       -1.0724583e-10 2.6992122e-11 8.872748e-11 -4.90073e-11
000080 02 a3 f8 ad 80 17 82 ac 07 39 b3 ad 76 f9 19 2e
       -2.8266726e-11 -3.6974313e-12 -2.037527e-11 3.5009738e-11
000090 7f 90 08 af 17 e4 82 ad 7f 07 11 af 94 6f 01 bb
       -1.2420463e-10 -1.4880581e-11 -1.3190336e-10 -0.0019750344
0000a0 44 21 a9 2e c0 87 c7 2d 67 5b c3 ae 38 ee f2 ae
       7.6911394e-11 2.2683966e-11 -8.88381e-11 -1.1047202e-10
0000b0 7c b0 8f bc 02 b4 30 bb c6 51 4e 2f b4 23 d6 bc
       -0.017540209 -0.0026962762 1.8764643e-10 -0.026140071
0000c0 ba 45 be 2e 8e b5 ca 3b 3d 72 b3 2e 23 d4 62 ae
       8.6525856e-11 0.006186194 8.1602704e-11 -5.1574866e-11
0000d0 41 94 81 2e 70 2d b7 2d 30 2f 1d 2f f2 79 c8 ae
       5.892576e-11 2.082487e-11 1.4295831e-10 -9.116609e-11
0000e0 2b ca c6 ae c0 2f 74 ae f2 5c 8d 2f f6 3c 8f 2e
       -9.03991e-11 -5.5521587e-11 2.5713792e-10 6.513716e-11
0000f0 79 34 54 ae 63 60 64 2d e8 1d 39 ae a3 42 96 2e
       -4.8249824e-11 1.2981702e-11 -4.2090692e-11 6.833047e-11
000100 d7 9f f1 2e bc fe 20 2f ce a5 56 2f ba 7b bd ab
       1.09878044e-10 1.4642415e-10 1.9522092e-10 -1.3463599e-12
000110 b2 58 f4 2e 93 30 66 2e 83 1c 72 25 ec 0b 11 2f
       1.1111591e-10 5.2339088e-11 2.0999814e-16 1.3191909e-10
000120 10 50 6d bc 16 70 5d 2e ba 23 20 2e da c2 78 2d
       -0.01448442 5.0349135e-11 3.641152e-11 1.4140434e-11
000130 1a 6d 0c ad 26 ea af 2d f9 13 f1 bb aa e6 01 af
       -7.982304e-12 1.999918e-11 -0.0073571173 -1.181443e-10
000140 b5 45 e1 ad e5 d2 e6 2e 62 b5 87 af ff 4e 2f 2f
       -2.5610495e-11 1.04966515e-10 -2.4685237e-10 1.5944222e-10
000150 5d cd 43 ad 75 25 5e 2e 4d 78 62 2e c1 0c 8b 2d
       -1.11300665e-11 5.0510224e-11 5.14933e-11 1.5808134e-11
000160 56 0a 21 ae ab 87 1c ad ab 52 d9 ae f2 98 01 af
       -3.6616342e-11 -8.897698e-12 -9.882702e-11 -1.1786819e-10
000170 a5 17 c5 ae 3f ec 08 3b 43 ec 61 ad dc 28 39 2e
       -8.962723e-11 0.0020892767 -1.284223e-11 4.210042e-11
000180 87 d8 0a ae fd 09 54 bc 1f 3f ec 2d 54 c5 02 2f
       -3.1569882e-11 -0.0129418345 2.6858125e-11 1.1893536e-10
000190 a1 9b a4 af 0f 41 de 2e 22 b9 a3 2d 2c b8 a8 ae
       -2.9942007e-10 1.0106948e-10 1.861317e-11 -7.672471e-11
0001a0 20 ad cf ae f3 f9 ab ae f3 94 4b af ac 84 23 af
       -9.444023e-11 -7.8205796e-11 -1.851566e-10 -1.4871898e-10
0001b0 e7 00 04 2f 28 58 7b 3c 56 dc 52 2f ee bc 53 2f
       1.200565e-10 0.015340842 1.9177668e-10 1.925746e-10
0001c0 66 8f 0b af d7 d0 f9 2d f5 7a 20 2e 8b 76 a7 ae
       -1.2692922e-10 2.8400766e-11 3.6488996e-11 -7.615338e-11
0001d0 93 e5 81 3c 82 87 7f bc cc 03 a8 ae 50 43 9d ae
       0.01585654 -0.015596272 -7.64043e-11 -7.1514905e-11
0001e0 f6 b3 e7 ae a1 c5 fc 2e dc 97 c0 ac 3b 7e ac ae
       -1.0536631e-10 1.1494739e-10 -5.473828e-12 -7.8440775e-11
0001f0 96 13 f7 ae a4 67 62 af a2 20 38 2f 27 58 fb 2e
       -1.1235739e-10 -2.0591401e-10 1.6746296e-10 1.14298175e-10
000200 17 43 7b 3e 98 62 3d bc ac c7 3d 3c aa b1 13 ae
       0.24537311 -0.011559151 0.01158325 -3.3581728e-11
000210 f3 23 91 af d4 84 ce ba 30 58 a3 3c 2d 8a d2 bc
       -2.640089e-10 -0.0015756139 0.019939512 -0.025700653
000220 4b 80 8f ae 77 9b 18 3d a7 71 47 af 4f c7 7a 2e
       -6.5256765e-11 0.037257638 -1.8139322e-10 5.702044e-11
000230 08 8c 72 be 55 e0 ed ab 8a 09 44 af e5 73 d0 2c
       -0.2368623 -1.6902127e-12 -1.7829485e-10 5.9245824e-12
000240 31 8a db ae 9b 64 ba 2e 11 ac 3a 2f a7 77 e3 ae
       -9.983515e-11 8.476172e-11 1.6977732e-10 -1.03440194e-10
000250 b3 e9 ee ae c4 87 e2 ae 58 9a 08 2f 59 12 f0 2e
       -1.08645e-10 -1.0301407e-10 1.2423962e-10 1.09171956e-10
000260 eb bf be ae b0 b5 b0 2d 51 89 b0 3d b9 61 53 af
       -8.674291e-11 2.0089569e-11 0.08619941 -1.9225056e-10
000270 1d 8c 3d 3b 5d b9 31 2f e0 d9 07 2f 98 16 8e bd
       0.0028922625 1.616391e-10 1.2355583e-10 -0.06937903
000280 86 d1 f1 2c bd c7 64 2e 81 6a 0c bd fc 56 11 2f
       6.8728937e-12 5.20186e-11 -0.034281258 1.3218576e-10
000290 66 4c 87 3e e9 54 57 af 27 9f e6 3d 9c 05 82 bd
       0.26425475 -1.9584302e-10 0.11260825 -0.06348726
0002a0 ff 75 5c ae f3 ec 99 bd 24 c6 63 bd 78 ac 07 ae
       -5.012701e-11 -0.075158976 -0.055608884 -3.084863e-11
0002b0 2e c3 b1 3c 7e e7 07 3c b3 eb d2 2e e6 22 38 bd
       0.021699514 0.008294938 9.591563e-11 -0.044955157
0002c0 42 0b 24 ae ee 6e 1d ba 88 66 6c 3d 9f b8 8f 2d
       -3.729928e-11 -0.00060056045 0.05771497 1.6339206e-11
0002d0 19 95 3e 3e 53 98 e1 ac 16 a8 36 2e ae 39 26 3d
       0.18611564 -6.411796e-12 4.15313e-11 0.04058235
0002e0 24 37 cf af 4f dc 90 2e 7d 62 a3 2e 44 3e f1 ae
       -3.769226e-10 6.5874965e-11 7.429877e-11 -1.0970472e-10
0002f0 d6 0d 8d ab 0f ae 25 ae 7f f4 85 af 9a 45 a7 bd
       -1.0022493e-12 -3.767125e-11 -2.4366284e-10 -0.08167572
000300 1b a6 2a ad 88 15 2d 2e 0d aa 89 2f 17 99 c9 ad
       -9.700264e-12 3.935477e-11 2.5040983e-10 -2.291904e-11
000310 b9 42 da 2d 17 73 06 ae 6f 0d ac ae d2 ae 85 ae
       2.4813361e-11 -3.0570293e-11 -7.824041e-11 -6.079194e-11
000320 b2 7a 98 2e a5 00 0b 2f 67 b4 3f ae 30 ee e4 2e
       6.933955e-11 1.2642205e-10 -4.35886e-11 1.041055e-10
000330 6b 36 47 bc 31 ee 79 ac 84 ac 2a bc 48 03 87 2e
       -0.01215897 -3.551725e-12 -0.0104171075 6.139672e-11
000340 2f f9 8a 2e 43 5d 21 ae 99 2a 0f af 3e b6 cc 3a
       6.319777e-11 -3.6689995e-11 -1.3020908e-10 0.0015618277
000350 8b 16 37 2f 57 de 06 af 5c d3 81 ae f1 8c d0 ae
       1.6651762e-10 -1.226622e-10 -5.903786e-11 -9.483781e-11
000360 f7 cf 78 3b f4 0a 77 2e ad 0a 96 2e 56 4c 13 af
       0.0037965754 5.6171026e-11 6.823107e-11 -1.3396692e-10
000370 c7 d5 84 2e 8d b8 ca 2e c9 55 6a 2e 6f 53 0c 2f
       6.0406395e-11 9.218679e-11 5.3281633e-11 1.2762567e-10
000380 5b e6 dc 3b 7b 74 34 2d e2 0e c1 bb 8c 43 3f bc
       0.0067413277 1.0257679e-11 -0.0058916667 -0.011673819
000390 af 36 eb ae 7d 18 33 ae 4c 45 a7 ba b2 e9 51 2f
       -1.06962765e-10 -4.0721638e-11 -0.0012761741 1.9091465e-10
0003a0 49 9b 66 2e 86 4d 83 bc c1 a7 81 3c 45 bd f8 2e
       5.2433866e-11 -0.016028177 0.015827062 1.1311355e-10
0003b0 48 de d3 2e a5 c0 d9 bb 0f 24 cc 2e bb ce 09 af
       9.634654e-11 -0.0066452795 9.283251e-11 -1.2533523e-10
0003c0 6f 2e 84 ae 4a 91 ca 2e 2e 84 89 2d 1f e0 1d ae
       -6.010913e-11 9.211705e-11 1.5633796e-11 -3.5896727e-11
0003d0 22 f5 af 2e a8 fa 86 2e 7b 7b a0 3b 03 82 15 ae
       8.001623e-11 6.13814e-11 0.0048975325 -3.399415e-11
0003e0 c6 e0 73 bc 32 3a d8 ae 16 0f 5f 2e f4 a3 50 2c
       -0.014885133 -9.83288e-11 5.071773e-11 2.964959e-12
0003f0 77 4a 15 2f ea 34 f2 ae 3c e8 02 af 7d 10 7a ae
       1.3577926e-10 -1.1014285e-10 -1.1905937e-10 -5.6858063e-11

tr1.layer_2.bias f4 [64]
000000 80 68 ed ae 4f 03 dc 2e 1c 06 6d 3e 81 99 0b af
       -1.0796075e-10 1.00050294e-10 0.23146862 -1.2696512e-10
000010 82 e6 11 af d3 cb e2 2e 29 f4 17 af df a8 f5 ae
       -1.3269566e-10 1.03134966e-10 -1.3820113e-10 -1.11713076e-10
000020 ee 73 54 2f 10 b4 32 ae a9 e0 98 2d 46 f0 a5 3c
       1.9322474e-10 -4.0632442e-11 1.7380168e-11 0.020256173
000030 f6 6a ae 2e c1 5b e1 bd 03 28 cd 2e 35 0f 18 bd
       7.931604e-11 -0.11003829 9.329428e-11 -0.037123878
000040 e8 d5 60 ae 04 07 50 ab 59 05 f2 3b 8f 04 24 ad
       -5.112169e-11 -7.390618e-13 0.0073858914 -9.323333e-12
000050 31 cd a0 af 9a eb 92 2c 7d fc fe 2d 22 50 b1 2e
       -2.9249628e-10 4.1757266e-12 2.8988584e-11 8.0632626e-11
000060 c4 2b 18 2e 77 d9 ef 2e a5 f8 33 af b1 e1 48 bd
       3.459967e-11 1.0907091e-10 -1.6368291e-10 -0.04904336
000070 55 65 83 ad b0 ba f5 3c fe 74 06 2f b3 2f 1b ad
       -1.4937976e-11 0.029996246 1.2228793e-10 -8.821321e-12
000080 94 82 02 af 97 ed 9a ae 52 82 43 ad 7d e2 99 2e
       -1.1869822e-10 -7.0453136e-11 -1.1113404e-11 6.997867e-11
000090 e9 cf 57 bd 3b c5 bb 2e f7 76 13 2f 25 f1 5a ae
       -0.052688513 8.5388106e-11 1.3411837e-10 -4.978164e-11
0000a0 97 b3 18 af da ef f3 2e dd 7f 34 ae ca 97 8d bb
       -1.3888123e-10 1.1092967e-10 -4.1040827e-11 -0.004321073
0000b0 0a 30 c3 2d e8 dd 3a 2d 40 f1 a9 2f a4 1b d5 ad
       2.2190267e-11 1.0622149e-11 3.091234e-10 -2.4227571e-11
0000c0 09 f1 98 ad 1e f3 52 2e 4c 9d 58 2f 30 a6 c3 ae
       -1.738744e-11 4.7964403e-11 1.9700969e-10 -8.897094e-11
0000d0 70 4b eb 3b 4a 30 04 2e 6d 7b af 3c 89 d4 2d af
       0.0071806237 3.0056214e-11 0.021421159 -1.5809766e-10
0000e0 fc 9c c1 2e 6c 16 45 bd f4 0d 2b bd 6b fe 1d af
       8.80451e-11 -0.048117086 -0.041761354 -1.4369454e-10
0000f0 2d 28 d1 ba e0 7a ad 2e d7 bb 25 bb fe bc ff ac
       -0.0015957408 7.888956e-11 -0.0025288963 -7.2685183e-12

tr1g.layer_0.weight f4 [64, 64]
000000 8c 20 ce ac 35 37 9f ac 41 1e 39 3b 05 9b 8a 3b
       -5.8584856e-12 -4.525181e-12 0.0028246792 0.0042299055
000010 e4 2c 0a 2f d5 2d d0 ae ac 65 6c ae 12 e6 8f 2f
       1.2566975e-10 -9.466886e-11 -5.375049e-11 2.6175023e-10
000020 29 b8 4e 2f 46 3c 6c ad eb 5f 97 2d 7a 2e eb 3c
       1.8801018e-10 -1.342843e-11 1.7209309e-11 0.028708685
000030 31 3d 84 a9 bb 7a 17 ad f3 79 11 ab c1 41 4a ae
       -5.8725926e-14 -8.610608e-12 -5.1683587e-13 -4.5987884e-11
000040 da 56 ea 2e 67 73 24 ac d9 91 2a bc ae 2e a1 ae
       1.0656516e-10 -2.3369863e-12 -0.010410749 -7.329724e-11
000050 ba f4 4b 2e 6d 18 5b af ce da 12 ae 3c 3b 3b ae
       4.6374217e-11 -1.9926612e-10 -3.3390894e-11 -4.2571488e-11
000060 58 04 53 bd 24 cb f9 ad ff 57 f2 3c df 0a c6 2e
       -0.051517814 -2.8398235e-11 0.029582975 9.0059286e-11
000070 5e dc db 2d 66 8f 0b af 3c 17 a2 2e 1a 0e d1 2e
       2.499528e-11 -1.2692922e-10 7.371034e-11 9.5067246e-11
000080 d2 7c ac 2e 86 10 20 af 24 54 12 ae 1b ce 2e 2f
       7.843827e-11 -1.4557786e-10 -3.327129e-11 1.5898431e-10
000090 c9 e5 5a af 2a d0 5f 2e 04 4f ae ae db 71 48 af
       -1.990862e-10 5.0889216e-11 -7.92664e-11 -1.8230344e-10
0000a0 97 7a 66 ae 87 07 8b ae da 43 6c bd 24 0e e4 2e
       -5.2404827e-11 -6.322325e-11 -0.057681896 1.03707515e-10
0000b0 74 87 30 ae 16 93 3e 2e 4f f5 06 2f ca 09 0b ad
       -4.0138073e-11 4.3331637e-11 1.227438e-10 -7.903409e-12
0000c0 6c ef b9 2e 16 88 80 2e f4 cf 7e ae a1 63 0d af
       8.455356e-11 5.84494e-11 -5.7937613e-11 -1.285927e-10
0000d0 ea bb 27 ae 79 03 eb 2d 61 1f c7 2e 75 5c 7b ae
       -3.8138305e-11 2.6717949e-11 9.055046e-11 -5.715291e-11
0000e0 d8 23 13 2d 9c b1 c6 2e 3f a7 cf ae fd 3c 49 2d
       8.3639415e-12 9.035547e-11 -9.442979e-11 1.1439069e-11
0000f0 46 e6 23 3d 6d ee c4 2e b1 9f 8a 2e 62 49 b9 2e
       0.040014528 8.955401e-11 6.30388e-11 8.4258614e-11
000100 12 cd bd 3c b7 3f b2 3b a3 dc 2e 3f 78 04 6b bd
       0.023169074 0.0054397243 0.68305415 -0.05737731
000110 ee 2b 41 bd f4 31 cd bc 30 86 99 3d d5 d4 cd 3d
       -0.047161035 -0.025048234 0.07496297 0.1005036
000120 5c ee 6f be db c2 0d bd 6c 21 f6 3d c9 84 3b 3f
       -0.2343077 -0.034609657 0.120180935 0.7324949
000130 60 e1 c0 bd 37 ab 54 3e 81 e9 6e 3c 18 ac 9f 3d
       -0.09417987 0.20768438 0.014582039 0.07796496
000140 06 d8 6a 3e cf 0b 68 3d a4 45 77 bd 7e 7f 2f 3d
       0.22933969 0.056651887 -0.06036915 0.042846195
000150 4d 66 ec 3c ce 01 d6 bd e8 7f 4a be 63 fd 26 3d
       0.028857375 -0.10449563 -0.19775355 0.040768992
000160 26 83 13 bb c8 0f 44 bd 3d 13 f0 3c 16 ae c7 3e
       -0.002250859 -0.047866613 0.029306049 0.39000005
000170 0b a3 8b be b5 ba d5 3d 30 0b 88 3c 55 a0 56 be
       -0.2727283 0.10436002 0.016606897 -0.209596
000180 c2 73 f5 3d 97 69 a3 ae ac 1a 42 be 34 81 93 bd
       0.1198497 -7.431138e-11 -0.18955487 -0.07202378
000190 89 91 8f af 88 87 c5 bc be fc 2a be 81 6c 80 3b
       -2.6114957e-10 -0.024112478 -0.16697976 0.0039191847
0001a0 37 81 f4 bd 7f 5c 2e bd d3 f9 89 3b 40 ea 6a be
       -0.11938708 -0.04256868 0.0042106896 -0.22940922
0001b0 36 56 1b bd 20 fb 12 3e 8b 15 a4 bd c5 8e 0d 3e
       -0.037924014 0.14353609 -0.080119215 0.13823994
0001c0 9f c7 b6 2c 15 98 b0 3d df ce 97 be 3a 1a 95 bd
       5.1949135e-12 0.08622757 -0.29650018 -0.07280393
0001d0 2e 49 7b ba 46 82 c8 3c a4 24 b9 2e 62 74 ae 3c
       -0.0009585795 0.024476182 8.419335e-11 0.02129573
0001e0 b5 12 94 bd 70 c0 c4 bd 78 e7 59 3d 44 61 cc 3d
       -0.072301306 -0.09607017 0.05319926 0.099794894
0001f0 0d 1e ef ae 12 82 66 be 23 94 25 3e 05 81 8a bd
       -1.08738e-10 -0.22510555 0.16169791 -0.0676289
000200 78 3f a7 2d 6c 40 ce 2e 8f 50 93 ae ff 26 11 af
       1.9013888e-11 9.379239e-11 -6.699096e-11 -1.3201527e-10
000210 06 ae 0f ae 7e be 8e 2f 1e a2 38 2f 50 f9 4d af
       -3.2669e-11 2.5965002e-10 1.6792298e-10 -1.8733215e-10
000220 c0 0a 44 ae dd d1 9d ae cb 6c bf 3b 65 05 d2 ad
       -4.457479e-11 -7.1768126e-11 0.0058418266 -2.3876632e-11
000230 87 bf 2b bc ba 48 0e af 0d b4 a2 af b3 ce b2 ae
       -0.010482675 -1.2940662e-10 -2.9595562e-10 -8.13122e-11
000240 c3 8c a9 2e ca 07 ad 2e fd 24 d0 ad ec 5e 99 3c
       7.7102345e-11 7.868513e-11 -2.3663288e-11 0.01872202
000250 26 9b ff 3a 97 aa 6e 2e 57 a6 49 3c fc fc 94 bb
       0.0019501194 5.426645e-11 0.012307725 -0.0045467597
000260 ef 68 7d 2e e6 37 9e 2f ab 2c 00 2f be 10 31 ad
       5.761874e-11 2.877975e-10 1.1657401e-10 -1.0065003e-11
000270 e1 73 f7 2e fb d7 37 ae a6 d1 2a af 37 8f 31 ac
       1.1252844e-10 -4.1801212e-11 -1.5535892e-10 -2.5232713e-12
000280 33 50 4f ad 24 35 02 af 12 30 81 bb 26 d7 15 af
       -1.17843955e-11 -1.184231e-10 -0.003942498 -1.3627907e-10
000290 ab f8 82 ae 7d f4 da 2e c9 cc f4 2e 8f aa 13 2f
       -5.955888e-11 9.956922e-11 1.11322125e-10 1.3430167e-10
0002a0 79 49 e1 bb 48 42 51 2f 20 45 71 bc bf 0e 2f ae
       -0.0068752137 1.9031987e-10 -0.014725953 -3.980349e-11
0002b0 a2 00 b6 ae 30 8b 1e 2f 8a d0 ee ba b6 5c 3c 2f
       -8.276514e-11 1.4419466e-10 -0.0018220108 1.7131438e-10
0002c0 e7 97 9e af a0 6d 4e af eb 37 9c af 12 cf f3 2e
       -2.8847966e-10 -1.8774537e-10 -2.8415967e-10 1.1087144e-10
0002d0 8d 6f 16 af 67 23 ad 2e 0a e0 2b ad 32 a8 94 ac
       -1.3682051e-10 7.873418e-11 -9.769971e-12 -4.2250864e-12
0002e0 1f 60 88 af a0 b6 03 2f 5d 0c a2 ae 93 f5 e5 bb
       -2.4806554e-10 1.1979262e-10 -7.369103e-11 -0.0070178
0002f0 e4 09 9d ae ef 7d a4 ad 9f 6d 99 ae 53 e7 d3 bb
       -7.14129e-11 -1.8700567e-11 -6.977107e-11 -0.006466785
000300 cb 31 47 af 60 f8 63 af 9b 23 6d ad 7f 58 1e ac
       -1.8116635e-10 -2.073377e-10 -1.3479796e-11 -2.2502276e-12
000310 8a 3a c0 3c 37 33 de 2d bf 8c af 2e 9a b3 bf ab
       0.023465414 2.5261222e-11 7.98308e-11 -1.3621216e-12
000320 b0 9c 1d 3d ff bf bf ad a0 8a 1f 2f 40 f4 bb 2e
       0.038479507 -2.179945e-11 1.4510215e-10 8.547163e-11
000330 2a 6e bd bc ef 45 d7 ae f7 07 e1 ad c9 fe ce ba
       -0.02312382 -9.789491e-11 -2.5583076e-11 -0.0015792485
000340 af c6 68 2f e9 19 16 2f 05 66 d8 2a da f2 5c 2f
       2.1170864e-10 1.3651626e-10 3.8440098e-13 2.0095162e-10
000350 7d 1f 4d 3d 09 40 eb 3a ce fc 4c af 97 26 c8 2e
       0.050078858 0.0017948161 -1.8643506e-10 9.101802e-11
000360 10 02 9f bb 51 1f 89 ae 82 31 48 ae 2b 81 ff 3c
       -0.004852541 -6.2356016e-11 -4.5518707e-11 0.031189522
000370 da d7 11 ae dc 65 b8 2e c5 2c e7 bb 8f 13 81 3c
       -3.3160898e-11 8.385445e-11 -0.0070548975 0.015756397
000380 71 cf a8 2f 21 09 50 ae b0 c5 25 2f e9 1a 53 2e
       3.0706418e-10 -4.7301833e-11 1.5076895e-10 4.7999747e-11
000390 42 35 e6 ad 47 d0 89 2e 36 41 f8 b9 4a 91 c8 2e
       -2.6171624e-11 6.267036e-11 -0.00047350832 9.1207555e-11
0003a0 2c 14 bd ad e1 3a 92 2e e4 1b d0 ae 0d 5d 90 af
       -2.149577e-11 6.64977e-11 -9.463699e-11 -2.6259564e-10
0003b0 25 e2 c8 ae 80 31 9c 3c 60 15 bc ac 71 ed fa ae
       -9.1351184e-11 0.019066572 -5.3456545e-12 -1.1410862e-10
0003c0 2a 44 80 ae 14 21 01 ae 58 f1 42 2f f5 f0 c9 ad
       -5.8328745e-11 -2.9360583e-11 1.772994e-10 -2.295806e-11
0003d0 54 99 4e 2e 44 24 e5 ac 01 16 d3 ad ab 9e bc bc
       4.697516e-11 -6.5125978e-12 -2.3997694e-11 -0.023024878
0003e0 de 68 44 2e a4 a0 bb ad 41 b3 51 ac cf ec 63 2f
       4.465838e-11 -2.1330777e-11 -2.9800192e-12 2.0729661e-10
0003f0 60 6d b7 ae ee 7c 4b 2f 91 6c df ac 43 2e c2 ae
       -8.3413054e-11 1.8507126e-10 -6.3500945e-12 -8.830316e-11

tr1g.layer_0.bias f4 [64]
000000 b2 40 bc bc 36 dc 48 3e 42 6d 3b bd 15 e9 5e bc
       -0.022980068 0.19615254 -0.045758493 -0.013605376
000010 3c 63 a8 bd 04 59 ec 3d 23 3e d0 bc 63 eb 39 bd
       -0.082220525 0.11540416 -0.025420254 -0.045390498
000020 52 21 5f bd e1 16 3b be ea ec 7b be 98 51 af bc
       -0.054475136 -0.18270446 -0.24602094 -0.021401212
000030 19 1c bf bc c2 39 df bc a6 f8 6e bc 82 48 26 bd
       -0.023328828 -0.02724922 -0.01458565 -0.040596493
000040 cf c4 98 bd 81 d1 a7 bd b1 2b b1 bc db 91 27 bd
       -0.07459413 -0.081942566 -0.021627279 -0.040910583
000050 38 c5 7f 3d 04 10 c4 3d 82 d9 c7 bc 48 1a e0 3d
       0.06244394 0.09573367 -0.024395708 0.10942513
000060 47 93 86 bd de 20 91 bc 11 72 42 be 84 ca a9 bd
       -0.0657106 -0.017715868 -0.18988825 -0.0829058
000070 0a 81 42 bd c6 4b 70 be 8e 64 4b bd 4a 05 6c bd
       -0.047486342 -0.23466405 -0.049656443 -0.05762223
000080 fd d0 8a be 99 c0 c9 bd aa 71 ad bd e6 6c 24 be
       -0.2711257 -0.09851188 -0.08468945 -0.16057166
000090 98 93 a5 bc 7b 26 21 be 61 f1 68 bd 42 d9 20 be
       -0.02021198 -0.15737335 -0.056870822 -0.15707877
0000a0 a9 3b c7 bd 76 d5 2d be 65 b4 a7 3d 3c 6a 86 be
       -0.09728176 -0.1697596 0.081887044 -0.26252925
0000b0 62 43 2a be b6 58 9c bd 3f 58 12 be 55 26 0c be
       -0.16627267 -0.07634108 -0.14291476 -0.13686498
0000c0 c6 77 85 bc 03 bc 09 ba ea ef 3f 3e 52 80 16 bd
       -0.016292464 -0.0005254151 0.18743864 -0.03674347
0000d0 eb e5 1a 3d 5a d2 27 bd 18 3c 8c bc ac 87 a2 bd
       0.037816923 -0.04097209 -0.017118499 -0.079360336
0000e0 0b 27 e4 bd 1f 65 9d bd ca 51 c2 bd f3 c3 63 3e
       -0.11140259 -0.07685303 -0.09488256 0.22242717
0000f0 8f b3 76 bd b8 e7 9b bd be d6 d4 bc 83 17 b0 bd
       -0.060229834 -0.07612556 -0.025981303 -0.085982345
