experiments/bess/transition/1552984806_0.000001/1552991423_1_transition_final.pth (torch_old, 564053 bytes, 63 tensors)

tr0.weight f4 [64, 203]
0	0x3ab6e161	0.0013952666
1	0x3b6e4a24	0.003636011
2	0x3c8134fd	0.015772337
3	0x3c19c6ac	0.009385746
4	0x3c8d60dd	0.017258102
5	0x3c239e1b	0.009986426
6	0x3b8fbb90	0.004386373
7	0x3b8eb1ac	0.004354676
8	0x3c429f74	0.011878837
9	0xbbe1b5dc	-0.0068881344
10	0x3beb2a67	0.0071766856
11	0x3c15e880	0.009149671
12	0xbc7085aa	-0.0146803055
13	0x3b0f35d0	0.0021852143
14	0x3a9af352	0.0011821783
15	0x3bfe7295	0.007765124
16	0x3b8b8a11	0.004258402
17	0xb5a4bbc4	-1.2273599e-06
18	0xbc1ccc1c	-0.009570148
19	0xbc086aa2	-0.0083262045
20	0x3c1dd49e	0.009633211
21	0x3af8b5c3	0.0018975068
22	0x3ba8bc90	0.0051494315
23	0xbb52d660	-0.0032171234
24	0xbc73fbff	-0.0148916235
25	0x3badf479	0.0053086844
26	0x3b2bb63a	0.0026201145
27	0x3bca7c77	0.006179388
28	0xbabe8b00	-0.0014537275
29	0x36a97525	5.05023e-06
30	0x392923dc	0.00016130455
31	0x3a0e6681	0.00054321444
32	0xbabe22b3	-0.0014506191
33	0xbcbc793b	-0.023007026
34	0x3b111a38	0.0022140872
35	0x3c6fe62c	0.01464228
36	0xbc455d1a	-0.012046123
37	0xbaeebeed	-0.0018214859
38	0x3bdab7a7	0.006674725
39	0x3c25de8e	0.010123862
40	0x3c8cc37b	0.017183056
41	0xbbe8f6e2	-0.007109509
42	0x3c3a4b09	0.011370429
43	0xbc312257	-0.01081141
44	0xbbb7f0ca	-0.005613421
45	0x3a9ff174	0.0012202696
46	0xbc05f627	-0.008176363
47	0x3b479af9	0.003045736
48	0x3c87265e	0.016497787
49	0xbbd77b4a	-0.0065759765
50	0x3c290378	0.010315768
51	0xbc525fdf	-0.01284024
52	0x3c1b2046	0.009468144
53	0xbbbfe6d7	-0.0058563757
54	0xbc34e981	-0.011042
55	0xbc74bcd0	-0.0149375945
56	0xb9a92ae5	-0.0003226615
57	0xba5b007e	-0.00083542604
58	0xbbae1886	-0.005312982
59	0xb9365f80	-0.00017392449
60	0x3c3fca02	0.011705877
61	0xbc14e8fc	-0.009088751
62	0x3cb38b9e	0.02191716
63	0x3c9c51dd	0.019082004
64	0x3bd0c7cb	0.0063714734
65	0x3b7aec9e	0.0038288007
66	0xbbc3acd0	-0.0059715286
67	0xbb92e3f7	-0.004482742
68	0xbcc9963a	-0.024607766
69	0x3a9e9bab	0.0012100836
70	0xbc590f05	-0.01324821
71	0x3c8867e9	0.01665111
72	0x3c133716	0.0089853015
73	0xbc669653	-0.014073926
74	0xbad4f532	-0.001624739
75	0xb9df9d36	-0.00042651006
76	0x3c2f6b10	0.010706678
77	0xbc8421f9	-0.01612948
78	0x3c4f9ae8	0.01267121
79	0xbb156a7e	-0.002279907
80	0x3b1d532f	0.002400588
81	0xbc4d00a1	-0.012512357
82	0xbbce83fb	-0.0063023544
83	0x3bcb31c1	0.0062009995
84	0xbc81577d	-0.015788788
85	0xbc111a2f	-0.00885634
86	0xbb409dc4	-0.002939091
87	0xbc5ac7b2	-0.013353275
88	0xbb9244f4	-0.0044637863
89	0xbbe76f6b	-0.0070628426
90	0xbbc85976	-0.00611418
91	0xbadce731	-0.0016853568
92	0x3bf994bf	0.007616609
93	0x3b434460	0.0029795393
94	0xba05ef80	-0.00051092356
95	0xbc76633f	-0.015038311
96	0xbca04b4f	-0.01956716
97	0x3bf5ddca	0.007503246
98	0xbb38d06a	-0.0028200396
99	0xbb235409	-0.0024921915
100	0x3c8272aa	0.015923817
101	0xbba6678b	-0.0050782613
102	0xbc2a2d3c	-0.010386761
103	0xbb3b0c93	-0.002854143
104	0x3b9bd10a	0.004755144
105	0x3cd525e2	0.02601904
106	0xbc056db7	-0.008143834
107	0x3b6d468c	0.003620538
108	0x3a9ea3f7	0.0012103309
109	0xbc1c1334	-0.009526063
110	0x3ca955ba	0.02067076
111	0xb98ff501	-0.00027457628
112	0x3a619414	0.0008605134
113	0xbbcc723f	-0.006239205
114	0x3c629ea6	0.01383177
115	0xbc51e714	-0.012811441
116	0x3be1b213	0.006887683
117	0x3b427b52	0.0029675555
118	0xbccce9f6	-0.025013905
119	0x3c55c5ab	0.013047616
120	0x3aef8916	0.0018275108
121	0x392add5a	0.00016294923
122	0x3bcba729	0.0062149954
123	0x3c013671	0.007886515
124	0x3be019fa	0.006839034
125	0x3c63fef2	0.013915764
126	0x3b6ce68f	0.0036148166
127	0xbc31b7cd	-0.010847044
128	0xbbedfb6a	-0.007262637
129	0x3cc51bfb	0.024061194
130	0x3bf2ba34	0.007407451
131	0x3c0f387c	0.008741494
132	0xba96efcb	-0.0011515556
133	0xba42fd6d	-0.0007438276
134	0xbc244048	-0.0100250915
135	0x3b9be32a	0.0047573047
136	0x3b2c91d2	0.0026332033
137	0x3b4f0891	0.00315908
138	0xbc1db684	-0.009626035
139	0xbc256a2f	-0.010096117
140	0x3c922b5f	0.017842947
141	0xbbc8f2ae	-0.0061324453
142	0x3bba637a	0.005688128
143	0x3bc760bd	0.00608453
144	0x3c2e6833	0.01064496
145	0xbc4dec63	-0.012568566
146	0x3be1689f	0.006878927
147	0x3bab6eed	0.0052317292
148	0x3ba273e5	0.0049576634
149	0x3bd81aab	0.006594976
150	0x3c771987	0.01508177
151	0xbc8ec8d7	-0.017429752
152	0xbc2069d5	-0.009790857
153	0xbbf9e061	-0.007625625
154	0x3c7357ec	0.014852505
155	0x3c2481b3	0.010040688
156	0x3bc8e517	0.0061308253
157	0xbb02d9ba	-0.00199662
158	0x3c755ffd	0.014976499
159	0x3c33110d	0.010929358
160	0xbc22b741	-0.009931386
161	0xbc3f82f7	-0.011688939
162	0xbbb81364	-0.005617546
163	0xb9099c94	-0.00013123668
164	0x3c560f27	0.013065136
165	0xbc529d2b	-0.012854855
166	0xbb3dd165	-0.002896392
167	0x3b9e09a4	0.0048229266
168	0x3a399a79	0.0007080208
169	0x3b2e038c	0.0026552407
170	0x3bf33a94	0.0074227545
171	0x3c77b5d1	0.015119032
172	0xbb92df1e	-0.004482164
173	0xbb29e1da	-0.0025921972
174	0x3bd55986	0.006510916
175	0xbc6c68b7	-0.014429263
176	0xbc1b24a3	-0.009469184
177	0x3a026eb7	0.0004975604
178	0x3c487d3a	0.012236888
179	0x3c6f0d80	0.014590621
180	0xbc0165b4	-0.007897783
181	0xb8994869	-7.309096e-05
182	0xbb568669	-0.0032733923
183	0x3c27aaa2	0.010233553
184	0xbc97d7e5	-0.018535564
185	0xbb8bf506	-0.0042711524
186	0x3c6db048	0.014507361
187	0x3c3022ab	0.010750453
188	0x3c8ec67a	0.017428625
189	0x38775a75	5.8973634e-05
190	0xbc24f3f1	-0.010067926
191	0xbbcd1228	-0.006258268
192	0x3c10b502	0.008832218
193	0xbb9409af	-0.004517756
194	0x3c38280d	0.011240018
195	0xba9e26ca	-0.0012066003
196	0xbad04156	-0.0015888612
197	0x3ba2fe5c	0.0049741697
198	0x3b289a16	0.0025726608
199	0x3c818ceb	0.015814265
200	0x3bd2fba7	0.0064386907
201	0x3c3d3d70	0.011550292
202	0xaa3ed7e6	-1.6950295e-13
203	0x3b39954e	0.0028317752
204	0x3bb59b3f	0.0055421884
205	0x3b8944db	0.0041891164
206	0xbc0847d9	-0.008317911
207	0xbc1f2850	-0.009714201
208	0xbc26bb6a	-0.010176519
209	0xbc3e01cf	-0.011597111
210	0xbc8d6829	-0.017261581
211	0xbbebe792	-0.007199236
212	0xbb1e9f15	-0.0024203707
213	0xbc2725eb	-0.010201911
214	0xbb4db916	-0.0031390837
215	0xbc4a4982	-0.012346627
216	0xbb11e985	-0.0022264433
217	0xbcf2458a	-0.029574174
218	0xbc0d5a1b	-0.00862744
219	0xbb6830d2	-0.003542949
220	0xbc9994de	-0.018747743
221	0xbb9af429	-0.004728813
222	0xbbb72fc6	-0.005590412
223	0xbb566316	-0.0032712868
224	0xbc67ed21	-0.014155657
225	0x3b701269	0.0036632067
226	0xbc6494e9	-0.013951519
227	0x3a50038a	0.00079350977
228	0xbc816d6c	-0.015799247
229	0xbc2a9483	-0.0104113845
230	0xbba79812	-0.0051145637
231	0xbc3d98ab	-0.011572043
232	0xbbf6345a	-0.007513565
233	0xbc393ca3	-0.011305961
234	0xbba7dabe	-0.0051225116
235	0xbca99f5c	-0.020705871
236	0xbcf8a1a5	-0.030350516
237	0xbbc77dc3	-0.00608799
238	0xbc61b6b1	-0.013776467
239	0xbcbce4ec	-0.023058377
240	0xbc4790b7	-0.012180499
241	0xbcb9169d	-0.02259379
242	0xbc8c4f4a	-0.017127652
243	0xbc271757	-0.010198436
244	0x3a339929	0.0006851131
245	0xbbc131fb	-0.0058958507
246	0xbc3e0fac	-0.011600416
247	0xbc412634	-0.0117888935
248	0xbc9c20a4	-0.019058533
249	0xba9dc6a3	-0.0012037348
250	0xbcde030d	-0.027101064
251	0x3b97cb02	0.0046323547
252	0x3bfe9163	0.0077687963
253	0xbc024c5b	-0.007952775
254	0xbca96c5e	-0.020681556
255	0xbc762465	-0.015023326

tr0.bias f4 [64]
0	0xbac8ccbd	-0.0015319806
1	0x3bd50911	0.006501325
2	0xbe42851c	-0.1899609
3	0xbc1b160a	-0.009465704
4	0x3b204462	0.0024454822
5	0xba779c27	-0.0009445571
6	0xbe0ee0f6	-0.13953003
7	0xbc0dc0af	-0.008651896
8	0xbb1eff7c	-0.0024261167
9	0x3c54c621	0.012986691
10	0xbbc002da	-0.005859715
11	0xbe7197eb	-0.23593108
12	0x3b8213a8	0.0039696284
13	0x3ba18291	0.004928895
14	0xbb17f6df	-0.0023187918
15	0x3c0272f7	0.00796198
16	0x3bde3095	0.006780694
17	0x3c1eeb91	0.009699718
18	0x3c41ffa8	0.011840738
19	0x3c239f10	0.009986654
20	0x3b4a2f50	0.0030850954
21	0xbb269f6f	-0.002542462
22	0xbb4a16c3	-0.003083632
23	0xba7fc8b9	-0.0009757388
24	0x3b6409c1	0.0034795853
25	0x3c375cf9	0.0111916
26	0x3c0aad1b	0.008464123
27	0x3c6b615b	0.014366473
28	0x3bcefbed	0.006316653
29	0xbb3f305c	-0.0029173112
30	0xbc4409bf	-0.011965214
31	0xbc1823bb	-0.009285863
32	0x3d85a8ef	0.06526362
33	0x3bca0a8c	0.006165808
34	0xbbbe3113	-0.00580419
35	0xb934c8aa	-0.00017240891
36	0x3ac4f610	0.0015026946
37	0x3d309529	0.043111
38	0x3c0c7900	0.0085737705
39	0xbdb63e50	-0.08898604
40	0xb96af1d2	-0.00022406064
41	0xbb808489	-0.0039220494
42	0xb9845f46	-0.00025247986
43	0x3c1a72b7	0.009426764
44	0xbc356b22	-0.011072906
45	0x3aedf17d	0.0018153634
46	0xbba56134	-0.005046988
47	0x3bcc9c7d	0.006244241
48	0x3c0ebe15	0.008712311
49	0xbbf98062	-0.0076141814
50	0xbbf04721	-0.007332698
51	0xbc3f89de	-0.011690585
52	0xbe64a25e	-0.22327563
53	0xbaa4f475	-0.0012585061
54	0x3bfcf0d1	0.0077191372
55	0x3bd61c2b	0.0065341196
56	0xbbab8b45	-0.005235108
57	0xbd497454	-0.049183205
58	0x3b83542a	0.004007836
59	0x3a075b4a	0.00051634444
60	0xbc239a4e	-0.00998552
61	0x3be24231	0.0069048633
62	0xbb9dc8c4	-0.004815193
63	0x3c128b56	0.008944353

tr1.layer_0.weight f4 [64, 64]
0	0x2ac8b340	3.5651516e-13
1	0x2ad3ed95	3.7645985e-13
2	0x3e0a386d	0.13498087
3	0x3df837a9	0.12119991
4	0x3e2dada0	0.16960764
5	0xbd45f6aa	-0.04833094
6	0x2b28eba6	6.001262e-13
7	0xaba69fe9	-1.1839393e-12
8	0xab144a58	-5.2683335e-13
9	0xbd73ee1a	-0.059553243
10	0x2a879ce9	2.4089696e-13
11	0x3e21a55d	0.15785737
12	0x26dce83d	1.5328515e-15
13	0x3dc9bc3c	0.09850356
14	0xab5d4b22	-7.861924e-13
15	0x2acb1f77	3.6081877e-13
16	0xaab16b99	-3.1516177e-13
17	0x2a05af0a	1.1873502e-13
18	0xaa8edaa3	-2.5375977e-13
19	0x2bd53673	1.5149673e-12
20	0x3d0b1a5d	0.03396069
21	0xab606f97	-7.973565e-13
22	0x3e1708dd	0.14749475
23	0xab02c088	-4.645247e-13
24	0xbd9a167c	-0.0752382
25	0x3d510950	0.05103427
26	0x2be0694c	1.5945383e-12
27	0x2b759251	8.724454e-13
28	0xbaaab3ec	-0.0013023592
29	0xbccfb7f1	-0.025356265
30	0xaa31decd	-1.5798058e-13
31	0x3d7e8438	0.062137812
32	0x2b96afa9	1.0706897e-12
33	0xbc69ba26	-0.014265573
34	0x2b7aafe9	8.9061966e-13
35	0x2adc7649	3.9161927e-13
36	0x2b137299	5.2383927e-13
37	0xbca97b12	-0.020688567
38	0x2bc29ca0	1.3828001e-12
39	0xabc342f8	-1.3874171e-12
40	0x2af0ab74	4.2751534e-13
41	0x2a887e7a	2.4246214e-13
42	0x2b7109ed	8.5634174e-13
43	0x2aa6e81b	2.964858e-13
44	0x2a3e1e40	1.6885885e-13
45	0x3dc5860b	0.09644707
46	0x2b5f7df8	7.940033e-13
47	0xaa3bfeed	-1.6697382e-13
48	0xbd1be235	-0.038057525
49	0x2976fa3f	5.4840027e-14
50	0xa81b47c4	-8.61979e-15
51	0x3c3aa15e	0.011391012
52	0x2ac8ced0	3.5670642e-13
53	0xbd8b3818	-0.067978084
54	0x2b0dabd2	5.033171e-13
55	0x2b9b35c8	1.102834e-12
56	0x2b0b0a6c	4.9397183e-13
57	0xabe42217	-1.6209836e-12
58	0x2bcdf7af	1.4634872e-12
59	0x2b51e7f1	7.45736e-13
60	0x3b63a41d	0.003473527
61	0xaae1c6d7	-4.0106002e-13
62	0x2ac0fab4	3.4280012e-13
63	0x2aa1f486	2.8769017e-13
64	0xbe6f09d4	-0.23343593
65	0xbd0f7add	-0.03502928
66	0x3ed72f76	0.42028397
67	0xbdcb6cd2	-0.09932865
68	0xbba6dc30	-0.0050921664
69	0x3cf96aa8	0.030446365
70	0xbde4dabc	-0.11174533
71	0xbe030f8b	-0.12798898
72	0xbde206af	-0.11036431
73	0x3d890c80	0.06691837
74	0x3dda359e	0.10654758
75	0x3f968526	1.1759384
76	0x3ddd3c63	0.108025335
77	0xbd63047c	-0.0554242
78	0xbe168988	-0.14700902
79	0xbd2edc73	-0.042690706
80	0xbc13ac33	-0.009013223
81	0xbc5c3d6f	-0.013442381
82	0xbd2c53e7	-0.042072203
83	0x3d45b568	0.048268706
84	0xbcc763b7	-0.02433954
85	0x3d984f0d	0.07436953
86	0x3dfeb051	0.124359734
87	0x3d140a7d	0.036142815
88	0x3e0815fb	0.13289635
89	0x3d04477b	0.03229473
90	0xbc22eaaa	-0.009943644
91	0x3daa45b1	0.08314074
92	0xbdf29f44	-0.11846784
93	0x3dcdc080	0.10046482
94	0xbdde9bac	-0.10869536
95	0xbcc06c39	-0.023489105
96	0x3dcd4d57	0.10024517
97	0xbdb4ebc9	-0.08834035
98	0xbdd61dd0	-0.10454905
99	0x3e20b1e5	0.15692861
100	0x3d3a353c	0.045460925
101	0xbe221d27	-0.15831433
102	0x3bbc99cb	0.0057556382
103	0xbd2f5150	-0.042802155
104	0xbe3cd32d	-0.18439932
105	0xbda39e40	-0.07989168
106	0x3e186641	0.14882757
107	0x3dc1b82a	0.09458955
108	0xbd3c3475	-0.045948464
109	0xbe365c36	-0.17808613
110	0xbd36b2bf	-0.04460406
111	0x3d5eb5c1	0.054372553
112	0xbdc95a88	-0.098317206
113	0x3e2ed74e	0.1707432
114	0xbe2156f4	-0.15755826
115	0xbcad9487	-0.021188987
116	0xbeb2385e	-0.3480863
117	0xbcfc8d64	-0.030829139
118	0xbc534cc6	-0.012896722
119	0xbd4e9cac	-0.050442383
120	0x3e1cefd2	0.15325859
121	0xbb9a6dc5	-0.0047127926
122	0x3bd5c248	0.0065234043
123	0xbcfd46d8	-0.03091757
124	0xbcb8bf8f	-0.02255228
125	0xbd984d6d	-0.07436643
126	0x3db255e4	0.087077886
127	0xbd516bef	-0.051128324
128	0xbe272ef2	-0.16326502
129	0xbd1e6b0a	-0.0386763
130	0xbf958d5f	-1.1683768
131	0xbe6ac5b2	-0.22926977
132	0xbd5d795e	-0.054070823
133	0x3eb8c94b	0.36091074
134	0xbddf2296	-0.108952686
135	0x3ca24a87	0.019810928
136	0xbcffdfbc	-0.031234615
137	0x3ead3f0c	0.33837163
138	0xbc68c26d	-0.014206511
139	0xbfcb1c97	-1.58681
140	0x3d5556c0	0.052084684
141	0xbe16d632	-0.14730147
142	0xbec39953	-0.38202915
143	0x3d3cabb0	0.04606217
144	0xbe877a17	-0.26460335
145	0x3d94afde	0.072601065
146	0x3e684780	0.22683525
147	0xbdba059b	-0.090831004
148	0x3da4fd3c	0.08056113
149	0x3cb2685e	0.021778282
150	0x3d604679	0.054754708
151	0x3de46fc4	0.1115413
152	0x3e6f7810	0.23385644
153	0xbe0ecf73	-0.13946323
154	0x3cf8a0e3	0.030350154
155	0xbe06590c	-0.13119906
156	0xbe2fbdf8	-0.17162311
157	0xbe51d195	-0.20490105
158	0xbe826afa	-0.25472242
159	0xbd09787c	-0.03356217
160	0x3e7e3be5	0.24827535
161	0x3e2b48e5	0.16727026
162	0x3cf75083	0.030189758
163	0xbde37f42	-0.11108257
164	0x3e930691	0.28715947
165	0x3d7ea84b	0.062172215
166	0xbd885773	-0.066573046
167	0xbd5611eb	-0.05226318
168	0xbe1a9c9c	-0.15098804
169	0xbe83562c	-0.2565168
170	0xbda594e6	-0.08085041
171	0xbe0e7b5e	-0.13914248
172	0xbe049314	-0.12946731
173	0xbe055806	-0.1302186
174	0x3d80eb7f	0.06294917
175	0x3ceb664f	0.028735308
176	0x3dc1f81c	0.09471151
177	0x3d791989	0.060815368
178	0xbc153fbc	-0.009109434
179	0x3dc0e953	0.09419503
180	0xbe1c3be4	-0.15257221
181	0x3ca76365	0.020433137
182	0xbddcfa4d	-0.107899286
183	0x3dc23e62	0.09484555
184	0xbdd837ab	-0.10557493
185	0x3e7f0ee5	0.24908026
186	0xbe74ef48	-0.23919404
187	0x3e4a4e3d	0.19756408
188	0xbdd5b73d	-0.104353406
189	0x3e731460	0.23738241
190	0xbebb009a	-0.36523896
191	0x3c585531	0.013203905
192	0x2af7003d	4.387618e-13
193	0x29ddbf73	9.847583e-14
194	0x2a8585cc	2.3718386e-13
195	0x2b72bdd9	8.623914e-13
196	0x2bb1bd64	1.2629173e-12
197	0x299f4fe5	7.074878e-14
198	0xab5e129e	-7.889608e-13
199	0x2b43878a	6.9466015e-13
200	0x2ac84b75	3.5579496e-13
201	0xaa689247	-2.065649e-13
202	0xab1549d5	-5.3037896e-13
203	0x2a9903e1	2.718095e-13
204	0xabc967b6	-1.4310695e-12
205	0xab6998a0	-8.299004e-13
206	0x2b95fe2a	1.0657631e-12
207	0x2aa8831e	2.9933776e-13
208	0x3c4d4ad3	0.0125300465
209	0x2a142a30	1.3159677e-13
210	0x2b1f62cc	5.6625256e-13
211	0x3caa8915	0.020817319
212	0xaaf249ff	-4.303918e-13
213	0xaba79861	-1.1908357e-12
214	0xabaa61e6	-1.2106399e-12
215	0xac21807c	-2.29508e-12
216	0xaa17c754	-1.348065e-13
217	0xac0aac8e	-1.9706767e-12
218	0x2aa29078	2.8877226e-13
219	0x294c5303	4.53691e-14
220	0x3c1a6380	0.009423137
221	0xab38cf9c	-6.565805e-13
222	0xaba09b2b	-1.1411752e-12
223	0xa999f019	-6.836215e-14
224	0x2bdde64b	1.5766914e-12
225	0x2ad9ad80	3.8667333e-13
226	0xa981f27e	-5.7708165e-14
227	0xab89273f	-9.745328e-13
228	0x2b150779	5.2945804e-13
229	0x3c2e580d	0.01064111
230	0xaa6251b8	-2.0101184e-13
231	0xaa84ce67	-2.359113e-13
232	0x2af0584c	4.2693832e-13
233	0x2a016182	1.1491331e-13
234	0xaa7613b2	-2.1856022e-13
235	0xaa8a8f33	-2.461309e-13
236	0x2b8c0df2	9.951469e-13
237	0x2a60349c	1.9913449e-13
238	0x2b0568fe	4.73968e-13
239	0xaba91d45	-1.2016296e-12
240	0x2b5fddbe	7.9533244e-13
241	0xaa4edd86	-1.8373332e-13
242	0x2b6c0f12	8.3864957e-13
243	0xab969a31	-1.0700938e-12
244	0x2a6fdd39	2.1304216e-13
245	0xaae6d709	-4.1005418e-13
246	0xa8c97f5e	-2.237072e-14
247	0x3bdb1f2d	0.006687066
248	0xa833040a	-9.937372e-15
249	0xaa8794f5	-2.4084177e-13
250	0xac1a2299	-2.1903922e-12
251	0x2a942669	2.6316734e-13
252	0x3d3c3f89	0.04595903
253	0xab7b0c55	-8.919023e-13
254	0x2a3c5915	1.6728661e-13
255	0xabb5bf95	-1.2913998e-12

tr1.layer_0.bias f4 [64]
0	0xbcfa6ea1	-0.03057033
1	0x3e79b8a5	0.24386843
2	0x3cd36876	0.025806647
3	0xbd75d1a2	-0.060014375
4	0xbd34824e	-0.04406958
5	0x3e209f51	0.15685774
6	0xbcaebbbb	-0.021329751
7	0xbcb41a8f	-0.02198532
8	0xbd87f811	-0.06639112
9	0x3db68926	0.08912878
10	0xbe05a49f	-0.13051079
11	0xbd0d30c2	-0.034470327
12	0xbd826e54	-0.063687
13	0xbd452578	-0.048131436
14	0xbb002b04	-0.001955689
15	0xbcf082d6	-0.029359262
16	0xbd0a1846	-0.033714555
17	0x3e631653	0.22176485
18	0xbc069b61	-0.008215756
19	0xbda5cc90	-0.08095658
20	0xbc1b78bd	-0.0094892355
21	0xbc92a67b	-0.01790165
22	0xbd73f205	-0.05955698
23	0x3c7422b2	0.01490085
24	0xbcb1d24c	-0.021706723
25	0x3db82d7a	0.08993049
26	0xbca13988	-0.019680753
27	0xbe6c114d	-0.23053475
28	0xbc990612	-0.018679652
29	0x3d27c505	0.040959377
30	0x3e83a16a	0.25709087
31	0xbdedca7c	-0.116108865
32	0xbd4931f8	-0.04911992
33	0x2a889440	2.4261322e-13
34	0xbdf2635e	-0.11835359
35	0x3dd64e19	0.10464115
36	0xbbffb07d	-0.0078030215
37	0x3d9df727	0.07713156
38	0xbe020f1c	-0.12701076
39	0xbcd5a467	-0.02607937
40	0xbe3b3600	-0.18282318
41	0xbd690bbd	-0.05689596
42	0xbe16c534	-0.14723665
43	0xbd802e8c	-0.06258878
44	0x3e8cf5da	0.2753132
45	0x3ea23edf	0.31688592
46	0xbc81f7d0	-0.015865237
47	0xbc463ff7	-0.012100211
48	0xbdfd694c	-0.123735994
49	0x3cf9152b	0.030405601
50	0xbe80e88e	-0.25177425
51	0x3e51d141	0.2048998
52	0xbd7b72a1	-0.061388616
53	0xbbe21fb0	-0.00690075
54	0xbda8b92d	-0.082384445
55	0xbe0a717d	-0.13519855
56	0x3d0c6fbe	0.034286253
57	0xbd59c4c7	-0.053166177
58	0xbe0c4243	-0.13697152
59	0xbe264172	-0.16235903
60	0x2be3b48a	1.617943e-12
61	0xbe0b4c19	-0.13603248
62	0x3cbccfb2	0.023048256
63	0xbd05bdcb	-0.032651704

tr1.layer_1.weight f4 [64, 64]
0	0xaa112455	-1.2891192e-13
1	0x3de1551e	0.11002563
2	0x3e683ed1	0.22680213
3	0xa93a8da0	-4.1423137e-14
4	0x2bfd7046	1.8007893e-12
5	0x3d161506	0.036641143
6	0xab8b485a	-9.896626e-13
7	0x3e74ab3e	0.23893449
8	0x3dc77452	0.09738983
9	0xbd009f45	-0.03140189
10	0x2b7eb80f	9.049436e-13
11	0xab2f411a	-6.2262836e-13
12	0xaad31aec	-3.749981e-13
13	0x3edbab5a	0.42904168
14	0xbba5aee8	-0.005056251
15	0x3e9c405a	0.30517846
16	0xbd04ca7d	-0.03241967
17	0x3e66ebf2	0.22550943
18	0xaa9d9359	-2.7991045e-13
19	0x2baa0351	1.2080147e-12
20	0xac06fa62	-1.9181536e-12
21	0xa86f0709	-1.3268691e-14
22	0xbc297be6	-0.010344481
23	0x3ec5376f	0.38518855
24	0x3ee9806c	0.4560579
25	0x3ca323ab	0.019914469
26	0x2b514ddc	7.435977e-13
27	0x3db0645f	0.08612894
28	0xaaabc905	-3.0515187e-13
29	0xbe23c706	-0.1599389
30	0xbde9e034	-0.114197165
31	0x2af5d95b	4.3671563e-13
32	0xab2a40cb	-6.048605e-13
33	0xaaa9edca	-3.018543e-13
34	0x3cb1c741	0.021701457
35	0xbdbbe1f1	-0.09173954
36	0x2b93c0a5	1.0498448e-12
37	0xbb6606d1	-0.0035099278
38	0xbe0ecde7	-0.13945733
39	0xaadcf019	-3.9246452e-13
40	0x2b2bc4af	6.1024357e-13
41	0x2b7c0bfe	8.9545027e-13
42	0xbced4f76	-0.028968554
43	0x3bc47670	0.005995564
44	0xbd898d6b	-0.067164265
45	0xbea29985	-0.3175775
46	0x2a281af5	1.493075e-13
47	0xbdb8aca4	-0.090173036
48	0x3d7cbd83	0.06170417
49	0xbe1f810c	-0.15576571
50	0x3d03e38a	0.03219942
51	0xbe98e23f	-0.29860112
52	0x2b2aa3e3	6.062357e-13
53	0x3d9df940	0.07713556
54	0xab20204e	-5.688825e-13
55	0xbd3a82ef	-0.045535024
56	0x3e048a27	0.12943326
57	0xbc014508	-0.0078899935
58	0xbd6cae66	-0.057783507
59	0x3dba8709	0.09107787
60	0x3c748b58	0.0149258
61	0x3e68eba6	0.22746143
62	0xbd619fdf	-0.055084106
63	0x3ea0574c	0.31316602
64	0xaaee3ddc	-4.2320216e-13
65	0xbdc3ac34	-0.095543295
66	0x3db8a3d1	0.090156205
67	0x2b8b96dc	9.918416e-13
68	0x2b36588c	6.478227e-13
69	0xbce54691	-0.02798775
70	0xab342d23	-6.4011486e-13
71	0x3e508ff0	0.20367408
72	0xabdd7077	-1.573421e-12
73	0x3c0d63d3	0.008629757
74	0xac2aa4a0	-2.4249838e-12
75	0x2baf2e63	1.2447373e-12
76	0x2ba74497	1.1885101e-12
77	0xbddd49e2	-0.10805108
78	0xaae08b62	-3.988711e-13
79	0x3ddfa227	0.109196
80	0x3d085f81	0.033294205
81	0xbde3b4a4	-0.11118439
82	0xbc8a99cd	-0.016919041
83	0xa6e259d6	-1.570625e-15
84	0xaa51989e	-1.8615879e-13
85	0x2aad9145	3.0831774e-13
86	0xbd89f611	-0.067363866
87	0xbe34a42b	-0.1764075
88	0x3dc336ff	0.09531974
89	0xaac0d72a	-3.4255351e-13
90	0x2b75991c	8.7253967e-13
91	0xbd8341c5	-0.06409029
92	0xaa5a2007	-1.9373401e-13
93	0x3de1249d	0.109933116
94	0x3cda2e79	0.026633488
95	0x2b3d00a3	6.714717e-13
96	0x2b5d9fb2	7.8736594e-13
97	0x2b38b902	6.562668e-13
98	0x2b795172	8.85756e-13
99	0xbd2a6a42	-0.04160524
100	0x2b67f2e7	8.240478e-13
101	0xbd206854	-0.039161995
102	0x2b19ab5c	5.459433e-13
103	0xaa5372b4	-1.878036e-13
104	0x3e0d3f7c	0.13793749
105	0x2b1d913e	5.597917e-13
106	0x286d9a24	1.3189567e-14
107	0xaa5ec8a7	-1.9787176e-13
108	0x3dfece69	0.12441713
109	0x3e25ef1d	0.16204496
110	0xac015434	-1.8378745e-12
111	0xbe154cf7	-0.14580141
112	0xbd63d0a9	-0.055618916
113	0x3e31a473	0.17347889
114	0x2afce857	4.492541e-13
115	0x3c8523df	0.016252456
116	0x3c86cec2	0.016456012
117	0x2d0b759e	7.9273515e-12
118	0x2bce7ce0	1.467184e-12
119	0xaa9fcfa6	-2.838816e-13
120	0xbd5dbf0d	-0.05413728
121	0xbd7bf4d4	-0.061512783
122	0xab593091	-7.7161286e-13
123	0x3e64f917	0.22360645
124	0xbdf77903	-0.12083628
125	0x3e301f75	0.171995
126	0x3d6f8395	0.058475096
127	0xbda33068	-0.07968217
128	0xab467e38	-7.0518895e-13
129	0x2ac95120	3.5761064e-13
130	0xac3a2d6c	-2.6457404e-12
131	0x2a9e2a97	2.809599e-13
132	0x2b0f3a70	5.0884904e-13
133	0x2a8ff1ba	2.5569634e-13
134	0x2b55aa25	7.5908924e-13
135	0xbd1f01af	-0.038819965
136	0xbd643e9e	-0.05572378
137	0x2b28d514	5.9981295e-13
138	0x2a2e1ee9	1.5465029e-13
139	0xa9135df9	-3.2722065e-14
140	0xaa161de7	-1.3333051e-13
141	0xabaa8953	-1.2117342e-12
142	0x2c2fc349	2.49774e-12
143	0x2b9c1538	1.1090356e-12
144	0x2ab6b319	3.2453968e-13
145	0x2ac2bfff	3.4594547e-13
146	0xabb9ce4b	-1.3202298e-12
147	0xab465663	-7.0463616e-13
148	0x3c5a0d29	0.013308802
149	0x2b0d3bae	5.0176085e-13
150	0xabb7b02f	-1.3051833e-12
151	0xaa6eea55	-2.1219947e-13
152	0x2bda6b0e	1.5519545e-12
153	0x2baa0491	1.2080494e-12
154	0xaa064bfc	-1.1927953e-13
155	0xbd594e27	-0.053053048
156	0xab06ce8a	-4.7892994e-13
157	0x2a356b15	1.6113181e-13
158	0xabe47b43	-1.6234586e-12
159	0x2b8b53b4	9.899776e-13
160	0x2b71542c	8.573721e-13
161	0xa92fbd5e	-3.9022056e-14
162	0x299841b1	6.7615516e-14
163	0xab2817f8	-5.9718853e-13
164	0x292d1810	3.8434588e-14
165	0x2b930b8d	1.0448184e-12
166	0xabc58595	-1.4034768e-12
167	0x2a78b595	2.2089824e-13
168	0x2a1dd73c	1.4019076e-13
169	0x28301bc2	9.775982e-15
170	0x2bc6a479	1.4114397e-12
171	0x2b6609f8	8.172625e-13
172	0xab9fe1b1	-1.1360271e-12
173	0x2b075956	4.8085613e-13
174	0x263a4b4b	6.4633754e-16
175	0x2b248ada	5.84572e-13
176	0x2a1d38e8	1.3964145e-13
177	0xa93894ca	-4.098526e-14
178	0xab6174f7	-8.009838e-13
179	0xabe47313	-1.6232314e-12
180	0x2babf460	1.2218108e-12
181	0xbbe3734f	-0.006941236
182	0x288d8243	1.5710637e-14
183	0xab5468a8	-7.546277e-13
184	0x2a3abfbc	1.658664e-13
185	0x2b6eaeb3	8.479703e-13
186	0xabb3a299	-1.2763845e-12
187	0xac3385a3	-2.5511613e-12
188	0x29134790	3.2702627e-14
189	0xab75a044	-8.72639e-13
190	0xab3802e9	-6.537397e-13
191	0xaaf09f52	-4.2743115e-13
192	0xa8e99e5f	-2.5936879e-14
193	0x28cc0f06	2.2655065e-14
194	0xaaca7acc	-3.5967616e-13
195	0x28f75b20	2.7462028e-14
196	0xab2168ce	-5.7344136e-13
197	0x2a9a917a	2.745684e-13
198	0x2ac2d086	3.4606015e-13
199	0xaad85128	-3.842562e-13
200	0xbd8bcacb	-0.06825789
201	0xbd4dcff0	-0.050247133
202	0xaadc8b0d	-3.9176336e-13
203	0x3b81951b	0.0039545423
204	0xaaa0d1d5	-2.856731e-13
205	0x2b59ab00	7.7331197e-13
206	0xabb08d89	-1.2544836e-12
207	0xbd8f8e9c	-0.070096225
208	0x2a365b41	1.6196507e-13
209	0x2b877dc6	9.627236e-13
210	0x2b59d5ea	7.739075e-13
211	0xaad7ec6c	-3.8355723e-13
212	0x2bca067b	1.4354762e-12
213	0xaad81519	-3.8383947e-13
214	0xabc56721	-1.4026316e-12
215	0x2b0b37cb	4.946015e-13
216	0xab5c1f22	-7.8202906e-13
217	0xab1dd8d1	-5.60785e-13
218	0xab42d97a	-6.9224455e-13
219	0x2c370de9	2.6013586e-12
220	0xaafb4b37	-4.4638747e-13
221	0x2c26eaf3	2.3720442e-12
222	0xbd509ea5	-0.050932545
223	0xab8482f6	-9.415513e-13
224	0xab4d346b	-7.2903375e-13
225	0x2b4ef0c3	7.3520026e-13
226	0xa97059cb	-5.3368588e-14
227	0x2b84ae3a	9.427522e-13
228	0xac154d03	-2.1216924e-12
229	0x28cbab47	2.2611807e-14
230	0xabad09ea	-1.2295141e-12
231	0x2b0ab314	4.927597e-13
232	0xaa932343	-2.6136913e-13
233	0xaad0e26c	-3.7105334e-13
234	0x2a318021	1.5765212e-13
235	0x2ac20cd4	3.4470224e-13
236	0x2b489970	7.126721e-13
237	0xa8322b0c	-9.890319e-15
238	0xaa4c3d17	-1.8140035e-13
239	0x2aa1d05f	2.8743932e-13
240	0xab3f82df	-6.803845e-13
241	0xab6151c4	-8.004953e-13
242	0xabd215f7	-1.4927494e-12
243	0xab431eaa	-6.932047e-13
244	0x3c006369	0.007836201
245	0x2b239a04	5.812297e-13
246	0xab66ef63	-8.204463e-13
247	0xbcd3aed6	-0.025840204
248	0xaac89758	-3.5632153e-13
249	0x29989a81	6.776958e-14
250	0x3c0aa635	0.008462478
251	0x2b8af0aa	9.872287e-13
252	0x2b950b5c	1.059024e-12
253	0xac3215bf	-2.5307393e-12
254	0xbd603309	-0.05473617
255	0x2c139b49	2.0976157e-12

tr1.layer_1.bias f4 [64]
0	0x3e5852ce	0.21125337
1	0xbd1864d9	-0.03720555
2	0xbd746e93	-0.059675764
3	0xbdca0df7	-0.09865945
4	0xaba0fecc	-1.1439404e-12
5	0x3d4165e1	0.0472163
6	0xbc176cba	-0.009242231
7	0xaac7b1fb	-3.5473e-13
8	0xaa9c55f5	-2.7770811e-13
9	0x2b0c3c22	4.982144e-13
10	0x2b025a0e	4.6310254e-13
11	0x2b10b1cf	5.1405836e-13
12	0x3db65f3c	0.08904883
13	0x2b153248	5.3005213e-13
14	0xbcee4825	-0.029087136
15	0xaaf78555	-4.3968532e-13
16	0xa99901f9	-6.794907e-14
17	0x2b0febd6	5.1131094e-13
18	0xaaae4ea1	-3.096317e-13
19	0x2c118630	2.0680228e-12
20	0xbb9687f2	-0.0045938427
21	0x2b314f1b	6.2992813e-13
22	0x2b714d2c	8.5727497e-13
23	0x2a95042a	2.6470606e-13
24	0xbdd9dd55	-0.10637919
25	0xbc5014bf	-0.012700259
26	0x2bd674d5	1.5238042e-12
27	0xaaab9ce3	-3.0484564e-13
28	0x2b8ade7a	9.867239e-13
29	0xba257fbe	-0.00063132856
30	0xbd624fb6	-0.0552518
31	0xbde680ea	-0.11255057
32	0xab40f820	-6.8556445e-13
33	0xbd915777	-0.07096761
34	0x2b1b9c20	5.528373e-13
35	0xab994b2c	-1.0892168e-12
36	0x3e145306	0.14484796
37	0xbcbfa41a	-0.02339368
38	0x3d1e98b1	0.038719837
39	0xbd011f98	-0.03152427
40	0x2af180e0	4.2899625e-13
41	0x3d52bcc8	0.051449567
42	0xbe1406b3	-0.1445568
43	0x29e976a2	1.0367858e-13
44	0xbca57c7f	-0.020200966
45	0xba72bc2d	-0.0009259608
46	0xa8c05283	-2.1352066e-14
47	0x2b56040d	7.6033694e-13
48	0x2aa4df51	2.928721e-13
49	0xbb87b4eb	-0.00414144
50	0x295b0dca	4.863973e-14
51	0x2b4790f9	7.090019e-13
52	0x3d036614	0.03207977
53	0xbd3ca286	-0.046053432
54	0xbce029f7	-0.02736376
55	0xbd3bfccb	-0.04589538
56	0xbcda8de7	-0.026678992
57	0xa8a7890c	-1.8600159e-14
58	0xbcd03791	-0.025417121
59	0xa99e4f79	-7.030396e-14
60	0x2b9f64e4	1.1325632e-12
61	0xbd0c55ab	-0.034261387
62	0xab14391c	-5.265942e-13
63	0x3d60bb5a	0.054866172

tr1.layer_2.weight f4 [64, 64]
0	0x2aed7961	4.218388e-13
1	0xbb774158	-0.0037728157
2	0xa95f9a59	-4.9649822e-14
3	0x2b0bb336	4.9631425e-13
4	0x2c3976d7	2.635605e-12
5	0xbc91a2b2	-0.017777774
6	0x2b22bc8f	5.781564e-13
7	0xabcdab57	-1.4613682e-12
8	0x2b269d5a	5.9193416e-13
9	0xaa4d3658	-1.8226512e-13
10	0x2a2a1a5b	1.5108177e-13
11	0xa932b4e9	-3.9680854e-14
12	0xbc06168f	-0.008184089
13	0xaab40415	-3.1977256e-13
14	0xac3ff264	-2.7277286e-12
15	0xbc8dbfd1	-0.01730338
16	0xbb7b4ac4	-0.0038344124
17	0x29eabfbf	1.042495e-13
18	0x2b1d8f7f	5.5976746e-13
19	0x3c69ac5e	0.014262287
20	0x2b0f0bad	5.082001e-13
21	0xa7bb6dbb	-5.2021896e-15
22	0xab30d31c	-6.2820734e-13
23	0xab1e1123	-5.615666e-13
24	0x2b31e7c2	6.320466e-13
25	0x2b6511e2	8.138196e-13
26	0x2b3187a4	6.307127e-13
27	0xab4d97c4	-7.304125e-13
28	0xabb9e915	-1.3209734e-12
29	0x2a38e2c9	1.6421165e-13
30	0xabc08771	-1.3680013e-12
31	0x2a9e423f	2.8112406e-13
32	0xaac135f1	-3.4321116e-13
33	0xabcb5dbb	-1.4450033e-12
34	0x295b3ecc	4.8682236e-14
35	0x2bdc531d	1.5655009e-12
36	0x2a70a5b9	2.1373779e-13
37	0xab1e96da	-5.6342225e-13
38	0xab22d414	-5.784828e-13
39	0xbb00eeac	-0.001967351
40	0x2a50643d	1.8508888e-13
41	0xa9ca915b	-8.995817e-14
42	0xab193d88	-5.444191e-13
43	0xab72ce68	-8.6262117e-13
44	0xbc8fb07c	-0.017540209
45	0xbb30331a	-0.0026885928
46	0xaba71761	-1.1872553e-12
47	0xbcd623b4	-0.026140071
48	0xaa96324b	-2.668025e-13
49	0x3bca86ae	0.006180606
50	0xaa8db57e	-2.5172567e-13
51	0xaba82f03	-1.1950166e-12
52	0x2a3779e2	1.6295952e-13
53	0x2b38e0a9	6.568171e-13
54	0x2bdca0c3	1.567656e-12
55	0xa989e519	-6.123764e-14
56	0xa9a2c52a	-7.228448e-14
57	0x2b491575	7.143932e-13
58	0xa929386a	-3.757447e-14
59	0xabe3218f	-1.6138634e-12
60	0x2b2668ce	5.9120493e-13
61	0xab33ddee	-6.3901564e-13
62	0xa8b033e6	-1.9562433e-14
63	0x2a6f9e26	2.1282333e-13
64	0x2a3202f0	1.5810595e-13
65	0x2b0eff4c	5.080283e-13
66	0x2b94f417	1.0583781e-12
67	0x29530f48	4.6864666e-14
68	0xabd0fa31	-1.4848731e-12
69	0x2b716b97	8.576971e-13
70	0x2bc5ab8b	1.4045305e-12
71	0xab45aad2	-7.022552e-13
72	0xbc6d4c28	-0.014483489
73	0xab6cbaa3	-8.4103053e-13
74	0x2b46ee2d	7.0674266e-13
75	0xa944712c	-4.3618904e-14
76	0xab58d7a1	-7.703786e-13
77	0x2bd32f2e	1.5005547e-12
78	0xbbf0e519	-0.0073515293
79	0xab9f8344	-1.1334063e-12
80	0x2b0fd087	5.1093195e-13
81	0xab0e1c5c	-5.048789e-13
82	0x2bac1854	1.2228087e-12
83	0xa8091b57	-7.610956e-15
84	0xaa0fcaa8	-1.2771262e-13
85	0xab087ca6	-4.848989e-13
86	0x2b073270	4.803163e-13
87	0xabce0ec3	-1.4641278e-12
88	0xa901da23	-2.8832957e-14
89	0xa9b16ed6	-7.879606e-14
90	0xaba1ed7e	-1.1505655e-12
91	0x2ad0eb09	3.711131e-13
92	0xaaf54ef0	-4.3575516e-13
93	0x3b086b57	0.0020815933
94	0xaa746fa5	-2.1710288e-13
95	0xaa65a18e	-2.0395336e-13
96	0x2a90ee50	2.57449e-13
97	0xbc540615	-0.012940903
98	0x2a3c0280	1.6698622e-13
99	0x2aa154a5	2.865808e-13
100	0x2b3353df	6.370997e-13
101	0x2a902afe	2.560937e-13
102	0xa96b312d	-5.2223135e-14
103	0xabcd96bb	-1.4607962e-12
104	0x2b52b5e3	7.4859406e-13
105	0xab08e46f	-4.863392e-13
106	0xaada1570	-3.8739454e-13
107	0x29f34ace	1.08043443e-13
108	0x2b8713a8	9.597783e-13
109	0x3c7b5440	0.015339911
110	0xaacfe8a8	-3.6932024e-13
111	0x2bf1becf	1.717704e-12
112	0x293b2403	4.1553576e-14
113	0x2a69eee9	2.0777446e-13
114	0xaaa2a9e1	-2.8894858e-13
115	0x2bfd27a9	1.7987739e-12
116	0x3c81e593	0.01585654
117	0xbc7f839a	-0.015595341
118	0x28951c0d	1.6554488e-14
119	0xabdcfc7f	-1.5702022e-12
120	0xa9ebf361	-1.0478316e-13
121	0xab2412aa	-5.8290406e-13
122	0x2b1384e1	5.24093e-13
123	0x293f5482	4.248382e-14
124	0xaaf6d4ca	-4.384603e-13
125	0x2b5ee99b	7.9194436e-13
126	0xab19a023	-5.4578754e-13
127	0x2bc9b33b	1.4331655e-12
128	0x3e7b41c4	0.24536806
129	0xbc3d1689	-0.011541017
130	0x3c3dc3c4	0.011582319
131	0x28fb15fb	2.787613e-14
132	0xa9f327cf	-1.07982735e-13
133	0xbacb6529	-0.0015517819
134	0x3ca35830	0.019939512
135	0xbcd28a2d	-0.025700653
136	0xaca4ba47	-4.6818413e-12
137	0x3d189b77	0.037257638
138	0xaae181b5	-4.005803e-13
139	0x2aad289e	3.0759157e-13
140	0xbe728c8c	-0.23686427
141	0x2bdd59a5	1.5727876e-12
142	0xaae2ff89	-4.0322978e-13
143	0xaa933a26	-2.6152794e-13
144	0xaba74313	-1.188468e-12
145	0x2b78a493	8.833569e-13
146	0x2b09ac73	4.89115e-13
147	0x2a661e17	2.0438543e-13
148	0x2bdcd96d	1.5692288e-12
149	0xaab45623	-3.2034192e-13
150	0x2b5c701e	7.8315295e-13
151	0xab734a97	-8.6434457e-13
152	0xab55468a	-7.5770694e-13
153	0x2b317a42	6.30527e-13
154	0x3db08951	0.08619941
155	0x2ad02cdb	3.6979347e-13
156	0x3b3d0b35	0.0028845791
157	0xab05e24f	-4.756516e-13
158	0x2b2941af	6.0132015e-13
159	0xbd8e166b	-0.0693787
160	0x2b230679	5.7918216e-13
161	0xab4df4d4	-7.31704e-13
162	0xbd0c6a81	-0.034281258
163	0xa946b2be	-4.4119866e-14
164	0x3e874cc1	0.26425746
165	0xab059c5f	-4.74681e-13
166	0x3de6a842	0.112625614
167	0xbd82059c	-0.06348726
168	0xabb529f8	-1.2872472e-12
169	0xbd99e2c2	-0.07513954
170	0xbd63c624	-0.055608884
171	0x2b1d0287	5.578111e-13
172	0x3cb1e9b3	0.021717882
173	0x3c07e396	0.008294007
174	0x2b0ebcfa	5.071079e-13
175	0xbd3822e6	-0.044955157
176	0x2b86058f	9.522815e-13
177	0xba1b8886	-0.00059331243
178	0x3d6c6688	0.05771497
179	0xab163e84	-5.3377463e-13
180	0x3e3e946f	0.1861131
181	0x2a7bb764	2.2356905e-13
182	0x28c79ca2	2.2161367e-14
183	0x3d264bd4	0.04059966
184	0x2b4f4511	7.363702e-13
185	0x2ad1a08c	3.723726e-13
186	0x2a3d619f	1.6820441e-13
187	0xab37ea12	-6.53395e-13
188	0xabaa15b9	-1.2085256e-12
189	0x2b31ea76	6.320841e-13
190	0x2b0d4430	5.018789e-13
191	0xbda73c4f	-0.081658
192	0xa9a3f7be	-7.2816305e-14
193	0xa967026f	-5.1294415e-14
194	0x2a767f05	2.1893258e-13
195	0xa822a89c	-9.029368e-15
196	0x2a711c77	2.1414976e-13
197	0x2b37ed01	6.534357e-13
198	0x2ac07201	3.4185157e-13
199	0x2aa6e140	2.9643822e-13
200	0xa689356e	-9.520767e-16
201	0xaa1485e6	-1.3191496e-13
202	0x2b5e6c66	7.9020677e-13
203	0x2b45c6f8	7.0264584e-13
204	0xbc473283	-0.012158039
205	0x2b118c58	5.1709114e-13
206	0xbc2aa89c	-0.010416176
207	0x29f55b41	1.0896016e-13
208	0xaa3bc696	-1.6677835e-13
209	0x2a9fdb0a	2.8396063e-13
210	0x2b3d85b9	6.7331866e-13
211	0x3acbb46e	0.0015541443
212	0xab943661	-1.0531126e-12
213	0x28d298ff	2.3381035e-14
214	0xab5f52e3	-7.9340543e-13
215	0x2c3ae041	2.6556676e-12
216	0x3b784f0f	0.003788892
217	0x2bc6004c	1.4068829e-12
218	0x2b458fda	7.0188094e-13
219	0x2b8084c1	9.131794e-13
220	0x2b4472a2	6.9792273e-13
221	0xab5b019e	-7.7806674e-13
222	0x2af4d282	4.3489176e-13
223	0x297c266f	5.5988576e-14
224	0x3bdcb77b	0.0067357398
225	0xab74645f	-8.6825507e-13
226	0xbbc0e002	-0.005886079
227	0xbc3f3fa4	-0.011672888
228	0x2a17b3ca	1.3473871e-13
229	0x2a58f361	1.9269093e-13
230	0xbaa6437c	-0.0012684907
231	0xab91df5b	-1.0364863e-12
232	0xab267784	-5.914091e-13
233	0xbc834d86	-0.016028177
234	0x3c81a7c1	0.015827062
235	0x2bb1c52f	1.2631336e-12
236	0x2b59482d	7.719405e-13
237	0xbbd991c5	-0.0066396915
238	0x29d2275d	9.332702e-14
239	0xab369deb	-6.4878544e-13
240	0x2b6dc244	8.446891e-13
241	0xab948597	-1.0553111e-12
242	0xa69d71ff	-1.0924962e-15
243	0xa8186d14	-8.4613475e-15
244	0x2b563c55	7.61118e-13
245	0xabb2f385	-1.2715251e-12
246	0x3ba04c9b	0.0048919446
247	0xa85fe60b	-1.2428869e-14
248	0xbc73dcde	-0.014884202
249	0xa95a6cbe	-4.8500043e-14
250	0x2a39aef5	1.6492001e-13
251	0xaacee844	-3.6754118e-13
252	0x2b330742	6.3603647e-13
253	0xa8ae4090	-1.934588e-14
254	0xac37ba8d	-2.610942e-12
255	0x2afa3dd2	4.4451817e-13

tr1.layer_2.bias f4 [64]
0	0x2b4bc5f5	7.239481e-13
1	0xaaafe650	-3.1246056e-13
2	0x3e6d04f5	0.23146422
3	0x2bdad0bf	1.554777e-12
4	0xaaf77fd7	-4.396472e-13
5	0x2b0ac4bb	4.9300467e-13
6	0xabcd8993	-1.4604311e-12
7	0x2bb82bba	1.3086123e-12
8	0xab67cbf5	-8.2350733e-13
9	0x2a750e33	2.1765298e-13
10	0xa92bc52e	-3.8140654e-14
11	0x3ca5fefb	0.020263186
12	0x2b5aa0b6	7.767219e-13
13	0xbde15bc1	-0.11003829
14	0x2ac2048f	3.4464486e-13
15	0xbd180f35	-0.037123878
16	0x2b71ab3f	8.585805e-13
17	0xa97aa157	-5.565109e-14
18	0x3bf1c233	0.0073778867
19	0x2ac71bc4	3.5368767e-13
20	0x2b112e59	5.157867e-13
21	0xa94ae5c6	-4.5052307e-14
22	0x2afd9f37	4.5052306e-13
23	0xaadabe57	-3.8856654e-13
24	0x29f568cf	1.0898367e-13
25	0xabdccde9	-1.5689092e-12
26	0xab0322ad	-4.658867e-13
27	0xbd48e1b1	-0.04904336
28	0xabfe07e6	-1.8049978e-12
29	0x3cf5bab0	0.029996246
30	0xa89c5afd	-1.7358939e-14
31	0x2a4ec90e	1.836623e-13
32	0xab5e9a66	-7.9084515e-13
33	0xac32164b	-2.5307696e-12
34	0xab7521d8	-8.7088453e-13
35	0x2a9011c3	2.5591863e-13
36	0xbd57cfe9	-0.052688513
37	0x2a95ab55	2.6586602e-13
38	0x2b2f699a	6.231904e-13
39	0x2bd21cd7	1.4929402e-12
40	0x2b0d67dc	5.0237397e-13
41	0x2bf28f81	1.7234965e-12
42	0xab2c9a2d	-6.1320637e-13
43	0xbb8d68ea	-0.0043154852
44	0x2bd9eb43	1.5484076e-12
45	0xab0cd43e	-5.0032537e-13
46	0x2b628974	8.0482084e-13
47	0x2a930e60	2.612242e-13
48	0xaaeaaf43	-4.1688362e-13
49	0x2aed9238	4.2201117e-13
50	0x27c5c5ac	5.48928e-15
51	0x2a2b2220	1.519969e-13
52	0x3beb1ed6	0.007175307
53	0xa9b82ba1	-8.17881e-14
54	0x3caf7b6d	0.021421159
55	0x2ad3223c	3.7504884e-13
56	0x2ad33eee	3.7524796e-13
57	0xbd45166c	-0.048117086
58	0xbd2b0df4	-0.041761354
59	0x29e9f054	1.0388969e-13
60	0xbad0265d	-0.0015880574
61	0xaa9ba103	-2.7645255e-13
62	0xbb253aef	-0.002521213
63	0x2ad18052	3.7214898e-13

tr1g.layer_0.weight f4 [64, 64]
0	0x2b24f600	5.86059e-13
1	0xaae75647	-4.109371e-13
2	0x3b389d59	0.0028169958
3	0x3b8a6c25	0.0042243176
4	0xaabd1afd	-3.359187e-13
5	0xab47c803	-7.0976574e-13
6	0xab3de06d	-6.745774e-13
7	0xa9cc8947	-9.083234e-14
8	0xab43c918	-6.955699e-13
9	0xaae91037	-4.1400366e-13
10	0x2b86adc1	9.569499e-13
11	0x3ceb2e7a	0.028708685
12	0x2bfd97ff	1.8018919e-12
13	0xabdaf0d7	-1.5556678e-12
14	0xaba0c88f	-1.142435e-12
15	0x2c30429d	2.5048082e-12
16	0x2b2ec59a	6.2091445e-13
17	0x2b608ed2	7.977899e-13
18	0xbc2a8df1	-0.010409818
19	0xab8d7153	-1.0050106e-12
20	0x2a98f719	2.7172082e-13
21	0x2af528cb	4.3549048e-13
22	0xabc7d1bd	-1.4198015e-12
23	0xab297cf7	-6.0214285e-13
24	0xbd530458	-0.051517814
25	0x27cc7401	5.6747146e-15
26	0x3cf257ff	0.029582975
27	0xab8dcc38	-1.0075335e-12
28	0xa9a4abbc	-7.312854e-14
29	0x293b2403	4.1553576e-14
30	0x2b3c459e	6.688763e-13
31	0x2bf716f2	1.7556774e-12
32	0xab9f49ed	-1.1318148e-12
33	0x2b2266d6	5.7696675e-13
34	0xabc4c87a	-1.3982281e-12
35	0x29145eb2	3.2944737e-14
36	0xabb85121	-1.3096504e-12
37	0xab2cf7e9	-6.145072e-13
38	0x2b26e983	5.929911e-13
39	0xa869a2be	-1.2969387e-14
40	0xabdd6517	-1.5731053e-12
41	0x2bf7c126	1.7604015e-12
42	0xbd6c43da	-0.057681896
43	0x2b88270d	9.67422e-13
44	0xab51c0a0	-7.4519037e-13
45	0xab706040	-8.53987e-13
46	0x2b68a5a2	8.265282e-13
47	0xab135632	-5.234451e-13
48	0x2b4e4acc	7.3289703e-13
49	0x2b3eaf31	6.7744687e-13
50	0xab2b133e	-6.077811e-13
51	0x2bba03d8	1.3217162e-12
52	0xabdda325	-1.5748276e-12
53	0xaba7669f	-1.1894547e-12
54	0xabd43103	-1.507711e-12
55	0x2bb29631	1.2689347e-12
56	0xa9c8f35e	-8.924002e-14
57	0xab6ea792	-8.4787136e-13
58	0xaad7bd14	-3.832287e-13
59	0xaadbb669	-3.9028787e-13
60	0x3d23e646	0.040014528
61	0xaa1387aa	-1.3103291e-13
62	0x2b8fac11	1.0208519e-12
63	0x2bd2e0ca	1.4983789e-12
64	0x3cbdcd12	0.023169074
65	0x3bb2170c	0.0054348763
66	0x3f2edca3	0.68305415
67	0xbd6b0475	-0.057377297
68	0xbd412bee	-0.047161035
69	0xbccd3191	-0.02504805
70	0x3d99846e	0.07495962
71	0x3dcdd4d5	0.1005036
72	0xbe6fee5c	-0.2343077
73	0xbd0dc2db	-0.034609657
74	0x3df6216c	0.120180935
75	0x3f3b84c9	0.7324949
76	0xbdc0e160	-0.09417987
77	0x3e54ab37	0.20768438
78	0x3c6ee366	0.014580583
79	0x3d9fac18	0.07796496
80	0x3e6ad806	0.22933969
81	0x3d680bcf	0.056651887
82	0xbd7745a4	-0.06036915
83	0x3d2f7f7e	0.042846195
84	0x3cec663a	0.02885734
85	0xbdd601ce	-0.10449563
86	0xbe4a7fe8	-0.19775355
87	0x3d26fd63	0.040768992
88	0xbb1314ee	-0.0022442895
89	0xbd441010	-0.04786688
90	0x3cf01336	0.029306035
91	0x3ec7ae16	0.39000005
92	0xbe8ba30b	-0.2727283
93	0x3dd5bab5	0.10436002
94	0x3c880afc	0.0166068
95	0xbe56a055	-0.209596
96	0x3df57326	0.119848534
97	0xad3c78ac	-1.0713357e-11
98	0xbe421aac	-0.18955487
99	0xbd938134	-0.07202378
100	0x2c09d452	1.9586732e-12
101	0xbcc582af	-0.024110166
102	0xbe2afcbe	-0.16697976
103	0x3b8047c1	0.0039148037
104	0xbdf48137	-0.11938708
105	0xbd2e5c7f	-0.04256868
106	0x3b89ce0d	0.0042054714
107	0xbe6aea40	-0.22940922
108	0xbd1b5636	-0.037924014
109	0x3e12fb20	0.14353609
110	0xbda4158b	-0.080119215
111	0x3e0d8ec5	0.13823994
112	0x2b6db16a	8.4445526e-13
113	0x3db09815	0.08622757
114	0xbe97cedf	-0.29650018
115	0xbd951a3a	-0.07280393
116	0xba7abf2e	-0.0009565231
117	0x3cc88237	0.024476154
118	0x2c147f32	2.1102673e-12
119	0x3cae7439	0.021295654
120	0xbd9412b5	-0.072301306
121	0xbdc4c070	-0.09607017
122	0x3d59e777	0.053199258
123	0x3dcc6144	0.099794894
124	0xab572212	-7.6430626e-13
125	0xbe668212	-0.22510555
126	0x3e259423	0.16169791
127	0xbd8a8105	-0.0676289
128	0xab59a922	-7.7328606e-13
129	0x2b48aaee	7.1291486e-13
130	0xaaed8eea	-4.2198824e-13
131	0x2b1df15b	5.6112553e-13
132	0xab17ea05	-5.3970744e-13
133	0xabc21c7b	-1.3792434e-12
134	0xaa2f4909	-1.5568462e-13
135	0xab428dde	-6.9119526e-13
136	0xab950ebe	-1.0591179e-12
137	0xac22a5d6	-2.3113642e-12
138	0x3bbf3deb	0.0058362386
139	0xa9d173f6	-9.3015805e-14
140	0xbc2bbb9f	-0.010481744
141	0xaac848e9	-3.5577728e-13
142	0x2bdb8d33	1.5600077e-12
143	0x2ab6765b	3.241182e-13
144	0xa9d9a1db	-9.664813e-14
145	0x2ac38019	3.4727844e-13
146	0xab4639de	-7.042404e-13
147	0x3c995eec	0.01872202
148	0x3afe9956	0.001942436
149	0xabd8db53	-1.5408598e-12
150	0x3c49a26f	0.012306794
151	0xbb94ce1c	-0.0045411717
152	0x29c4c34d	8.738028e-14
153	0xaa4297a0	-1.7283267e-13
154	0xaaa54225	-2.9355785e-13
155	0x2b2b2243	6.079895e-13
156	0xa8c94607	-2.2345852e-14
157	0xab952ba0	-1.0599195e-12
158	0x29b4a3af	8.0220004e-14
159	0xab37f59d	-6.5355517e-13
160	0xaaf32929	-4.3194032e-13
161	0x29a74bfd	7.429472e-14
162	0xbb810132	-0.00393691
163	0xaae6f772	-4.1027907e-13
164	0x2ae35a0b	4.038578e-13
165	0xabdda10f	-1.5747697e-12
166	0x2b2142fe	5.729166e-13
167	0x29a71bc9	7.42111e-14
168	0xbbe11a99	-0.0068696258
169	0xaa9d1317	-2.7902049e-13
170	0xbc714138	-0.014725022
171	0x2b7116a6	8.565183e-13
172	0x2b859210	9.490759e-13
173	0xab373233	-6.5084326e-13
174	0xbaedceba	-0.0018143274
175	0x2b8ac5da	9.860405e-13
176	0x2b39dc02	6.6030525e-13
177	0xaa90c806	-2.5718333e-13
178	0x2b7e4b54	9.0343466e-13
179	0xab410044	-6.856774e-13
180	0xab2d51de	-6.157556e-13
181	0x260d3b4b	4.899956e-16
182	0xaa844ce3	-2.350126e-13
183	0xab3753f1	-6.513115e-13
184	0xab5816e2	-7.677037e-13
185	0x2b38b92d	6.5626915e-13
186	0xabf71dac	-1.7558641e-12
187	0xbbe5c6b3	-0.007012212
188	0xac174f2e	-2.1502344e-12
189	0x28e759fd	2.5685178e-14
190	0x2b4c8a88	7.266761e-13
191	0xbbd3b873	-0.006461197
192	0xa89a8903	-1.7156854e-14
193	0xaa2b65e2	-1.5223199e-13
194	0x2bb2c211	1.2701525e-12
195	0x2a610363	1.998519e-13
196	0x3cc03a8a	0.023465414
197	0xab8e9844	-1.0131969e-12
198	0x2b708436	8.544861e-13
199	0xac06e4ad	-1.9169486e-12
200	0x3d1d9cb0	0.038479507
201	0xab7b865e	-8.9359585e-13
202	0xaafde491	-4.5100428e-13
203	0x2b04caef	4.717745e-13
204	0xbcbd6e2a	-0.02312382
205	0x2bec18bf	1.6775677e-12
206	0xabab11d6	-1.2155231e-12
207	0xbacdfcf9	-0.001571565
208	0xaa41b7c5	-1.7205601e-13
209	0xa8c791e0	-2.2156701e-14
210	0xaa9b2fa3	-2.7566586e-13
211	0xac2e7953	-2.4794236e-12
212	0x3d4d1f7d	0.050078858
213	0x3aea3e39	0.0017871327
214	0xab5532ee	-7.574348e-13
215	0xaadec3c5	-3.9570964e-13
216	0xbb9ed330	-0.004846953
217	0xa894990a	-1.6497671e-14
218	0x2bddb6f8	1.5753778e-12
219	0x3cff812b	0.031189522
220	0x2b6ea207	8.4779444e-13
221	0x2acb534d	3.6117845e-13
222	0xbbe6fde5	-0.0070493096
223	0x3c81138f	0.015756397
224	0x2c0dece2	2.0168802e-12
225	0x28daee02	2.4306081e-14
226	0xaab41edd	-3.199584e-13
227	0xaa567bb6	-1.9049939e-13
228	0x2b09b42a	4.8922205e-13
229	0xaa1c5c5b	-1.3887626e-13
230	0xb9f439f6	-0.0004658249
231	0x2b0c6d37	4.988956e-13
232	0x2b8472a3	9.410982e-13
233	0x2b3181b2	6.306302e-13
234	0x2bca8455	1.4389693e-12
235	0x2aa8b6ea	2.9969717e-13
236	0xa8621ef9	-1.2552236e-14
237	0x3c9c3180	0.019066572
238	0xa8990be6	-1.6991572e-14
239	0xaa1fb61c	-1.4185219e-13
240	0x2bb53c40	1.2877546e-12
241	0x2b5ad0a0	7.7738684e-13
242	0xab6025b6	-7.963312e-13
243	0xab0f7aae	-5.097406e-13
244	0x2a1fe0ff	1.4200098e-13
245	0x2a307807	1.5673583e-13
246	0x2abed243	3.3896678e-13
247	0xbcbc9eab	-0.023024878
248	0x2a586513	1.9219721e-13
249	0xabf01ee4	-1.70616e-12
250	0xa8db1cd3	-2.4326385e-14
251	0xab1e1af8	-5.6170303e-13
252	0x2b19babf	5.461568e-13
253	0xab3050a1	-6.2639656e-13
254	0xabbcc733	-1.3413492e-12
255	0x2972c789	5.3907864e-14

tr1g.layer_0.bias f4 [64]
0	0xbcbc40b2	-0.022980068
1	0x3e48e16a	0.19617239
2	0xbd3b6d42	-0.045758493
3	0xbc5ee52d	-0.013604444
4	0xbda8633c	-0.082220525
5	0x3dec37ba	0.115340665
6	0xbcd03e23	-0.025420254
7	0xbd39eb63	-0.045390498
8	0xbd5f2152	-0.054475136
9	0xbe3b16e1	-0.18270446
10	0xbe7beec5	-0.24602802
11	0xbcaf5198	-0.021401212
12	0xbcbf1c19	-0.023328828
13	0xbcdf39c2	-0.02724922
14	0xbc6ef4be	-0.014584718
15	0xbd264882	-0.040596493
16	0xbd98c4cf	-0.07459413
17	0xbda7d181	-0.081942566
18	0xbcb0f189	-0.021599548
19	0xbd2791db	-0.040910583
20	0x3d7fcc1a	0.062450506
21	0x3dc40fda	0.09573336
22	0xbcc7d982	-0.024395708
23	0x3ddff214	0.109348446
24	0xbd869347	-0.0657106
25	0xbc9120de	-0.017715868
26	0xbe427211	-0.18988825
27	0xbda9ca84	-0.0829058
28	0xbd42810a	-0.047486342
29	0xbe704bc6	-0.23466405
30	0xbd4b648e	-0.049656443
31	0xbd6c054a	-0.05762223
32	0xbe8ad101	-0.27112582
33	0xbdc9c099	-0.09851188
34	0xbdad71aa	-0.08468945
35	0xbe246d5d	-0.16057344
36	0xbca59398	-0.02021198
37	0xbe21267b	-0.15737335
38	0xbd68f161	-0.056870822
39	0xbe20d942	-0.15707877
40	0xbdc73a0b	-0.09727868
41	0xbe2dd707	-0.16976558
42	0x3da7b329	0.08188469
43	0xbe866a3c	-0.26252925
44	0xbe2a4362	-0.16627267
45	0xbd9c58b6	-0.07634108
46	0xbe1257b0	-0.14291263
47	0xbe0c2655	-0.13686498
48	0xbc8577c6	-0.016292464
49	0xba07b863	-0.0005177317
50	0x3e3ffb65	0.18748243
51	0xbd168052	-0.03674347
52	0x3d1ae305	0.03781416
53	0xbd27d25a	-0.04097209
54	0xbc8c3c18	-0.017118499
55	0xbda287ac	-0.079360336
56	0xbde437aa	-0.111434296
57	0xbd9d651f	-0.07685303
58	0xbdc251ca	-0.09488256
59	0x3e63b820	0.22238207
60	0xbd76b38f	-0.060229834
61	0xbd9be7b8	-0.07612556
62	0xbcd4d6be	-0.025981303
63	0xbdb01783	-0.085982345
