experiments/chp_hwt/classifier/1553275201_0.151/1553276698_0_classifier_final.pth (torch_old, 266569 bytes, 52 tensors)

cl0.weight f4 [64, 8]
0.033437494 0.88383496 -0.27267873 -0.53370386 0.015360168 0.24808973 -0.6422929 0.3279988
-0.1738823 -0.2408256 0.055673383 -0.67324924 -0.5954387 0.39112425 0.43094608 0.65440583
0.5595009 -0.07419408 0.4485255 0.6301409 -0.33312088 -0.44946432 0.44846156 -0.40510288
0.66696095 0.1163166 0.033764187 0.23107867 0.30980211 -1.0470159 -0.35585937 -0.43560573
-0.7887458 0.26088604 0.88278246 -0.043764625 1.0478839 -1.0935661 -0.62814355 0.79236037
-0.16925386 0.1826908 0.045130476 -0.09828855 0.421645 -0.05937545 -0.17933282 -0.12948674
0.3240465 0.12922089 0.7804301 -0.57952005 -0.28380188 0.28513178 -0.4896849 -0.15529585
0.68626255 0.3982912 -0.35661462 -0.3239995 -0.2827657 -0.90847915 -0.037519354 0.48628935
0.4901377 0.84819347 -0.91667324 0.5408668 0.16033308 0.44180778 -1.0571196 0.35286483
-0.21027252 0.49192396 0.75650585 0.4934532 0.29463473 -0.15407483 0.5587868 0.5641203
-0.66654485 0.7684626 0.5047752 -0.651049 -1.3373463 0.5817149 0.65468544 0.5401652
0.113299325 -0.66711795 -0.02043874 0.32954228 -0.49404144 0.31409088 0.18773809 0.19817705
-0.50836504 -0.16545743 0.09631418 -0.81284416 0.019594958 -0.5472123 -0.13996115 0.9225188
0.45264125 0.24729702 -0.3334851 -0.48927236 -0.8717291 1.4152855 -0.719863 0.4964236
-0.02322304 0.47307402 0.35399824 -1.11525 -0.024451388 0.4432068 0.814148 0.7370213
-0.2999433 -0.69209355 -0.27465057 0.8520743 -0.1782793 -0.2907914 -0.82755464 -0.29899687
-0.45767355 -0.8562444 1.0976894 -0.57682574 -1.168255 0.044204667 -0.11583411 0.62455624
-0.74610084 0.19233577 -1.0027382 0.14071703 0.4028131 0.59714824 -0.0031781779 -0.106250055
0.41336775 -0.20773265 1.2462585 -0.46497783 -0.66805345 -0.32739097 -0.8982608 0.3214655
-0.8563678 -0.5430192 -0.77311856 -0.6621625 1.3487158 0.7275691 -0.22035979 1.0876796
-0.59642476 0.0618918 -0.8104313 0.6508838 -0.13481835 0.43264604 -0.6047392 -0.5273956
0.5678905 0.94452935 -0.24532701 -0.74340844 -0.7813173 -0.5684299 -1.0378674 -0.112586446
-0.67210627 -0.9311438 0.1801275 0.61196315 -0.8996686 1.1509545 0.87644154 -0.25674847
0.7604854 -0.3852236 -0.658458 -0.43014285 0.37895322 -0.3607264 0.08753972 -0.4867336
-0.026229529 0.7975101 -0.6074789 0.8006344 -0.76120514 0.66808903 -1.0265038 0.51281554
-0.030846352 -0.1070435 0.5684898 0.008982389 -0.82667655 -3.1203348e-05 -0.045653287 -0.40824476
0.42663744 -0.4866973 0.5058844 0.3295426 0.004354885 1.1866758 -0.61588484 0.12327267
0.465029 -0.52048403 0.8936236 -0.26788568 0.03477968 0.028411292 -0.7904241 0.08996477
-0.028718155 0.21434449 0.1721631 -0.31321052 -0.06619567 -1.3640662 0.23768309 0.7132442
-0.98958915 -0.98179877 0.60058916 0.8868676 0.14532575 0.79138756 -0.71874326 0.5634823
-0.12583801 0.52183354 -0.5012659 0.2862206 0.015887814 -0.62733424 -0.088571146 0.23877963
0.9671458 0.055072255 -0.75409067 0.7724889 0.33330882 0.073818855 -0.1756828 -0.88147545
00000000: c1f5 083d 0243 623f 8c9c 8bbe d1a0 08bf
00000010: 37a9 7b3c 3c0b 7e3e 4f6d 24bf 75ef a73e
00000020: 340e 32be fc9a 76be c609 643d 105a 2cbf
00000030: ac6e 18bf 7041 c83e f7a4 dc3e 2487 273f
00000040: 733b 0f3f 11f3 97bd 22a5 e53e ea50 213f
00000050: d28e aabe 3020 e6be c19c e53e a569 cfbe
00000060: f4bd 2a3f 6637 ee3d 514c 0a3d e39f 6c3e
00000070: 629e 9e3e 9e04 86bf 3333 b6be b707 dfbe
00000080: 3feb 49bf db92 853e 08fe 613f 8942 33bd
00000090: 0f21 863f f9f9 8bbf 04ce 20bf 21d8 4a3f
000000a0: e250 2dbe 4c13 3b3e bcda 383d 824b c9bd
000000b0: dae1 d73e ac33 73bd 06a3 37be 2c98 04be
000000c0: 6ce9 a53e 7b52 043e 44ca 473f 6d5b 14bf
000000d0: 7b4e 91be cbfc 913e fbb7 fabe e005 1fbe
000000e0: e7ae 2f3f d3ec cb3e 3196 b6be 43e3 a5be
000000f0: aac6 90be 1792 68bf e5ad 19bd ebfa f83e
00000100: 54f3 fa3e 3523 593f 19ab 6abf 3f76 0a3f
00000110: 5b2e 243e a134 e23e b24f 87bf b3aa b43e
00000120: ae51 57be 75dd fb3e 5eaa 413f e6a5 fc3e
00000130: 5dda 963e cbc5 1dbe a70c 0f3f 306a 103f
00000140: afa2 2abf f7b9 443f f338 013f 26ab 26bf
00000150: 2a2e abbf 45eb 143f 7799 273f 4448 0a3f
00000160: 7a09 e83d 3ec8 2abf 256f a7bc c4b9 a83e
00000170: 00f3 fcbe 85d0 a03e 6a3e 403e edee 4a3e
00000180: 3624 02bf ac6d 29be 5e40 c53d 8e16 50bf
00000190: 9b85 a03c 1b16 0cbf fa51 0fbe 312a 6c3f
000001a0: 98c0 e73e 6e3b 7d3e 8fbe aabe e881 fabe
000001b0: a329 5fbf 1328 b53f f148 38bf 3c2b fe3e
000001c0: 3f3e bebc c236 f23e 423f b53e 83c0 8ebf
000001d0: 474e c8bc 00ec e23e 016c 503f 6ead 3c3f
000001e0: 2b92 99be 0b2d 31bf 009f 8cbe 8b21 5a3f
000001f0: d98e 36be 9ce2 94be 9fda 53bf 1e16 99be
00000200: 3054 eabe d532 5bbf 1681 8c3f daaa 13bf
00000210: 6189 95bf f40f 353d 6f3a edbd ebe2 1f3f
00000220: 7700 3fbf abf3 443e ba59 80bf 2018 103e
00000230: 853d ce3e b5de 183f fa48 50bb a199 d9bd
00000240: f0a4 d33e deb7 54be 6685 9f3f 9311 eebe
00000250: 8d05 2bbf ca9f a7be 6bf4 65bf 2097 a43e
00000260: ec3a 5bbf 4e03 0bbf 19eb 45bf 7b83 29bf
00000270: b8a2 ac3f f841 3a3f ffa5 61be 1639 8b3f
00000280: 4baf 18bf 4282 7d3d 6d78 4fbf 52a0 263f
00000290: d20d 0abe c883 dd3e 30d0 1abf 6603 07bf
000002a0: 4661 113f adcc 713f 0137 7bbe 0450 3ebf
000002b0: 6904 48bf 9f84 11bf d7d8 84bf b993 e6bd
000002c0: 280f 2cbf 715f 6ebf 5873 383e 9ea9 1c3f
000002d0: ae50 66bf 7a52 933f 795e 603f 8974 83be
000002e0: 2caf 423f 073c c5be b490 28bf af3b dcbe
000002f0: 2806 c23e 21b1 b8be 0648 b33d 2535 f9be
00000300: 4fdf d6bc 9f29 4c3f bd83 1bbf 60f6 4c3f
00000310: 57de 42bf e207 2b3f 7a64 83bf e147 033f
00000320: 7db1 fcbc 9f39 dbbd 8c88 113f df2a 133c
00000330: 13a1 53bf 57e0 02b8 f1fe 3abd 7505 d1be
00000340: 3970 da3e 6330 f9be a481 013f cfb9 a83e
00000350: 6cb3 8e3b fee4 973f a1aa 1dbf 6276 fc3d
00000360: 4818 ee3e 713e 05bf 84c4 643f 5028 89be
00000370: 2375 0e3d ccbe e83c 3c59 4abf 733f b83d
00000380: 5642 ebbc 1f7d 5b3e 864b 303e 215d a0be
00000390: 9891 87bd b999 aebf 3263 733e 2c97 363f
000003a0: b755 7dbf 2a57 7bbf 36c0 193f c109 633f
000003b0: 46d0 143e 6098 4a3f 8fff 37bf 6040 103f
000003c0: aedb 00be e296 053f f652 00bf 828b 923e
000003d0: 2927 823c fa98 20bf ca64 b5bd a682 743e
000003e0: de96 773f 7293 613d 160c 41bf d5c1 453f
000003f0: 74a7 aa3e 572e 973d 31e6 33be 60a8 61bf

cl0.bias f4 [64]
0.08262297 -0.06620251 -0.09284785 0.027132064 0.09018027 0.15508555 0.21347934 -0.10087365
-0.06533924 -0.02798123 -0.03320872 0.056031916 -0.08474956 -0.05644462 -0.1884223 0.18557124
0.085544296 0.07936624 0.07211975 0.06956076 0.0041013975 0.01297837 0.11847143 0.0965928
-0.11063221 0.101180784 0.1467559 0.18942003 -0.004210474 0.0035907004 -0.04805333 -0.021658292
-0.2890896 0.22667673 0.08078982 0.0086874785 0.20939878 -0.1962653 -0.002076158 0.14738367
0.20967829 0.05566746 -0.097335525 -0.05149294 -0.1094057 0.17132734 -0.0010505631 0.033337597
0.0661144 0.0063369786 0.018667458 -0.058202002 -0.0029939348 -0.05338823 -0.011343769 -0.1382635
-0.09174813 0.027596222 -0.04387426 -0.22324632 0.033427507 -0.07265444 0.2371246 0.06678629
00000000: 3b36 a93d 2e95 87bd 0327 bebd 1044 de3c
00000010: 6fb0 b83d bfce 1e3e 549a 5a3e d896 cebd
00000020: 94d0 85bd e438 e5bc de05 08bd b981 653d
00000030: 2d91 adbd 7932 67bd c7f1 40be 6306 3e3e
00000040: d931 af3d c48a a23d 85b3 933d df75 8e3d
00000050: 0465 863b 3ba3 543c 26a1 f23d 72d2 c53d
00000060: 2493 e2bd df37 cf3d 2e47 163e 53f7 413e
00000070: 04f8 89bb f551 6b3b 92d3 44bd bb6c b1bc
00000080: 8d03 94be f21d 683e 2275 a53d ed55 0e3c
00000090: a26c 563e c5f9 48be 2710 08bb bfeb 163e
000000a0: e8b5 563e 9003 643d d957 c7bd 43ea 52bd
000000b0: 1810 e0bd 6f70 2f3e 0cb3 89ba 018d 083d
000000c0: fd66 873d 6ea6 cf3b 7fec 983c 3965 6ebd
000000d0: e435 44bb 9ead 5abd 37db 39bc f294 0dbe
000000e0: 72e6 bbbd 7911 e23c 7fb5 33bd af9a 64be
000000f0: 48eb 083d dacb 94bd cbd0 723e 40c7 883d

cl1.layer_0.weight f4 [64, 64]
0.27040467 0.40948644 0.19760595 -0.03120807 0.053131707 0.34717652 -0.051081832 -0.0016764252
0.930168 -0.86799765 0.29324493 -0.65671456 -0.6098042 -0.02400232 -0.25254306 -0.8293768
-0.6041217 -0.74767596 0.7634637 -0.17657252 0.13329104 0.060168818 -0.099435546 0.5930889
-0.27661988 -0.5714228 -0.6682554 0.014008349 0.8430499 -0.26594332 0.71876884 -0.49910954
-0.4442097 0.2874564 -0.28231794 0.38968545 0.8393969 0.88356704 -0.7700536 -0.6168222
-0.67292887 -0.2072752 0.5920128 -0.17217228 0.24196003 -0.24541454 0.40945187 -0.33002046
0.1969986 -0.21226186 0.82830614 -0.1471459 -0.46725592 0.636398 -0.5450985 0.4187156
-0.9104161 0.039810542 0.5294648 0.04553113 0.108542874 -0.10567936 0.67834294 0.9713132
-1.3758563e-07 1.8513879e-07 -1.1771691e-07 -1.8531577e-07 -5.4952025e-08 1.8553183e-07 1.2754067e-07 1.08896636e-07
-1.3989165e-07 -1.3897638e-07 -1.1913631e-07 -1.362401e-07 1.7934029e-07 1.1017042e-07 2.8027674e-08 1.4009835e-07
-1.8548066e-07 1.8518517e-07 -1.8552545e-07 -1.3755735e-07 1.1146296e-07 -1.0422951e-07 -1.794366e-07 9.857314e-08
1.0093446e-07 -9.9697324e-08 -1.11505436e-07 1.0281402e-07 1.7978877e-07 1.3195654e-07 1.0418094e-07 1.806459e-07
1.1788176e-07 -1.2761721e-07 -1.1855999e-07 1.3431736e-07 1.1998286e-07 -3.6600902e-09 -1.1981307e-07 1.0328635e-07
-5.3341374e-08 -1.1043686e-07 1.0048814e-07 -1.8108312e-07 -1.390858e-07 9.697871e-08 -1.353926e-07 -1.0094007e-07
1.3747334e-07 -1.1943216e-07 3.5342702e-09 1.1471822e-07 1.04571484e-07 -1.7222926e-07 1.3964775e-07 -1.10013e-07
1.0203426e-07 -1.10168386e-07 1.8006037e-07 -1.8499823e-07 -1.2755575e-07 1.0803783e-07 1.3978556e-07 1.02838655e-07
1.3956317e-07 -1.0139248e-07 -1.7987422e-07 -1.8573449e-07 -1.8514048e-07 -1.2819676e-07 -1.07824036e-07 9.868755e-08
-1.730785e-08 1.2923105e-07 -2.8656327e-08 -1.1905437e-07 1.1862247e-07 1.3786921e-07 1.3906511e-07 1.0304159e-07
-1.4311924e-07 -1.3925008e-07 -1.3511506e-07 1.1923797e-07 -1.1501185e-07 -1.1116052e-07 -1.04203785e-07 1.8478508e-07
-2.7152838e-08 -1.824742e-07 1.0404896e-07 1.2763324e-07 -1.01285515e-07 -1.0181516e-07 1.4701234e-07 -1.274738e-07
1.3971572e-07 1.3884768e-07 1.3726796e-07 1.3948765e-07 -1.8127456e-07 -1.3904739e-07 -3.1941127e-08 1.8298908e-07
-1.3916022e-07 6.128853e-08 1.3823886e-07 1.2695487e-07 1.0374869e-07 -1.10600986e-07 -5.445801e-08 -1.1004743e-07
-1.03379726e-07 1.8485586e-07 -1.2606587e-07 -1.2022431e-07 -8.016465e-08 -1.3469482e-07 -1.0037771e-07 -1.3714896e-07
-1.0310333e-07 -1.2822915e-07 -1.2079289e-07 1.8338491e-07 -1.3897538e-07 -1.3906272e-07 -1.0789746e-07 -1.2722731e-07
-0.66755795 0.48755765 0.78539836 0.32109675 -0.68565094 0.5441985 -1.1413546 -0.048183832
-0.6133266 -0.9149971 -0.24060746 -0.3044265 0.37787992 -0.021612192 -0.13066839 1.2572103
0.9912435 0.37693813 -0.7357897 -0.038117085 0.013400431 -0.20752507 0.50422305 -0.8413448
-0.60551906 0.105463795 -0.49751785 -0.120816216 -0.46436584 1.0696427 0.54756105 0.936185
0.77779335 0.5191946 0.20738383 -0.4800792 0.2690107 0.4091766 0.12244213 0.4936244
-0.60504574 -0.75289387 0.66330737 -0.49049085 -0.47713175 0.4559446 -0.2138621 -0.80799717
-1.0826315 0.6774668 0.4333204 0.9540214 0.3358632 -0.30236188 -0.3585277 -0.4638186
0.04407323 -0.6366277 -0.32295716 0.76126504 -0.31444916 0.7928316 -0.8127551 -0.062326692
00000000: 7b72 8a3e 35a8 d13e 3759 4a3e 11a8 ffbc
00000010: a2a0 593d 1fc1 b13e 2f3b 51bd 7fbb dbba
00000020: 7d1f 6e3f 1835 5ebf 3324 963e 721e 28bf
00000030: 211c 1cbf 83a0 c4bc 534d 81be 0a52 54bf
00000040: b8a7 1abf b167 3fbf 5b72 433f 6dcf 34be
00000050: 727d 083e 9473 763d dda4 cbbd add4 173f
00000060: 1fa1 8dbe c448 12bf c912 2bbf 4683 653c
00000070: 1ed2 573f b929 88be 3c01 383f 498b ffbe
00000080: 746f e3be 7c2d 933e fa8b 90be da84 c73e
00000090: b7e2 563f 7331 623f 3c22 45bf 0fe8 1dbf
000000a0: 1145 2cbf f33f 54be 278e 173f ee4d 30be
000000b0: 5fc4 773e f34d 7bbe ada3 d13e 71f8 a8be
000000c0: 00ba 493e 2c5b 59be df0b 543f 6aad 16be
000000d0: 2b3c efbe fbea 223f 938b 0bbf e461 d63e
000000e0: 0811 69bf 6110 233d 018b 073f da7e 3a3d
000000f0: ba4b de3d 6c6e d8bd e2a7 2d3f fba7 783f
00000100: 40bb 13b4 90ca 4634 8ecb fcb3 36fb 46b4
00000110: 6404 6cb3 9a36 4734 1df2 0834 8fda e933
00000120: 2035 16b4 8939 15b4 e1d7 ffb3 6549 12b4
00000130: af90 4034 d496 ec33 82c1 f032 f16d 1634
00000140: 8928 47b4 50d7 4634 d934 47b4 7ab3 13b4
00000150: 695d ef33 c7d4 dfb3 28ab 40b4 28af d333
00000160: 4ec1 d833 2f19 d6b3 c374 efb3 9bca dc33
00000170: f60b 4134 f0af 0d34 14ba df33 91f7 4134
00000180: 2f26 fd33 2707 09b4 0b9b feb3 e038 1034
00000190: a3d4 0034 fd84 7bb1 f7a5 00b4 45ce dd33
000001a0: 7619 65b3 4e29 edb3 f0cb d733 c06f 42b4
000001b0: 9d57 15b4 9c42 d033 6f60 11b4 64c4 d8b3
000001c0: 629c 1334 433d 00b4 8adf 7231 025b f633
000001d0: c890 e033 05ee 38b4 15f2 1534 4940 ecb3
000001e0: ed1d db33 b695 ecb3 9e56 4134 eda3 46b4
000001f0: 42f6 08b4 6d02 e833 f617 1634 26d8 dc33
00000200: d5da 1534 1bbd d9b3 7323 41b4 4f6e 47b4
00000210: 07cb 46b4 75a6 09b4 e48c e7b3 0eee d333
00000220: 5dac 94b2 c3c2 0a34 ee27 f6b2 d5aa ffb3
00000230: 64bd fe33 3309 1434 ed51 1534 b747 dd33
00000240: 51ac 19b4 c584 15b4 2514 11b4 e207 0034
00000250: 6ffc f6b3 24b7 eeb3 a3c6 dfb3 5669 4634
00000260: b93d e9b2 20ee 43b4 8571 df33 8f0b 0934
00000270: 4d82 d9b3 7aa5 dab3 72da 1d34 bbdf 08b4
00000280: c404 1634 2916 1534 ee63 1334 13c6 1534
00000290: 5fa4 42b4 0e4d 15b4 a42f 09b3 a87b 4434
000002a0: 126c 15b4 ba9d 8333 cf6e 1434 1751 0834
000002b0: 72cc de33 8983 edb3 37e5 69b3 3753 ecb3
000002c0: 9b01 deb3 cb7c 4634 b95c 07b4 0217 01b4
000002d0: fb26 acb3 a1a0 10b4 3b8f d7b3 3843 13b4
000002e0: a869 ddb3 5caf 09b4 4cb3 01b4 76e8 4434
000002f0: 4339 15b4 4551 15b4 42b5 e7b3 fa9b 08b4
00000300: 14e5 2abf 28a1 f93e de0f 493f cb66 a43e
00000310: d286 2fbf 9850 0b3f e817 92bf 695c 45bd
00000320: f902 1dbf 403d 6abf cd61 76be cadd 9bbe
00000330: 7a79 c13e 0d0c b1bc efcd 05be 44ec a03f
00000340: 22c2 7d3f 09fe c03e b75c 3cbf a920 1cbd
00000350: 7b8d 5b3c 7481 54be c314 013f 5f62 57bf
00000360: 4c03 1bbf 67fd d73d a9ba febe 7e6e f7bd
00000370: 5cc1 edbe 0dea 883f f62c 0c3f d2a9 6f3f
00000380: 771d 473f f0e9 043f 6d5c 543e f1cc f5be
00000390: c5bb 893e 987f d13e f1c2 fa3d 56bc fc3e
000003a0: 47e4 1abf a7bd 40bf 83ce 293f 9e21 fbbe
000003b0: 9d4a f4be 9271 e93e abfe 5abe e7d8 4ebf
000003c0: ab93 8abf 776e 2d3f 2cdc dd3e bf3a 743f
000003d0: 43f6 ab3e 2dcf 9abe f190 b7be a279 edbe
000003e0: 2286 343d 08fa 22bf a45a a5be 44e2 423f
000003f0: 7bff a0be 03f7 4a3f b810 50bf 464a 7fbd

cl1.layer_0.bias f4 [64]
-0.00052234373 1.09855435e-07 -1.0326999e-07 -0.24911767 -1.0792775e-07 1.2623661e-07 -1.4683576e-07 -9.7683404e-08
-0.06077979 -0.09344005 1.0137749e-07 -0.03655032 -1.358353e-07 -1.439264e-07 -0.08525938 -9.940403e-08
-0.027114535 -1.8156324e-07 -0.039087385 -0.0010584457 -1.8592216e-07 -0.14333023 -1.30666e-07 1.3824696e-07
1.11411296e-07 1.7937994e-07 -1.397879e-07 -1.2801792e-07 -0.04216707 -0.13018648 1.3594241e-07 -4.02562e-09
-1.4588178e-07 -1.3518122e-07 -1.8394883e-07 -1.06373726e-07 1.04338945e-07 0.016504534 -1.8278361e-07 -1.3672594e-07
-1.04903236e-07 0.010389078 -0.06844541 -1.1948701e-07 -1.0406352e-07 -0.034953643 -0.10346923 1.12374956e-07
-0.07938055 -1.2688022e-07 -1.3508249e-07 -1.0351621e-07 -1.07849495e-07 1.2850754e-07 1.8171842e-07 -0.099182546
-9.730783e-08 -1.5439913e-07 1.1135688e-07 -1.0083419e-07 0.0008346437 -0.24592523 -0.025526294 -0.16282222
00000000: e5ed 08ba aae9 eb33 47c5 ddb3 b418 7fbe
00000010: e8c5 e7b3 a88b 0734 e8a9 1db4 05c6 d1b3
00000020: 3bf4 78bd 7f5d bfbd ddb4 d933 cab5 15bd
00000030: 1fda 11b4 308a 1ab4 789c aebd f277 d5b3
00000040: 4d1f debc b9f3 42b4 181a 20bd 8bbb 8aba
00000050: e5a1 47b4 29c5 12be 324d 0cb4 0971 1434
00000060: 0241 ef33 959b 4034 9b18 16b4 4c75 09b4
00000070: 61b7 2cbd 9b4f 05be 91f7 1134 ba51 8ab1
00000080: aea3 1cb4 5526 11b4 7883 45b4 936f e4b3
00000090: f110 e033 8434 873c 2d43 44b4 f1ce 12b4
000000a0: 2a47 e1b3 f436 2a3c 1b2d 8cbd 574c 00b4
000000b0: 8679 dfb3 8d2b 0fbd ade7 d3bd c952 f133
000000c0: 4592 a2bd 923c 08b4 310b 11b4 a34c deb3
000000d0: e39a e7b3 e2fb 0934 611e 4334 3820 cbbd
000000e0: 8cf7 d0b3 e9c8 25b4 1823 ef33 2f8a d8b3
000000f0: fecb 5a3a d3d3 7bbe 851c d1bc deba 26be

cl1.layer_1.weight f4 [64, 64]
-9.878424e-08 -1.0986205e-07 -1.0403752e-07 5.48216e-08 1.04238005e-07 -2.8665545e-08 -2.8733643e-08 -1.8543307e-07
-1.276204e-07 1.0370925e-07 -1.04033425e-07 1.3680383e-07 1.4285833e-07 1.03391606e-07 1.3112599e-07 -1.3640755e-07
1.1946928e-07 -1.8525517e-07 1.8233953e-07 1.1859543e-07 1.01671105e-07 -1.17701184e-07 -1.6862806e-08 1.0458583e-07
1.1968383e-07 -1.8525301e-07 -1.01063335e-07 -1.09854774e-07 -1.8302478e-07 -1.10932476e-07 1.0109491e-07 1.7052626e-08
1.0410175e-07 1.02797e-07 -1.4705019e-07 -1.8214129e-07 -1.8214288e-07 -7.237313e-08 -1.10605335e-07 1.8033761e-07
-1.09863585e-07 -1.0253296e-07 1.8083259e-07 1.6852404e-08 1.0983221e-07 1.3109302e-07 -1.02673766e-07 -1.2767548e-07
1.0459841e-07 -1.2784646e-07 -2.8760018e-08 -1.04439174e-07 -1.04237664e-07 1.8034437e-07 -1.1037754e-07 -2.8822088e-08
-1.3399348e-07 1.4704854e-07 -1.8527268e-07 -1.0988047e-07 -1.3890534e-07 -1.00992814e-07 1.8016183e-07 1.9870502e-08
-6.486113e-07 -1.0435981e-07 1.18431245e-07 -9.816715e-08 1.04041405e-07 -1.0424259e-07 -1.07705134e-07 -1.0435403e-07
4.458049e-07 -1.7622202e-07 1.3635564e-07 -0.008535538 -1.3950638e-07 -1.09422956e-07 -9.8564236e-08 2.8677842e-08
-2.9140705e-07 1.0769631e-07 -1.4592044e-07 -2.6867864e-08 -2.867201e-08 -5.562e-09 1.4287173e-07 1.03981684e-07
1.3949744e-07 -1.0171195e-07 -1.017702e-07 -1.00876655e-07 -5.414353e-07 -7.732513e-07 -1.8524786e-07 4.428874e-08
1.848048e-07 1.3638643e-07 1.8087232e-07 1.854437e-07 -1.373517e-07 0.16116735 1.09938775e-07 1.0275768e-07
-1.8214534e-07 -8.532737e-07 -1.383176e-07 1.4704663e-07 -1.10629195e-07 -3.4121007e-07 1.3081751e-07 -1.1001569e-07
-5.7510768e-08 1.199669e-07 1.8565242e-07 1.8053137e-07 -1.7985153e-07 -1.09868374e-07 1.3777864e-07 -0.017996801
-1.1140549e-07 -1.0458956e-07 1.3089316e-07 -1.0181394e-07 -9.69337e-09 1.2056906e-07 1.2507365e-07 1.5349438e-07
-0.053175744 -9.857389e-08 -1.01935214e-07 -0.012892763 -5.860053e-08 1.1931975e-07 -1.7915406e-07 1.4231816e-07
0.8289499 -0.5556728 1.3614947e-07 0.31708735 1.0461963e-07 1.8280026e-07 -0.100850254 1.1880782e-07
0.41881463 1.2003022e-07 -0.29439378 -0.18412189 1.2839993e-07 0.44836417 1.1975938e-07 9.995523e-08
1.8470628e-07 -1.4703599e-07 -1.1189639e-07 -1.0351641e-07 -0.8213713 0.08810741 1.377563e-07 -0.00021199255
-1.6095397e-08 9.236823e-08 -1.2753513e-07 -1.8293876e-07 -1.4577024e-07 -0.16711381 1.2720797e-07 -1.3511898e-07
-1.8044776e-07 -0.48904517 0.9164099 1.3668327e-07 -2.7343035e-08 0.7981952 0.3576011 -1.0191451e-07
-0.13171539 1.0252711e-07 -1.0031991e-07 -1.3264996e-07 1.1881511e-07 1.8169362e-07 9.742032e-08 0.27863437
1.3170265e-07 1.410525e-07 0.19725063 7.217395e-08 -0.0032826983 0.15582418 0.59406793 -0.7069102
8.547232e-08 -1.3773644e-07 -1.3087019e-07 1.3731604e-07 1.3774576e-07 -1.339895e-07 -1.8048202e-07 -1.840912e-07
1.8075615e-07 -1.1853978e-07 -1.0415905e-07 1.2837675e-07 1.0771455e-07 -1.14623866e-07 1.18096615e-07 -1.8409666e-07
1.1046596e-07 -1.8504988e-07 1.2073126e-07 1.1884401e-07 1.8202877e-07 1.3887924e-07 -1.10618636e-07 -1.04408535e-07
-1.18474e-07 -1.1060556e-07 1.8032664e-07 1.0411801e-07 1.1884532e-07 -9.224709e-08 -1.0944473e-07 1.840969e-07
1.0106328e-07 -1.0441854e-07 -1.0986529e-07 2.8672082e-08 -1.8541982e-07 1.0074983e-07 1.0984511e-07 -1.3644382e-07
-1.0949398e-07 -1.1165818e-07 -1.011004e-07 -1.0417741e-07 1.01077205e-07 -1.1066484e-07 -1.11674005e-07 -1.377581e-07
1.8232764e-07 -1.1061989e-07 -1.3087553e-07 -1.8547112e-07 1.8052107e-07 1.0400034e-07 -1.853902e-07 1.2809247e-07
1.1059732e-07 -1.10648195e-07 1.03995454e-07 1.2765234e-07 1.3397539e-07 -1.3102758e-07 -1.3111942e-07 -1.0185858e-07
00000000: 3623 d4b3 4ded ebb3 3b6b dfb3 fd74 6b33
00000010: 73d9 df33 333c f6b2 f3d1 f6b2 741b 47b4
00000020: 0708 09b4 c3b6 de33 fb68 dfb3 5ae4 1234
00000030: 9964 1934 2308 de33 a3cb 0c34 6c77 12b4
00000040: 7747 0034 8eea 46b4 1cc9 4334 87ae fe33
00000050: 4856 da33 e9c2 fcb3 b4d9 90b2 ab98 e033
00000060: 7182 0034 f6e9 46b4 2808 d9b3 4de9 ebb3
00000070: 7885 44b4 c639 eeb3 8419 d933 1f7b 9232
00000080: 8b8e df33 40c1 dc33 d9e4 1db4 9e92 43b4
00000090: 0e93 43b4 8d6b 9bb3 ed85 edb3 d3a2 4134
000000a0: 25ee ebb3 1730 dcb3 e22a 4234 d4c2 9032
000000b0: e5dc eb33 93c2 0c34 807d dcb3 2b17 09b4
000000c0: 969f e033 2b46 09b4 f30b f7b2 0b48 e0b3
000000d0: 43d9 dfb3 afa4 4134 b208 edb3 7194 f7b2
000000e0: d9df 0fb4 65e4 1d34 5eef 46b4 6df7 ebb3
000000f0: 0226 15b4 63e1 d8b3 8272 4134 b2af aa32
00000100: 3b1c 2eb5 6a1c e0b3 4454 fe33 f6cf d2b3
00000110: 5e6d df33 f8db dfb3 864b e7b3 3c19 e0b3
00000120: f556 ef34 8a37 3db4 2769 1234 a4d8 0bbc
00000130: 39cb 15b4 e8fb eab3 43aa d3b3 3e57 f632
00000140: ae72 9cb4 ac46 e733 4eae 1cb4 0fcb e6b2
00000150: 6b4a f6b2 df1b bfb1 4868 1934 894c df33
00000160: c4c8 1534 bc6c dab3 c28c dab3 87a1 d8b3
00000170: 2757 11b5 6d91 4fb5 8be8 46b4 fc37 3e33
00000180: c26e 4634 9e71 1234 ce35 4234 601e 4734
00000190: f37a 13b4 0e09 253e 7b17 ec33 a2ab dc33
000001a0: bb93 43b4 860c 65b5 7484 14b4 dfe3 1d34
000001b0: 0b93 edb3 8e2f b7b4 d876 0c34 c441 ecb3
000001c0: c201 77b3 40d0 0034 c057 4734 16d8 4134
000001d0: 361d 41b4 c7f0 ebb3 4ef0 1334 076e 93bc
000001e0: d13d efb3 b89a e0b3 a38b 0c34 cea4 dab3
000001f0: e487 26b2 c575 0134 fc4b 0634 37d0 2434
00000200: cfce 59bd 92af d3b3 7ae7 dab3 2b3c 53bc
00000210: f7af 7bb3 5d1e 0034 7e5d 40b4 1ed0 1834
00000220: 1036 543f 9340 0ebf 7b30 1234 4659 a23e
00000230: 40ab e033 c147 4434 948a cebd 4a23 ff33
00000240: df6e d63e a8e1 0034 c8ba 96be 738a 3cbe
00000250: 4ede 0934 fd8f e53e 3597 0034 f8a6 d633
00000260: ad53 4634 f2e0 1db4 b14b f0b3 c04c deb3
00000270: 6445 52bf a871 b43d 2aea 1334 514a 5eb9
00000280: 2742 8ab2 f95b c633 97f0 08b4 d36d 44b4
00000290: 0585 1cb4 e21f 2bbe a996 0834 3915 11b4
000002a0: 1ac1 41b4 2164 fabe d799 6a3f 36c3 1234
000002b0: f8df eab2 8556 4c3f 7e17 b73e 18dc dab3
000002c0: 66e0 06be e02c dc33 746f d7b3 8b6e 0eb4
000002d0: 4c27 ff33 9017 4334 6335 d133 2aa9 8e3e
000002e0: 266a 0d34 3774 1734 12fc 493e 0cfe 9a33
000002f0: 8a22 57bb 6090 1f3e d614 183f 11f8 34bf
00000300: e88c b733 b4e4 13b4 5385 0cb4 2571 1334
00000310: 44e7 1334 c1de 0fb4 85ca 41b4 9baa 45b4
00000320: df15 4234 ef8f feb3 0bae dfb3 efd7 0934
00000330: b350 e733 2327 f6b3 4d9c fd33 1bac 45b4
00000340: 4e39 ed33 20b2 46b4 5ba2 0134 2f37 ff33
00000350: b073 4334 d61e 1534 3d8d edb3 3337 e0b3
00000360: c56b feb3 0d86 edb3 cf9f 4134 7b97 df33
00000370: e837 ff33 6019 c6b3 e007 ebb3 2cac 4534
00000380: 2008 d933 b33c e0b3 15ef ebb3 934a f632
00000390: d017 47b4 ce5b d833 fde3 eb33 6481 12b4
000003a0: f422 ebb3 bcc8 efb3 881c d9b3 23b8 dfb3
000003b0: c80f d933 a4a6 edb3 6fd1 efb3 a8ea 13b4
000003c0: d7c5 4334 ed8d edb3 cb86 0cb4 ea25 47b4
000003d0: 41d5 4134 cb56 df33 ac0f 47b4 ca89 0934
000003e0: 8581 ed33 7d9d edb3 1b54 df33 cf10 0934
000003f0: e0da 0f34 96b0 0cb4 d5c9 0cb4 59bd dab3

cl1.layer_1.bias f4 [64]
-1.1151947e-07 -6.619474e-07 -0.053802155 -1.1998084e-07 -0.076941624 -0.16472405 0.025479482 -8.9647925e-05
1.3761432e-07 0.07192872 0.1308771 -0.08094435 0.05276389 -0.07633145 -0.21019426 -0.006921187
-3.9543547e-08 -0.017693516 -1.11559885e-07 1.3685286e-07 0.20839277 -0.16767241 0.012895462 0.0003101524
-0.05400533 -0.08948536 -0.029641736 -1.1030451e-07 -0.3325258 -0.08495376 -0.16303113 1.2497337e-07
1.8189067e-07 1.3390967e-07 -0.12529887 1.1038865e-07 -1.2097196e-07 -0.105553396 -0.03229247 -0.090046726
-0.050307885 -0.00065548415 7.6211717e-07 -0.060178235 -0.17970112 -1.8113867e-07 1.0385154e-07 0.003148554
7.516027e-06 -1.3777735e-07 -0.15946871 0.09037066 2.0192984e-07 0.03613324 1.7039059e-07 -0.033912
0.08233981 -0.002177807 0.056293298 -0.452205 -2.7879976e-08 -0.039736364 -1.8564945e-07 0.02635271
00000000: 7a7c efb3 aeb0 31b5 a65f 5cbd 15d4 00b4
00000010: 9293 9dbd 6cad 28be 59ba d03c 5d01 bcb8
00000020: 23c3 1334 5d4f 933d a604 063e 27c6 a5bd
00000030: f31e 583d aa53 9cbd 2a3d 57be 20cb e2bb
00000040: 97d6 29b3 fef1 90bc b292 efb3 d4f1 1234
00000050: ea64 553e 51b2 2bbe 7d47 533c f39b a239
00000060: b134 5dbd 1a44 b7bd 3ad3 f2bc 8ce0 ecb3
00000070: d240 aabe 3dfc adbd a2f1 26be 6b30 0634
00000080: ba4d 4334 cfc8 0f34 594e 00be cd0e ed33
00000090: 85e4 01b4 612c d8bd 1c45 04bd 6b6a b8bd
000000a0: a40f 4ebd ccd4 2bba 4b94 4c35 747d 76bd
000000b0: 9203 38be 057f 42b4 fd04 df33 f857 4e3b
000000c0: 2e32 fc36 f3ef 13b4 c44b 23be 4114 b93d
000000d0: 0dd2 5834 7300 143d 9cf4 3634 4fe7 0abd
000000e0: c6a1 a83d 8ab9 0ebb cd93 663d 6a87 e7be
000000f0: b77c efb2 99c2 22bd ef56 47b4 a3e1 d73c

cl1.layer_2.weight f4 [64, 64]
1.6128364e-08 1.14498995e-07 -9.738473e-08 -1.8563279e-07 -1.7512926e-08 -1.18521974e-07 1.2731418e-07 -1.8553322e-07
-1.0108198e-07 -1.4711227e-07 -1.04212205e-07 -1.8573576e-07 1.4693636e-07 -1.03966414e-07 -2.8594545e-08 5.4238726e-08
1.8004475e-07 -1.1923949e-07 -1.04586626e-07 1.18478745e-07 -1.2778234e-07 -1.145082e-07 -1.0213656e-07 1.8084361e-07
2.8538121e-08 -1.802236e-07 1.394814e-07 1.839888e-07 -4.6601727e-08 -2.8921916e-08 1.8213942e-07 -1.3399632e-07
-1.0405861e-07 1.0448675e-07 -1.18206884e-07 -1.3087758e-07 1.3739624e-07 1.8523397e-07 1.373106e-07 1.8004992e-07
1.855588e-07 -1.7995636e-07 -1.3642487e-07 1.0467475e-07 -1.8535407e-07 -1.0106959e-07 -1.0447493e-07 1.09342594e-07
-1.1063636e-07 1.0751647e-07 1.4616474e-07 -1.805816e-07 -1.3959846e-07 -1.2115524e-07 -1.8097298e-07 -1.0939805e-07
1.3955707e-07 -1.8468825e-07 1.0221784e-07 1.7959886e-07 -1.196919e-07 -1.17950435e-07 -1.0424352e-07 1.0513213e-07
1.0175993e-07 1.0516271e-06 -0.5395654 -1.0336481e-07 -0.5833309 -0.049776364 0.017461417 -0.0013338053
1.0428029e-07 -0.21074188 1.03550676e-07 0.59103096 -0.5716583 -0.14818352 -1.04245906e-07 -1.1839851e-07
-1.3729385e-07 -0.09044061 -1.2694889e-07 -6.275888e-08 -0.50330514 -1.4739116e-07 -0.0017461468 -0.22546595
-0.8636103 0.07915816 1.8489586e-06 1.07792786e-07 -0.42053062 -0.5472077 -0.32939273 1.3142409e-07
1.18510776e-07 -1.3719135e-07 -2.5758246e-07 -1.0461616e-07 -1.0126392e-07 0.66858816 -0.048454802 -0.10112516
-6.9671434e-05 -0.25608277 4.0733077e-08 -0.07726704 -0.45199892 -1.18480585e-07 1.1921729e-07 0.00052630465
1.1795211e-07 1.311431e-07 0.77476424 -0.007556448 -1.2779363e-07 0.004664602 -1.0032059e-07 0.5344944
1.1045244 0.13584661 4.731954e-08 0.8849487 -1.3610658e-07 0.042966254 1.1296426e-07 0.7824376
-1.857257e-07 1.3945588e-07 -1.1990801e-07 -1.8214948e-07 -1.0129235e-07 1.3398987e-07 -1.3899901e-07 1.3456844e-07
-1.09743155e-07 1.2876806e-07 1.3781427e-07 -1.3741013e-07 1.2105542e-07 1.04012166e-07 -1.3101486e-07 -9.178857e-08
-1.0458512e-07 -1.0213181e-07 -1.07724325e-07 -1.8557532e-07 1.3996419e-07 1.8552387e-07 1.373977e-07 -1.2096059e-07
1.10960215e-07 -1.10037846e-07 1.7978776e-07 -1.6863318e-08 -1.3137046e-07 -1.0422286e-07 1.8125638e-07 -1.1844134e-07
-1.1053371e-07 1.0107033e-07 -1.8082305e-07 -1.8097604e-07 -1.0403246e-07 1.8568358e-07 -1.01768954e-07 -1.1449868e-07
-1.1454619e-07 1.848374e-07 1.3074917e-07 1.3939966e-07 1.0435532e-07 1.0404161e-07 -1.1458868e-07 -1.7350446e-08
-1.0980863e-07 1.0983812e-07 1.8495234e-07 -1.10658256e-07 -1.8098571e-07 -1.18299624e-07 -1.8141633e-07 -1.7200755e-07
1.468951e-07 1.0919535e-07 1.3789644e-07 1.095701e-07 -1.018432e-07 -1.110808e-07 -1.04154445e-07 -1.1178301e-07
1.02146736e-07 1.1747655e-05 -0.2708472 1.7195195e-07 2.6095496e-08 7.559051e-08 0.1264597 -1.0120126e-07
1.3923639e-07 2.39753e-08 1.9314881e-07 3.1142562e-08 -1.2049829e-07 1.8208414e-07 3.2859223e-08 1.8299954e-07
1.3083162e-07 -0.06827747 -1.8514834e-07 1.3750224e-07 -0.6488197 -1.216172e-07 1.2569994e-05 -3.7133848e-06
-0.19990462 -2.0904672e-08 2.5992192e-08 1.3226582e-07 -0.09728333 -2.378399e-06 -0.4103381 1.0970978e-07
-1.3618244e-07 1.8510006e-07 -1.3017161e-05 -1.801911e-07 -1.10185624e-07 1.7144182e-05 -1.8552689e-07 -4.840443e-08
0.0009843879 0.06629594 8.520949e-06 0.21458562 -2.295285e-08 -1.3627363e-07 1.6879648e-08 1.2889709e-07
-1.3750982e-07 1.7041728e-08 0.031996455 -7.4466698e-06 -1.210886e-07 -1.3898724e-06 1.044067e-07 -0.00042652793
0.26455265 -1.7000737e-05 -6.8476126e-08 0.02487263 -1.4660179e-07 0.52096075 -1.8005908e-07 -0.19921146
00000000: a68a 8a32 7de2 f533 d221 d1b3 5a52 47b4
00000010: 556f 96b2 2586 feb3 dbb3 0834 fc36 47b4
00000020: 6812 d9b3 eaf5 1db4 44cb dfb3 a86e 47b4
00000030: 8fc5 1d34 2444 dfb3 12a0 f5b2 1cf4 6833
00000040: 5352 4134 4d08 00b4 1b99 e0b3 616e fe33
00000050: 8b34 09b4 8ce7 f5b3 2b56 dbb3 ea2d 4234
00000060: fe23 f532 7c83 41b4 5bc4 1534 758e 4534
00000070: 2427 48b3 f76f f8b2 1a92 4334 a1e0 0fb4
00000080: d376 dfb3 3362 e033 ecd8 fdb3 5b87 0cb4
00000090: 3187 1334 bae4 4634 a66f 1334 bf53 4134
000000a0: 043e 4734 073a 41b4 2f7c 12b4 8dc9 e033
000000b0: bd05 47b4 980b d9b3 b35b e0b3 bacf ea33
000000c0: fb96 edb3 cee3 e633 75f1 1c34 e4e5 41b4
000000d0: 88e4 15b4 e616 02b4 7951 42b4 37ee eab3
000000e0: 28d9 1534 b84e 46b4 da82 db33 c2d7 4034
000000f0: a984 00b4 f04b fdb3 7bdc dfb3 00c5 e133
00000100: 1d87 da33 a225 8d35 f520 0abf 68f9 ddb3
00000110: 2d55 15bf 4de2 4bbd 3f0b 8f3c 14d3 aeba
00000120: b2f0 df33 b8cc 57be 965f de33 ce4d 173f
00000130: 3358 12bf 6cbd 17be cbdd dfb3 4542 feb3
00000140: 0c6b 13b4 ed38 b9bd 724f 08b4 0fc6 86b3
00000150: 9bd8 00bf 9342 1eb4 f7de e4ba 8ce0 66be
00000160: 9115 5dbf ac1d a23d bc29 f835 b67b e733
00000170: ca4f d7be ce15 0cbf 2aa6 a8be 941d 0d34
00000180: fd7f fe33 df4e 13b4 dd49 8ab4 58a9 e0b3
00000190: 6e76 d9b3 9828 2b3f 8b78 46bd b51a cfbd
000001a0: 911c 92b8 481d 83be 7ef2 2e33 2f3e 9ebd
000001b0: 676c e7be 646f feb3 3302 0034 b5f7 093a
000001c0: dc4c fd33 57d0 0c34 f356 463f 159c f7bb
000001d0: a537 09b4 85d9 983b d46f d7b3 a0d4 083f
000001e0: 0e61 8d3f 601b 0b3e 623c 4b33 ff8b 623f
000001f0: b124 12b4 62fd 2f3d c296 f233 d54d 483f
00000200: e46b 47b4 57bd 1534 10c0 00b4 de94 43b4
00000210: 0f86 d9b3 dbde 0f34 c23f 15b4 e47d 1034
00000220: f0ab ebb3 7f43 0a34 19fa 1334 028b 13b4
00000230: 76fb 0134 4b5d df33 17ad 0cb4 4d1d c5b3
00000240: 4798 e0b3 8e53 dbb3 1356 e7b3 8e42 47b4
00000250: 1049 1634 6a34 4734 9887 1334 65e1 01b4
00000260: 0649 ee33 f24d ecb3 af0b 4134 d4da 90b2
00000270: d60e 0db4 20d1 dfb3 609f 4234 d159 feb3
00000280: 8d5e edb3 000c d933 4328 42b4 5152 42b4
00000290: 7368 dfb3 5060 4734 138c dab3 51e2 f5b3
000002a0: 6ffc f5b3 b877 4634 0f64 0c34 e3ad 1534
000002b0: f219 e033 7b6d df33 cb13 f6b3 090a 95b2
000002c0: efcf ebb3 25e0 eb33 5097 4634 05a3 edb3
000002d0: f954 42b4 e80b feb3 57cb 42b4 13b1 38b4
000002e0: 38ba 1d34 c77e ea33 af10 1434 cd4c eb33
000002f0: e4b4 dab3 518b eeb3 83ab dfb3 5c0d f0b3
00000300: c35b db33 cb17 4537 7cac 8abe cba1 3834
00000310: 9a28 e032 5354 a233 a77e 013e fb53 d9b3
00000320: 0281 1534 3ef2 cd32 5764 4f34 9cc1 0533
00000330: 5162 01b4 e882 4334 1921 0d33 887e 4434
00000340: b97a 0c34 0fd5 8bbd 30cd 46b4 54a4 1334
00000350: 0c19 26bf e295 02b4 b7e3 5237 7733 79b6
00000360: ccb3 4cbe dc91 b3b2 6f45 df32 f404 0e34
00000370: 7c3c c7bd 959c 1fb6 d617 d2be 9799 eb33
00000380: 8b39 12b4 ebbf 4634 4864 5ab7 8d7a 41b4
00000390: 309f ecb3 dad0 8f37 3e35 47b4 3ce5 4fb3
000003a0: 9406 813a 2ac6 873d 33f5 0e37 55bc 5b3e
000003b0: da29 c5b2 9c52 12b4 bdfe 9032 f666 0a34
000003c0: 69a6 13b4 2863 9232 b70e 033d 68de f9b6
000003d0: 9504 02b4 a78b bab5 3136 e033 9c9f dfb9
000003e0: 7273 873e ce9c 8eb7 260d 93b3 b0c1 cb3c
000003f0: 9869 1db4 af5d 053f 4356 41b4 17fe 4bbe

cl1.layer_2.bias f4 [64]
-1.3978556e-07 0.08231427 1.009786e-07 -0.07597114 0.031070303 -1.2089909e-07 5.9827283e-07 -1.04422355e-07
1.1904589e-07 -1.3366746e-07 -0.009192856 1.3560607e-07 1.3786602e-07 0.016641818 -1.377459e-07 9.9986075e-08
-1.3099132e-07 0.016616644 -0.09951507 1.804158e-07 5.5013555e-08 -7.071282e-07 -1.4228138e-07 9.074897e-05
0.061944034 0.015552244 -0.1970539 3.1406216e-08 1.3557367e-07 0.12189889 1.8274224e-07 1.2495489e-05
0.013436647 0.010062291 1.0404075e-07 -6.808141e-07 -0.27940914 0.0010762936 1.03493974e-07 -1.7586569e-08
0.30215994 0.019993778 0.036298957 -0.104311205 0.013626333 0.028582623 -0.05561314 0.10411368
0.11162367 1.7995268e-07 -1.0233058e-07 -1.11886706e-07 -0.044917013 -0.093273155 -0.08904039 -0.19560593
0.032107484 -1.1936353e-07 1.799595e-05 1.313188e-07 1.3170451e-07 1.3948247e-07 -0.04178475 -0.07435562
00000000: f617 16b4 6294 a83d 93d9 d833 c296 9bbd
00000010: 2687 fe3c 7dd0 01b4 ff98 2035 cc3e e0b3
00000020: 2ca6 ff33 3b86 0fb4 a29d 16bc 1d9b 1134
00000030: 5308 1434 6c54 883c 4ee7 13b4 edb7 d633
00000040: 9fa6 0cb4 a11f 883c 8fce cbbd 51b8 4134
00000050: 0b48 6c33 7bd1 3db5 02c6 18b4 7b50 be38
00000060: 07b9 7d3d d7ce 7e3c 7fc8 49be 80e3 0633
00000070: 3592 1134 20a6 f93d ce37 4434 b7a3 5137
00000080: 6225 5c3c 4fdc 243c 026d df33 30c1 36b5
00000090: b70e 8fbe 6c12 8d3a 6a40 de33 4611 97b2
000000a0: b5b4 9a3e fec9 a33c 37ae 143d 1da1 d5bd
000000b0: fc40 5f3c 1b26 ea3c 9bca 63bd 8e39 d53d
000000c0: f39a e43d 0439 4134 d5c0 dbb3 5e46 f0b3
000000d0: e7fa 37bd ff05 bfbd cf5a b6bd ec4c 48be
000000e0: 2383 033d 662a 00b4 02f6 9637 a300 0d34
000000f0: a96a 0d34 a6c4 1534 7c26 2bbd c247 98bd

cl2.layer_0.weight f4 [64, 64]
1.4584131e-07 -0.24290545 -2.8860708e-08 -1.2387045e-07 -1.8239411e-06 1.0409121e-07 8.5944905e-09 1.8567847e-07
1.313278e-07 1.458603e-07 -1.8554015e-06 -1.849569e-07 -1.8575209e-07 1.3620479e-06 1.3069992e-07 -1.02026085e-07
-1.10084e-07 5.5408486e-07 1.0279144e-07 -1.11385695e-07 2.9048959e-08 6.1115117e-09 -1.845646e-07 7.0920365e-08
5.742125e-07 -0.07442147 -0.1444187 -1.2010244e-07 1.3645636e-07 0.02416183 -1.431706e-07 3.9498183e-08
-0.0030350392 5.109408e-06 1.8585148e-07 6.262192e-06 6.237703e-08 -1.3912013e-07 -1.0457386e-07 1.1101095e-07
0.18640256 -0.04045765 -1.2586634e-05 -0.40636688 0.44724926 -1.086313e-06 -0.11813597 -0.33815908
-1.7701113e-06 1.038221e-07 -1.8084934e-07 -1.4263699e-07 -0.12022556 -0.15209483 -0.10378453 -0.017508298
-2.5512776e-07 1.3931066e-07 5.331711e-08 -1.7192902e-07 -1.8574147e-07 1.8133109e-07 1.2254705e-05 -8.387667e-08
1.3755222e-07 -4.7734975e-06 -5.3975995e-08 -8.437593e-08 -8.511851e-06 1.3723837e-07 -4.1066525e-07 1.1905787e-07
1.09973215e-07 1.7994466e-07 -0.10131721 1.1047297e-07 1.855966e-07 -1.1274355e-08 1.7978658e-07 -1.1895063e-07
-1.105352e-07 -3.617333e-07 7.86214e-08 -1.0397084e-07 -1.762244e-08 7.410532e-09 1.1185577e-07 2.8656948e-09
-2.9543892e-07 0.29189205 -0.0072275843 -1.4032518e-07 1.04609725e-07 -3.3584708e-06 -1.1843983e-07 -1.0871622e-07
-1.3786098e-06 -7.873647e-09 -5.413365e-08 -1.6928095e-07 -8.1373335e-09 -0.0049128733 -5.401196e-08 -1.8514297e-07
-0.0275588 -5.0504077e-06 -2.9765352e-09 -4.0224186e-06 -0.5106954 -7.282988e-06 0.45986032 -0.19739905
-8.311774e-06 1.856687e-07 1.1179297e-07 2.8882928e-08 9.231237e-08 0.25579223 -4.8292504e-06 -0.619129
-8.634355e-06 -1.8559645e-07 1.4572681e-08 1.8554039e-07 -1.0101453e-07 1.8548127e-07 -0.13743088 -7.3913975e-07
1.1057458e-07 1.2651556e-07 1.0771779e-07 2.870401e-08 -1.8068067e-07 1.1066343e-07 -1.01478946e-07 1.01732496e-07
1.4705007e-07 -1.8549744e-07 1.01788764e-07 -1.8399057e-07 1.0111032e-07 1.03069226e-07 -1.0109318e-07 -1.3399371e-07
1.1056856e-07 -1.0746276e-07 -1.0404633e-07 1.10622956e-07 -1.2783862e-07 1.2012775e-07 1.1056702e-07 -1.0422205e-07
1.2103408e-07 1.8559331e-07 1.1924095e-07 -1.10543034e-07 -1.2763984e-07 -1.0398678e-07 1.0949228e-07 -1.4692564e-07
1.01144664e-07 -1.2098394e-07 -1.0398056e-07 1.1884676e-07 -1.0280036e-07 1.1974923e-07 -1.0459413e-07 -1.09834424e-07
-5.3373135e-08 -1.0227204e-07 1.8472407e-07 1.0945962e-07 -1.3539857e-07 1.1046303e-07 -6.2371846e-08 -1.01052315e-07
-1.2096443e-07 1.2784612e-07 -2.8698627e-08 -1.0412875e-07 -1.8044335e-07 -1.8472319e-07 1.4716996e-07 -1.8050723e-07
1.8137628e-07 -1.0943481e-07 1.3450381e-07 1.0110361e-07 -1.8546055e-07 -1.8529363e-07 -1.4680181e-07 -1.0377734e-07
1.8556901e-07 -1.2029392e-07 -1.8423809e-07 1.1044037e-07 -1.8044602e-07 1.1971248e-07 -1.8508402e-07 -9.641955e-08
-1.0110145e-07 -1.8572507e-07 1.1830993e-07 -2.8700446e-08 1.0751778e-07 1.1892086e-07 1.1451828e-07 -1.1036555e-07
-1.0399955e-07 -1.7973399e-07 -7.493679e-08 1.04242154e-07 2.870363e-08 1.0442708e-07 1.0972917e-07 -1.17810025e-07
1.0130483e-07 1.0418369e-07 -1.1024616e-07 -1.3087553e-07 1.0421021e-07 1.0452032e-07 1.03375065e-07 -1.8528024e-07
-1.0335016e-07 -9.877098e-08 1.4705542e-07 1.3765093e-07 1.7180793e-07 -1.40056e-07 -1.105876e-07 1.0178351e-07
1.1836723e-07 -1.1085643e-07 9.19583e-08 1.0467234e-07 1.0328439e-07 1.0394401e-07 9.985947e-08 -1.824668e-07
1.3731074e-07 1.1064592e-07 2.8722274e-08 1.0086799e-07 7.4890025e-08 1.1883824e-07 -1.3880467e-07 -9.184218e-08
-1.1952368e-07 1.3642699e-07 1.1050134e-07 1.0415524e-07 1.010838e-07 -1.8050089e-07 -1.0987404e-07 -1.4269433e-07
00000000: 8e98 1c34 35bc 78be 5ee9 f7b2 4001 05b4
00000010: 24ce f4b5 bf88 df33 f8a6 1332 e95e 4734
00000020: 1c03 0d34 c69d 1c34 1c07 f9b5 9198 46b4
00000030: 2573 47b4 9ccf b635 8556 0c34 6f19 dbb3
00000040: 5267 ecb3 6cbc 1435 31be dc33 ef32 efb3
00000050: 5687 f932 6dfd d131 bb2c 46b4 e24c 9833
00000060: 9523 1a35 496a 98bd 7fe2 13be 82f5 00b4
00000070: d784 1234 08ef c53c 6fba 19b4 b6a4 2933
00000080: 82e7 46bb 7b71 ab36 778e 4734 d21f d236
00000090: 23f4 8533 0d61 15b4 1692 e0b3 ea64 ee33
000000a0: 50e0 3e3e ecb6 25bd 2e2b 53b7 520f d0be
000000b0: dbfd e43e 6ecd 91b5 45f1 f1bd 3023 adbe
000000c0: 9094 edb5 cef4 de33 7d2f 42b4 c227 19b4
000000d0: d238 f6bd bfbe 1bbe fc8c d4bd 906d 8fbc
000000e0: 7ef8 88b4 6c95 1534 c8fe 6433 7d9b 38b4
000000f0: 3a70 47b4 e9b3 4234 8f99 4d37 b01f b4b3
00000100: 11b2 1334 082c a0b6 3cd3 67b3 2832 b5b3
00000110: 1fce 0eb7 cc5b 1334 6779 dcb4 c2ac ff33
00000120: 6a2a ec33 d036 4134 667f cfbd 283d ed33
00000130: 6848 4734 23b1 41b2 5c0b 4134 cd71 ffb3
00000140: 5e5f edb3 3f34 c2b4 92d6 a833 9346 dfb3
00000150: 2860 97b2 bb9f fe31 5c35 f033 d6ed 4431
00000160: d19c 9eb4 e072 953e 5fd5 ecbb 4bac 16b4
00000170: cea5 e033 1762 61b6 fc58 feb3 6077 e9b3
00000180: ac08 b9b5 aa44 07b2 9480 68b3 98c3 35b4
00000190: 5fcc 0bb2 2bfc a0bb c7fa 67b3 b6cb 46b4
000001a0: fec2 e1bc ac76 a9b6 c38b 4cb1 50f8 86b6
000001b0: efbc 02bf 6460 f4b6 d072 eb3e fa22 4abe
000001c0: cc72 0bb7 395c 4734 d612 f033 3b1a f832
000001d0: 433d c633 33f7 823e f20a a2b6 3d7f 1ebf
000001e0: 46dc 10b7 5d48 47b4 545b 7a32 f438 4734
000001f0: 53ed d8b3 b428 4734 aeba 0cbe 4c69 46b5
00000200: 0575 ed33 55d8 0734 7b52 e733 c990 f632
00000210: 2001 42b4 dda5 ed33 a4ec d9b3 0878 da33
00000220: d1e4 1d34 262d 47b4 f796 da33 f18e 45b4
00000230: fc21 d933 e856 dd33 9018 d9b3 e9df 0fb4
00000240: b571 ed33 47c6 e6b3 1370 dfb3 9d8f ed33
00000250: 0344 09b4 77fc 0034 dd70 ed33 aed0 dfb3
00000260: 98f5 0134 8047 4734 b408 0034 ad63 edb3
00000270: 5f0d 09b4 564f dfb3 0422 eb33 9dc2 1db4
00000280: de34 d933 d0e7 01b4 eb4b dfb3 b338 ff33
00000290: 18c3 dcb3 6b94 0034 3b9d e0b3 1dde ebb3
000002a0: 623c 65b3 a6a0 dbb3 9158 4634 1010 eb33
000002b0: 1362 11b4 b137 ed33 49f1 85b3 1902 d9b3
000002c0: 73e2 01b4 1346 0934 f384 f6b2 639d dfb3
000002d0: e4bf 41b4 5358 46b4 c505 1e34 73d1 41b4
000002e0: 55c0 4234 6c02 ebb3 206c 1034 4c1e d933
000002f0: 0223 47b4 20f5 46b4 93a0 1db4 32dc deb3
00000300: d240 4734 242a 01b4 fbd2 45b4 3c2b ed33
00000310: a0c0 41b4 518a 0034 82bb 46b4 350f cfb3
00000320: 1c1d d9b3 b86b 47b4 9211 fe33 f388 f6b2
00000330: 86e4 e633 6f61 ff33 17ed f533 1a02 edb3
00000340: 5b56 dfb3 e7fc 40b4 f0ec a0b3 bbdb df33
00000350: f38f f632 6541 e033 40a4 eb33 bffe fcb3
00000360: eb8c d933 97bb df33 78c0 ecb3 cb86 0cb4
00000370: 2bca df33 a774 e033 0bff dd33 72f1 46b4
00000380: 5af1 ddb3 ec1b d4b3 49e6 1d34 33cd 1334
00000390: 347a 3834 4d62 16b4 2d7c edb3 1494 da33
000003a0: 1331 fe33 f80f eeb3 9c7a c533 3ac8 e033
000003b0: 32cd dd33 d337 df33 5372 d633 18ec 43b4
000003c0: b06f 1334 3d9c ed33 f3b8 f632 c49c d833
000003d0: 3ad3 a033 0334 ff33 560a 15b4 c63a c5b3
000003e0: 6b56 00b4 c47c 1234 c14c ed33 f3ab df33
000003f0: 6813 d933 b5cf 41b4 e4f3 ebb3 8537 19b4

cl2.layer_0.bias f4 [64]
0.028565994 -0.25942564 1.1037242e-07 1.4631111e-07 2.8604838e-08 -1.089635e-07 -3.2765047e-06 -0.23304603
0.110512085 -0.38805363 -1.3574005e-07 -0.016724667 -0.46596155 0.010608737 -0.22651827 -1.1992688e-07
-0.11910607 -2.4087065e-06 -0.015433932 0.12484214 -0.08197649 -5.8375264e-08 -0.104635134 -0.22743717
-0.10477824 0.060378596 -0.45708057 0.15934536 -1.2131567e-07 -1.3648743e-07 0.32889497 -0.00870357
0.03815405 0.090220004 0.039522637 0.07887135 9.689313e-08 -0.09577852 0.029606396 -0.453047
-0.09313718 -0.11122674 -0.047192235 0.18608229 -0.05306693 -0.0069702417 -0.064958125 5.045137e-07
-0.057765312 -0.13019726 -0.2812509 -0.13150428 -0.12611641 1.3494403e-07 -1.8583677e-07 0.22995178
0.09177935 0.21787795 -0.028667703 -1.0904027e-06 0.104986 -0.09152573 -0.22289334 0.025679305
00000000: 3b03 ea3c 70d3 84be e105 ed33 b119 1d34
00000010: b4b6 f532 51ff e9b3 ece1 5bb6 9ea3 6ebe
00000020: 2954 e23d f7ae c6be f1bf 11b4 2b02 89bc
00000030: 8392 eebe 45d0 2d3c 68f4 67be 40c5 00b4
00000040: e2ed f3bd 43a5 21b6 9ade 7cbc 3cad ff3d
00000050: 4ae3 a7bd 48b8 7ab3 f24a d6bd 4ae5 68be
00000060: f995 d6bd 8c4f 773d 7706 eabe 6e2b 233e
00000070: ff42 02b4 618d 12b4 ec64 a83e 6b99 0ebc
00000080: 6c47 1c3d 44c5 b83d 7de2 213d 4d87 a13d
00000090: 9013 d033 8727 c4bd 1d89 f23c c7f5 e7be
000000a0: b5be bebd d8ca e3bd a54c 41bd 5b8c 3e3e
000000b0: b65c 59bd a066 e4bb c408 85bd eb6d 0735
000000c0: 529b 6cbd 6e52 05be 1e00 90be 0fa9 06be
000000d0: a924 01be 22e5 1034 6c8a 47b4 7b78 6b3e
000000e0: d0f6 bb3d 661b 5f3e 88d8 eabc f459 92b5
000000f0: e602 d73d d871 bbbd 273e 64be 685d d23c

cl2.layer_1.weight f4 [64, 64]
0.22154817 0.016819155 1.8541617e-07 1.3759342e-07 -1.0439068e-07 -1.8045014e-07 1.8585744e-07 -0.13002066
-0.15618014 1.8994019e-08 1.719661e-08 0.0015630999 -8.083794e-08 -0.17269702 0.35815307 1.0463025e-07
-0.41911733 -4.5646493e-06 0.052272405 0.54221576 -0.7103109 -1.8497319e-07 7.983647e-05 0.0002956041
7.425746e-08 0.043723363 -7.02234e-07 -0.61818755 1.8566892e-07 1.4313348e-07 0.08237485 -5.682012e-06
0.04533067 0.4253883 9.1416564e-07 0.244358 1.4614916e-07 0.03878865 0.02966852 -8.145948e-05
0.5052272 -0.00785034 -0.00046096763 0.4654719 -1.0289456e-05 0.021864971 -0.79603404 1.0700262e-07
0.060198374 -0.002269971 -1.8103385e-06 -7.221006e-08 -0.12912601 -1.4660645e-07 1.730484e-08 0.00052091543
-0.045283187 -7.0652e-08 0.006416757 1.1901662e-05 0.04437714 -0.20579429 2.1848195e-05 -0.26386535
-1.133189e-08 -1.4502243e-07 1.4674609e-07 -1.847398e-07 1.4624273e-07 -1.7827883e-08 4.878995e-07 0.4926935
-1.5393466e-06 1.2766274e-07 3.9568658e-08 3.657256e-07 -1.0731708e-07 -0.0003270047 -2.8665886e-08 -5.426145e-08
2.8249688e-06 7.841321e-07 -0.04354761 -0.43815538 -5.452348e-08 2.891821e-08 -4.5457473e-06 6.6734805e-07
9.7806385e-08 5.423851e-05 -8.072055e-09 0.15001523 1.8135128e-07 -1.8525968e-07 0.02889223 -0.00021534582
1.5726018e-05 -0.21774748 0.36300215 3.387269e-06 1.09676655e-07 -0.00076111755 1.3921909e-05 -1.0089945e-08
-2.409828e-06 -3.14836e-06 -4.2623384e-08 -1.5786029e-05 5.932313e-08 -0.1574502 0.07073771 3.564063e-07
1.413615e-05 -1.0338038e-07 -1.6624806e-07 -4.5770026e-08 7.8644075e-07 -1.3900414e-07 -1.0006556e-07 -0.10353966
1.614804e-07 -2.151235e-09 -0.00044882073 1.0620645e-06 1.7454399e-06 1.2331512e-05 1.3462332e-07 0.00018549462
1.1972884e-07 -1.0108775e-07 1.01054155e-07 1.0104188e-07 -1.01120094e-07 1.04098056e-07 2.8680644e-08 -1.8042779e-07
-1.340451e-07 1.8199512e-07 1.8216e-07 -1.8506204e-07 1.10553174e-07 -1.8540838e-07 -1.0422116e-07 1.1056998e-07
1.1840901e-07 -1.8561546e-07 1.0904501e-07 -1.464907e-07 -1.0445829e-07 -1.3396006e-07 -1.0429695e-07 1.0967851e-07
1.10594186e-07 -1.8403023e-07 -1.1059329e-07 1.3072675e-07 -1.0408271e-07 1.0980987e-07 7.497102e-08 -1.8205134e-07
-5.4057622e-08 -1.820795e-07 -1.3911443e-07 -1.0440339e-07 1.0104159e-07 -1.8553666e-07 1.841198e-07 -1.0174396e-07
-1.3400285e-07 5.4079376e-08 -1.09718975e-07 1.0408934e-07 -1.8544793e-07 1.01147855e-07 1.01080104e-07 -1.0965904e-07
-1.1872064e-07 9.196998e-08 -1.0279173e-07 -1.3930936e-07 1.1453529e-07 -1.6139278e-08 1.1459408e-07 -2.8775096e-08
1.8483807e-07 -1.04504124e-07 -1.183664e-07 1.8554776e-07 -1.0943148e-07 -1.8040616e-07 1.10365136e-07 -1.012002e-07
8.173638e-09 0.0064518508 -1.2861047e-07 -1.374257e-07 -1.10411214e-07 -1.0949941e-07 3.5913803e-07 5.1502372e-08
4.775225e-08 4.2204906e-06 1.6940803e-08 -1.0908052e-07 -2.4543613e-07 -0.2776211 9.293681e-09 -1.1789702e-07
1.6528342e-05 -1.0171862e-08 -0.00037809234 -0.029675256 0.7192836 -1.043147e-07 1.1542032e-05 -8.7235907e-07
-7.8987014e-08 0.00087010424 -7.7078916e-08 -0.33725208 1.1973715e-07 1.3606083e-07 0.16215251 2.2792345e-07
2.1592925e-05 7.0074086e-05 0.7353814 -0.11193072 -1.767948e-08 0.019598454 4.4803105e-06 8.7130125e-08
-1.3921863e-07 1.0658927e-05 2.7299366e-06 -0.5448133 -1.3505773e-07 0.2333626 1.8781461e-06 2.6625731e-08
2.9594583e-05 0.0054628006 -0.013892086 -1.2432977e-07 -0.005941486 1.04049036e-07 -1.1116713e-07 0.39222428
0.08464944 0.13599278 -0.00032480154 -5.2787544e-07 -0.2372023 0.007985345 1.2527607e-07 0.39535668
00000000: 86dd 623e 53c8 893c cf16 4734 64bd 1334
00000010: 622d e0b3 c2c1 41b4 1b90 4734 2324 05be
00000020: b0ed 1fbe 4a28 a332 bfb7 9332 eee0 cc3a
00000030: 2199 adb3 7dd7 30be d75f b73e 17b1 e033
00000040: 8c96 d6be 0a2a 99b6 971b 563d a7ce 0a3f
00000050: efd6 35bf 0b9d 46b4 e16d a738 50fb 9a39
00000060: 7877 9f33 4517 333d 2781 3cb5 8a41 1ebf
00000070: 495c 4734 3bb0 1934 25b4 a83d 1da8 beb6
00000080: a7ac 393d 7fcc d93e fc64 7535 fc38 7a3e
00000090: 2ded 1c34 d9e0 1e3d 650b f33c 3ad5 aab8
000000a0: 9256 013f b69e 00bc 07ae f1b9 5552 ee3e
000000b0: e1a0 2cb7 2b1e b33c e3c8 4bbf 50c9 e533
000000c0: 9292 763d cbc3 14bb c2fa f2b5 e611 9bb3
000000d0: 9c39 04be e06a 1db4 bfa5 9432 0b8e 083a
000000e0: dd7a 39bd 59b9 97b3 a943 d23b 40ad 4737
000000f0: cec4 353d bdbb 52be a446 b737 5c19 87be
00000100: 2eae 42b2 76b7 1bb4 4291 1d34 e45c 46b4
00000110: e506 1d34 ee23 99b2 33f8 0235 5342 fc3e
00000120: 8c9b ceb5 ab13 0934 33f2 2933 f258 c434
00000130: 3076 e6b3 d471 abb9 f33c f6b2 180d 69b3
00000140: 9894 3d36 267d 5235 fb5e 32bd e755 e0be
00000150: 332d 6ab3 d167 f832 ac87 98b6 cf23 3335
00000160: a109 d233 287e 6338 46ad 0ab2 989d 193e
00000170: 76b9 4234 cbeb 46b4 66af ec3c 74ce 61b9
00000180: 5eeb 8337 32f9 5ebe 6bdb b93e d750 6336
00000190: 6187 eb33 bc85 47ba 2592 6937 0c58 2db2
000001a0: 88b8 21b6 6a48 53b6 e810 37b3 3d6c 84b7
000001b0: 79ca 7e33 a03a 21be efde 903d 1c58 bf34
000001c0: 4d2a 6d37 f701 deb3 eb81 32b4 ad94 44b3
000001d0: cc1b 5335 2b41 15b4 a0e3 d6b3 9a0c d4bd
000001e0: 6563 2d34 edd4 13b1 b34f ebb9 428c 8e35
000001f0: dc44 ea35 71e3 4e37 fa8c 1034 5581 4239
00000200: d08e 0034 9415 d9b3 1c03 d933 5cfc d833
00000210: 5c27 d9b3 838c df33 675d f632 9dbb 41b4
00000220: 09ee 0fb4 706a 4334 c297 4334 77b5 46b4
00000230: 4069 ed33 ab14 47b4 30d0 dfb3 7d72 ed33
00000240: 0b48 fe33 974d 47b4 212c ea33 0f4b 1db4
00000250: 8d52 e0b3 a9d6 0fb4 dbf9 dfb3 6688 eb33
00000260: cc7f ed33 d899 45b4 4e7f edb3 e55d 0c34
00000270: 1384 dfb3 9dd0 eb33 c1ff a033 e479 43b4
00000280: fc2c 68b3 a281 43b4 7c5f 15b4 5f34 e0b3
00000290: 34fc d833 ee37 47b4 77b2 4534 557e dab3
000002a0: 6ce2 0fb4 e744 6833 a59e ebb3 b887 df33
000002b0: 8a1f 47b4 9f36 d933 6011 d933 b27d ebb3
000002c0: 5df3 feb3 0881 c533 5abe dcb3 1195 15b4
000002d0: 71f6 f533 a6a2 8ab2 c316 f633 1b2d f7b2
000002e0: e777 4634 c06b e0b3 9e30 feb3 fb3a 4734
000002f0: 9800 ebb3 abb5 41b4 e001 ed33 6653 d9b3
00000300: 0a6c 0c32 0c6a d33b 2d18 0ab4 4a8f 13b4
00000310: 351b edb3 f025 ebb3 8ecf c034 7533 5d33
00000320: 2718 4d33 bd9d 8d36 3885 9132 a63f eab3
00000330: 7cc4 83b4 5a24 8ebe 0baa 1f32 922e fdb3
00000340: 58a6 8a37 52c0 2eb2 b23a c6b9 8619 f3bc
00000350: f822 383f 9d03 e0b3 a6a4 4137 0f2c 6ab5
00000360: 929f a9b3 b517 643a 9586 a5b3 4eac acbe
00000370: 1991 0034 1e18 1234 4f0b 263e 1fbb 7434
00000380: 7422 b537 bdf4 9238 f541 3c3f ef3b e5bd
00000390: 96dd 97b2 f08c a03c 9355 9636 4b1c bb33
000003a0: 207c 15b4 bed3 3237 f433 3736 e278 0bbf
000003b0: 6304 11b4 9bf6 6e3e 9c14 fc35 9ab6 e432
000003c0: e241 f837 4b01 b33b a29b 63bc 827f 05b4
000003d0: ccb0 c2bb 9071 df33 c7ba eeb3 9fd1 c83e
000003e0: b05c ad3d b141 0b3e 204a aab9 53b3 0db5
000003f0: 29e5 72be f7d4 023c a083 0634 316c ca3e

cl2.layer_1.bias f4 [64]
0.366773 -0.00056116877 1.815443e-07 0.029058084 -0.0015009873 0.2676006 -8.833046e-05 0.4168423
-0.47538313 0.11557137 -1.1830447e-07 0.0038311048 -0.28747788 0.21513909 0.009879824 0.47077397
-1.0405961e-07 -1.1904943e-07 9.9944636e-08 1.8531537e-07 -0.21640137 1.1759139e-05 0.11136197 -1.4679811e-07
0.0262639 0.53506875 1.8125274e-07 0.5910071 -1.8573958e-07 0.043500356 -0.3058362 -0.10323894
-0.14468999 0.03921226 -1.10624825e-07 -0.28894743 1.1995688e-07 1.0427546e-07 0.33927986 1.3839508e-07
0.49433544 -0.066100776 -0.13090274 1.7164135e-08 -0.03821549 0.022659283 0.79597384 -0.45131966
-0.25464168 -0.13956176 -0.14766686 -0.006795539 -0.5116025 -0.45302922 -1.0763829e-07 -0.2762165
0.43816978 0.052329317 -0.6364947 0.4576572 -0.0814661 1.07794854e-07 1.11241725e-07 -0.05768077
00000000: acc9 bb3e 661b 13ba 84ee 4234 380b ee3c
00000010: c7bc c4ba f202 893e 0e3e b9b8 5b6c d53e
00000020: 6b65 f3be afb0 ec3d 920e feb3 4613 7b3b
00000030: 4d30 93be 6c4d 5c3e fcde 213c 4909 f13e
00000040: 6077 dfb3 1ea8 ffb3 25a1 d633 1afb 4634
00000050: 5298 5dbe 1e49 4537 bf11 e43d 8f9f 1db4
00000060: 6427 d73c 44fa 083f 609e 4234 3e4c 173f
00000070: b56f 47b4 6e2d 323d 9096 9cbe f06e d3bd
00000080: 9d29 14be 099d 203d a490 edb3 ebf0 93be
00000090: 7fcd 0034 0aee df33 17b6 ad3e c099 1434
000000a0: 8919 fd3e d85f 87bd 5e0b 06be 5570 9332
000000b0: d887 1cbd f69f b93c f1c4 4b3f 5f13 e7be
000000c0: 6560 82be 47e9 0ebe fb35 17be 1dad debb
000000d0: 62f8 02bf 72f3 e7be c726 e7b3 406c 8dbe
000000e0: ca57 e03e 4457 563d 51f1 22bf 0b52 ea3e
000000f0: b3d7 a6bd d97c e733 c9e3 ee33 ac42 6cbd
