experiments/chp_hwt/classifier/1553275201_0.151/1553276256_0_classifier_70000.pth (torch_old, 266569 bytes, 52 tensors)

cl0.weight f4 [64, 8]
00000000: 6bfe 073d f441 623f c568 8bbe 98a2 08bf
00000010: 3ba1 663c 736f 7e3e 36b4 24bf c3e8 a73e
00000020: b44d 32be 5aa6 76be e909 643d 0c6d 2cbf
00000030: 38c3 18bf fc38 c83e b525 dc3e ea78 273f
00000040: 2942 0f3f 32e9 97bd 2f83 e53e 8876 213f
00000050: d33d abbe 1fb3 e6be f373 e63e 4157 cfbe
00000060: 2dc9 2a3f 6632 ee3d d3d3 0b3d 6123 6d3e
00000070: 7fd2 9d3e fb5d 86bf bd79 b6be 74f6 debe
00000080: d345 4abf c490 853e 33cc 613f 499c 31bd
00000090: fddb 853f 1d5c 8cbf d094 20bf e3cb 4a3f
000000a0: 2b28 2dbe 3bf7 3a3e 9d15 3a3d e5c4 c7bd
000000b0: a50d d73e 5366 75bd f772 36be ed5e 04be
000000c0: e0c9 a53e 616a 043e 91f9 473f 673d 14bf
000000d0: 2c36 92be f59f 913e 8e9a fabe d6f1 1ebe
000000e0: 7697 2f3f bef6 cb3e 95a8 b6be 14fa a5be
000000f0: 8cb3 91be 1626 69bf b66b 1dbd 96d5 f83e
00000100: 0639 fb3e 6826 593f 3f8d 6abf 1590 0a3f
00000110: e644 263e 4097 e23e b750 87bf 30da b43e
00000120: b8cc 57be 3cdb fb3e 2491 413f 9894 fc3e
00000130: ebe7 963e dc15 20be 2a0a 0f3f 1754 103f
00000140: 11aa 2abf 7fc6 443f e838 013f 9cac 26bf
00000150: bf45 abbf 25dc 143f 2b73 273f 6d51 0a3f
00000160: f9ab e83d 9dcb 2abf d877 a4bc 31aa a83e
00000170: 4476 fcbe 366d a23e 3b28 403e 2215 4b3e
00000180: bc26 02bf 08a2 29be fad9 c43d 5827 50bf
00000190: 9749 953c 5921 0cbf 7c8e 0fbe 9614 6c3f
000001a0: 24ee e73e d82d 7d3e cf88 aabe 738e fabe
000001b0: 3712 5fbf 8f71 b53f e963 38bf 5333 fe3e
000001c0: bb49 bdbc 6442 f23e 8e57 b53e aad1 8ebf
000001d0: b70f c2bc d6a3 e33e 6c35 503f 5bb3 3c3f
000001e0: 2681 99be 943c 31bf deac 8cbe b132 5a3f
000001f0: 87de 37be d5d6 94be 3e8b 53bf 2a2f 99be
00000200: 1f5f eabe a53a 5bbf f078 8c3f c8a2 13bf
00000210: c8d0 95bf e5b3 353d a9ac ebbd 2de4 1f3f
00000220: 9bf3 3ebf 07dd 443e f85f 80bf 0bf0 0f3e
00000230: c418 cf3e 1f59 193f 6c2f 24bb 47d0 d9bd
00000240: 8aaa d33e 11ab 54be 9893 9f3f 85b8 edbe
00000250: 166d 2bbf e32e a8be d3c5 65bf 4dc3 a43e
00000260: a82a 5bbf 520a 0bbf dfce 45bf a28f 29bf
00000270: 5fce ac3f 109b 3a3f 742c 62be d13a 8b3f
00000280: 32ac 18bf 70bd 7d3d db88 4fbf 169f 263f
00000290: 0a05 09be 00f1 dd3e a794 1abf a209 07bf
000002a0: ee7b 113f 82c8 713f bac5 7abe e820 3ebf
000002b0: a41e 48bf a657 11bf 64b4 84bf 83dc e5bd
000002c0: 3c19 2cbf 565f 6ebf bf78 383e 1091 1c3f
000002d0: 8b56 66bf 7bb2 933f a168 603f ae81 83be
000002e0: 02c7 423f 0a34 c5be d066 28bf a83e dcbe
000002f0: e00d c33e 167f b8be ca5a b03d 8b08 f9be
00000300: eb93 d4bc 6222 4c3f 2b72 1bbf f208 4d3f
00000310: 86d5 42bf 4188 2b3f f04b 83bf 0f50 033f
00000320: a225 febc 9580 dbbd a355 113f fc0a 153c
00000330: 443d 54bf 2ebf 01b9 4a23 38bd db17 d1be
00000340: dc6d da3e 1d42 f9be 5d91 013f 70c3 a83e
00000350: 8469 b03b ca2c 983f 33a2 1dbf 6eac fc3d
00000360: 420f ee3e 2f41 05bf 1aff 643f 11e1 88be
00000370: d9e4 093d a801 e93c 7144 4abf 32a8 b83d
00000380: db08 ecbc 1882 5b3e 28fd 303e 2622 a0be
00000390: c5b2 8bbd 73d3 aebf 1798 733e 09a1 363f
000003a0: c047 7dbf 9565 7bbf 58c6 193f 7812 633f
000003b0: b29d 143e 1ded 4a3f a7c4 37bf b733 103f
000003c0: 93c6 00be 27a0 053f 682f 00bf 89f9 923e
000003d0: d60f 7a3c 797e 21bf 33ca b2bd 4be5 743e
000003e0: fcaa 773f ae35 613d 670c 41bf c4d1 453f
000003f0: 4d3a ab3e 529c 993d f073 32be 89a5 61bf
0.033201616 0.88381886 -0.2722837 -0.533731 0.014076526 0.24847202 -0.6433748 0.3279477
-0.17412454 -0.24086896 0.055673514 -0.6735389 -0.5967288 0.39105976 0.42997518 0.65418875
0.5596033 -0.07417525 0.44826648 0.6307149 -0.33445606 -0.45058534 0.45010337 -0.40496257
0.6671322 0.116307065 0.03413756 0.23158027 0.30824658 -1.049743 -0.35639754 -0.43547404
-0.79012793 0.2608701 0.8820221 -0.043361936 1.045776 -1.0965611 -0.6272707 0.79217356
-0.16909854 0.18258373 0.04543077 -0.097543515 0.42002597 -0.059912037 -0.17817293 -0.12926836
0.3238058 0.12931205 0.78115183 -0.5790619 -0.28556955 0.2844235 -0.4894604 -0.1552194
0.68590486 0.39836687 -0.35675493 -0.32417357 -0.28457296 -0.9107374 -0.0384328 0.48600453
0.49066943 0.8482423 -0.91621774 0.541261 0.1623722 0.4425602 -1.0571507 0.35322714
-0.21074188 0.491907 0.7561209 0.49332118 0.29473814 -0.15633339 0.55874884 0.5637831
-0.6666575 0.7686538 0.5047746 -0.6510713 -1.338066 0.58148414 0.6541011 0.54030496
0.11360926 -0.6671694 -0.020076677 0.32942346 -0.4930898 0.31723946 0.18765347 0.1983228
-0.50840354 -0.16565716 0.09611888 -0.81310034 0.018223567 -0.54738384 -0.14019197 0.9221891
0.45298874 0.24724519 -0.33307502 -0.48936805 -0.8713717 1.417528 -0.7202745 0.49648532
-0.023106446 0.47316277 0.3541836 -1.1157734 -0.023689134 0.44460934 0.81331515 0.73711175
-0.29981345 -0.6923306 -0.27475637 0.852336 -0.17955981 -0.29070154 -0.8263434 -0.29918796
-0.45775697 -0.8563636 1.0974407 -0.5767026 -1.170434 0.044361014 -0.11507542 0.62457544
-0.7459046 0.1922494 -1.0029287 0.14056413 0.40448582 0.59901613 -0.002505268 -0.10635429
0.41341048 -0.20768382 1.2466917 -0.4642984 -0.66963327 -0.32848272 -0.8975498 0.32180253
-0.85611963 -0.5431262 -0.77268785 -0.6623479 1.350048 0.72892857 -0.2208727 1.0877324
-0.5963775 0.06194824 -0.810682 0.65086496 -0.13380828 0.4334793 -0.60383075 -0.52749074
0.56829727 0.94446576 -0.24489489 -0.7426896 -0.78171754 -0.56774366 -1.0367551 -0.112237
-0.67226005 -0.9311422 0.18014811 0.6115885 -0.89975804 1.1538843 0.8765965 -0.25684875
0.7608491 -0.38516265 -0.6578188 -0.43016553 0.38096523 -0.3603446 0.08611067 -0.4863933
-0.025949439 0.79739964 -0.6072108 0.80091774 -0.7610706 0.6700478 -1.0257549 0.51294035
-0.031023804 -0.107178845 0.56771296 0.009096857 -0.82905984 -0.00012373619 -0.04495553 -0.40838513
0.4266194 -0.48683253 0.5061243 0.32961607 0.005383672 1.1888669 -0.6157562 0.12337576
0.46496016 -0.5205259 0.89451754 -0.26734212 0.03366551 0.028443173 -0.79010683 0.09016456
-0.028812816 0.21436346 0.17284071 -0.31276053 -0.06821207 -1.3658279 0.23788486 0.7133947
-0.98937607 -0.98201877 0.60068274 0.88700056 0.14513281 0.79268056 -0.7178444 0.5632891
-0.1257575 0.521975 -0.50072336 0.28706005 0.015262565 -0.63083607 -0.08729973 0.23915593
0.96745276 0.054982834 -0.7540955 0.772732 0.33442917 0.07500519 -0.17427039 -0.8814321

cl0.bias f4 [64]
00000000: 93cf a83d baf6 87bd 2511 bebd efd6 de3c
00000010: e600 b83d a4d3 1e3e 836a 5a3e 4624 cfbd
00000020: 3d3e 85bd b3a3 e7bc 8f30 08bd d427 663d
00000030: a9eb adbd c0b0 66bd 2dcc 40be 6bf3 3d3e
00000040: 92e6 ae3d 9bd3 a23d e1c6 933d abd6 8e3d
00000050: 2623 893b b165 593c f774 f23d 3072 c63d
00000060: f053 e2bd 36bf ce3d 8637 163e 1fe0 413e
00000070: ec3b 8cbb 882c 6b3b 0454 44bd fa0c b0bc
00000080: 9efc 93be e9fb 673e 3418 a53d bc2e 0c3c
00000090: 0a6f 563e fdfe 48be 679b 11bb 5df9 163e
000000a0: d596 563e afd3 643d 82c6 c6bd 6eec 52bd
000000b0: 1c4f e0bd 328c 2f3e 08d7 84ba 8a57 073d
000000c0: 4254 873d b482 d43b 256d 983c 596f 6ebd
000000d0: 0d52 42bb cc64 5abd 1e4a 3abc 9a7f 0dbe
000000e0: 53ee bbbd 059e e13c a03b 34bd 0989 64be
000000f0: 32c6 083d 2dd3 94bd 21be 723e fc1b 893d
0.08242717 -0.06638856 -0.09280614 0.027202098 0.08984546 0.15510422 0.21329693 -0.101143405
-0.06506012 -0.0282763 -0.033249434 0.056190327 -0.08492214 -0.056320906 -0.18827887 0.18549888
0.085400715 0.07950517 0.072156675 0.069745384 0.004185098 0.013268874 0.118387155 0.09689748
-0.11051166 0.10095064 0.14669618 0.18933152 -0.004279604 0.0035884697 -0.047931686 -0.021490563
-0.2890367 0.2265469 0.08061257 0.008556064 0.20940796 -0.1962852 -0.002221787 0.14743562
0.20955975 0.05586594 -0.09705831 -0.05149501 -0.10952589 0.17143324 -0.0010134885 0.033042468
0.06607868 0.0064853076 0.018606732 -0.05821166 -0.0029650957 -0.053318784 -0.01137021 -0.13818207
-0.09176316 0.02754117 -0.044002175 -0.223179 0.03339214 -0.07266841 0.23705341 0.06694791

cl1.layer_0.weight f4 [64, 64]
00000000: 1983 8a3e 1898 d13e 4299 4b3e d5b3 fabc
00000010: 4f50 5c3d aef5 b13e 1681 4dbd 4292 bbba
00000020: 2329 6e3f ed14 5ebf 924c 963e 5912 28bf
00000030: 6e28 1cbf 8ba9 c8bc a12f 81be 196c 54bf
00000040: bc70 1abf f1cb 3fbf a2d6 433f 31fb 35be
00000050: 0a82 073e b544 763d 01b9 ccbd edb9 173f
00000060: 1a8a 8dbe 142c 12bf cfc4 2abf 5804 7a3c
00000070: 11fc 573f 7acc 87be ce08 383f 72df ffbe
00000080: 3e07 e3be 97b7 923e 6023 90be 64e1 c73e
00000090: efda 563f cf52 623f 8abd 44bf ddd3 1dbf
000000a0: a57f 2cbf 38e6 54be 7ba6 173f 85ce 2fbe
000000b0: 9325 793e 84a3 7bbe 9820 d23e 0206 a9be
000000c0: 0fd4 4a3e 7808 59be e922 543f 99b8 16be
000000d0: 77fb eebe 440c 233f b9a4 0bbf 82ea d53e
000000e0: 8422 69bf 3b0f 273d f9ce 073f 81fa 3b3d
000000f0: e5e3 dd3d 9676 d6bd 358d 2d3f 9c93 783f
00000100: 4b12 0234 1954 5236 2f50 8335 936a 4a37
00000110: 5bc1 f036 922a 1eb7 c116 9f36 3046 75b5
00000120: 89f8 2037 2d9e d135 81db b1b6 3529 ad36
00000130: fb4d 6936 7828 49b7 76a4 57b7 e1c8 be34
00000140: fe05 08b7 637d f536 172e ddb5 8ad0 8036
00000150: 4e24 f3b5 b9fd 4137 0b4b 00b6 2fd3 eab6
00000160: 9ba4 8db6 b14b 1db7 adba 9b36 532c aa36
00000170: 7cd0 2736 9f2d 11b7 f768 ae35 07da b0b6
00000180: b5eb 9a35 2c6f 9a35 6658 4eb7 0dd1 6337
00000190: 9859 16b7 2c9d 8bb6 5922 b1b6 b40f 39b7
000001a0: c42d 21b6 df8a fd36 ef87 6eb6 a9fd 11b6
000001b0: f748 6737 1497 e034 0763 2fb6 dd6c 49b7
000001c0: 4bee 5a36 1d0a 4f37 b537 58b5 35ac ddb5
000001d0: f471 8eb6 e194 1fb7 2903 04b7 5273 8fb6
000001e0: 72f9 2537 372c 6936 0864 5037 be39 d2b6
000001f0: 4f9f 8f36 7b25 4c37 fe60 1336 e62c 8536
00000200: b2ac 74b6 be3a c6b5 a645 4237 62b9 c3b5
00000210: f9c9 31b7 20f0 4db6 14d6 20b7 a06b 80b5
00000220: ea26 41b6 5cbb 6736 2265 9936 69a5 50b7
00000230: 08b8 aeb6 5068 9d36 c744 3fb7 4e1d aa35
00000240: a4b3 dbb6 f2b6 4136 6d4c 7f37 20e2 92b6
00000250: 09aa 5936 6add 93b5 2bc5 1637 b99a 3637
00000260: 934c 9b36 4334 a0b5 65a9 12b7 1654 6fb7
00000270: c824 c536 4d42 3ab7 a4f6 f736 4dd0 53b7
00000280: f4ff c4b5 244a 8ab6 10f5 4fb7 7ca9 3fb7
00000290: 94eb 4bb7 cfba 3737 9a2f bbb6 130c 03b7
000002a0: a16f 0a36 f3ca 14b7 76b3 1db7 eab3 68b6
000002b0: 3a17 2036 38ac b1b6 0608 f6b5 406f 25b7
000002c0: 37b1 1637 5bf8 bab5 071d d8b3 a94c a136
000002d0: d90a e2b5 c9e9 56b7 26d5 5ab6 033d 7236
000002e0: c2e7 3f37 df9f b535 ee6c c9b5 6051 5a36
000002f0: 1ffd 08b7 51a0 1637 b78d 2737 d8cb a5b6
00000300: c309 2bbf 33f7 f93e 5d1d 493f 3265 a43e
00000310: 9ec0 2fbf 3e39 0b3f a946 92bf 3f6d 44bd
00000320: 130b 1dbf 5a45 6abf da94 76be 7ac7 9bbe
00000330: 1228 c13e c182 b7bc 1796 05be 9bd5 a03f
00000340: 5a79 7d3f 4a22 c13e 3ca1 3cbf 9390 1cbd
00000350: 29ba 5b3c fd1b 55be 2973 013f 8443 57bf
00000360: aa15 1bbf b1c9 d63d cced febe 35ff f8bd
00000370: 5bd1 edbe 3dc4 883f 4736 0c3f e8e1 6f3f
00000380: 93fa 463f 87f1 043f b18a 533e f953 f5be
00000390: 4cc9 893e 0f7a d13e 0414 fa3d 536b fc3e
000003a0: e0cb 1abf 5597 40bf 4fa2 293f c942 fbbe
000003b0: b221 f5be 8897 e93e cf54 5cbe f2bc 4ebf
000003c0: a3e2 8abf 4d47 2d3f a3cc dd3e 1b86 743f
000003d0: 840d ac3e 24af 9abe ac6e b7be 05d2 ecbe
000003e0: 4cb6 363d a121 23bf 050d a6be 96cc 423f
000003f0: e00d a1be 66bc 4a3f 8109 50bf 41be 7ebd
0.27053145 0.4093635 0.19882682 -0.030603329 0.053787526 0.3475775 -0.050171934 -0.0014310556
0.9303152 -0.8675068 0.29355294 -0.65652996 -0.6099919 -0.024494907 -0.2523165 -0.82977444
-0.6032827 -0.74920565 0.7649938 -0.17771603 0.132332 0.060124118 -0.09996224 0.59268075
-0.27644426 -0.5709851 -0.66706556 0.015259825 0.84369 -0.2652319 0.71888435 -0.49975163
-0.44341463 0.28655693 -0.2815199 0.39039147 0.83927816 0.88407606 -0.76851714 -0.616514
-0.6738227 -0.20790946 0.59238404 -0.17168625 0.2433074 -0.24574095 0.41040492 -0.33012396
0.19807456 -0.21194637 0.8286577 -0.14718856 -0.46676227 0.6369059 -0.5454822 0.41780478
-0.9106829 0.04078601 0.5305019 0.045893196 0.10834483 -0.10471837 0.6779359 0.97100234
1.2113848e-07 3.134139e-06 9.783597e-07 1.2064952e-05 7.175067e-06 -9.427446e-06 4.741218e-06 -9.137175e-07
9.59461e-06 1.5617749e-06 -5.3005647e-06 5.160599e-06 3.4765096e-06 -1.1989956e-05 -1.285329e-05 3.5536416e-07
-8.107627e-06 7.316166e-06 -1.6479197e-06 3.8389744e-06 -1.8115477e-06 1.1562771e-05 -1.9117167e-06 -6.9983284e-06
-4.22129e-06 -9.3755525e-06 4.641092e-06 5.071555e-06 2.5006293e-06 -8.6532955e-06 1.2994559e-06 -5.2705905e-06
1.1542494e-06 1.1506249e-06 -1.2299139e-05 1.3578928e-05 -8.961557e-06 -4.16082e-06 -5.2790097e-06 -1.1030515e-05
-2.4017509e-06 7.5561543e-06 -3.5543887e-06 -2.1754333e-06 1.3785661e-05 4.1833175e-07 -2.6134674e-06 -1.200588e-05
3.2623236e-06 1.2340516e-05 -8.0547335e-07 -1.6515902e-06 -4.2451957e-06 -9.511802e-06 -7.868549e-06 -4.275157e-06
9.892845e-06 3.4745442e-06 1.2421056e-05 -6.26521e-06 4.280278e-06 1.2168074e-05 2.1961164e-06 3.9689357e-06
-3.6459355e-06 -1.4769246e-06 1.1579517e-05 -1.4582586e-06 -1.0597048e-05 -3.0687152e-06 -9.586587e-06 -9.568066e-07
-2.8781892e-06 3.453074e-06 4.5715287e-06 -1.2436279e-05 -5.207028e-06 4.691108e-06 -1.1400501e-05 1.2674516e-06
-6.5476215e-06 2.886573e-06 1.5216979e-05 -4.3774635e-06 3.2434493e-06 -1.1016793e-06 8.9866035e-06 1.08840695e-05
4.6282744e-06 -1.1936139e-06 -8.741718e-06 -1.4265088e-05 5.8753394e-06 -1.1101901e-05 7.3898864e-06 -1.2625079e-05
-1.467763e-06 -4.1213516e-06 -1.23952195e-05 -1.1423948e-05 -1.2154593e-05 1.0951145e-05 -5.578576e-06 -7.81102e-06
2.062858e-06 -8.86874e-06 -9.399713e-06 -3.4675418e-06 2.3855378e-06 -5.29506e-06 -1.8330763e-06 -9.860669e-06
8.981958e-06 -1.3930361e-06 -1.0063564e-07 4.8070983e-06 -1.6841469e-06 -1.2809826e-05 -3.26086e-06 3.6096324e-06
1.14384475e-05 1.353208e-06 -1.500737e-06 3.2531898e-06 -8.165166e-06 8.978023e-06 9.986971e-06 -4.9411137e-06
-0.6681177 0.4882141 0.7856043 0.32108456 -0.68653286 0.5438422 -1.1427814 -0.047955748
-0.6134502 -0.9151207 -0.2408022 -0.30425626 0.37725884 -0.022401216 -0.13045536 1.2565187
0.9901329 0.37721473 -0.73683524 -0.038223814 0.013411083 -0.20811458 0.50566345 -0.84087396
-0.6057993 0.10487688 -0.497908 -0.12158052 -0.46448788 1.0684887 0.5477032 0.9370408
0.77726096 0.5193104 0.20658375 -0.4791563 0.2691139 0.40913436 0.12210849 0.49300632
-0.6046734 -0.75230914 0.6626329 -0.4907439 -0.4787727 0.45623422 -0.21516727 -0.8075706
-1.0850414 0.6768692 0.43320188 0.9551713 0.33604062 -0.30211747 -0.35826623 -0.46253982
0.044607446 -0.6372319 -0.32431808 0.76093423 -0.31455898 0.79193723 -0.812645 -0.06219316

cl1.layer_0.bias f4 [64]
00000000: 8485 d7b8 7203 a236 7132 4936 1102 7fbe
00000010: aaa4 1eb7 4808 9836 81a4 cbb6 1651 04b7
00000020: efe9 7abd 4d01 bfbd 6227 d2b6 3154 16bd
00000030: 21bc 2337 8db3 1cb7 60ea aebd a2ae 35b7
00000040: 3594 d8bc cf3a 4d35 868a 20bd 6938 c7ba
00000050: 3494 4c37 a10e 13be 5376 a936 06c6 c136
00000060: cc96 b9b5 88db 6b36 508f a436 10b9 b4b6
00000070: 9eb3 2cbd 205c 05be 2aed 75b7 6c63 7237
00000080: df59 6237 1e1e 85b6 cdde 54b5 b5a5 32b7
00000090: e822 7bb6 c6f0 833c 800e 06b7 bb07 6b37
000000a0: 5e5d 0eb7 dc90 253c 83dc 8bbd f8df c036
000000b0: c373 e9b6 3b22 0fbd 2ade d3bd 65c1 2437
000000c0: 3197 a2bd 0185 7137 81c2 a9b6 3770 ac36
000000d0: e0c3 3237 52c4 6eb6 5961 1137 06f4 c9bd
000000e0: 0382 eb36 d236 30b6 293e 1db6 a3f1 9c35
000000f0: eb07 1239 16d2 7bbe babd d4bc 73bc 26be
-0.00010276868 4.8283773e-06 2.9980695e-06 -0.24903132 -9.455873e-06 4.530917e-06 -6.069022e-06 -7.886692e-06
-0.061258253 -0.0932642 -6.2630725e-06 -0.036701385 9.759359e-06 -9.3401295e-06 -0.08540797 -1.0829101e-05
-0.026437858 7.645403e-07 -0.039194606 -0.0015199307 1.2193854e-05 -0.14361049 5.0503672e-06 5.774901e-06
-1.3827462e-06 3.5145513e-06 4.9042646e-06 -5.385962e-06 -0.042163484 -0.13023424 -1.4658357e-05 1.44474725e-05
1.34915745e-05 -3.967215e-06 -7.930037e-07 -1.0648208e-05 -3.7422233e-06 0.01610602 -7.990398e-06 1.4008891e-05
-8.485598e-06 0.010105338 -0.06829169 5.7481193e-06 -6.9574176e-06 -0.034944754 -0.10345109 9.82019e-06
-0.07938994 1.4395687e-05 -5.0592357e-06 5.139063e-06 1.06552325e-05 -3.5579037e-06 8.665339e-06 -0.09860997
7.018681e-06 -2.6257953e-06 -2.3431005e-06 1.1693231e-06 0.00013926595 -0.2459186 -0.025969375 -0.16282825

cl1.layer_1.weight f4 [64, 64]
00000000: e7f8 5237 67cb 6eb7 94af 1336 515f 2536
00000010: e67b a1b6 ac7e 4db7 21fe 13b7 466a 15b6
00000020: c93c 56b6 0b80 3136 3951 85b6 aeff 3e34
00000030: 4e21 15b7 94f4 e0b4 03aa 82b6 020f 6db7
00000040: 980d 43b7 57a9 37b7 3f1e 85b6 3119 a636
00000050: 1001 fdb5 3963 a136 56e0 1cb7 8a95 9c35
00000060: 24d9 1437 bd48 15b6 9853 b5b5 f25f 8b36
00000070: 341e 97b6 6997 1637 535d 8536 0881 4e37
00000080: a51f 1b37 bee1 6eb7 38df 1436 66b1 1537
00000090: 48fb fb35 4877 6db5 5325 3036 63f5 1336
000000a0: 60fa f8b4 03ce 92b5 ec41 7cb6 377a 4d37
000000b0: d807 1537 3b3c 5735 8bf0 77b6 c82e b535
000000c0: 514b 56b7 07c5 fc35 679f b135 10ea aa36
000000d0: b120 b2b5 353d 41b7 03a2 4d37 034e 3d37
000000e0: e35b 8536 04c5 fcb5 3249 a1b5 508b 25b6
000000f0: 7408 c136 6144 e0b6 60f0 4c37 6018 48b7
00000100: 18c6 3eb9 faf9 0d37 6bc6 4737 8d53 5db5
00000110: 2450 1637 d4c6 1db6 9904 e136 bdd2 0c37
00000120: 68e6 bab7 292e fab7 0d78 4837 859f 47bc
00000130: e376 49b7 3f91 3c37 8fc4 84b6 e29e 41b7
00000140: 1dad 07b8 0d02 e1b6 a2d1 75b5 f956 fd36
00000150: 1ab7 4cb7 3255 49b6 1332 9ab6 0155 82b6
00000160: aaaf 14b7 f02d 7436 53d1 1437 67c7 b835
00000170: 4b09 26b7 ca4f 96b7 0550 4eb7 fa2a 23b7
00000180: 9138 79b5 a4cb dd36 5bd5 4db7 433a 7db6
00000190: 4692 9bb6 6d96 313e d7b0 4eb7 65f5 4937
000001a0: f6a7 2d36 5628 b3b8 4116 d7b6 fe96 15b7
000001b0: 48bd 57b7 cd82 a135 3250 4536 d64e 1437
000001c0: 1f81 32b7 71f7 ab35 12c9 4c37 52dd 1636
000001d0: 9c82 dfb6 230b 1f36 da2f 1837 efa9 bdbc
000001e0: e6a5 25b6 245d 4eb7 e428 1eb6 7e2f 4937
000001f0: b361 62b5 3ded ffb6 f0e1 e7b6 4d07 c836
00000200: a6ea 59bd cb9a 4bb7 6d6b b836 7495 53bc
00000210: 66ea 80b6 e4f3 aab6 0887 a136 98b5 b936
00000220: 4d6f 543f f218 0ebf 1f6a 3436 22b4 a23e
00000230: 7bb9 6137 c844 4bb7 c9b9 cdbd dfb4 4737
00000240: d4cb d63e e935 47b7 41bf 96be 3e6f 3cbe
00000250: e29d 2037 52e2 e53e be2c 40b6 d46a 90b5
00000260: cc02 82b5 313e 5d37 976d a236 b881 3e37
00000270: 8949 52bf 74d5 b43d 6ede 6736 20e1 c139
00000280: a13a bab6 d697 4c37 e651 a6b5 77a8 e134
00000290: 7e42 ceb5 bd75 2abe 6537 8636 846e df36
000002a0: 6bc9 0636 55a8 fabe b2ea 6a3f 1af1 1db6
000002b0: cee0 15b7 f35b 4c3f ad58 b73e 6117 bfb5
000002c0: f53b 07be 586f 94b5 e23f 1637 b8bf c6b5
000002d0: c1c8 2937 0e9c 0536 e2e2 2cb7 c80b 8f3e
000002e0: f8be e836 430f 0f37 d8b2 7a3e e7d0 41b7
000002f0: 0a1b 57bb a887 203e 6921 183f e608 35bf
00000300: f0d0 1137 cc73 b135 5c56 9bb6 85e1 8cb6
00000310: ba49 7536 90ff 6c37 f8ec 33b6 e42a 15b6
00000320: f857 8a36 edee e736 8936 0eb7 de0c 1cb6
00000330: e902 96b6 95da 14b7 7064 5137 fa99 2536
00000340: 38f6 21b6 cd3a 15b7 96ce ed35 3857 cf35
00000350: faf0 b635 2cfc 8936 a4de b6b5 267b fc35
00000360: f76c fcb5 f009 75b6 2c07 15b6 1cd9 1436
00000370: 3a3c 8936 f342 f5b6 5baa 15b6 3c35 a4b6
00000380: 9b88 4db7 59b6 1c37 1c58 9b36 f022 15b6
00000390: fe0e 1536 0588 e336 d1bd e0b6 29df a035
000003a0: c531 9cb5 cdd8 a9b6 efaf 6bb7 dc71 a136
000003b0: f7f2 dfb6 18ae 8436 de0b 96b6 3807 6d37
000003c0: 6327 ae36 c474 9db5 1254 0e37 49e4 aab6
000003d0: 053a 4e37 2d61 9bb6 96e0 4b37 bed4 53b5
000003e0: 3cc6 1936 a88e 1336 7ff4 2db6 b1a0 e0b6
000003f0: 4484 17b7 936c 90b6 a97c 30b6 ca45 2436
1.25749275e-05 -1.4233264e-05 2.2006907e-06 2.4642397e-06 -4.8125976e-06 -1.2248445e-05 -8.821052e-06 -2.226459e-06
-3.1923867e-06 2.6449586e-06 -3.9731644e-06 1.7788145e-07 -8.888846e-06 -4.1901205e-07 -3.894094e-06 -1.4129795e-05
-1.1626071e-05 -1.09470775e-05 -3.96723e-06 4.950118e-06 -1.8850278e-06 4.809725e-06 -9.350557e-06 1.1666427e-06
8.872044e-06 -2.224507e-06 -1.350988e-06 4.1536923e-06 -4.503667e-06 8.97595e-06 3.9745732e-06 1.2308599e-05
9.246088e-06 -1.4238465e-05 2.218365e-06 8.922396e-06 1.877409e-06 -8.8462957e-07 2.624777e-06 2.204754e-06
-4.6375771e-07 -1.0937805e-06 -3.7589298e-06 1.22474075e-05 8.882918e-06 8.018139e-07 -3.6945883e-06 1.3499166e-06
-1.277293e-05 1.8832806e-06 1.323392e-06 5.0936433e-06 -1.3271548e-06 -1.1517947e-05 1.22566735e-05 1.1283441e-05
3.974406e-06 -1.8832802e-06 -1.2016737e-06 -2.4668007e-06 5.7528323e-06 -6.6836806e-06 1.2215314e-05 -1.1926604e-05
-0.00018193608 8.462457e-06 1.1907522e-05 -8.24505e-07 8.959356e-06 -2.3510556e-06 6.706058e-06 8.393717e-06
-2.228022e-05 -2.9823817e-05 1.19488805e-05 -0.0121840285 -1.2008214e-05 1.1239491e-05 -3.956789e-06 -1.1540689e-05
-3.2347732e-05 -6.7057613e-06 -9.157467e-07 7.5501125e-06 -1.2201979e-05 -3.0000924e-06 -4.595387e-06 -3.8841977e-06
-8.862387e-06 3.6385572e-06 8.8702245e-06 1.3767102e-06 -9.896535e-06 -1.7918548e-05 -1.2297188e-05 -9.725563e-06
-9.2842043e-07 6.61002e-06 -1.2268628e-05 -3.773385e-06 -4.6363884e-06 0.17342539 -1.2319731e-05 1.2037669e-05
2.5876775e-06 -8.542898e-05 -6.41009e-06 -8.916248e-06 -1.2859069e-05 1.2033503e-06 2.9401967e-06 8.839843e-06
-1.063969e-05 1.2812508e-06 1.2206163e-05 2.2480567e-06 -6.661123e-06 2.3699329e-06 9.071047e-06 -0.02315232
-2.4683482e-06 -1.2300243e-05 -2.3567636e-06 1.1991591e-05 -8.433373e-07 -7.6272104e-06 -6.910639e-06 5.9613144e-06
-0.053202294 -1.2135783e-05 5.4961333e-06 -0.01291405 -3.841985e-06 -5.0947874e-06 4.8138936e-06 5.53457e-06
0.8298233 -0.55506814 2.688386e-06 0.31778055 1.3454231e-05 -1.2115757e-05 -0.10045201 1.1903437e-05
0.41952384 -1.1873876e-05 -0.2944279 -0.1840181 9.573503e-06 0.4489923 -2.8636273e-06 -1.0759927e-06
-9.686569e-07 1.3187107e-05 4.840734e-06 1.1355085e-05 -0.82143456 0.088297755 3.4551153e-06 0.0003697956
-5.5500573e-06 1.21947e-05 -1.2391799e-06 4.203209e-07 -1.5367548e-06 -0.16646476 3.99996e-06 6.6587836e-06
2.0084797e-06 -0.48956552 0.91764367 -2.3535163e-06 -8.9334335e-06 0.79827803 0.35809842 -1.4237413e-06
-0.13206466 -1.1059265e-06 8.955571e-06 -1.4807947e-06 1.0119927e-05 1.990938e-06 -1.0304824e-05 0.27938676
6.9363705e-06 8.527018e-06 0.24482286 -1.1552335e-05 -0.0032822513 0.15676749 0.5942598 -0.707167
8.6913205e-06 1.3221229e-06 -4.6294135e-06 -4.198579e-06 3.655076e-06 1.4126199e-05 -2.6811013e-06 -2.2227696e-06
4.1229614e-06 6.912151e-06 -8.476557e-06 -2.3253301e-06 -4.470687e-06 -8.87238e-06 1.2480756e-05 2.4676542e-06
-2.4134188e-06 -8.894783e-06 1.7718e-06 1.5448086e-06 1.363019e-06 4.112275e-06 -1.3624854e-06 1.8811304e-06
-1.8807176e-06 -3.651363e-06 -2.2206905e-06 2.2180093e-06 4.0899295e-06 -7.309363e-06 -2.230189e-06 -4.893778e-06
-1.2250758e-05 9.340781e-06 4.6296173e-06 -2.2223066e-06 2.2211457e-06 6.780962e-06 -6.6978178e-06 1.1985877e-06
-1.1637391e-06 -5.0618314e-06 -1.4048054e-05 4.811429e-06 -6.6742027e-06 3.9541737e-06 -4.47173e-06 1.4127982e-05
5.1901893e-06 -1.1731395e-06 8.483434e-06 -5.0929707e-06 1.2292066e-05 -4.6306727e-06 1.2152033e-05 -7.8913206e-07
2.2914164e-06 2.1987744e-06 -2.5921324e-06 -6.694427e-06 -9.031097e-06 -4.304174e-06 -2.6298605e-06 2.4478527e-06

cl1.layer_1.bias f4 [64]
00000000: 7307 4e37 cdc1 a5b8 628c 59bd 2391 02b7
00000010: 9cac 9fbd c9ed 28be f7ab cd3c dc82 8d38
00000020: 4bf3 de36 bd43 913d 5592 063e db1b a5bd
00000030: 695a 5c3d 0136 9abd 8f8d 56be 03de 04bc
00000040: b4ca 40b7 62d1 97bc a91e 1e36 ab82 18b6
00000050: b0e7 543e 1b8c 31be 5b7f 533c cba9 89b9
00000060: 03aa 5cbd 384c b6bd 0ae3 fdbc d56d 96b6
00000070: e792 aabe fd67 b3bd 5262 27be c0be a236
00000080: 4063 6837 133b 2eb6 4ebd 00be bd25 17b7
00000090: c7e8 8236 da02 d7bd fdcb 02bd 9674 b9bd
000000a0: baa6 51bd 472f 4eba 7ff2 0d39 7108 74bd
000000b0: 1519 38be 4cc3 0b36 70f1 1f36 9b6a 573b
000000c0: 7ec9 4f39 26e2 16b7 cb6f 24be aba2 b93d
000000d0: 65bf 5437 f740 133d fcc0 33b7 f0ca 0bbd
000000e0: 291c a93d f758 f2ba 4f58 683d 3b98 e7be
000000f0: 3948 2736 03e2 24bd e69b 1436 e3cf df3c
1.2280291e-05 -7.903911e-05 -0.053112395 -7.782396e-06 -0.077965945 -0.16496958 0.025106413 6.7477784e-05
6.6444386e-06 0.07092998 0.13141759 -0.08061954 0.05379716 -0.07529832 -0.20952438 -0.008109572
-1.1491287e-05 -0.018532459 2.3561681e-06 -2.2725824e-06 0.20791507 -0.17338602 0.012908782 -0.00026257182
-0.053873073 -0.08901256 -0.03099205 -4.4831345e-06 -0.33315203 -0.087600686 -0.163461 4.8501824e-06
1.3851386e-05 -2.5962406e-06 -0.12572214 -9.009088e-06 3.9014008e-06 -0.10498591 -0.03193282 -0.0905544
-0.051184393 -0.0007865321 0.00013537145 -0.059578363 -0.17978318 2.0826292e-06 2.3833381e-06 0.0032869938
0.0001981612 -8.993351e-06 -0.1605827 0.090642296 1.2680747e-05 0.035950627 -1.0714164e-05 -0.034129083
0.08257324 -0.0018489648 0.056724843 -0.4523333 2.4926978e-06 -0.040254604 2.2144463e-06 0.027320808

cl1.layer_2.weight f4 [64, 64]
00000000: 06e1 4bb7 bc5a 86b5 3845 6fb7 b048 1e36
00000010: d494 2fb6 be2c 21b7 ef4f 8336 bc4a 84b6
00000020: dd42 1537 9bdb 0e37 01ee 6ab7 f3d9 0537
00000030: f1bf f3b6 90a0 4d37 eb97 ae35 5348 a336
00000040: 7284 a136 0396 20b7 03dd 14b7 3ffc aab6
00000050: 3d11 3237 4d8e a035 c334 87b6 d40d 91b5
00000060: dcc7 2536 cef3 3c37 7fec 3136 2977 fc35
00000070: 066b 90b6 2699 1537 ff83 8236 95fd 6cb7
00000080: abb7 8536 d803 b535 282b 1fb7 532a 3436
00000090: 7bb2 1936 53a3 bd36 cc1a 4c37 b6af 34b7
000000a0: 83b1 0e37 9401 58b7 5a75 5637 5b59 4eb7
000000b0: be4e 19b7 0704 2eb6 38ec 1cb7 29b7 8536
000000c0: fb76 15b7 173d b5b5 0270 1c37 35c7 3937
000000d0: b11c 4e37 ff7c 8436 2755 1537 5fd8 a5b5
000000e0: db72 c335 2fa7 0fb7 12b2 4137 6888 8036
000000f0: 1767 b335 c405 32b7 c97c 9c35 650a 82b6
00000100: 0b09 43b7 85ab 0c39 8bb4 0abf e48a a0b6
00000110: f370 15bf 73ee 4fbd 23bb a33c a0f7 5fba
00000120: 9373 6f37 872e 58be 8296 49b7 5d3c 173f
00000130: 14a6 12bf 3231 1bbe 9044 15b7 a1db 5737
00000140: b8aa 70b6 6e67 c1bd 6f0c 1437 c18e de36
00000150: 81d1 00bf a274 81b9 645e 3db9 5042 66be
00000160: 4be5 5cbf c56d a23d 083e 393a 39d0 c034
00000170: 0648 d7be e70b 0cbf 059e a8be 3afd 49b7
00000180: 5eab ba35 71df f136 0c33 03b6 30a3 4137
00000190: fb7c 5137 4b2b 2b3f b02b 43bd a37b cfbd
000001a0: c6c5 323b 4ca8 83be 6e79 a039 d22b 9cbd
000001b0: ff7d e8be 6cf0 7fb7 985d 48b7 dd55 66b8
000001c0: 1d93 2037 1698 c0b6 0c66 463f b93a edbb
000001d0: 6384 a036 ae49 973b 5a9b af36 cd11 093f
000001e0: 2b85 8d3f 9405 0f3e 16d3 89b6 c2eb 623f
000001f0: 985c 3836 2e36 343d 6796 1bb7 d24e 483f
00000200: 4637 4e37 7545 0e37 b457 68b7 a3a6 4e37
00000210: 37f4 a235 bb23 3c37 6780 21b7 7199 14b7
00000220: 9614 15b7 4f8a 4b37 b1a5 1336 c5e7 e5b6
00000230: 1007 ec36 fcdc 1db7 836a 2eb7 d861 7bb6
00000240: e4c9 f8b4 ad48 c0b6 0f66 15b7 2e98 4cb7
00000250: dbdb c6b6 a88a dfb6 55f7 7b36 0e3c e6b6
00000260: b000 53b7 43a5 a036 7a10 4f37 f6e1 6eb7
00000270: ef3a 24b6 57d2 3437 ddb4 50b7 e2f8 2d36
00000280: 7054 1f37 8950 1d37 6509 1d37 acbe fbb5
00000290: 3565 15b6 bdf7 0237 5ca8 1bb7 dcd9 2636
000002a0: 113b 3eb7 a7cc aeb6 5757 2736 b1d8 eb36
000002b0: dcb0 1337 b0c1 1336 2afb 14b7 9a01 94b5
000002c0: 37e8 9a36 7a2f 85b6 c83b a7b6 1191 3d37
000002d0: b21f 15b6 8400 24b7 3d47 3cb7 d46b 7835
000002e0: ccf1 9db6 0ac4 a2b6 61c3 9036 0b07 16b7
000002f0: 1dd9 b2b5 a363 4137 03cf 9735 32de 15b7
00000300: 6f4f b035 c241 2ab9 7b68 8dbe 8664 5737
00000310: b910 1036 aef7 1ab6 0a53 013e 7abc 1c37
00000320: d122 a336 893d 98b8 c02d 8136 4f12 ed34
00000330: adca 2136 2e66 3d37 adfc 92b5 e7e4 dfb6
00000340: 945c afb5 d8ec 98bd 21e5 e0b6 4d44 1db7
00000350: d464 26bf c2d1 a9b6 8f04 35b9 ba9d d3ba
00000360: dfac 4dbe e3a2 c5b8 8486 3536 41c8 8636
00000370: a68a d8bd 8f79 86ba eaca d3be 9f0a da36
00000380: 6edf 7e36 350d c8b5 6aa9 1eb7 0fbf 9e36
00000390: 42b5 9b36 87ab 1bb9 ba1c 36b7 ec58 9fb8
000003a0: 9209 033b 2996 ae3d 044c b9b8 c4b6 5f3e
000003b0: 5bc5 68b5 6ea7 02b7 c331 19b7 c9e7 b4b5
000003c0: ebf3 1fb6 0bae 4c37 177b 053d a10e afba
000003d0: 4d1d 36b7 6319 3cb9 6117 2f37 8040 39bb
000003e0: 476f 873e 26db 9234 4cda 81b6 d743 c93c
000003f0: 84ac 6337 6c56 053f cc1d 21b7 a86c 4dbe
-1.2152135e-05 -1.0010185e-06 -1.4261626e-05 2.3586144e-06 -2.6163661e-06 -9.606765e-06 3.9134097e-06 -3.942607e-06
8.89666e-06 8.51499e-06 -1.40029015e-05 7.978163e-06 -7.2643093e-06 1.2256336e-05 1.3008224e-06 4.866198e-06
4.8135926e-06 -9.5716705e-06 -8.872946e-06 -5.09576e-06 1.061364e-05 1.1962344e-06 -4.029456e-06 -1.0807366e-06
2.470325e-06 1.1262438e-05 2.6512714e-06 1.8810143e-06 -4.3039936e-06 8.91675e-06 3.8896683e-06 -1.4125738e-05
3.9850906e-06 1.348667e-06 -9.487187e-06 2.6846726e-06 2.2902666e-06 5.6516524e-06 1.2165587e-05 -1.0769747e-05
8.50519e-06 -1.2874971e-05 1.2782717e-05 -1.22993615e-05 -9.137844e-06 -2.5930365e-06 -9.353324e-06 3.9850315e-06
-8.908794e-06 -1.350333e-06 9.324403e-06 1.1073241e-05 1.2285237e-05 3.948458e-06 8.900918e-06 -1.235643e-06
1.456206e-06 -8.56239e-06 1.1545157e-05 3.830577e-06 1.3366542e-06 -1.0610969e-05 1.1659223e-06 -3.875512e-06
-1.1625011e-05 0.00013415336 -0.54181737 -4.7845406e-06 -0.5837547 -0.050764512 0.019986695 -0.0008543674
1.4272419e-05 -0.21111499 -1.2015576e-05 0.5907648 -0.57284665 -0.15155485 -8.8970555e-06 1.2866135e-05
-3.5862158e-06 -0.09443556 8.824382e-06 6.6327343e-06 -0.5031968 -0.00024691696 -0.00018059608 -0.22486234
-0.86287373 0.07931093 0.00070664333 3.591429e-07 -0.42047137 -0.5470566 -0.3293306 -1.20394925e-05
1.3907954e-06 7.2083717e-06 -1.9550234e-06 1.15416915e-05 1.248647e-05 0.66862935 -0.047649086 -0.10131004
0.0027278527 -0.25714338 0.0003060805 -0.076255456 -0.45408627 -1.5255162e-05 -1.194272e-05 -5.491624e-05
9.570996e-06 -5.739751e-06 0.7749946 -0.0072396663 4.7837834e-06 0.0046169376 5.2334917e-06 0.53542787
1.1056265 0.13966972 -4.107492e-06 0.8864099 2.7472033e-06 0.043996982 -9.273738e-06 0.7824527
1.2291426e-05 8.480031e-06 -1.3848698e-05 1.2317355e-05 1.2141016e-06 1.1213992e-05 -9.626244e-06 -8.857213e-06
-8.885885e-06 1.2131945e-05 2.2001152e-06 -6.8517134e-06 7.0341703e-06 -9.409381e-06 -1.0396007e-05 -3.7458867e-06
-4.6340494e-07 -5.7305065e-06 -8.904854e-06 -1.219478e-05 -5.9264544e-06 -6.6620596e-06 3.754588e-06 -6.8615254e-06
-1.257674e-05 4.7876106e-06 1.2341998e-05 -1.4238516e-05 -2.4472208e-06 1.077781e-05 -1.2439877e-05 2.5923878e-06
9.496798e-06 9.37668e-06 9.360117e-06 -1.875645e-06 -2.226164e-06 7.806285e-06 -9.277919e-06 2.4862738e-06
-1.1338635e-05 -5.2094288e-06 2.4935778e-06 7.028772e-06 8.803061e-06 2.2017448e-06 -8.879966e-06 -1.1027325e-06
4.616591e-06 -3.969236e-06 -4.9839473e-06 1.1299054e-05 -2.222118e-06 -9.775282e-06 -1.122226e-05 9.254411e-07
-4.7071135e-06 -4.850798e-06 4.3142795e-06 -8.9423365e-06 -1.3325222e-06 1.1526895e-05 1.1310625e-06 -8.932826e-06
1.313614e-06 -0.0001623696 -0.27618775 1.2838404e-05 2.1467406e-06 -2.3091957e-06 0.12629333 9.342208e-06
4.8618317e-06 -7.2593866e-05 3.8498256e-06 4.415801e-07 2.4108842e-06 1.1289068e-05 -1.0951386e-06 -6.6725656e-06
-1.306546e-06 -0.07467049 -6.7023943e-06 -9.373832e-06 -0.649976 -5.0610115e-06 -0.00017263203 -0.0016145029
-0.20085476 -9.424032e-05 2.70494e-06 4.016824e-06 -0.1057332 -0.0010259616 -0.4136575 6.4981427e-06
3.7979003e-06 -1.4905005e-06 -9.456979e-06 4.731009e-06 4.640461e-06 -0.00014845851 -1.0854734e-05 -7.598274e-05
0.0019994718 0.085247345 -8.8356464e-05 0.21847063 -8.6713925e-07 -7.787587e-06 -9.131097e-06 -1.3478503e-06
-2.3834825e-06 1.219987e-05 0.03258809 -0.00133558 -1.08548675e-05 -0.00017938534 1.0436256e-05 -0.0028267205
0.26452085 2.735407e-07 -3.8699127e-06 0.024568481 1.3570421e-05 0.52084994 -9.603285e-06 -0.2006098

cl1.layer_2.bias f4 [64]
00000000: 4fc3 b7b5 769c aa3d 48a7 24b7 399b 9dbd
00000010: 081f f63c d4ee 4837 b142 12b9 bb74 16b7
00000020: 4145 49b7 4bb2 1f37 6c57 23bc d204 50b7
00000030: 6896 4937 621f 873c 17d7 4d37 9659 13b7
00000040: b1dc ef36 1f5c 8b3c f48d cebd 6126 19b7
00000050: 65d6 67b7 0641 f4b8 4643 98b6 1861 ea3a
00000060: df6a 803d fb02 823c ec95 4bbe 0839 dcb6
00000070: 3daf 94b5 8646 fb3d 60b1 1b37 3dbc b5b9
00000080: 6646 563c 3035 183c ac18 b735 5a64 95b7
00000090: 5b5c 8fbe 451f 083b d287 9f35 4529 40b7
000000a0: 10ed 9a3e a9f9 a43c a3e4 193d 564e d8bd
000000b0: ef73 4d3c 49a8 e53c c5c4 6abd f339 d63d
000000c0: fe2e e93d f093 1337 8fc2 2b37 0828 3d37
000000d0: 948a 3dbd b311 bebd a6a6 b6bd 9f40 4abe
000000e0: 38e3 fd3c 4088 6b37 26f5 5d37 d6a3 1637
000000f0: 0d5f 5d37 6d44 6b35 7df1 27bd 8cff 95bd
-1.3691405e-06 0.08330624 -9.81411e-06 -0.07695622 0.030044094 1.19765355e-05 -0.0001394849 -8.967875e-06
-1.1996658e-05 9.518651e-06 -0.0099695735 -1.2398888e-05 1.2015553e-05 0.016494457 1.2269032e-05 -8.782741e-06
7.148447e-06 0.0170117 -0.10085669 -9.128446e-06 -1.3818591e-05 -0.00011646938 -4.5377847e-06 0.0017881719
0.06270384 0.015870562 -0.1988141 -6.5631502e-06 -1.107786e-06 0.12269311 9.280018e-06 -0.0003466326
0.013078308 0.009290025 1.3641743e-06 -1.7808914e-05 -0.2800015 0.0020770591 1.1885952e-06 -1.1453701e-05
0.3025899 0.020138578 0.03757156 -0.105618164 0.012539848 0.028034346 -0.05731656 0.10460272
0.11385916 8.796327e-06 1.02376935e-05 1.1274598e-05 -0.046274737 -0.092807196 -0.089185044 -0.19751213
0.030992135 1.4038815e-05 1.3229705e-05 8.978843e-06 1.3194757e-05 8.7643895e-07 -0.041001786 -0.07324132

cl2.layer_0.weight f4 [64, 64]
00000000: 4e2e 84b5 1a3f 7cbe 0975 7f36 f8ba 1537
00000010: 4aae d7b7 2d0f a836 4577 b0b6 83f4 1337
00000020: b34a 4db7 4115 bf35 548d 5aba 0207 9cb6
00000030: b47f 0e37 8d38 17b6 4f92 7e36 d94a 30b6
00000040: 0560 9736 3a87 e7b5 1f4c 41b7 3e7a 14b6
00000050: 1a1f ef35 1661 9bb5 7a4b 81b6 cb9a 97b6
00000060: ab47 13ba c8b9 9dbd 018c 16be f79a 1437
00000070: c7fb c4b6 bdd1 c83c b347 20b7 dcb1 a036
00000080: 10d0 66bb 0e4d d6b7 8bab 2eb7 78f6 07ba
00000090: a24c 61b6 8b07 e7b6 7c39 4837 bd32 3f37
000000a0: 829a 423e 20ef 26bd 05b5 9cb6 95b5 d0be
000000b0: 0f6c e43e ffde bbb7 f50a f6bd 2978 b0be
000000c0: 7205 f6ba 0f5e 4eb7 dbf3 1fb6 bee0 4db7
000000d0: 1e29 06be 521a 1dbe 9611 d9bd 7098 b5bc
000000e0: 07b2 06b8 6b7b 16b7 0c81 c1b6 40cc 2036
000000f0: d06d 4037 bb91 3fb7 e1ea a8b7 606d 28b5
00000100: 70c9 3537 81f6 af3a 4062 8436 559d 0e3a
00000110: 1983 3d38 5c39 4d37 4240 ebb5 2362 3fb7
00000120: 9afd 1337 07ce f835 6113 d4bd e4e6 dc36
00000130: 14d0 7bb5 0656 3438 d7a5 2536 ebd6 bcb5
00000140: 7ea9 31b6 517f 30b7 3b47 a13a 2066 1336
00000150: b19a c9b5 8087 6cb6 5fdd a135 b8f8 cdb6
00000160: a919 8536 81cf 983e e1d2 9ebc e52c 4eb7
00000170: 994f 1936 b3bc 54b6 dd1d 8335 b604 d838
00000180: 971a 3837 83a2 4437 fd44 17b7 26b9 8635
00000190: c203 a43a e62e f9bb c4a4 1437 082d 4c37
000001a0: 322d 00bd 2796 19b6 0f9a 1d39 f8c1 80b5
000001b0: d64a 05bf c5fc c937 e002 ee3e 4651 4ebe
000001c0: 2f3d 5038 d85b a1b5 2a86 a935 8e3a c0b6
000001d0: 1032 ab37 6ac4 833e 1a99 94b8 48ed 1fbf
000001e0: 318c d637 7e0c 21b7 4274 2036 8e89 5637
000001f0: eaae 4db7 5966 1637 0bf5 0fbe 3346 61b7
00000200: fe04 4e37 41cb 9d36 d9d2 a8b5 e803 1636
00000210: 3f1b 92b5 f691 fc35 e072 3e35 81e5 e1b6
00000220: e926 3036 90eb b2b5 1c18 b2b6 10c4 19b6
00000230: 0dfc 4bb7 e013 56b7 ec79 1336 43dd 14b6
00000240: 4f1a 4eb7 93aa 98b6 c82e 4f37 eef0 b635
00000250: f4ee b2b5 70ff 4bb7 21e9 1436 9a7d 8436
00000260: 7bae 4eb7 f913 70b5 dc80 39b7 d452 9e35
00000270: 46e7 b6b5 dd34 4037 3475 1536 d5f8 4c37
00000280: 5fdb 0036 3a9d 6d37 cdf1 9e35 6c1b 13b6
00000290: 85a5 13b7 30b7 abb6 88a1 b135 7b14 1537
000002a0: ef18 19b7 d313 1eb7 0426 2137 bfb0 6db7
000002b0: 80ed 1237 ff52 18b7 d3a9 fa35 7bf3 81b6
000002c0: 15f2 fd36 08cc fcb5 7be9 97b5 4e00 3436
000002d0: cc93 9f35 3e85 1637 750d 1537 1747 47b7
000002e0: 3966 1837 6413 1537 08f7 34b6 e4c0 15b7
000002f0: 68f0 4c37 74fb 2137 6fbb 3fb7 bf56 94b6
00000300: ea4d 1537 16f9 7a36 b4f2 1436 b173 a1b6
00000310: 1d7b 4cb7 1fb4 e036 ab20 5736 5f12 4eb7
00000320: ab08 15b6 8566 1e36 d39c 7db5 a2d1 2db6
00000330: e310 15b7 60cd 25b6 a0f5 4b37 ee0a 6d37
00000340: 4c2a 1eb6 0095 f435 0209 1bb7 f120 4eb7
00000350: e447 3c37 2dca 21b7 27ac 19b6 2c28 adb6
00000360: 7a5b 1335 b2c5 3237 8670 4a37 5691 2fb6
00000370: da0c fd35 d3a1 c935 b4e2 2d36 64a2 3037
00000380: c3d9 1fb7 4c3d a4b5 e21e 3036 5f06 b0b5
00000390: f4ed 2d36 7323 0636 f536 3237 292a 1e36
000003a0: dbbe 1537 96c7 a636 e512 08b7 8e38 7e36
000003b0: 7ac0 79b6 b094 80b6 6bdf ee36 bab1 0c37
000003c0: 1f5c 6d37 0f0b 2eb6 3c18 feb5 a1b6 3737
000003d0: 697b fc35 ae21 1a36 e36c 93b5 3607 3ab7
000003e0: accb 40b7 54ec 4b37 45af a5b6 1ba4 13b6
000003f0: 3767 8536 aaa8 b435 5b95 df36 cc17 35b7
-9.848243e-07 -0.24633446 3.8066084e-06 8.924624e-06 -2.5711157e-05 5.008557e-06 -5.2590935e-06 8.818813e-06
-1.2236344e-05 1.4236795e-06 -0.00083370996 -4.649978e-06 8.493593e-06 -2.253367e-06 3.7934112e-06 -2.626961e-06
4.511329e-06 -1.7250197e-06 -1.152142e-05 -2.2124873e-06 1.7815939e-06 -1.1576656e-06 -3.853286e-06 -4.518171e-06
-0.00056182843 -0.077014506 -0.14701845 8.857568e-06 -5.870566e-06 0.024514074 -9.553437e-06 4.789077e-06
-0.003521923 -2.554667e-05 -1.0411149e-05 -0.0005186568 -3.3572219e-06 -6.8852146e-06 1.1934313e-05 1.1396301e-05
0.19004253 -0.04075539 -4.6702357e-06 -0.40763536 0.44613692 -2.2395978e-05 -0.12013809 -0.34466675
-0.0018769933 -1.2300457e-05 -2.3834789e-06 -1.2271279e-05 -0.13101622 -0.15342072 -0.105990574 -0.022167414
-3.211389e-05 -8.969432e-06 -5.7668713e-06 2.3960747e-06 1.14696595e-05 -1.1418418e-05 -2.0136535e-05 -6.274404e-07
1.08353415e-05 0.0013424904 3.9453444e-06 0.00054403144 4.5183206e-05 1.2232307e-05 -1.7527566e-06 -1.1407336e-05
8.820929e-06 1.8537402e-06 -0.10355259 6.58339e-06 -9.380758e-07 4.299546e-05 2.4683447e-06 -1.4069641e-06
-2.6473713e-06 -1.0520061e-05 0.0012304554 2.1964152e-06 -1.5020688e-06 -3.5245612e-06 1.2059862e-06 -6.1384308e-06
3.966696e-06 0.29845813 -0.019387664 -1.228901e-05 2.2845109e-06 -3.17003e-06 9.768952e-07 0.0001030056
1.0973446e-05 1.1720348e-05 -9.016364e-06 1.0037663e-06 0.0012513327 -0.0076044677 8.85985e-06 1.2169832e-05
-0.0312931 -2.2886177e-06 0.00015030078 -9.593196e-07 -0.52067316 2.4078772e-05 0.46486568 -0.20148191
4.9648046e-05 -1.2022165e-06 1.2630528e-06 -5.7288626e-06 2.04081e-05 0.2573579 -7.085707e-05 -0.6247144
2.557607e-05 -9.599256e-06 2.390953e-06 1.2787421e-05 -1.22596775e-05 8.964526e-06 -0.1405832 -1.342739e-05
1.2279719e-05 4.7026265e-06 -1.257834e-06 2.2354016e-06 -1.0885777e-06 1.8817943e-06 7.094768e-07 -6.7322403e-06
2.6248692e-06 -1.3330591e-06 -5.30762e-06 -2.29129e-06 -1.2158428e-05 -1.27600215e-05 2.1975675e-06 -2.218251e-06
-1.2284682e-05 -4.5498105e-06 1.2349054e-05 1.3630176e-06 -1.3331578e-06 -1.2159217e-05 2.2189417e-06 3.9485285e-06
-1.2319181e-05 -8.943603e-07 -1.1056862e-05 1.1796024e-06 -1.3627366e-06 1.14564e-05 2.2270951e-06 1.2217283e-05
1.9201177e-06 1.4162908e-05 1.1842291e-06 -2.1920669e-06 -8.800421e-06 -5.117523e-06 1.323454e-06 8.885861e-06
-9.125316e-06 -9.42215e-06 9.605199e-06 -1.4167453e-05 8.757575e-06 -9.07923e-06 1.8675877e-06 -3.8728444e-06
7.5681696e-06 -1.8834844e-06 -1.1318328e-06 2.6822268e-06 1.1889438e-06 8.97172e-06 8.884225e-06 -1.1877876e-05
9.083707e-06 8.885607e-06 -2.6965881e-06 -8.926003e-06 1.22153215e-05 9.654894e-06 -1.1428127e-05 -4.4208423e-06
8.899233e-06 3.739789e-06 2.219499e-06 -4.811642e-06 -1.2188012e-05 6.696689e-06 3.2056512e-06 -1.2282834e-05
-2.2207776e-06 2.360351e-06 -9.4478054e-07 -2.5901031e-06 -8.885024e-06 -2.470646e-06 1.2156932e-05 1.4128846e-05
-2.3568455e-06 1.8222781e-06 -9.240817e-06 -1.2286227e-05 1.1222412e-05 -9.6434205e-06 -2.2898982e-06 -5.1604784e-06
5.4894883e-07 1.0655656e-05 1.2066337e-05 -2.6161629e-06 1.8853709e-06 1.5022764e-06 2.5910967e-06 1.0528227e-05
-9.52784e-06 -1.2236792e-06 2.624402e-06 -1.3114876e-06 2.5917516e-06 1.998819e-06 1.0622422e-05 2.3568375e-06
8.925529e-06 4.9704204e-06 -8.110631e-06 3.7881869e-06 -3.7215927e-06 -3.8320068e-06 7.118962e-06 8.3860305e-06
1.4147749e-05 -2.5934457e-06 -1.8931528e-06 1.0950172e-05 1.881138e-06 2.2967392e-06 -1.0984044e-06 -1.1088143e-05
-1.1491513e-05 1.2154767e-05 -4.9377873e-06 -2.200023e-06 3.9757247e-06 1.3460133e-06 6.663305e-06 -1.0793981e-05

cl2.layer_0.bias f4 [64]
00000000: ef80 e83c 35c9 85be 1fc3 33b7 680a 3ab7
00000010: f26f 4b37 865f 1637 3984 48b8 c0c9 6ebe
00000020: 6aa8 e33d a68d c7be 32a7 0637 1589 a7bc
00000030: d748 efbe 2948 5c3c 2f6a 69be e12e 6035
00000040: a11c f4bd 3c4a 0fb8 5038 7ebc 8d9d 013e
00000050: 4d65 acbd e72a bf35 4b04 debd aa22 69be
00000060: f053 e1bd 35e2 753d 469a e9be 03f5 233e
00000070: b20b 1637 f70c 5337 3696 a83e b7f7 33bc
00000080: 0054 1b3d 86e9 b83d 9033 1d3d 8793 a23d
00000090: 6db9 1d37 f023 c7bd 6e71 f03c dfa5 e8be
000000a0: c354 c2bd 03b6 e8bd a515 afbd e898 3e3e
000000b0: 1f54 68bd f2ae b2bb 518e 88bd 5428 9ab8
000000c0: 246d 71bd 0007 05be 52db 90be 8e09 07be
000000d0: 5bde ffbd f3e7 af35 09a4 c4b6 6c68 6e3e
000000e0: 0020 bd3d f6c3 5e3e 2649 eebc 52fc 6eb7
000000f0: 480e d63d 39c1 bebd 5239 65be 3312 ce3c
0.028381793 -0.2613007 -1.0714662e-05 -1.1088887e-05 1.2125807e-05 8.9629375e-06 -4.7806858e-05 -0.23319149
0.11116107 -0.38975257 8.025951e-06 -0.020451108 -0.4673526 0.013444939 -0.22794412 8.351472e-07
-0.11919523 -3.4162993e-05 -0.015516356 0.12657757 -0.08417759 1.4243095e-06 -0.108406626 -0.2276713
-0.11002338 0.06003018 -0.45625514 0.16011433 8.94342e-06 1.2579599e-05 0.32927102 -0.010984353
0.037921906 0.09028916 0.038379252 0.07938295 9.401102e-06 -0.097236514 0.029350962 -0.4543905
-0.09488823 -0.11362841 -0.0854905 0.18613017 -0.05672085 -0.005452984 -0.0666777 -7.350804e-05
-0.058941975 -0.12990952 -0.28292328 -0.13187239 -0.12493583 1.3106022e-06 -5.8603514e-06 0.23282021
0.09234619 0.2175444 -0.029087614 -1.4244653e-05 0.10451943 -0.09314198 -0.22385147 0.025155162

cl2.layer_1.weight f4 [64, 64]
00000000: 946c 6c3e 4cee 923c dec8 1fb6 14df a336
00000010: fce3 2336 afec 17b7 05be eb38 b716 07be
00000020: ea8d 21be 05bd 1639 81a3 19b7 73ec c93a
00000030: 0abc 84ba 427d 31be 71c7 bc3e d1c7 8036
00000040: c4f1 dabe 707b 1a37 0545 593d f5f6 0a3f
00000050: 3d7a 37bf fa71 a836 c5d6 09ba 1bc0 3139
00000060: 6e31 4938 656e 303d 6db7 66b5 5d56 1fbf
00000070: 55fe d5b6 107a 1837 2504 aa3d 627a e7b8
00000080: b901 393d fa02 d93e 550b 0139 8f0f 7a3e
00000090: 6030 35b7 5adf 1a3d be07 f73c a164 4bb8
000000a0: 3f2e 033f cc25 10bc 392b 0cb7 5791 ee3e
000000b0: 4e94 2eb8 9a9d bd3c 5359 4dbf 800b 0137
000000c0: b772 793d 6069 8fbb 9493 80b7 3477 5239
000000d0: b288 07be b9a4 0bb7 7d8f 46b7 bb5c 0c3b
000000e0: 603d 3ebd e260 4836 9462 dc3b 388e 7239
000000f0: 0bd7 433d a0d1 54be 88cc 1bb8 da6b 8abe
00000100: 696c 5836 af6d 20b7 544f 4837 4973 16b7
00000110: c8db 2b36 4ecb a135 d23b 0b37 35bb fc3e
00000120: e50e af39 0ee1 26b6 263d 1e36 044f 1cba
00000130: de1d b439 ae90 0a3b 1ae2 4bb7 cd27 7736
00000140: 034f 0037 bab2 9db6 943b 31bd da26 e2be
00000150: 118d be37 3022 8336 ba1d 4cb9 52fb 2537
00000160: ab97 0eb7 d56f a939 f01f eab6 6273 1a3e
00000170: 8178 8635 13e3 27b6 a384 043d 6090 30b9
00000180: 3749 3839 6e17 68be b9bd bc3e f906 0c3a
00000190: 24bf a8b6 6dfe a1b8 51a4 9ab4 5da0 0b37
000001a0: 3331 39bc a162 f2b8 3a33 6b36 546f 3439
000001b0: 178b 31b7 f018 29be 42c8 ae3d 38cf 8d36
000001c0: e084 a239 07ea b9b6 3646 ffb6 445f be36
000001d0: b69c f1b5 7a74 34b7 e537 8436 9c99 d6bd
000001e0: bdbd a036 2108 9335 a220 4aba 6f6a 4db8
000001f0: a99d 8939 64fd 0b35 6e67 5334 ea80 aa3a
00000200: 5c2f 14b7 8584 2237 4293 1936 e492 2fb6
00000210: 08de aa36 f0d3 6e37 0e86 5737 8944 a4b5
00000220: 3d45 b2b5 d2e1 3db7 565b 13b6 09cc 9a35
00000230: 261b b735 5937 c1b5 8984 2d36 521d 6db7
00000240: 11ec ad35 23e6 12b6 be11 e6b6 5449 57b7
00000250: 3660 adb6 4b04 b835 f32a 9736 7631 3cb7
00000260: 9e3d 4c37 4f3e 3537 0c69 27b6 0b2d e136
00000270: 4948 41b7 ecc0 fc35 75fa 4c37 0cf2 aa35
00000280: 8424 3236 aad4 56b7 6dce 5637 507e 52b7
00000290: 53dc 1436 2fac 3b37 21a5 87b6 f41e 4c37
000002a0: 2963 1a36 c259 4fb7 c0dd 2c36 4e18 57b7
000002b0: c908 f534 a4fc 8fb5 1790 aa35 ab5c 4eb7
000002c0: 0ffc 9336 1bcf fb35 7471 3fb7 8edb 3cb7
000002d0: db15 a1b6 615e 4137 ecec 4bb7 501c 51b7
000002e0: 2a06 1f36 7395 8036 808f 2836 7926 9c36
000002f0: 28b9 19b6 5d5c 41b7 f4a0 99b5 8ffa 7435
00000300: 488d 44b9 a327 f53b 67cc 1b37 d7c5 1437
00000310: 82eb 4e37 9699 4837 d78b 0539 fd25 cc3a
00000320: 6a2d a136 0bf8 3737 1afc 3137 4bc7 3c36
00000330: 91e9 9a38 adcf 8ebe bc0a 5bb6 9b0a 1837
00000340: 753a 0b39 0695 9237 298d 543a baf8 f6bc
00000350: 96e2 383f d243 4037 aeee bb3a ca28 8d3a
00000360: da79 6db6 50e7 9f3a 6c5d 473a 62a3 aebe
00000370: 1687 27b5 7d3b 10b7 0c09 273e 0256 813a
00000380: ce4a 013a a338 8c39 4129 3d3f 0665 efbd
00000390: 76cb 73b5 8ccb a23c 0172 3d39 25b5 4a36
000003a0: 9ee7 1437 0df4 c339 c7f2 f237 7a23 0cbf
000003b0: f04b 95b6 f620 6f3e e5f4 19b6 4016 ad37
000003c0: b689 e037 65b0 9b3b 71d7 b0bc d7ac f238
000003d0: 1dc5 2fbc 7a95 a436 bebb a5b6 44f6 c93e
000003e0: fdd6 ae3d de26 193e 5655 8f3a 6af4 ac39
000003f0: 38d1 74be 41e8 e43b 4d5f 23b7 107f ca3e
0.23088294 0.017935894 -2.3809766e-06 4.8837483e-06 2.4421597e-06 -9.055409e-06 0.00011241067 -0.13192259
-0.15776792 0.0001437553 -9.157579e-06 0.001540555 -0.0010126841 -0.17332938 0.36870912 3.837959e-06
-0.42762578 9.207855e-06 0.053044338 0.54283077 -0.71670896 5.020059e-06 -0.00052581384 0.000169516
4.796817e-05 0.04307403 -8.5948597e-07 -0.62241155 -6.377503e-06 9.088326e-06 0.08301572 -0.00011037734
0.04516766 0.42385083 0.0001230662 0.24419998 -1.0799704e-05 0.03781066 0.030155059 -4.849269e-05
0.5124244 -0.008798074 -8.354714e-06 0.4659526 -4.1622952e-05 0.02314644 -0.8021442 7.691677e-06
0.060900416 -0.0043765754 -1.532751e-05 0.00020071567 -0.13235739 -8.323398e-06 -1.1835128e-05 0.0021417576
-0.04644525 2.9858716e-06 0.0067256186 0.00023131899 0.047812503 -0.2078309 -3.7145364e-05 -0.2703541
3.2249611e-06 -9.562281e-06 1.1939399e-05 -8.967539e-06 2.5608915e-06 1.2054604e-06 8.298974e-06 0.49361578
0.00033389698 -2.4866927e-06 2.3579428e-06 -0.0005962702 0.00034354528 0.0021143365 -1.2152386e-05 3.6829035e-06
7.647791e-06 -4.699771e-06 -0.04326971 -0.44170266 2.2715454e-05 3.908084e-06 -0.0001946603 9.8932815e-06
-8.4991725e-06 0.00032317513 -6.9774615e-06 0.15083078 1.0018849e-06 -2.5017114e-06 0.032353055 -0.00016838452
0.00017574882 -0.22665188 0.36863497 0.0005341615 -5.029042e-06 -7.724469e-05 -2.880429e-07 8.322383e-06
-0.011303234 -0.0001155783 3.5047547e-06 0.0001720761 -1.05824065e-05 -0.16513419 0.0853429 4.226251e-06
0.00030998047 -5.540674e-06 -7.607766e-06 5.6735316e-06 -1.8001508e-06 -1.0755955e-05 3.9404135e-06 -0.104785174
4.79046e-06 1.0954719e-06 -0.0007710551 -4.8974933e-05 0.00026248142 5.2150267e-07 1.9688534e-07 0.001300839
-8.832514e-06 9.686807e-06 2.2884492e-06 -2.6162534e-06 5.0922426e-06 1.4235251e-05 1.2846211e-05 -1.2238899e-06
-1.3282184e-06 -1.1317856e-05 -2.1957871e-06 1.1533276e-06 1.3642464e-06 -1.4395729e-06 2.5856154e-06 -1.41331275e-05
1.2958209e-06 -2.1889653e-06 -6.8565996e-06 -1.2832072e-05 -5.167002e-06 1.3710318e-06 4.5051506e-06 -1.1217189e-05
1.2173694e-05 1.0802948e-05 -2.4946085e-06 6.7107662e-06 -1.1520527e-05 1.8831611e-06 1.2217662e-05 1.2736432e-06
2.6545322e-06 -1.2804909e-05 1.2803456e-05 -1.2546385e-05 2.2181964e-06 1.1186158e-05 -4.042537e-06 1.2166554e-05
2.3005507e-06 -1.235906e-05 2.5759073e-06 -1.28206575e-05 4.5641198e-07 -1.0727858e-06 1.2707923e-06 -1.2300133e-05
4.410285e-06 1.8761233e-06 -1.14109025e-05 -1.1256792e-05 -4.800718e-06 1.1525671e-05 -1.2154906e-05 -1.2463963e-05
2.3696434e-06 3.8320954e-06 2.5117479e-06 4.653641e-06 -2.2906552e-06 -1.1525201e-05 -1.1446232e-06 9.1261694e-07
-0.00018744648 0.0074815317 9.286311e-06 8.867551e-06 1.233339e-05 1.19566885e-05 0.00012735963 0.0015575286
4.803461e-06 1.0965402e-05 1.0608719e-05 2.8130187e-06 7.3867974e-05 -0.2789282 -3.2639791e-06 9.062375e-06
0.0001327785 1.747395e-05 0.00081081927 -0.030147899 0.7222074 1.1459882e-05 0.00143381 0.0010769602
-3.538668e-06 0.0012199674 0.00076051685 -0.34109026 -6.2408924e-07 -8.5969195e-06 0.16312045 0.0009867551
0.0004932106 0.00026745079 0.73891073 -0.116891906 -9.082063e-07 0.01987245 0.00018066914 3.0205786e-06
8.875415e-06 0.0003737513 2.89617e-05 -0.5474163 -4.4493863e-06 0.23352417 -2.2941324e-06 2.0633568e-05
2.6767008e-05 0.0047512525 -0.021587105 0.00011571653 -0.010728148 4.9049822e-06 -4.9392393e-06 0.39445698
0.085370995 0.14956233 0.0010935466 0.000329885 -0.23907936 0.0069856946 -9.737746e-06 0.39550066

cl2.layer_1.bias f4 [64]
00000000: 64aa ba3e d8d9 9538 112b 6b35 fb85 e73c
00000010: cb90 adba 9bf3 883e ddcf ac39 1d92 d53e
00000020: 54f8 f3be ce2b ed3d 1a17 02b7 c306 cd3b
00000030: 356c 93be 8b3a 593e cf10 353c e592 f13e
00000040: 1ad9 60b7 fbea 2137 19ce a4b6 127a 3b37
00000050: da64 5cbe 8ae6 0639 a897 e43d ba14 9135
00000060: 139c d23c 49a3 083f 37f4 3737 9890 173f
00000070: 0623 95b6 b1b3 373d 89c9 9cbe 7af0 d3bd
00000080: a65a 15be 0f2e 243d 6f7f 1b37 5edc 95be
00000090: 4295 7935 38ac 9cb6 e89c ae3e dc71 06b7
000000a0: b6a6 fd3e bb2b 86bd 8980 04be 7e6d 6d37
000000b0: f4ae 21bd 47b6 c93c e698 4b3f 7c7c e5be
000000c0: 0a50 83be 69e3 14be 6fd9 18be 1de6 17bc
000000d0: 0427 03bf a45a e7be cc35 14b7 fe84 8dbe
000000e0: a952 df3e e2d7 5e3d 4122 23bf 41aa e93e
000000f0: 80ce a7bd 5373 2f37 49e0 bf35 7ce0 9bbd
0.36458123 7.14545e-05 8.760699e-07 0.028262129 -0.0013242004 0.26748356 0.00032961267 0.41713038
-0.47650397 0.11580621 -7.753983e-06 0.0062569096 -0.28793493 0.21213739 0.011051371 0.47182384
-1.3401988e-05 9.6510585e-06 -4.911574e-06 1.117449e-05 -0.21522847 0.00012865118 0.11161739 1.0809374e-06
0.025709188 0.53374153 1.0964511e-05 0.5920501 -4.4446233e-06 0.0448491 -0.3062251 -0.10348602
-0.14585361 0.040082987 9.26839e-06 -0.2926969 9.2976927e-07 -4.669211e-06 0.34104085 -8.013532e-06
0.49541253 -0.0655131 -0.12939657 1.4151794e-05 -0.03947349 0.02462305 0.7953018 -0.44821537
-0.25647002 -0.14539875 -0.14926694 -0.009271172 -0.5123141 -0.4518634 -8.834013e-06 -0.27640527
0.43617752 0.0544051 -0.6372414 0.45637706 -0.081936836 1.0457664e-05 1.4295885e-06 -0.07611176
