experiments/chp_hwt/classifier/1553275201_0.151/1553276012_0_classifier_54000.pth (torch_old, 266569 bytes, 52 tensors)

cl0.weight f4 [64, 8]
000000 7f d7 06 3d 0c 54 62 3f 26 d8 8b be 66 7f 08 bf
       0.032920357 0.88409495 -0.27313346 -0.53319395
000010 d4 ea cb 3a 2f 1e 80 3e e4 2e 24 bf 54 5e a8 3e
       0.0015557655 0.25023028 -0.6413405 0.32884467
000020 6d 0c 32 be fd 37 77 be a3 d8 65 3d 4c 40 2c bf
       -0.17387553 -0.24142452 0.056114804 -0.6728561
000030 d2 5d 19 bf ed 7d c6 3e ed 8c dc 3e 9e 64 27 3f
       -0.59908783 0.3876795 0.43076268 0.65387905
000040 25 91 0f 3f ae 6f 99 bd 4a c3 e4 3e 6a 08 21 3f
       0.5608085 -0.07492004 0.44680244 0.62903464
000050 1b 7a b6 be d4 03 ec be dc d3 e5 3e 85 4e cf be
       -0.35640034 -0.4609667 0.44888198 -0.40489593
000060 9d 31 2b 3f 3b 3a ed 3d 81 94 08 3d 80 9b 6f 3e
       0.6687258 0.11583372 0.03334475 0.23399162
000070 12 70 9a 3e fe 35 89 bf 02 66 b8 be 5a ec de be
       0.30163628 -1.0719602 -0.36015326 -0.43539697
000080 85 2d 4a bf 80 58 85 3e 86 78 5f 3f d9 80 34 bd
       -0.7897571 0.26044083 0.8729328 -0.04406819
000090 b4 3a 84 3f e3 b4 8f bf 2f 71 20 bf a4 e0 4a 3f
       1.0330415 -1.1227077 -0.62672704 0.79249024
0000a0 d0 82 2d be a0 6d 3a 3e c5 e8 36 3d 2c 25 cf bd
       -0.16944432 0.18205881 0.04465558 -0.10114512
0000b0 cc 22 cb 3e d7 5b 8d bd 80 81 38 be 19 3c 04 be
       0.39674985 -0.06902283 -0.1801815 -0.1291355
0000c0 3e 65 a5 3e 44 e4 04 3e 53 43 47 3f e4 87 14 bf
       0.32303804 0.12977701 0.77837104 -0.5801985
0000d0 a7 23 9e be d8 d6 8f 3e e2 98 fb be 11 63 1e be
       -0.30886576 0.280936 -0.49140078 -0.15467478
0000e0 80 ad 2f 3f 3b 73 cc 3e c0 53 b6 be 83 42 a4 be
       0.68624115 0.39931664 -0.3561077 -0.32081994
0000f0 33 e5 92 be 98 e0 6d bf 23 e0 19 bd 92 ca f8 3e
       -0.2869049 -0.9292083 -0.03756727 0.4859205
000100 ca 90 fb 3e 71 77 59 3f 69 07 6b bf 72 cd 0a 3f
       0.49133903 0.8494788 -0.9180818 0.54219735
000110 a7 14 2b 3e e5 cb e6 3e 05 f0 86 bf f4 34 b6 3e
       0.16707097 0.45077434 -1.0541998 0.35587275
000120 51 de 55 be 2d de fb 3e 6f a8 41 3f 76 76 fd 3e
       -0.20885588 0.49192944 0.75647634 0.4950444
000130 81 b5 9e 3e d2 44 2c be 23 5c 0f 3f 3e 73 10 3f
       0.30997851 -0.16823128 0.55999964 0.56425846
000140 92 e8 2a bf 8c c1 44 3f 88 27 01 3f 45 f2 26 bf
       -0.66761124 0.7685783 0.50450945 -0.65213424
000150 8b 3c ab bf db 4a 15 3f de d3 27 3f fe 1a 0a 3f
       -1.3377851 0.58317345 0.6555766 0.53947437
000160 ad c9 e5 3d e8 b0 2a bf 08 3d a5 bc bd fa a7 3e
       0.11220107 -0.6667619 -0.020170704 0.32808486
000170 11 d3 fe be 02 c5 af 3e 5b a3 3e 3e 59 77 4b 3e
       -0.49770406 0.34329993 0.18617003 0.19869746
000180 fa d6 01 bf 26 8b 2a be 8b 8b c6 3d 7c de 4f bf
       -0.50718653 -0.16654643 0.096945845 -0.8119886
000190 b6 70 17 3c 4c 7c 0e bf 56 d8 0f be e8 0e 6c 3f
       0.009243181 -0.5565841 -0.1404737 0.92210245
0001a0 37 99 e7 3e 69 c3 7d 3e 2b c2 aa be 64 4e fa be
       0.4523408 0.24781574 -0.33351263 -0.48887932
0001b0 e2 16 61 bf 61 1d b7 3f 13 a5 38 bf 64 fe fe 3e
       -0.8792554 1.4305841 -0.72126883 0.4980346
0001c0 1b bb cb bc 62 4b f2 3e e0 c9 b5 3e 38 b1 8e bf
       -0.024869492 0.47323138 0.3550558 -1.1147833
0001d0 ad e5 21 bc e6 53 eb 3e 6f 35 50 3f 7a 68 3c 3f
       -0.009881419 0.45962447 0.81331533 0.7359692
0001e0 5d 46 99 be 86 6c 31 bf b0 d8 8c be 24 d7 59 3f
       -0.29936495 -0.6930622 -0.2750907 0.85093904
0001f0 00 36 4e be 5f 55 97 be 6c 51 55 bf 5a 2b 99 be
       -0.20137787 -0.2955732 -0.83327365 -0.29915887
000200 cc 7e ea be 97 2e 5b bf 96 3a 8c 3f 75 ca 13 bf
       -0.45799863 -0.85617965 1.0955379 -0.577308
000210 c9 b9 98 bf 5e 45 2a 3d f6 b1 f2 bd b6 ed 1f 3f
       -1.1931697 0.04157006 -0.118503496 0.62472093
000220 69 db 3e bf b8 d6 44 3e 99 0c 80 bf 27 26 10 3e
       -0.74553543 0.19222534 -1.0003844 0.14077054
000230 a8 fd d3 3e 5c d8 1c 3f c2 2c ac bb b0 b4 d8 bd
       0.41404462 0.6126764 -0.005254359 -0.105813384
000240 f6 20 d3 3e 5f 44 54 be 0f 32 9f 3f f5 9f ee be
       0.41236085 -0.20729207 1.2437152 -0.46606413
000250 27 57 31 bf 36 2f ad be ba 61 65 bf 55 06 a5 3e
       -0.6927361 -0.33825082 -0.89602244 0.32231393
000260 5e 59 5b bf a4 e7 0a bf b2 95 45 bf aa 25 29 bf
       -0.8568324 -0.54259706 -0.7718154 -0.66073096
000270 98 72 ae 3f 8f 0e 3d 3f 79 c1 62 be 87 4d 8b 3f
       1.3628721 0.7385034 -0.22144116 1.0883034
000280 ae 5b 18 bf c0 a0 7d 3d 48 60 4f bf 30 88 26 3f
       -0.5951489 0.06192088 -0.8100629 0.65051556
000290 7b 4a 03 be 2c 61 e2 3e 6d 76 1a bf 1b 04 07 bf
       -0.12821381 0.4421476 -0.60336953 -0.5274064
0002a0 b2 50 11 3f ef b2 71 3f 53 b6 7b be 5c e3 3e bf
       0.56763756 0.94413656 -0.2458127 -0.7456567
0002b0 e4 4a 4d bf 4d db 10 bf 92 08 85 bf 10 82 e4 bd
       -0.801924 -0.56584626 -1.039324 -0.1115762
0002c0 c1 c6 2b bf 6c 3b 6e bf 3c e6 3a 3e d4 84 1c 3f
       -0.6710015 -0.9305942 0.1825189 0.6114018
0002d0 3e ce 66 bf d6 b9 96 3f 5e 76 60 3f 97 3a 83 be
       -0.9015845 1.1775463 0.87680614 -0.25630638
0002e0 95 76 42 3f b0 e7 c4 be df 64 28 bf 43 ca db be
       0.7596219 -0.38458014 -0.6577892 -0.4292775
0002f0 dc 0f cd 3e 30 f5 b6 be 2b 0d ba 3d 30 b4 f8 be
       0.40051162 -0.35733938 0.09084543 -0.48574972
000300 e3 c9 dc bc b0 4b 4c 3f a1 8a 1b bf fc b1 4c 3f
       -0.026951736 0.7980299 -0.60758406 0.7995908
000310 10 3b 46 bf ed d7 2e 3f 8d 80 83 bf 99 87 03 3f
       -0.7743387 0.68298227 -1.0273606 0.5137878
000320 58 24 f8 bc e0 1e dc bd c9 ed 10 3f a3 aa 0a 3c
       -0.030290768 -0.107480764 0.5661283 0.0084635345
000330 de 5b 5a bf b1 be 97 3a 5c a3 2e bd f5 d7 d0 be
       -0.8529643 0.0011577216 -0.04263626 -0.40789762
000340 6e c5 d9 3e d6 b4 f8 be bb a0 01 3f ec d4 a7 3e
       0.4253344 -0.48575467 0.5063588 0.32779634
000350 02 cb 50 3b 11 cd 9a 3f 25 9c 1d bf 00 5e fe 3d
       0.0031859283 1.2093831 -0.6156638 0.12420273
000360 5a fa ed 3e e2 cd 05 bf 20 cb 64 3f f6 5b 8a be
       0.46480066 -0.5226728 0.89372444 -0.27023286
000370 9d 31 9a 3c d7 9e 06 3d ce 41 4b bf 68 f9 b8 3d
       0.018822486 0.032866325 -0.79397285 0.090319455
000380 1a aa f9 bc 9a ef 59 3e 2a 1a 2f 3e c3 7e a1 be
       -0.030476619 0.21282807 0.17099825 -0.31542024
000390 9e b4 c0 bd 67 f7 b0 bf 0a af 72 3e af 72 36 3f
       -0.0940945 -1.3825501 0.23699585 0.71268743
0003a0 1a 1e 7d bf b0 a0 7b bf ff 11 1a 3f 86 ba 62 3f
       -0.98874056 -0.98292065 0.6018371 0.8856586
0003b0 d7 03 05 3e ad 99 4b 3f 2b 56 39 bf fb 48 10 3f
       0.12989746 0.79531366 -0.72397107 0.5636136
0003c0 26 ad fe bd d3 79 05 3f 81 82 01 bf 3e 9f 92 3e
       -0.12435369 0.52139014 -0.5058976 0.28637117
0003d0 8c 51 cf 3a 59 05 29 bf 2c 4b b9 bd 47 aa 75 3e
       0.001581715 -0.66023785 -0.09047541 0.23990737
0003e0 31 dd 77 3f c7 4f 63 3d fe 07 41 bf 76 c1 45 3f
       0.96821886 0.055496003 -0.7540282 0.7724832
0003f0 c6 cd a9 3e 4b fe a6 3d 90 0e 37 be 25 6d 61 bf
       0.33164805 0.08153971 -0.17876649 -0.88057166

cl0.bias f4 [64]
000000 8c 9a a8 3d 79 61 88 bd 15 ee bd bd 2e aa e2 3c
       0.082326025 -0.066592164 -0.09273926 0.027669039
000010 a1 2e b7 3d 31 2a 1e 3e 46 c0 59 3e a2 da cd bd
       0.08944441 0.15445782 0.21264753 -0.100514665
000020 fc ea 82 bd 38 b0 df bc 40 e6 0b bd b5 e4 63 3d
       -0.06392476 -0.027305707 -0.03415513 0.055638034
000030 7e bc ad bd a9 ef 66 bd 00 d2 41 be 29 cb 3d 3e
       -0.08483218 -0.0563809 -0.18927765 0.1853453
000040 9b d1 ae 3d f8 b4 a3 3d fa 5d 92 3d 01 02 8f 3d
       0.08536073 0.079935014 0.07146831 0.06982804
000050 ec 4a ac 3b a3 92 4a 3c 8a a2 f5 3d 0a 0d c6 3d
       0.005257955 0.0123640625 0.119938925 0.09670456
000060 8d 39 e3 bd cc ee cf 3d b3 c2 15 3e 60 de 40 3e
       -0.11094961 0.10152969 0.14625053 0.1883483
000070 13 22 dc bb 7c 78 5b 3b fb bd 43 bd 90 62 aa bc
       -0.006717929 0.0033488562 -0.0477886 -0.020798951
000080 78 d0 93 be e8 68 67 3e e8 8b a4 3d da 4a f7 3b
       -0.28869987 0.22598612 0.080344975 0.007546765
000090 0f 2e 56 3e 84 8e 49 be b5 7d 4c bb 47 b4 16 3e
       0.20916007 -0.19683272 -0.0031202857 0.14717208
0000a0 95 cd 56 3e af 61 66 3d 97 19 c7 bd c0 9e 54 bd
       0.20976861 0.056245502 -0.09721678 -0.05190921
0000b0 84 b8 e1 bd 27 0a 30 3e 64 0e 8d b8 b6 67 04 3d
       -0.11021522 0.17191373 -6.7260844e-05 0.03232547
0000c0 02 c7 86 3d 32 dd b3 3b 85 5d 95 3c 1a 86 6e bd
       0.065809265 0.005489015 0.01823307 -0.058233358
0000d0 87 e5 0b bb 78 45 5d bd 58 2a 35 bc 08 75 0c be
       -0.0021346526 -0.05402133 -0.011057459 -0.13716519
0000e0 36 d4 ba bd 46 d5 d6 3c 72 89 31 bd ff b8 64 be
       -0.09122507 0.026224744 -0.04334397 -0.22336195
0000f0 5e 62 0a 3d eb 1b 96 bd 54 be 72 3e 0c 3b 8a 3d
       0.033785217 -0.07329544 0.23705417 0.067495435

cl1.layer_0.weight f4 [64, 64]
000000 46 92 89 3e 9e c8 d5 3e d9 d3 4e 3e f1 a1 fa bc
       0.2686941 0.4175462 0.20198001 -0.030594798
000010 b6 2a 54 3d f0 df b0 3e 97 80 5c bd 35 9f 14 3b
       0.051798545 0.3454585 -0.05383357 0.0022677903
000020 ca a3 6d 3f 6b 45 5e bf e5 2a 96 3e 1d 79 27 bf
       0.9282805 -0.86824673 0.293296 -0.6541918
000030 c1 b1 1c bf 2a e4 f0 bc 34 ad 7f be ac ad 55 bf
       -0.6120873 -0.029405672 -0.24968415 -0.8346813
000040 31 dc 1a bf f3 48 40 bf 95 43 43 3f 6e 54 36 be
       -0.60492235 -0.7511131 0.76274997 -0.17805645
000050 d1 97 04 3e 74 6f 6c 3d 6c c2 cb bd 3a 5e 18 3f
       0.12948538 0.057723477 -0.099491924 0.5951878
000060 ae 12 8f be 31 06 13 bf 87 f7 2b bf bc 78 6a 3c
       -0.2794394 -0.5743132 -0.6717457 0.014311012
000070 f6 72 58 3f 71 ac 8b be 17 f7 37 3f aa 5a ff be
       0.84550416 -0.2728 0.71861404 -0.4987386
000080 aa 0a e5 be 11 e9 92 3e 6f 89 92 be ac 34 ce 3e
       -0.447347 0.2869344 -0.2862048 0.4027456
000090 cd 7f 57 3f 0f 3c 62 3f ee 5f 45 bf 94 03 1f bf
       0.84179384 0.8837289 -0.770995 -0.62114835
0000a0 fd b4 2c bf 9d 52 53 be 6c cf 16 3f 55 27 31 be
       -0.67463666 -0.20636983 0.5891025 -0.1730016
0000b0 95 de 78 3e 09 41 79 be 19 9c ce 3e 18 2c a7 be
       0.24303658 -0.24341215 0.40353468 -0.32650828
0000c0 d8 dd 43 3e 3e 01 5c be f0 44 54 3f 8e ad 17 be
       0.19127595 -0.21484849 0.8291769 -0.148123
0000d0 85 de ef be 7a ae 23 3f c8 19 0b bf 04 de d7 3e
       -0.46849456 0.63938105 -0.54336214 0.42161572
0000e0 ab 58 69 bf e0 7f 25 3d 93 d6 06 3f 9d 4f 2f 3d
       -0.9115092 0.040405154 0.52671164 0.042800535
0000f0 e1 d4 df 3d 45 3a df bd a0 0a 2e 3f b8 7d 78 3f
       0.10929275 -0.10899786 0.6798496 0.9706683
000100 d4 f3 d5 b7 53 78 d4 36 4b 46 bc b7 b2 16 63 37
       -2.550512e-05 6.3321e-06 -2.244408e-05 1.35355385e-05
000110 0a 36 df b7 e5 c9 19 37 bc 96 00 38 46 74 4e b7
       -2.6608835e-05 9.166518e-06 3.065796e-05 -1.2305629e-05
000120 f7 a8 42 37 18 ce 00 b8 b3 a3 ec 37 f6 b0 e5 36
       1.1602641e-05 -3.0709518e-05 2.820962e-05 6.845333e-06
000130 89 76 e1 37 03 68 9a 36 b4 80 45 b7 df 26 a1 35
       2.6877287e-05 4.601666e-06 -1.1772081e-05 1.2006748e-06
000140 0c c8 f8 36 97 40 cb b7 2b 71 90 37 d7 b2 bc b7
       7.4142645e-06 -2.4229563e-05 1.7218836e-05 -2.2494625e-05
000150 a2 48 b0 37 8a df 9f 37 35 43 88 37 7b a0 b8 37
       2.1014657e-05 1.905837e-05 1.624376e-05 2.2009239e-05
000160 7e 27 bc 37 78 66 68 b5 4e ac f3 37 6c 24 b2 b7
       2.2429736e-05 -8.6575847e-07 2.9048093e-05 -2.1236214e-05
000170 00 ad 9f b7 e1 7b 91 37 76 d4 09 b8 6e 03 ed b7
       -1.9034836e-05 1.7343033e-05 -3.2861215e-05 -2.8254199e-05
000180 9a e5 ca 35 a6 8e 23 b7 6e 87 c5 37 9f 16 be b7
       1.5116996e-06 -9.74877e-06 2.3547294e-05 -2.2660299e-05
000190 d2 69 01 38 48 69 a9 37 d2 45 f5 36 ed 3b c3 b7
       3.085455e-05 2.0195395e-05 7.309697e-06 -2.3273717e-05
0001a0 69 82 b5 b7 3a bf c3 b7 43 94 81 37 99 dc 04 b7
       -2.1637608e-05 -2.3334858e-05 1.5447038e-05 -7.919175e-06
0001b0 1a 78 85 b7 ba 59 e9 b7 f3 4b b2 b6 34 a5 39 37
       -1.5910762e-05 -2.7817547e-05 -5.313655e-06 1.1065324e-05
0001c0 61 fc 9d 37 4a 1b 65 b7 28 99 04 b8 fa 54 6d b7
       1.8833382e-05 -1.3655817e-05 -3.161389e-05 -1.4146086e-05
0001d0 bb b2 8e 36 a8 4f 63 b7 51 48 dd 36 af f2 65 b7
       4.2527367e-06 -1.3548801e-05 6.594732e-06 -1.3705968e-05
0001e0 19 f5 b0 36 d9 88 87 b7 cf 38 3c b8 48 cc db b7
       5.273742e-06 -1.6156979e-05 -4.48756e-05 -2.620196e-05
0001f0 92 ca 4b b7 90 ec 08 b7 d7 c1 04 37 b3 56 1f b7
       -1.21469075e-05 -8.161311e-06 7.912945e-06 -9.497325e-06
000200 df 1d 86 37 97 c0 00 b8 38 c0 cb 37 09 ce c5 b7
       1.5987955e-05 -3.069694e-05 2.4288995e-05 -2.3580173e-05
000210 4b 73 83 37 98 8a 60 b7 7c 27 7c b7 24 a2 26 38
       1.5670104e-05 -1.3383709e-05 -1.5029564e-05 3.972849e-05
000220 4c b2 d1 b6 15 f1 a7 b7 b0 77 45 36 9f 84 ba b7
       -6.249442e-06 -2.0020214e-05 2.9424955e-06 -2.2234684e-05
000230 3a af cd b7 62 ec 83 b6 35 ce 21 b8 46 11 36 37
       -2.45195e-05 -3.931623e-06 -3.8577436e-05 1.0852067e-05
000240 d2 42 8a 37 04 7b 0b b7 23 23 7a b7 98 ef 82 36
       1.6481998e-05 -8.313687e-06 -1.4909342e-05 3.9021943e-06
000250 10 6e 17 b7 9f b2 cd 37 23 e6 e2 b7 ca 85 7b b7
       -9.025927e-06 2.4521081e-05 -2.7048465e-05 -1.4991916e-05
000260 c3 93 10 38 21 51 82 b7 21 03 0c 38 b1 63 5b b6
       3.446989e-05 -1.5534986e-05 3.3381515e-05 -3.269157e-06
000270 50 30 08 37 60 f8 85 b6 ee 16 c1 b7 e2 3a 51 37
       8.11748e-06 -3.9926235e-06 -2.301807e-05 1.24710805e-05
000280 0e f8 9c 36 25 9c fd b6 a6 26 11 b7 9c 49 dd b7
       4.6780397e-06 -7.558165e-06 -8.651672e-06 -2.637953e-05
000290 3a 6c d5 36 16 fc f0 37 ea a3 3e b7 fd 5e 60 b8
       6.360494e-06 2.8727616e-05 -1.1363047e-05 -5.3494226e-05
0002a0 0a 79 a3 36 aa 00 62 b7 05 1c be 37 b0 3a 06 38
       4.8718694e-06 -1.3470804e-05 2.2662813e-05 3.2002747e-05
0002b0 8c f7 de 37 2c b6 8d b7 b2 a5 67 38 be 15 fa 36
       2.6579735e-05 -1.689334e-05 5.5229008e-05 7.4531117e-06
0002c0 d9 e0 85 37 e3 b6 d3 37 05 73 ce b7 4d ac b9 b7
       1.5959538e-05 2.5238323e-05 -2.4610674e-05 -2.2133952e-05
0002d0 cb ca ff b6 c2 6c 8d 37 35 c7 d7 b7 ab 8a 63 b7
       -7.6232004e-06 1.6859154e-05 -2.572276e-05 -1.35625405e-05
0002e0 9b d6 03 38 6c a3 d6 b5 1c 0d e9 b7 27 bd ef b6
       3.14327e-05 -1.5991805e-06 -2.7781869e-05 -7.1447753e-06
0002f0 0f 11 a3 37 77 26 83 37 74 ff 15 b8 16 02 73 b7
       1.9439058e-05 1.5634329e-05 -3.5762278e-05 -1.4484414e-05
000300 7e 2f 2b bf bb bc f7 3e df 60 49 3f 22 18 a7 3e
       -0.6686934 0.48386177 0.7866344 0.326356
000310 8c ff 2f bf e7 a0 0b 3f 78 78 91 bf 0d 9e 45 bd
       -0.6874931 0.5454239 -1.1364889 -0.048246432
000320 fe 16 1d bf 6c a1 6a bf ce 32 7a be 15 eb 9b be
       -0.6136321 -0.9165256 -0.24433443 -0.3045279
000330 88 56 c0 3e b8 aa 9c bc 71 78 0c be 6a 9d a1 3f
       0.37566018 -0.019124374 -0.1371782 1.2626164
000340 d4 0b 7e 3f a4 62 c0 3e 19 e2 3b bf 95 ab 29 bd
       0.992368 0.37575257 -0.7339187 -0.0414234
000350 c6 b1 5c 3c b8 0d 51 be a4 fb ff 3e 30 e2 56 bf
       0.013470119 -0.2041539 0.49996674 -0.83938885
000360 1d 47 1b bf 12 f6 e4 3d 31 36 fe be 5f 59 f2 bd
       -0.60655385 0.11179747 -0.4965072 -0.118334524
000370 69 c8 ee be a8 b6 88 3f 94 b6 0b 3f a4 b7 70 3f
       -0.46637276 1.0680742 0.5457547 0.94030213
000380 e4 3e 47 3f e6 e9 04 3f e2 f8 54 3e ac c6 fb be
       0.7783034 0.519194 0.20798066 -0.49175012
000390 76 0d 8b 3e 35 59 d1 3e 29 86 fc 3d 92 be fc 3e
       0.27158707 0.40888372 0.123302765 0.49364144
0003a0 92 f1 1a bf d3 fb 3f bf af 74 29 3f 24 c4 fb be
       -0.6052486 -0.7499363 0.6619367 -0.4917308
0003b0 ed bd f4 be 7f 2d ea 3e e7 0e 5c be 93 a8 4e bf
       -0.47801152 0.45737836 -0.2149006 -0.80725974
0003c0 0d e3 89 bf 16 c9 2c 3f 05 0d dc 3e ef 79 73 3f
       -1.0772415 0.6749433 0.42978683 0.9510793
0003d0 ef b3 ab 3e 0f 24 9b be 8d 17 b7 be 66 c3 f0 be
       0.33535716 -0.30300948 -0.35760155 -0.47024077
0003e0 b4 90 2a 3d 2d 11 23 bf 3d bc a3 be e5 81 42 3f
       0.041641906 -0.63698083 -0.31979552 0.75979453
0003f0 ee 60 a0 be 49 c7 4a 3f 46 0c 50 bf 50 bf 70 bd
       -0.3132395 0.79210335 -0.8126873 -0.0587762

cl1.layer_0.bias f4 [64]
000000 86 24 4e 39 c4 9d 0d 38 f0 b8 10 b8 d7 c6 7e be
       0.00019659297 3.376395e-05 -3.4504512e-05 -0.24880539
000010 08 3e 14 b7 2e 73 a3 b7 58 10 76 b7 b1 0d 72 36
       -8.83593e-06 -1.9484749e-05 -1.4666548e-05 3.606878e-06
000020 e4 02 82 bd 38 b9 c6 bd 2d dd 73 37 f4 1f 1c bd
       -0.063482076 -0.097032964 1.4535425e-05 -0.03811641
000030 6e 24 1e 37 98 69 21 b6 e8 dc ad bd 3d 8f 81 b7
       9.426016e-06 -2.4052333e-06 -0.084894 -1.5444699e-05
000040 8e ac e6 bc eb df 41 37 24 ed 1e bd 08 10 31 bb
       -0.028158452 1.1555831e-05 -0.038800374 -0.0027017612
000050 5c 3f 90 b7 88 5b 11 be 72 95 e0 37 f1 01 77 b7
       -1.7195642e-05 -0.14195073 2.6772472e-05 -1.4722799e-05
000060 e2 83 14 38 c6 d7 86 b7 82 55 98 b7 df dc d1 b6
       3.5408775e-05 -1.6074522e-05 -1.815963e-05 -6.254398e-06
000070 96 a4 2e bd de e2 03 be 3c 17 41 37 f5 2a 34 3a
       -0.04263743 -0.12879512 1.1509106e-05 0.0006872856
000080 b5 9c f7 35 f6 34 8d b7 15 2e 2e 3a b1 7a d2 36
       1.8448542e-06 -1.6833172e-05 0.000664444 6.272771e-06
000090 44 6f 34 b9 e5 ed 89 3c d9 cd b9 b7 ff 5b d5 38
       -0.00017207587 0.01683707 -2.2149574e-05 0.00010173767
0000a0 54 9a e3 36 ca 11 06 3c de ac 8a bd 9c 3d d0 39
       6.7830933e-06 0.008182952 -0.06771253 0.00039718754
0000b0 50 6d e2 b6 0e 2e 10 bd 4c 8a d5 bd c7 1a f9 36
       -6.7480505e-06 -0.03520017 -0.10426769 7.4238956e-06
0000c0 64 7c a3 bd eb 1e 80 b5 4a 08 89 b9 23 0c 48 b7
       -0.0798271 -9.545741e-07 -0.00026136852 -1.1923755e-05
0000d0 2a 22 1e b6 dd c6 bb 37 c2 ba 0e b7 be 4b cf bd
       -2.356372e-06 2.238474e-05 -8.5073425e-06 -0.101218686
0000e0 6f 85 b6 b6 ca ac bb b7 3d cc 89 3a 72 09 52 37
       -5.4395564e-06 -2.2372598e-05 0.0010513138 1.2519175e-05
0000f0 3e 1e 9b 3a 4d a2 7b be d8 28 f5 bc 71 57 24 be
       0.0011834574 -0.24573632 -0.029926702 -0.16048981

cl1.layer_1.weight f4 [64, 64]
000000 48 d2 05 b8 64 86 02 b7 56 e8 9a 37 40 e0 97 37
       -3.190551e-05 -7.779894e-06 1.846642e-05 1.8105027e-05
000010 44 62 72 b6 31 d2 91 b7 ec a5 f4 37 bf d9 8c 37
       -3.6118008e-06 -1.7383225e-05 2.916433e-05 1.6790696e-05
000020 88 2c a1 b7 df d0 6d b7 bb 7b 37 b8 ff f6 bf 36
       -1.9213432e-05 -1.4174932e-05 -4.3745833e-05 5.7209977e-06
000030 6a a3 f8 b6 41 92 01 b7 82 64 e8 b6 5a ca d3 b7
       -7.41e-06 -7.723052e-06 -6.9258394e-06 -2.5247387e-05
000040 81 73 ae 36 83 c7 11 37 11 9b c0 b7 59 13 18 37
       5.1990505e-06 8.689126e-06 -2.2960392e-05 9.064411e-06
000050 e9 04 ef b7 28 36 33 37 5d ae 05 b6 c9 f5 8c 37
       -2.8493307e-05 1.0681841e-05 -1.9920037e-06 1.6803753e-05
000060 84 c4 36 38 c2 1f db 36 2d 5a dd b7 e2 23 0c b6
       4.35752e-05 6.5304057e-06 -2.6387244e-05 -2.0882512e-06
000070 c8 16 f4 36 35 87 f3 b6 f0 f7 9a b7 a5 c1 f7 b7
       7.2744187e-06 -7.2577045e-06 -1.8473685e-05 -2.9534867e-05
000080 a2 a4 3c 38 47 b7 74 b7 81 2f 27 38 56 91 ba 37
       4.497602e-05 -1.4586206e-05 3.9860144e-05 2.2240605e-05
000090 1a db 0c 37 0d 76 f3 36 18 81 a7 37 c1 70 87 36
       8.395664e-06 7.2557073e-06 1.9968065e-05 4.03644e-06
0000a0 52 ef da b6 f1 59 91 35 91 29 ed b7 f9 21 37 b8
       -6.524767e-06 1.0829518e-06 -2.8271957e-05 -4.366224e-05
0000b0 75 46 10 b7 bc 8b 04 b7 01 db f9 b6 14 1d f5 37
       -8.599473e-06 -7.900348e-06 -7.4462737e-06 2.9219816e-05
0000c0 ac 13 ff 37 19 c3 36 38 29 e1 58 37 e3 d4 08 37
       3.040753e-05 4.357388e-05 1.29270275e-05 8.155798e-06
0000d0 de aa 3c b8 62 07 12 b7 70 26 7b 37 ce 71 bd 36
       -4.4981825e-05 -8.703997e-06 1.4969715e-05 5.6458875e-06
0000e0 a5 4c 0b 36 c4 89 a7 37 c6 96 79 36 46 a0 9f b7
       2.0757227e-06 1.9972103e-05 3.7191653e-06 -1.902891e-05
0000f0 bc 93 29 38 1e 2c 6e 37 0d b8 00 37 32 41 71 b7
       4.043033e-05 1.4196177e-05 7.672247e-06 -1.4379899e-05
000100 60 30 2c b9 7d a6 92 b7 c1 42 f0 37 47 54 50 39
       -0.0001642122 -1.7482083e-05 2.8641314e-05 0.00019867822
000110 b2 8c e8 b7 a8 2c 0b 37 f7 8a 76 37 a6 5b c9 b7
       -2.7722072e-05 8.295443e-06 1.4695098e-05 -2.4003744e-05
000120 81 30 90 36 36 6a c7 38 6a 4d 29 b7 f9 16 11 bd
       4.297181e-06 9.508843e-05 -1.0091209e-05 -0.0354223
000130 39 7a 04 38 54 5e a2 37 8b e8 b6 b7 40 32 37 b7
       3.158508e-05 1.935583e-05 -2.1804377e-05 -1.091935e-05
000140 3c d7 1c 38 37 33 b2 b7 5b 35 b5 b7 0d ca 0c b7
       3.739375e-05 -2.1243102e-05 -2.1601727e-05 -8.391694e-06
000150 ab bd f7 b6 02 6b 2a 37 09 32 00 b5 6d e2 0e b7
       -7.383254e-06 1.0157704e-05 -4.7756527e-07 -8.516578e-06
000160 69 bb 9e b7 4f 8d ab 37 84 2b 34 b7 0b ca a1 b7
       -1.8922337e-05 2.045059e-05 -1.0738968e-05 -1.928678e-05
000170 2f 11 6a 38 c3 3f 82 bd 28 93 45 37 f2 e5 7d b5
       5.580595e-05 -0.06359818 1.17763775e-05 -9.458446e-07
000180 7b 63 86 b6 3c 74 18 37 b5 e7 0f b7 dc db 18 37
       -4.0050923e-06 9.086969e-06 -8.577413e-06 9.111096e-06
000190 73 d2 cd b7 bf d3 82 3e 9e 91 1a b7 cf 66 20 37
       -2.4535902e-05 0.25552174 -9.213019e-06 9.56068e-06
0001a0 f8 02 00 b7 2e 9e 85 b9 7b 48 26 38 f8 48 9a b7
       -7.630086e-06 -0.0002548559 3.9644987e-05 -1.839221e-05
0001b0 93 f3 22 37 1b 9c 7a 38 d8 8e 1e b8 d2 72 ea 36
       9.712664e-06 5.975003e-05 -3.780317e-05 6.9871103e-06
0001c0 e4 b9 ff b6 a0 55 f7 37 47 e9 14 b8 fb ee 0a b7
       -7.6212327e-06 2.9484567e-05 -3.5503206e-05 -8.281083e-06
0001d0 86 4f 06 b7 8b d8 0c b7 7b c1 cd 37 e6 c3 82 bd
       -8.005538e-06 -8.395068e-06 2.4528e-05 -0.06385021
0001e0 9d c2 0c b7 e8 c2 21 38 52 d7 9e b7 d1 db f5 b6
       -8.389962e-06 3.8566912e-05 -1.8935334e-05 -7.327159e-06
0001f0 ce 7e f5 b7 ad 06 77 37 fc 4d 39 b7 02 1e 4b 37
       -2.9265324e-05 1.4723902e-05 -1.1045016e-05 1.210673e-05
000200 69 7b 5a bd 74 3d 56 b8 22 99 ed b7 c3 08 80 bc
       -0.05334035 -5.107881e-05 -2.832391e-05 -0.015629178
000210 a0 98 c0 b7 3d 61 70 b7 87 c5 1b b8 92 a2 43 36
       -2.2959255e-05 -1.4327755e-05 -3.713884e-05 2.9151893e-06
000220 8e 1f 54 3f 92 0b 0e bf d4 68 11 b7 92 fb a2 3e
       0.8286065 -0.55486405 -8.667081e-06 0.31832558
000230 d5 f7 5e b7 95 02 93 36 a6 54 c0 bd d3 1b 27 36
       -1.3289934e-05 4.381242e-06 -0.093911454 2.4901135e-06
000240 65 a2 d6 3e 3f 2b 4a b6 ef 89 98 be c0 3a 33 be
       0.41920772 -3.0125518e-06 -0.29792735 -0.1750288
000250 0a 12 0e b6 94 94 e6 3e 0b d0 ba b6 97 91 b9 b7
       -2.117015e-06 0.4503523 -5.5674514e-06 -2.2121514e-05
000260 5d 06 87 37 b8 53 e2 b6 da 8a 0a b7 03 a7 ed b7
       1.6096217e-05 -6.745071e-06 -8.25777e-06 -2.8330373e-05
000270 bf 4a 53 bf 8a 28 b4 3d 14 ba 32 35 8e 26 80 ba
       -0.8253593 0.08796795 6.6580947e-07 -0.0009777115
000280 d2 1d f4 b7 00 5e a9 36 cd 4e 89 bb ee 11 4e b6
       -2.9100953e-05 5.0475355e-06 -0.004190302 -3.0706829e-06
000290 00 7d 68 bc d8 7e 2c be 80 5b a4 37 6a 0d 2f bc
       -0.014189959 -0.16845262 1.9592931e-05 -0.0106843505
0002a0 30 b2 a1 37 41 7c f9 be f1 14 69 3f 5e 92 58 bb
       1.927567e-05 -0.4872761 0.9104758 -0.0033046226
0002b0 f0 47 72 b7 89 fb 4a 3f d5 89 bb 3e da 4b 24 b7
       -1.4441073e-05 0.7929006 0.36628595 -9.792822e-06
0002c0 4f 39 f6 bd 21 c3 3e 36 c2 cc 09 bc a1 3f 90 37
       -0.120226495 2.8425786e-06 -0.0084106345 1.7195767e-05
0002d0 72 56 1e 37 8e fe c4 b7 af 42 40 b7 e7 53 8f 3e
       9.437661e-06 -2.3483557e-05 -1.1459618e-05 0.279937
0002e0 e7 13 c4 36 d7 2f 76 b7 90 82 c8 3e de 3e 06 b8
       5.843572e-06 -1.4673881e-05 0.3916211 -3.200664e-05
0002f0 e5 23 96 3b 94 d3 29 3e 99 64 18 3f a4 f1 35 bf
       0.0045819157 0.16584617 0.595285 -0.7107184
000300 b7 48 ac b7 8c cb 02 37 ce ef f4 b7 df 29 1d 37
       -2.0537858e-05 7.795996e-06 -2.9198734e-05 9.367678e-06
000310 ae d1 73 b7 87 2e 37 38 2c aa 07 37 5e c7 f4 37
       -1.45327485e-05 4.3673932e-05 8.086248e-06 2.9179904e-05
000320 8a f9 84 b7 89 ed 17 b4 95 d8 f4 37 7a 8a 15 37
       -1.5851827e-05 -1.4149386e-07 2.918792e-05 8.913334e-06
000330 f3 59 ff b7 c4 58 f8 36 41 67 a0 37 d5 57 10 b7
       -3.0440255e-05 7.4013096e-06 1.9121568e-05 -8.603519e-06
000340 74 7d 1f b7 db 2f bb 37 e0 cc 2d 37 bf c5 3e 37
       -9.506348e-06 2.2314422e-05 1.0359305e-05 1.1370924e-05
000350 ae 25 08 b7 ac 96 e3 b6 9e 34 04 b8 cd e8 11 37
       -8.115005e-06 -6.7826677e-06 -3.1520256e-05 8.696877e-06
000360 73 54 36 b8 dc c1 13 b7 92 4b e3 b7 cc 54 dd b7
       -4.347083e-05 -8.807019e-06 -2.7095699e-05 -2.638474e-05
000370 e2 3a 9c b7 09 e9 b8 37 b3 6a ba b7 cd 65 fc b6
       -1.8624069e-05 2.2043025e-05 -2.2222614e-05 -7.5220364e-06
000380 d5 58 03 b8 79 d3 6d 37 11 ea da 37 16 f7 e3 37
       -3.1315565e-05 1.4175538e-05 2.609662e-05 2.7175567e-05
000390 e1 a6 38 b8 b8 f0 c0 b7 81 db 11 37 8e c7 fc b6
       -4.4024437e-05 -2.3000277e-05 8.693781e-06 -7.5334165e-06
0003a0 61 70 02 b7 df 25 14 38 ef 99 de 37 9f a6 9e b7
       -7.774769e-06 3.532122e-05 2.6536143e-05 -1.8912657e-05
0003b0 9f 6e 1e b7 3e 63 f3 b6 7e d2 c3 b7 73 d4 ee b7
       -9.44329e-06 -7.2535177e-06 -2.334383e-05 -2.847074e-05
0003c0 3f dd bd b7 9e 3e 74 b7 0f 2d a2 36 cf 0a 07 37
       -2.2633581e-05 -1.45581125e-05 4.8332217e-06 8.049144e-06
0003d0 db 00 14 37 96 77 0b b6 4f 4c 07 b7 8c 05 b0 b7
       8.821687e-06 -2.0782222e-06 -8.064394e-06 -2.0983418e-05
0003e0 b7 7f 2c 38 f2 80 9e b7 62 89 a7 b7 77 1e 02 b7
       4.112694e-05 -1.8895113e-05 -1.9971925e-05 -7.755697e-06
0003f0 16 7f d7 b6 df f4 8c b7 4e 90 5d b7 3e 63 37 37
       -6.422294e-06 -1.6803328e-05 -1.3206225e-05 1.0930757e-05

cl1.layer_1.bias f4 [64]
000000 57 61 9a b6 f7 4c a4 37 f2 84 64 bd b3 ef d3 37
       -4.6008895e-06 1.9586163e-05 -0.05579085 2.5264779e-05
000010 7c 6e aa bd 09 fe 19 be 0d 4a b6 3c 4a eb 85 3b
       -0.083218545 -0.15038313 0.022252107 0.0040868865
000020 c5 58 82 b9 74 fa 85 3d 42 bf 06 3e 49 94 a8 bd
       -0.0002486167 0.06541911 0.13158897 -0.08231408
000030 40 93 54 3d c1 33 91 bd 84 e7 55 be 9e bc 51 bc
       0.05189824 -0.070899494 -0.20889097 -0.0128013175
000040 fc 1e 2b 38 65 8b 8a bc 9e 33 04 38 10 f8 a0 37
       4.0798433e-05 -0.016912172 3.1519325e-05 1.9189e-05
000050 48 1a 53 3e 64 aa 41 be 16 00 84 3c c1 63 28 bc
       0.20615494 -0.18912655 0.016113322 -0.010277689
000060 a4 20 5c bd b4 be a9 bd bc 29 28 bd 77 36 05 37
       -0.053742066 -0.08288327 -0.041055426 7.940099e-06
000070 bb 24 ac be 1e 0a d3 bd c2 58 2e be fc 82 a6 38
       -0.33621773 -0.10304664 -0.17026046 7.9398946e-05
000080 ab f8 06 b8 b7 ef 77 b7 2e 31 01 be a8 ff 43 37
       -3.217968e-05 -1.477816e-05 -0.12616417 1.168243e-05
000090 44 b8 a3 b6 be 02 d2 bd 49 5a 0b bd a6 d8 bf bd
       -4.87923e-06 -0.10254429 -0.03402165 -0.09367494
0000a0 86 f1 6e bd 20 cc 7f ba fe a3 18 ba 7f e9 82 bd
       -0.058335803 -0.0009757895 -0.00058227766 -0.06392192
0000b0 42 31 38 be 01 40 ad 37 b3 f2 3c b7 80 cb 2f 3b
       -0.1798754 2.0653011e-05 -1.1262181e-05 0.0026824176
0000c0 1c bf 39 3c 8f 7f e0 b7 44 9e 2c be c3 fd bb 3d
       0.011337068 -2.676228e-05 -0.16857249 0.091792606
0000d0 0f 69 49 b7 0e 43 18 3d df b4 06 37 0f 18 0b bd
       -1.20049945e-05 0.037173323 8.029135e-06 -0.03395849
0000e0 e7 77 a4 3d c7 dc 92 b9 47 c4 68 3d 68 22 e6 be
       0.08030682 -0.00028011782 0.05682781 -0.44948125
0000f0 df 73 39 36 0e 3d 2b bd 1e 2e c8 b7 75 06 ec 3c
       2.7634594e-06 -0.041806273 -2.3863333e-05 0.028811673

cl1.layer_2.weight f4 [64, 64]
000000 e0 17 08 b7 dc b7 f0 36 26 9b 3c 36 46 8c 85 36
       -8.1117905e-06 7.1739614e-06 2.8104491e-06 3.980039e-06
000010 ee 6d 89 37 2a 4f f1 b6 5c d1 2e 38 92 d3 8f b7
       1.6382863e-05 -7.1915756e-06 4.1679814e-05 -1.7145449e-05
000020 bb 23 f6 37 80 81 1d 38 63 7e 72 36 25 18 91 37
       2.9342124e-05 3.7552323e-05 3.6134377e-06 1.729659e-05
000030 d8 52 01 b7 8a ec 03 37 66 7b 91 b6 5f 02 9d 37
       -7.708288e-06 7.863282e-06 -4.335702e-06 1.8716963e-05
000040 b3 6d e3 37 79 d9 26 b6 b9 ba ab 36 1d f1 56 37
       2.7111591e-05 -2.4862513e-06 5.1179345e-06 1.28115325e-05
000050 d2 50 39 37 57 e1 ae 37 83 3f a3 37 fe af b1 b7
       1.1045677e-05 2.0847348e-05 1.946069e-05 -2.1181997e-05
000060 36 9a af b7 f4 c7 da b6 01 e9 1a b8 51 c2 c2 b7
       -2.0933436e-05 -6.520184e-06 -3.6933463e-05 -2.3217088e-05
000070 3f b0 d0 b7 5f 2d 37 b8 dd e2 51 37 1c a3 dd 36
       -2.4877603e-05 -4.3672855e-05 1.25101915e-05 6.6053017e-06
000080 a9 40 f5 b7 e3 2d 1f b7 b8 54 a4 37 30 d5 e3 b7
       -2.9236386e-05 -9.487822e-06 1.9589774e-05 -2.7159782e-05
000090 38 05 63 b7 7a 74 28 38 eb d5 a5 36 35 a9 db 36
       -1.3531469e-05 4.01628e-05 4.9422865e-06 6.546407e-06
0000a0 07 c1 78 36 49 79 87 37 38 a4 e5 37 24 60 1f b7
       3.7067236e-06 1.6149732e-05 2.7375398e-05 -9.499523e-06
0000b0 8a fd 63 b6 68 c8 d3 37 02 ba f4 37 21 23 09 35
       -3.3973215e-06 2.5246482e-05 2.9173683e-05 5.1087596e-07
0000c0 74 07 19 38 bb 38 34 b7 f0 8c d0 37 37 7f 86 b7
       3.6484984e-05 -1.0742045e-05 2.4861161e-05 -1.6033284e-05
0000d0 ce 4c a7 b7 ad a3 e2 36 bd 86 07 37 9d 1d 77 b7
       -1.9943716e-05 6.7543792e-06 8.077998e-06 -1.4729242e-05
0000e0 53 4e 8a 37 8a 17 28 b7 4f 5e 79 b7 ba fc 13 37
       1.6487355e-05 -1.0019061e-05 -1.48635145e-05 8.820725e-06
0000f0 24 2a 10 37 68 04 f5 b7 c3 af 73 36 9a d5 14 b6
       8.5928805e-06 -2.9208328e-05 3.6312128e-06 -2.217805e-06
000100 a3 ee 2f b7 ad 14 5f bb 4a 51 09 bf df bd 12 b7
       -1.0486375e-05 -0.0034039423 -0.5363966 -8.746486e-06
000110 24 17 15 bf 1e a8 6e bd c9 9a ea 3c 52 05 bc bb
       -0.58238435 -0.058265798 0.02863826 -0.005737939
000120 c3 1a 24 37 76 2c 5e be fa b3 0d b7 e5 42 18 3f
       9.781393e-06 -0.21696648 -8.446159e-06 0.5947707
000130 b3 7a 13 bf dc 87 2b be 84 4f ef 37 ef a3 08 b7
       -0.576091 -0.16751045 2.8528048e-05 -8.1444e-06
000140 4c 7f ea b6 3e f5 da bd 26 2b 14 b7 42 fd da 37
       -6.9885627e-06 -0.106913075 -8.831534e-06 2.6105557e-05
000150 7c 43 00 bf 06 31 da 35 c2 d4 50 ba c3 31 60 be
       -0.50102973 1.6256533e-06 -0.00079662737 -0.21893983
000160 99 13 5d bf ee 4a a9 3d 1b 59 ba bb c0 b4 7a b7
       -0.8635803 0.08266245 -0.0056868917 -1.4943245e-05
000170 2f 08 d6 be 97 3a 0d bf c2 dd a5 be f6 91 c1 b9
       -0.4180312 -0.55167526 -0.3239575 -0.00036920578
000180 28 b8 2c 37 3c 3b d2 37 a9 1f ca b8 fd a5 9b 37
       1.0294876e-05 2.5061534e-05 -9.638008e-05 1.8554734e-05
000190 f1 c2 8b 37 ef ac 2c 3f 2e eb 32 bd 3c b6 cd bd
       1.6660868e-05 0.67451376 -0.043681316 -0.10044524
0001a0 b1 ca 86 bb 6d 95 77 be 3e d7 15 bb 2e f2 91 bd
       -0.004113518 -0.24178095 -0.002286389 -0.0712627
0001b0 5a 9a ee be d8 d7 9d 36 c2 63 a5 37 e7 64 0f ba
       -0.46602136 4.704092e-06 1.9715986e-05 -0.0005470053
0001c0 fa 5f bc b7 d1 22 df 37 51 7b 46 3f a5 8d 72 bb
       -2.2456039e-05 2.6599884e-05 0.77531916 -0.0037010696
0001d0 c8 93 0c 37 b8 1d 04 3c 05 50 b7 b7 f8 1a 0a 3f
       8.379058e-06 0.008063726 -2.1852562e-05 0.539474
0001e0 71 b8 8d 3f 06 7d 28 3e 4f 99 1a bb e9 c9 61 3f
       1.1071912 0.16453943 -0.0023589914 0.88198715
0001f0 f7 7b 99 37 16 51 43 3d 93 24 ef b7 89 c3 49 3f
       1.8296747e-05 0.04768475 -2.8508051e-05 0.7881399
000200 52 d7 ea 36 8b 2d 07 b7 5d f7 b0 3c b5 f5 ad b7
       6.99881e-06 -8.057231e-06 0.021602327 -2.0737623e-05
000210 e9 8a a9 34 e3 38 5b b8 41 77 06 ba 2f 7e 4a b7
       3.1579773e-07 -5.226665e-05 -0.00051294646 -1.2069518e-05
000220 29 f8 0c 37 ca a6 5f 37 d3 4f 1f 3a 30 62 15 39
       8.40243e-06 1.3330669e-05 0.00060772634 0.00014246325
000230 aa bb 8c ba 37 9c 51 37 db 76 83 b9 71 25 af 37
       -0.0010737081 1.2493742e-05 -0.0002507482 2.087906e-05
000240 85 c6 cf 36 cf 56 a8 3b f6 49 e1 b6 ee be f2 37
       6.1921914e-06 0.0051373015 -6.7141327e-06 2.8937557e-05
000250 f0 ca 3c ba 45 42 6b b7 0a 5b e5 b7 b8 0c 86 37
       -0.0007201871 -1.4022521e-05 -2.734132e-05 1.5979967e-05
000260 31 d5 e9 b9 56 d3 d3 37 3f a4 53 37 81 eb 01 b7
       -0.00044600063 2.5251571e-05 1.2614822e-05 -7.743832e-06
000270 74 b2 f4 36 b1 02 93 b7 31 41 ba bc c6 81 41 37
       7.2925413e-06 -1.7525019e-05 -0.022736164 1.1533912e-05
000280 5f 57 89 36 e8 e1 02 b7 0b ca 81 bc 1b c4 a8 b6
       4.0930895e-06 -7.801202e-06 -0.015843412 -5.02962e-06
000290 08 ae 0e 37 be 80 d4 b9 aa 4d f4 b6 6f 73 fc b7
       8.504379e-06 -0.0004053171 -7.280808e-06 -3.0094494e-05
0002a0 6e f1 15 37 9f 5e f8 3c da b3 11 b8 85 99 9a 3c
       8.937304e-06 0.030318556 -3.4738194e-05 0.018872032
0002b0 2c 6d ae 37 f7 19 f6 b7 de 42 04 37 c3 5a 04 3c
       2.0793253e-05 -2.9337576e-05 7.883382e-06 0.00807828
0002c0 8e a4 13 b7 7d 42 84 b5 5b 83 a0 35 4b 37 c5 3c
       -8.800196e-06 -9.854117e-07 1.1959158e-06 0.024074217
0002d0 fb ab 0c b7 8c 79 b1 ba 0b aa de 37 02 c7 c5 b9
       -8.384693e-06 -0.0013540252 2.6543645e-05 -0.0003772304
0002e0 37 b6 6d 3c e3 f5 a9 bb 1b 0f a6 3c 14 6f 7e 37
       0.014508775 -0.0051867827 0.020270875 1.5165442e-05
0002f0 e4 3a 21 37 77 60 89 ba 7b 1f 1f 37 d2 d1 ca bb
       9.610059e-06 -0.0010481019 9.484468e-06 -0.0061895633
000300 06 3c c2 b7 f6 81 2e ba 84 a6 a8 be 60 c6 86 b7
       -2.3154553e-05 -0.0006656939 -0.3293954 -1.606642e-05
000310 57 db 0d ba 5d c5 6b 37 3d 42 02 3e 23 40 6f 37
       -0.00054114073 1.4053044e-05 0.1272058 1.4260443e-05
000320 8d d2 0e 37 ea f3 6a bb bc 24 94 bc 6f 2c 67 ba
       8.512882e-06 -0.003585095 -0.018083923 -0.0008818572
000330 fa 50 cd 36 4c e2 8c 37 4a 9e 97 36 54 64 b5 b7
       6.118903e-06 1.6794678e-05 4.518578e-06 -2.16236e-05
000340 1e df 92 b6 00 09 0b be 30 b7 a0 b7 6a 8d 9f b6
       -4.3771133e-06 -0.13577652 -1.915879e-05 -4.755032e-06
000350 a8 6d 29 bf 30 79 85 3b 57 cb 3c b9 96 93 60 bb
       -0.6618295 0.0040732846 -0.00018004827 -0.0034267656
000360 a4 8d 58 be 04 a6 3e bb 63 dd c4 35 2c 5b da b7
       -0.21147782 -0.0029090652 1.466757e-06 -2.603008e-05
000370 ba 2f 22 be b1 70 68 ba ef 27 df be c1 d3 56 38
       -0.15838519 -0.000886689 -0.43585154 5.1218787e-05
000380 8c e0 bb 35 59 24 01 37 d6 2e f8 b5 ba a2 03 37
       1.3997937e-06 7.697462e-06 -1.8491071e-06 7.846096e-06
000390 09 ab d4 b7 85 4b b1 3b 75 95 a7 b7 15 19 df ba
       -2.5352014e-05 0.005410614 -1.9977548e-05 -0.0017021025
0003a0 6d 56 01 3c c7 d2 48 3e be 3e 46 3b 4a bf 72 3e
       0.007894141 0.19611655 0.00302498 0.23705783
0003b0 db d6 93 b9 f9 40 03 b8 29 5f d9 36 0c cf 8f 37
       -0.00028198105 -3.1293344e-05 6.478182e-06 1.7143342e-05
0003c0 28 41 d4 b9 8f 4c 10 b7 6f 7b 03 3d 8b c0 b8 bc
       -0.00040484336 -8.600894e-06 0.032100137 -0.02255275
0003d0 ba 97 39 b6 b7 26 9f 3b 01 9d b9 36 67 e3 c4 3a
       -2.7655465e-06 0.00485691 5.5317073e-06 0.0015021384
0003e0 18 d3 85 3e 78 5b ee bb a2 64 b9 b6 6c f8 1e 3d
       0.26137614 -0.0072740875 -5.525145e-06 0.038811132
0003f0 50 c4 f0 36 a2 06 05 3f 8e fe 0d b7 a5 0b 53 be
       7.175411e-06 0.51963246 -8.463523e-06 -0.20609911

cl1.layer_2.bias f4 [64]
000000 f5 c6 f3 36 58 3f b6 3d 3e bb de 3a 0f cc b0 bd
       7.265126e-06 0.088988006 0.0016993058 -0.08632671
000010 d9 4c 0f 3d 4b 77 48 37 f7 4f 11 3b 1c b6 8e 37
       0.034985397 1.1948704e-05 0.0022172907 1.701252e-05
000020 57 ec fd 36 08 35 71 37 4f 42 3b bc 8d b3 1e 38
       7.567501e-06 1.4377067e-05 -0.011429383 3.7837355e-05
000030 18 e7 b9 37 68 5e b5 3c 5e b9 0f b7 bb b2 8d b7
       2.216133e-05 0.022139743 -8.566623e-06 -1.6891738e-05
000040 27 53 fd b7 6b 34 7b 3c 7e 20 ce bd 53 3c 6c 37
       -3.0198671e-05 0.015332322 -0.10064791 1.40807415e-05
000050 2c 7f df 36 45 f0 ed 38 2a 55 21 b8 a3 76 a5 3c
       6.6607226e-06 0.00011345794 -3.8464706e-05 0.020198172
000060 30 5f 90 3d b1 e2 97 3c 8b bd 50 be b5 6b f9 37
       0.070494056 0.018540712 -0.20384805 2.9733268e-05
000070 14 63 eb 36 ea 32 f7 3d 0e dc 9c b8 94 29 33 ba
       7.01508e-06 0.12070258 -7.479648e-05 -0.0006834504
000080 6e 8e 89 3c 39 12 7b 3c 77 f6 e5 37 3c 4f 01 35
       0.016791549 0.015324169 2.7413696e-05 4.8171546e-07
000090 be 7a 91 be a2 f9 32 3b c6 7b e5 36 7f 12 b7 b6
       -0.28413957 0.0027309437 6.839141e-06 -5.455978e-06
0000a0 f3 55 9b 3e e7 61 e0 3c 21 a7 bc 3c b9 62 e0 bd
       0.30339012 0.027390433 0.023028912 -0.1095633
0000b0 5f ef 9f 3c 29 f9 0d 3d f9 4d 7d bd 12 f9 d6 3d
       0.01952332 0.034661446 -0.06184194 0.10496725
0000c0 6e b6 df 3d 65 47 0d 38 57 71 8f 37 39 26 16 35
       0.109234676 3.368351e-05 1.7099706e-05 5.5934976e-07
0000d0 18 9c 69 bd a8 43 c0 bd 3e e6 c3 bd 80 f0 4f be
       -0.05703363 -0.093879044 -0.095653996 -0.20306587
0000e0 67 64 12 3d 8a 39 b7 37 fd a0 a9 bb 4b d5 2d ba
       0.035740282 2.1842094e-05 -0.005176662 -0.00066312094
0000f0 eb e2 d2 b7 73 99 03 38 15 e7 25 bd 50 5f 98 bd
       -2.5139618e-05 3.1375745e-05 -0.04050358 -0.074400544

cl2.layer_0.weight f4 [64, 64]
000000 23 8c ce 37 d2 9e 81 be 6a d8 31 b7 68 91 d5 36
       2.462237e-05 -0.25316483 -1.060041e-05 6.364822e-06
000010 e2 9d 13 bb 4c cb 98 b7 91 36 a9 37 e3 93 1b 37
       -0.0022524525 -1.821448e-05 2.017178e-05 9.2731525e-06
000020 3d 2f cd 37 f7 bf 87 b7 ee 09 d5 bc 2b fa 01 b8
       2.4459901e-05 -1.6182645e-05 -0.026005711 -3.0988984e-05
000030 16 62 71 37 c1 5f 95 ba 66 0f 17 b8 3b d8 3f b6
       1.4387557e-05 -0.0011396335 -3.6015546e-05 -2.858708e-06
000040 24 00 c7 37 d9 a7 3b bc 4d 32 ec b6 a3 be 21 38
       2.3722714e-05 -0.011453592 -7.039204e-06 3.8562936e-05
000050 5a fe f9 b6 0f 1f 42 bb 4c 2c b5 36 d8 6f 4c b7
       -7.4503887e-06 -0.0029620563 5.399377e-06 -1.2185388e-05
000060 60 9c 93 b7 25 76 ca bd 04 d4 25 be aa 80 b1 b6
       -1.7596583e-05 -0.098858155 -0.16194159 -5.2899895e-06
000070 b8 00 b9 b6 0e 68 fc 3c 85 e7 8b 37 5c 24 40 36
       -5.5135133e-06 0.030811336 1.6677901e-05 2.8631393e-06
000080 3c e4 d8 bb 3f 40 12 bb 92 6d ca b6 45 15 d7 36
       -0.0066190045 -0.0022316126 -6.032825e-06 6.4099754e-06
000090 d4 b6 14 36 5f af 22 bc 1c 6e de b6 4f 4a 9e b7
       2.2160139e-06 -0.009929507 -6.628934e-06 -1.886967e-05
0000a0 fa 7e 56 3e f7 0b 81 bd c6 6d 21 ba b6 fa dd be
       0.20946875 -0.0630111 -0.000615802 -0.4335534
0000b0 fe 4a e6 3e 76 78 12 bb d3 27 f0 bd 5f 00 cc be
       0.4497909 -0.0022349632 -0.11726346 -0.39844033
0000c0 0e f1 25 bc 48 e4 e8 b7 a9 55 9d b6 b2 c5 a5 36
       -0.010128273 -2.7762857e-05 -4.6889368e-06 4.940398e-06
0000d0 32 61 37 be 40 8a 25 be e9 e1 0d be bb 8f 11 bd
       -0.17908171 -0.1616602 -0.13855709 -0.035537463
0000e0 bf 2a 1e bb 85 77 7f b6 a9 4f 70 b4 b5 c6 32 38
       -0.0024134365 -3.806753e-06 -2.2380722e-07 4.2623567e-05
0000f0 46 d8 26 37 5f 6d dc b6 84 8a 83 bb 70 9c 81 b6
       9.944726e-06 -6.5692434e-06 -0.004014315 -3.8627113e-06
000100 a8 ab d7 36 09 b4 37 b6 64 c2 6c b7 22 51 ce 34
       6.4274827e-06 -2.737392e-06 -1.4111956e-05 3.8429522e-07
000110 64 cb 54 bd f1 2b f6 b7 cf 20 06 ba 51 d2 fd 36
       -0.05195178 -2.9345947e-05 -0.0005116583 7.5644716e-06
000120 70 02 ff 36 4f 3f 13 37 d8 5c 05 be a3 92 6f b7
       7.599876e-06 8.776623e-06 -0.13023698 -1.4279652e-05
000130 90 af d8 34 8a 3c dd bc c8 ad 09 b7 5b 81 ed 36
       4.0360874e-07 -0.027006406 -8.206298e-06 7.0782094e-06
000140 e1 8b fb 36 46 dd bb b9 5d 75 91 37 38 9f 8f b7
       7.496667e-06 -0.0003583228 1.7339999e-05 -1.712107e-05
000150 01 87 41 b7 90 5a 2a b5 60 26 db b6 c0 2f 12 bd
       -1.15351295e-05 -6.346172e-07 -6.531176e-06 -0.03569007
000160 96 fc 52 36 ed ba a8 3e 49 0d d4 bd 83 20 f5 37
       3.1439463e-06 0.32955113 -0.103540964 2.9221415e-05
000170 7e dd 36 38 84 30 7d b9 1c 0b a6 b6 24 fe 84 37
       4.3598462e-05 -0.00024146034 -4.948479e-06 1.585397e-05
000180 c0 46 b1 36 c1 36 94 bb 91 3c ad 37 8d 63 f4 b7
       5.2832474e-06 -0.0045231287 2.065141e-05 -2.9133424e-05
000190 41 9a c9 b7 79 6b 41 bd 2e 12 a2 b7 5d 4d 84 b6
       -2.4032897e-05 -0.047221635 -1.932037e-05 -3.942913e-06
0001a0 73 ee 34 bd f4 ce f4 ba ef 65 43 b5 c3 4d d3 b8
       -0.044172715 -0.00186774 -7.2791494e-07 -0.00010075748
0001b0 bb 07 15 bf e7 bd 60 bd cb 7b fc 3e 71 87 89 be
       -0.5821492 -0.054868605 0.49313197 -0.26861146
0001c0 7d 92 41 bc 6f 22 23 b7 e2 fe f6 36 a3 ad f5 b7
       -0.011814711 -9.723574e-06 7.3610436e-06 -2.9287132e-05
0001d0 db fd ca b6 71 95 8e 3e 4f 91 97 ba 5d fe 33 bf
       -6.049622e-06 0.2784839 -0.0011563691 -0.7031
0001e0 65 e7 58 bd 26 6f fc 36 05 cd ad b5 fa a3 19 b6
       -0.05295505 7.5231246e-06 -1.2949173e-06 -2.2894224e-06
0001f0 e0 3a f0 37 ae 92 ad b7 4d b7 4f be a4 96 12 ba
       2.8637645e-05 -2.069151e-05 -0.20284767 -0.0005591905
000200 94 b9 6d b7 02 f9 81 b7 ea ec 3c b7 8e a7 dc 37
       -1.4169509e-05 -1.5493952e-05 -1.1260834e-05 2.6304067e-05
000210 b2 1a 27 37 d6 5b d3 b7 05 aa 93 b7 bb 1a 57 b7
       9.960191e-06 -2.5195925e-05 -1.7602937e-05 -1.2821222e-05
000220 e5 7e da b6 24 cd cc 37 8c e6 01 37 cb 27 6e 37
       -6.5116787e-06 2.4414221e-05 7.742678e-06 1.41951705e-05
000230 a2 77 08 b7 2b 8a 08 b7 77 38 27 37 cc c6 32 38
       -8.134086e-06 -8.138401e-06 9.967122e-06 4.262365e-05
000240 f7 35 f5 36 e1 b6 05 38 6a 75 1d 37 a6 0c 75 b7
       7.3078513e-06 3.187999e-05 9.385267e-06 -1.4606083e-05
000250 72 05 33 38 b0 c8 92 b6 94 74 da 36 c9 85 19 37
       4.2681997e-05 -4.374502e-06 6.5104778e-06 9.15066e-06
000260 23 b7 2d b8 59 7a 87 37 45 74 79 36 48 02 92 37
       -4.1416974e-05 1.6150227e-05 3.717157e-06 1.7405619e-05
000270 b3 38 ff b7 00 35 76 37 18 ae 3c b8 05 97 15 b7
       -3.0424771e-05 1.4675083e-05 -4.498483e-05 -8.916254e-06
000280 89 b9 ac 36 a9 48 30 38 fe 69 13 b7 07 b0 2a 38
       5.1475986e-06 4.202934e-05 -8.786561e-06 4.0695097e-05
000290 82 50 d4 b7 8f 26 80 36 bf ee 8c 37 1d dd da 36
       -2.5309859e-05 3.819186e-06 1.6800475e-05 6.5226473e-06
0002a0 64 d7 e1 b7 6c b5 c7 37 9e 72 68 37 06 d5 ac b7
       -2.692239e-05 2.380713e-05 1.3854964e-05 -2.0603195e-05
0002b0 4f 1a db 37 af b2 ae b7 70 ac 30 b8 42 eb cc 36
       2.6119085e-05 -2.0825622e-05 -4.2122265e-05 6.1070614e-06
0002c0 99 35 00 38 84 73 02 37 ff d2 24 37 b2 6d 9e b5
       3.0567495e-05 7.775499e-06 9.824288e-06 -1.1803843e-06
0002d0 79 83 8c b7 07 d2 65 36 12 bf a0 b7 93 19 e3 b6
       -1.6750522e-05 3.4245911e-06 -1.916246e-05 -6.7681044e-06
0002e0 eb 05 82 37 48 b3 a7 b7 4a 52 49 38 ee 31 06 b7
       1.5499963e-05 -1.9991436e-05 4.7998772e-05 -7.998648e-06
0002f0 f8 78 17 b7 6e b5 17 37 c8 76 1a 37 dd 47 cc b6
       -9.028467e-06 9.042544e-06 9.206771e-06 -6.0880398e-06
000300 64 dd 01 b8 b1 24 62 b7 f6 44 78 b7 8e f6 d3 35
       -3.0962183e-05 -1.3479193e-05 -1.4798008e-05 1.5792482e-06
000310 d0 0c c6 bc eb 68 12 37 bd ed ff 37 d3 40 26 38
       -0.024176031 8.726706e-06 3.0509074e-05 3.9637856e-05
000320 a8 6f 10 b7 a6 69 0c 36 f2 45 39 bc 2f 2f 90 b7
       -8.609066e-06 2.0923121e-06 -0.01130818 -1.718811e-05
000330 0c 38 fa 37 8f 18 9c b7 1e 6a b4 37 50 62 f3 36
       2.9828421e-05 -1.8608085e-05 2.1507087e-05 7.2534094e-06
000340 26 18 f8 b6 15 07 cd b7 5a 85 a6 37 e4 a5 7b b6
       -7.393787e-06 -2.4441202e-05 1.9850839e-05 -3.7498476e-06
000350 e6 cc ee 36 24 9b ae 3c eb a0 67 b7 20 e8 c8 bc
       7.116806e-06 0.021314211 -1.380614e-05 -0.024524748
000360 89 bc 07 37 1c 5a fd b7 e8 1e 02 bd 8c d2 71 b7
       8.090524e-06 -3.020191e-05 -0.031767756 -1.4413741e-05
000370 2a 35 e0 b7 c6 d5 9d b7 a6 c3 3e 3b d3 aa d9 b6
       -2.6727637e-05 -1.8815404e-05 0.0029108315 -6.4869905e-06
000380 5e c9 9a b7 2c 6c 13 38 24 65 fc 37 5c 87 fe 36
       -1.8452e-05 3.5148274e-05 3.0087838e-05 7.585548e-06
000390 c3 45 ff b6 9e d1 36 3c d6 f3 c4 37 86 c4 0e b6
       -7.6077135e-06 0.011158375 2.3478566e-05 -2.127404e-06
0003a0 e9 4e fe b6 c8 e2 22 b8 cc a9 d4 36 61 82 f8 b7
       -7.5789762e-06 -3.8835016e-05 6.3378593e-06 -2.9624616e-05
0003b0 95 ad dc bc 6b 6f f8 bc e9 18 25 bd 74 52 e3 34
       -0.02693824 -0.030326566 -0.04030696 4.2342037e-07
0003c0 d3 dd 9e bc 17 b1 c0 b7 00 e7 f9 b6 96 a4 00 b8
       -0.019392883 -2.2970647e-05 -7.44767e-06 -3.067086e-05
0003d0 b9 f2 91 b6 7e bd b9 3c 2c b0 6d 37 5c 43 c3 bc
       -4.3495934e-06 0.022673365 1.4167319e-05 -0.02383583
0003e0 58 1d e4 bc 78 5f c9 b5 33 49 78 bb 8d 3b 85 35
       -0.027846023 -1.5003452e-06 -0.0037885427 9.926604e-07
0003f0 34 7b aa b5 e5 3e 13 37 67 19 1c bd 44 f3 c1 b7
       -1.2701844e-06 8.776527e-06 -0.038110163 -2.3120672e-05

cl2.layer_0.bias f4 [64]
000000 aa b0 0a 3d 58 7e 90 be 4c 82 60 37 fc b7 43 3c
       0.033859886 -0.28221393 1.33817775e-05 0.011945721
000010 ac 65 64 37 e6 d3 d4 b7 24 b3 c1 bb b8 0b 69 be
       1.3613531e-05 -2.5371042e-05 -0.005911248 -0.22758377
000020 88 e0 e1 3d 74 2f d0 be 16 f3 36 3b ef 95 10 bd
       0.11029154 -0.40661204 0.0027915887 -0.035299238
000030 3f ab f7 be 16 b1 c5 3c 12 bc 70 be ea cb 29 36
       -0.48372838 0.024132293 -0.23509243 2.5301656e-06
000040 04 89 ff bd db c5 78 3c 12 5e 30 bc ed 24 0c 3e
       -0.124773055 0.015183891 -0.010764616 0.13685961
000050 5b 1f b5 bd ed 94 f2 37 b7 03 10 be 7a 19 70 be
       -0.08843871 2.8917997e-05 -0.14063917 -0.23447219
000060 9d 8e 25 be f5 f5 38 3d 46 98 e8 be 74 81 1a 3e
       -0.16167684 0.045156438 -0.45428675 0.15088445
000070 61 59 95 35 fc 5d d0 3b f9 f6 ab 3e dc bc fe bc
       1.1127378e-06 0.00635886 0.33586863 -0.031095915
000080 53 4a c9 3c 9d c4 c2 3d d2 1e 22 3d d4 00 a6 3d
       0.024571573 0.09510157 0.039580174 0.08105627
000090 80 c3 57 36 1c b5 d9 bd 3f 7d 97 3c 04 4c f1 be
       3.2151293e-06 -0.10630247 0.01849234 -0.47128308
0000a0 30 34 bf bd 91 05 0b be 4b 5f 4c be c0 98 3d 3e
       -0.09336126 -0.13576342 -0.19958226 0.18515301
0000b0 17 e0 1a be 19 66 44 b9 63 04 84 bd ff 49 51 bc
       -0.15124546 -0.00018730051 -0.06446149 -0.01277399
0000c0 c4 2c a1 bd 23 84 0d be ce 3a 96 be 8c 03 0a be
       -0.078698665 -0.13819937 -0.2934174 -0.13477916
0000d0 53 53 0c be 7b fe 38 3c 76 cf 27 3c 47 e2 6c 3e
       -0.1370366 0.011291142 0.010242334 0.23133193
0000e0 d6 1a cf 3d 3c 18 65 3e 72 05 45 bd e1 9c 1f bc
       0.101125404 0.22372526 -0.048100896 -0.009741993
0000f0 fe 5f e1 3d 06 99 d3 bd 15 d1 5d be a5 46 74 3c
       0.11004637 -0.10331921 -0.2166179 0.014909421
