experiments/bess/classifier/1552933539_0.057/1552964742_6_classifier_120000.pth (torch_old, 575222 bytes, 52 tensors)

cl0.weight f4 [64, 1]
0	0x3f1c0550	0.60945606
1	0xbd809816	-0.06279008
2	0x3e2d8149	0.1694385
3	0x3f33cc0e	0.7023324
4	0x3ef3dcc9	0.47629383
5	0x3f4398bd	0.76404935
6	0xbdce024a	-0.1005903
7	0x3f172f95	0.5905698
8	0x3f3c24d4	0.73493695
9	0xbdd5717e	-0.104220375
10	0xbf314b8e	-0.6925591
11	0xbf4f1149	-0.8088575
12	0xb4ab03cb	-3.1853992e-07
13	0xbee8abba	-0.45443517
14	0xbf2bb65b	-0.6707513
15	0xbf12eb6e	-0.5739049
16	0xbeaa8576	-0.33304948
17	0xbf827c68	-1.0194216
18	0x3e871d62	0.26389605
19	0x3e6f5fb5	0.23376353
20	0x3f0ef9d1	0.5584994
21	0x3f1153b3	0.5676834
22	0x3f035adf	0.51310533
23	0x3eed999b	0.46406254
24	0x3f4898f9	0.7835842
25	0xbf0d3af2	-0.5516807
26	0xbe7a20e0	-0.24426603
27	0x3ea04f1d	0.3131036
28	0x3f5497a8	0.8304391
29	0xbf122d88	-0.57100725
30	0xbf5a2dc6	-0.85226095
31	0x3f1821f6	0.5942682
32	0x3cef70e4	0.029228635
33	0x3f08379d	0.5320986
34	0xb73cb980	-1.1248863e-05
35	0xbec96e67	-0.39342043
36	0xbf001872	-0.500373
37	0xbd491c5a	-0.049099304
38	0xbf5df79f	-0.86705965
39	0xbf4f208d	-0.80909044
40	0xbe6a0394	-0.22852927
41	0x3f6d11ad	0.92605096
42	0x3e20f6a4	0.15719086
43	0x3f5a8573	0.8535988
44	0xbefdc540	-0.49564552
45	0x3ebe4bae	0.37167114
46	0xbf1bf71e	-0.60923946
47	0x3f801546	1.0006492
48	0xbc9add82	-0.018904451
49	0x3ccb51d7	0.024819298
50	0x3ea99582	0.33121878
51	0xbf1e3619	-0.61801296
52	0xbe0690d5	-0.13141187
53	0xbe5f5f62	-0.2181373
54	0x3f375227	0.7160973
55	0x3f14131a	0.57841647
56	0xbe2e99f1	-0.17050911
57	0xbea49b23	-0.3214961
58	0x3f45b853	0.7723438
59	0x3f8105b6	1.0079868
60	0x3e524b1a	0.20536461
61	0x3dbd4e03	0.09243395
62	0x3f667a99	0.9003082
63	0x3efde54c	0.49589002

cl0.bias f4 [64]
0	0xbd54faa2	-0.051996835
1	0x3e6264ba	0.22108737
2	0xbe7f7a75	-0.24949057
3	0xbdb2a200	-0.08722305
4	0xbd5a7717	-0.05333623
5	0x3b93cd4e	0.004510558
6	0xbe1c0824	-0.1523748
7	0xbe9c8703	-0.30571756
8	0x3ddd44be	0.10804127
9	0xbe7b92df	-0.24567746
10	0x3ea10cab	0.31454977
11	0xbde6c91c	-0.11268827
12	0x3465c70f	2.1399704e-07
13	0xbc7ddf15	-0.015495081
14	0x3eb85779	0.36004236
15	0x3e9553c4	0.2916547
16	0x3e54c531	0.20778348
17	0x3e688e43	0.22710519
18	0xbe79b079	-0.24383725
19	0xbe6cd6fe	-0.23128888
20	0x3d69f077	0.05711409
21	0xbe84451f	-0.25833985
22	0x3e8bcbe1	0.27303985
23	0xbe126296	-0.1429542
24	0xbc886a50	-0.016652256
25	0xbe7507ca	-0.23928753
26	0x3e45b63e	0.19307801
27	0x3e109a1e	0.14121291
28	0x3d798a45	0.06092288
29	0x3e8b9381	0.27260974
30	0xbba6c9c2	-0.0050899694
31	0xbe4d4283	-0.20044903
32	0x36927f0b	4.365929e-06
33	0x3e95e386	0.2927515
34	0xbda19e8b	-0.07891568
35	0x3e6f80ab	0.23388927
36	0x3e82a3dc	0.2551564
37	0x3e0f6ac7	0.14005576
38	0x3d6cd9cc	0.057824895
39	0x3d6b39c3	0.057428133
40	0x3e8cef6b	0.2752641
41	0x3e253015	0.16131623
42	0x3e0c363c	0.13692564
43	0xbe003005	-0.12518318
44	0x3e9903ee	0.2988581
45	0x3e93ad04	0.28842938
46	0x3e2bf337	0.16791998
47	0xbe3c445b	-0.1838545
48	0xbe2dd342	-0.1697512
49	0xbe4b8144	-0.1987353
50	0xbdc783ec	-0.09741959
51	0xbcdd2067	-0.02699299
52	0x3e829cca	0.25510246
53	0x3d661c26	0.05617919
54	0xbd161342	-0.03663946
55	0x3e3723b6	0.17884716
56	0x3e5c12b7	0.21491514
57	0x3b639cfd	0.0034731023
58	0xbe62ae05	-0.22136696
59	0xbe495ce6	-0.19664344
60	0xbe5ba93a	-0.21451274
61	0xbe0db995	-0.13840325
62	0xbea976a4	-0.33098328
63	0xbe556c2d	-0.20842047

cl1.layer_0.weight f4 [64, 64]
0	0x3f5fa4ae	0.87360656
1	0xbebee1e9	-0.3728173
2	0x368ded38	4.2297434e-06
3	0x379d120a	1.8724259e-05
4	0xbf1f782f	-0.6229276
5	0x3e1910b7	0.14947782
6	0xbeace765	-0.3377029
7	0xbef4d520	-0.4781885
8	0xbeb25164	-0.3482772
9	0xb6232c0c	-2.4314531e-06
10	0x3bf06382	0.007336081
11	0xbe8f71e2	-0.28016573
12	0xb5a4584c	-1.224465e-06
13	0x3f1f307a	0.62183344
14	0x3e104bae	0.1409137
15	0xb7863bea	-1.6001944e-05
16	0xbebabb89	-0.36471203
17	0xbf411080	-0.754158
18	0x3dfdc7b4	0.12391606
19	0xb5d897f3	-1.6137477e-06
20	0x3e12358a	0.14278236
21	0x3f0e9cf8	0.55708265
22	0xbf6af911	-0.91786295
23	0xbf0fc01d	-0.56152517
24	0x3f45fd1b	0.77339333
25	0xbf1d053c	-0.6133611
26	0xbf24eeec	-0.64427066
27	0x3d88e533	0.06684341
28	0x3d343fb1	0.044006053
29	0xbf06ec9e	-0.527048
30	0x3f022661	0.5083981
31	0x3d22b238	0.039720744
32	0x3595e159	1.116695e-06
33	0xbf1a2b9d	-0.602228
34	0x3e2c4e14	0.1682666
35	0xbf29f051	-0.6638232
36	0xbedef6e2	-0.43547732
37	0xb69b17d8	-4.6221357e-06
38	0x3e68e84e	0.22744867
39	0xbe1d1dea	-0.15343443
40	0xbee952c6	-0.45570964
41	0xbf0422b4	-0.5161545
42	0xbf1ab1e5	-0.60427696
43	0x3f353cc9	0.70795876
44	0xbf0ac6fa	-0.54209864
45	0x3e976874	0.2957188
46	0xbf136479	-0.57575184
47	0xbe3ff4d6	-0.18745741
48	0xbe2ffe8d	-0.17186947
49	0x3f2b00e4	0.66798234
50	0x3eb37036	0.35046548
51	0x3f630499	0.8867889
52	0xbeab7ff7	-0.33496067
53	0x364425c4	2.9228258e-06
54	0xbe2a27e3	-0.16616778
55	0xbe4eb8ac	-0.20187634
56	0xb61ce44f	-2.3378705e-06
57	0x3f184289	0.59476525
58	0x3f4f7187	0.81032604
59	0x3f58e6b6	0.84727037
60	0xb5c59737	-1.4721653e-06
61	0x3625d73d	2.4712201e-06
62	0x3f25ac43	0.64715976
63	0xbec4987a	-0.3839758
64	0x3ed48bea	0.41512996
65	0xbe8cbde9	-0.2748864
66	0xb6db98e8	-6.5445092e-06
67	0x3eb0c3fc	0.34524524
68	0x3e2c5612	0.16829708
69	0x3ed18c89	0.40927532
70	0xbe46fdc8	-0.19432747
71	0x3d163500	0.03667164
72	0xbf305afd	-0.6888884
73	0xb797f739	-1.8115725e-05
74	0xbe9c1468	-0.3048432
75	0x3eec2f88	0.46130013
76	0xb4a2bcf6	-3.031234e-07
77	0xbef1c7a3	-0.47222623
78	0x3f0c9587	0.5491566
79	0xb7df023f	-2.6584717e-05
80	0xbe6269fd	-0.22110744
81	0xbf51284f	-0.8170213
82	0x36ea7aaa	6.9880234e-06
83	0x36fcdfa3	7.53622e-06
84	0x3edcc907	0.43122122
85	0x37dd031d	2.6346703e-05
86	0x3f0d8fcd	0.5529755
87	0x3dd99e77	0.10625928
88	0x3d12678b	0.035743278
89	0xbeeb0343	-0.45900926
90	0xb730b62d	-1.0532834e-05
91	0xbd844b5b	-0.064596854
92	0x3f4e082c	0.8048122
93	0xbf073d04	-0.5282748
94	0x3e8641c8	0.26222062
95	0x3eb5892a	0.3545621
96	0xb5a3c927	-1.2202989e-06
97	0xbe9b5a14	-0.30342162
98	0xb733c1c6	-1.0714348e-05
99	0x3ef937d8	0.48675418
100	0xbf4f625e	-0.8100947
101	0xbe1e08b2	-0.15433004
102	0x3e129e15	0.14318116
103	0x3defdb16	0.11711709
104	0xb517b5f0	-5.651664e-07
105	0xbe06708e	-0.13128874
106	0x3f49937e	0.7874068
107	0x3e46c6b9	0.19411744
108	0xbf5ce2f6	-0.86283815
109	0xbf281438	-0.6565585
110	0xbf1ff021	-0.6247578
111	0xbf593ae0	-0.8485546
112	0x3ec9505c	0.39319122
113	0xb7792c91	-1.4851933e-05
114	0x37c32af2	2.326581e-05
115	0xbec7ccca	-0.3902343
116	0x373431e6	1.0740454e-05
117	0xbf0c5dfc	-0.5483091
118	0xbeef612d	-0.46753827
119	0x3eacf7b3	0.3378273
120	0xb5592f76	-8.0907864e-07
121	0xb7c23041	-2.3149072e-05
122	0x3f268bef	0.6505727
123	0x3f36601f	0.7124042
124	0x3690d252	4.316019e-06
125	0xb5dc88bc	-1.6431072e-06
126	0xbea736c8	-0.32658982
127	0x3f0c68a1	0.5484715
128	0xb57b92a1	-9.371816e-07
129	0x3505601d	4.9686224e-07
130	0xb29e3707	-1.8418644e-08
131	0xb24f8c8e	-1.2080944e-08
132	0x351d69a4	5.8640785e-07
133	0x33a77394	7.797567e-08
134	0x348a7408	2.5788927e-07
135	0x34f43f05	4.5494394e-07
136	0x31eb46a2	6.84743e-09
137	0x3467827a	2.1561019e-07
138	0x34e5c86c	4.28004e-07
139	0x3451ce56	1.9539706e-07
140	0x33affa64	8.194618e-08
141	0x348ea344	2.6568352e-07
142	0x34f6fd46	4.600535e-07
143	0x33130d9b	3.423848e-08
144	0x34f98401	4.647591e-07
145	0x33d8dc15	1.00983165e-07
146	0xb3e81e57	-1.0808861e-07
147	0xb481770f	-2.411475e-07
148	0x33be65f6	8.866111e-08
149	0x34bdea95	3.5374674e-07
150	0xb3afadea	-8.180707e-08
151	0x34298c57	1.5790407e-07
152	0xb118ed60	-2.2253843e-09
153	0x340732e4	1.2591369e-07
154	0xb4ef918d	-4.462312e-07
155	0x349b53c3	2.8931944e-07
156	0x33aa95b9	7.943476e-08
157	0xb46468ec	-2.1272325e-07
158	0x334484d1	4.5755602e-08
159	0xb3d50395	-9.919237e-08
160	0xb535cea0	-6.7728433e-07
161	0x340d1347	1.3138661e-07
162	0x3481a0ce	2.4145123e-07
163	0x352baca5	6.3953695e-07
164	0x329063c4	1.6809174e-08
165	0xb52647b2	-6.194415e-07
166	0xb4d645ce	-3.9911396e-07
167	0x34395653	1.7260872e-07
168	0xb527b39f	-6.247373e-07
169	0x3481510c	2.4087092e-07
170	0x3415b3b3	1.394208e-07
171	0xb532f010	-6.6659504e-07
172	0xb48150c7	-2.4086896e-07
173	0xb44c53ea	-1.9029508e-07
174	0xb443483c	-1.8187069e-07
175	0x35360bf8	6.78177e-07
176	0x32991eef	1.7825611e-08
177	0x3526b444	6.210214e-07
178	0xb387ca57	-6.323233e-08
179	0xb5555dd6	-7.948523e-07
180	0x349467cf	2.764268e-07
181	0xb3b1e1f7	-8.2833076e-08
182	0x34aa0ec8	3.1675722e-07
183	0x34008382	1.1968771e-07
184	0xb43b723b	-1.7457289e-07
185	0xb4054891	-1.241299e-07
186	0x3537d938	6.848891e-07
187	0x348d2623	2.6291045e-07
188	0x3317bf3e	3.533136e-08
189	0x34cbd232	3.7964634e-07
190	0x34a6e904	3.108945e-07
191	0x33d679e3	9.9873226e-08
192	0xb49f5ca9	-2.9683477e-07
193	0x350c59f5	5.228497e-07
194	0xb479b958	-2.325736e-07
195	0x351eda0b	5.917688e-07
196	0x345a8cdf	2.0354081e-07
197	0xb5456e43	-7.354867e-07
198	0x34956519	2.782697e-07
199	0xb23ddbd5	-1.1051232e-08
200	0xb325e063	-3.8621135e-08
201	0x34cbe780	3.7980135e-07
202	0x34a14e0f	3.0045382e-07
203	0x336474ec	5.3191727e-08
204	0x33cbf930	9.498251e-08
205	0xb40ca30b	-1.3097831e-07
206	0x344a5093	1.8842029e-07
207	0x32d906ef	2.5265278e-08
208	0xb4866d6a	-2.5039054e-07
209	0x343cdbc4	1.7588815e-07
210	0xb3de3ebe	-1.0349093e-07
211	0x33c3557a	9.095943e-08
212	0x340ddb03	1.3211324e-07
213	0x34b8ad37	3.43987e-07
214	0xb365cdf2	-5.3505524e-08
215	0x332703f5	3.8886316e-08
216	0xb498fe7c	-2.8497368e-07
217	0xb4856382	-2.4845582e-07
218	0x341e34b1	1.4734066e-07
219	0xb497f6ac	-2.830542e-07
220	0xb4a8636b	-3.1364775e-07
221	0x34be2357	3.541597e-07
222	0xb41f0b40	-1.4812122e-07
223	0x343ab76d	1.738933e-07
224	0xb48453b6	-2.4647824e-07
225	0xb5851683	-9.915824e-07
226	0xb40633dd	-1.249859e-07
227	0xb512ce59	-5.4689514e-07
228	0x349dbc1f	2.9380405e-07
229	0x33425714	4.5248342e-08
230	0x350222ad	4.8479234e-07
231	0xb2a76eb0	-1.9491694e-08
232	0xb2b02aa8	-2.0508494e-08
233	0x343d492c	1.7628616e-07
234	0xb52c78ad	-6.42506e-07
235	0xb42367db	-1.521834e-07
236	0xb495343c	-2.7791418e-07
237	0x34477eef	1.8579497e-07
238	0x341f1d30	1.4818647e-07
239	0xb539ef6c	-6.9266275e-07
240	0xb2cb38b4	-2.3658096e-08
241	0x34b8f2b0	3.444925e-07
242	0x343a588c	1.7354813e-07
243	0xb45036cf	-1.9391449e-07
244	0x3431295a	1.6499453e-07
245	0xb421ba23	-1.506201e-07
246	0xb3b0cd04	-8.232931e-08
247	0xb5aae20d	-1.2731776e-06
248	0xb4fe7eed	-4.7403537e-07
249	0xb345764b	-4.5975224e-08
250	0xb5547661	-7.914842e-07
251	0xb4931ba7	-2.7401003e-07
252	0xb50aacf2	-5.1660675e-07
253	0x342ade91	1.5913453e-07
254	0x34975bc0	2.81927e-07
255	0xb56516ad	-8.5342145e-07

cl1.layer_0.bias f4 [64]
0	0xbd97a119	-0.07403774
1	0x3c1eabcc	0.009684514
2	0x342d30db	1.6129654e-07
3	0xb5332292	-6.6733e-07
4	0x35149bb3	5.536087e-07
5	0x3541158b	7.192945e-07
6	0xb477a35a	-2.3063095e-07
7	0x33b83049	8.576951e-08
8	0x3a110c09	0.00055331044
9	0xbd495c30	-0.049160182
10	0xb5ac26ef	-1.282633e-06
11	0x3b88e3fe	0.0041775694
12	0x3d127217	0.035753336
13	0x34291826	1.5748137e-07
14	0x369ff8b7	4.7675235e-06
15	0xb3f6e843	-1.1497516e-07
16	0x348e6d69	2.6529167e-07
17	0x3e1e5617	0.15462528
18	0xbe9e692d	-0.30939618
19	0x34b0ab80	3.2907337e-07
20	0xb51ff1d1	-5.9584005e-07
21	0x3e1e5eb7	0.15465818
22	0x33ea4a49	1.09099865e-07
23	0x348988a7	2.5617666e-07
24	0x34b2bff7	3.3294756e-07
25	0x3dbd34ab	0.09238561
26	0x3dc2d746	0.095137164
27	0x3c891cb6	0.016737323
28	0x3e88cd24	0.2671901
29	0x3e32f2bf	0.17475413
30	0x37c19d01	2.3080504e-05
31	0x354d1977	7.640551e-07
32	0x3e9f4c56	0.31112927
33	0xbe8bdfef	-0.27319285
34	0x3e1f3c27	0.1555029
35	0xbe9da197	-0.30787346
36	0x35276d83	6.237171e-07
37	0xbd34006b	-0.04394571
38	0x34d14e6e	3.898635e-07
39	0xb2cba5f0	-2.370777e-08
40	0xb4f3f744	-4.5442187e-07
41	0x3d738e51	0.059461895
42	0xb50ff081	-5.362163e-07
43	0xbe6a326d	-0.22870798
44	0xb8912176	-6.9203714e-05
45	0x3e8c95b6	0.2745797
46	0x3e32c3e5	0.1745754
47	0x35d360ee	1.5748935e-06
48	0x3de20fd2	0.11038174
49	0xbd5dcc58	-0.054149956
50	0x3cf89db3	0.030348634
51	0x322c143f	1.0016321e-08
52	0x3dd0310c	0.10165605
53	0x3e9f4a88	0.3111155
54	0x34a2190c	3.0193075e-07
55	0x3e0fea01	0.14054109
56	0x3e3966d6	0.18105635
57	0xbd4b0896	-0.049568735
58	0x340d94eb	1.3185824e-07
59	0x33cf0926	9.640853e-08
60	0xbdd52203	-0.10406878
61	0xb43e24a4	-1.7708459e-07
62	0xb48797c6	-2.525614e-07
63	0xbe80696f	-0.2508044

cl1.layer_1.weight f4 [64, 64]
0	0xb59000f3	-1.0729112e-06
1	0x3ed6599d	0.41865245
2	0x340f76a5	1.3361075e-07
3	0xb496cfb6	-2.8090807e-07
4	0xb49bdcb2	-2.9031577e-07
5	0xb3e07bc2	-1.0453324e-07
6	0xb424d57e	-1.5351358e-07
7	0x34d66a88	3.9938118e-07
8	0xbf3030be	-0.68824375
9	0xb3c6da51	-9.259805e-08
10	0x33b5cbf5	8.465569e-08
11	0xbf631cd7	-0.8871588
12	0xbe5f3251	-0.21796538
13	0xb4c8eece	-3.7426656e-07
14	0xbee0828f	-0.43849608
15	0xb3f89cfe	-1.15769566e-07
16	0x343d7c22	1.7647156e-07
17	0xbfa2e8c0	-1.272728
18	0x3e44c982	0.19217494
19	0x341c3635	1.4548353e-07
20	0xb48398de	-2.4511877e-07
21	0xbea0409c	-0.31299293
22	0xb2a3cf16	-1.906987e-08
23	0xb3ea6951	-1.0915631e-07
24	0xb42f6173	-1.6333597e-07
25	0x3e109b45	0.1412173
26	0x37c4daaf	2.3466853e-05
27	0x3e893fd0	0.26806498
28	0xbcb8f720	-0.022578776
29	0x3f2bb4a9	0.6707254
30	0xb7aae1a1	-2.0370646e-05
31	0x34f9fd06	4.6563963e-07
32	0x3dc94584	0.09827712
33	0x379ac45b	1.8449666e-05
34	0x3ee5c793	0.44878826
35	0x35fce559	1.8842212e-06
36	0x3401d2e6	1.2090786e-07
37	0xb49db65b	-2.937621e-07
38	0xb40c88c2	-1.3088268e-07
39	0x308570fb	9.709135e-10
40	0xb5018c40	-4.8260335e-07
41	0x3e4eabb6	0.2018269
42	0x34865779	2.502309e-07
43	0xbf348604	-0.7051699
44	0x34010067	1.2014208e-07
45	0x3f3c8064	0.7363341
46	0x37c136ea	2.3032964e-05
47	0xc01570c3	-2.3350074
48	0x3f3023c6	0.68804586
49	0xbf166d57	-0.5876059
50	0xbe29e8c9	-0.16592707
51	0x358eb1dc	1.0631588e-06
52	0xbfd8d063	-1.6938595
53	0x3f6138b0	0.87977123
54	0xb48c9bc9	-2.619038e-07
55	0x3ea60610	0.324265
56	0x3f7945c2	0.97372067
57	0x35b440ad	1.3429868e-06
58	0x33cbaa88	9.4839436e-08
59	0xb4a749b1	-3.1159792e-07
60	0x3eee6ad1	0.4656587
61	0xb508079e	-5.067503e-07
62	0x3e0a95be	0.13533685
63	0xbd3e755e	-0.04649865
64	0x3f144a39	0.57925755
65	0x3f5ad653	0.8548328
66	0x34a4ba06	3.068273e-07
67	0xb3d91592	-1.01087736e-07
68	0xb4ad396e	-3.2265547e-07
69	0xb5380565	-6.855319e-07
70	0x34f60d29	4.5830646e-07
71	0x341e8f20	1.4766965e-07
72	0x3f7823e0	0.9692974
73	0x355c7ef8	8.214115e-07
74	0xb46b35ad	-2.1905608e-07
75	0x363776c6	2.733826e-06
76	0x3e61939c	0.22028965
77	0xb4fa4ac7	-4.6620536e-07
78	0xbdada8dc	-0.08479473
79	0x33a3d54f	7.6290796e-08
80	0x338594a9	6.220336e-08
81	0x3f748d8e	0.95528495
82	0x3fd1b45a	1.6383164
83	0x34166394	1.4006065e-07
84	0x3531c436	6.622316e-07
85	0xbf462e43	-0.7741434
86	0x3110a387	2.1047712e-09
87	0x336d6942	5.5276594e-08
88	0x350cb0d4	5.2411383e-07
89	0xb697a628	-4.519494e-06
90	0x3f43af66	0.7643951
91	0x3f1ad998	0.6048827
92	0xbf2772bd	-0.6540945
93	0xbf54db93	-0.83147544
94	0xbf263548	-0.6492505
95	0xb4234689	-1.5206219e-07
96	0xbef75ccf	-0.48312995
97	0x3f8b7959	1.0896407
98	0x3f21c770	0.6319494
99	0x3f9b2960	1.2122002
100	0x351ab6d4	5.763552e-07
101	0xb491f740	-2.7188253e-07
102	0x348e50ef	2.6508448e-07
103	0xb2850d77	-1.5489361e-08
104	0x346da4e3	2.213233e-07
105	0x3e9b1e0e	0.30296367
106	0x33f84d5d	1.1562472e-07
107	0x3f122d35	0.5710023
108	0x3fa575a1	1.2926522
109	0xbf43f0d7	-0.7653937
110	0xbe199373	-0.14997654
111	0x3d94ea35	0.07271234
112	0xbf3304b9	-0.6992908
113	0xbf4cbbc2	-0.79973996
114	0xbcbdd558	-0.02317302
115	0xb39f7dfa	-7.4269295e-08
116	0x3f76b653	0.96371955
117	0xbe4ca9e4	-0.19986683
118	0xb3cae093	-9.447208e-08
119	0xbf5246cf	-0.82139295
120	0xbd81e90a	-0.06343277
121	0x3efcae67	0.49351808
122	0xb447f903	-1.8623909e-07
123	0x3342eac2	4.5382656e-08
124	0x3f40c8c4	0.75306344
125	0x34b2db99	3.3314862e-07
126	0x3f0906ca	0.53525984
127	0x3f584694	0.84482694
128	0xb4692750	-2.1714118e-07
129	0x33cc2929	9.506977e-08
130	0xb43afdc7	-1.7414924e-07
131	0x34b0ac4d	3.290792e-07
132	0xb38b8d31	-6.4983745e-08
133	0xb426af05	-1.5523626e-07
134	0xb4a0fe7f	-2.9987493e-07
135	0xb404711d	-1.2334608e-07
136	0xb492e9b6	-2.7364666e-07
137	0x31f82c63	7.222796e-09
138	0xb41c7d5a	-1.4574235e-07
139	0xb3fc6df0	-1.1754662e-07
140	0xb3f270a2	-1.1289491e-07
141	0xb56d8350	-8.8480465e-07
142	0x350de77f	5.2863464e-07
143	0x34014fa2	1.2043031e-07
144	0xb4e3cb18	-4.2429815e-07
145	0xb3bac0e6	-8.696388e-08
146	0xb53bfb45	-7.0028574e-07
147	0xb4fa7156	-4.6648591e-07
148	0xb4e459f8	-4.253377e-07
149	0xb431c1c9	-1.6554908e-07
150	0xb40d7ed2	-1.3177785e-07
151	0xb48b3323	-2.5927974e-07
152	0x348eb589	2.6581645e-07
153	0x34a50c11	3.0742424e-07
154	0x31eb0397	6.8398083e-09
155	0xb4208cd3	-1.4952393e-07
156	0xb3fe1c7a	-1.18329766e-07
157	0xb49453f1	-2.7628224e-07
158	0xb3a858c6	-7.8392574e-08
159	0x33cba234	9.482429e-08
160	0xb31b2187	-3.6119243e-08
161	0x33e72639	1.07637284e-07
162	0xb38ce2e0	-6.560526e-08
163	0xb49002b9	-2.682407e-07
164	0xb392ee6b	-6.842023e-08
165	0xb22462ab	-9.568491e-09
166	0xb316adfd	-3.5082838e-08
167	0xb3e22a88	-1.05316815e-07
168	0xb38f77f6	-6.680777e-08
169	0x3360d50f	5.234784e-08
170	0xb587f1cc	-1.0128656e-06
171	0xb3ea70db	-1.09170024e-07
172	0x34fa896a	4.666611e-07
173	0x344dd483	1.9169424e-07
174	0xb4445024	-1.8283077e-07
175	0x33fa1a9f	1.16463745e-07
176	0x346c86d4	2.2028263e-07
177	0x33a4cace	7.673735e-08
178	0x338856d9	6.348791e-08
179	0x33866777	6.2586814e-08
180	0xb43d0ea1	-1.7607319e-07
181	0x32dbd813	2.5593215e-08
182	0xb4cf2e2d	-3.8590352e-07
183	0xb4ad3fdf	-3.2270233e-07
184	0x348f27f0	2.6664884e-07
185	0x359b1ee2	1.1557388e-06
186	0xb49ec78c	-2.9574983e-07
187	0xb4c02cea	-3.5795466e-07
188	0x336f2f56	5.5689576e-08
189	0x343b2e8a	1.7432663e-07
190	0xb4217f93	-1.5040705e-07
191	0xb4a53c90	-3.077771e-07
192	0x3f68f31f	0.90995973
193	0xbe567d79	-0.20946302
194	0xb3c74a30	-9.280154e-08
195	0x34197f06	1.4295446e-07
196	0x33cbaf80	9.4848474e-08
197	0x349b02e7	2.8873112e-07
198	0x350fe56c	5.3605504e-07
199	0x3423c0fc	1.5250765e-07
200	0x3f7ce924	0.98793244
201	0x352adeff	6.3654437e-07
202	0xb4dbe615	-4.0959335e-07
203	0xb58f7545	-1.068846e-06
204	0xbe2477c4	-0.16061312
205	0xb43a6ae0	-1.7361481e-07
206	0x3e9c9923	0.30585584
207	0x34a7d998	3.1264494e-07
208	0xb4cdae73	-3.8311154e-07
209	0x3460a57a	2.0921826e-07
210	0x3fb027cd	1.3762146
211	0x3436762e	1.6993064e-07
212	0xb5176702	-5.640178e-07
213	0xbf819822	-1.0124552
214	0x342a875a	1.5881724e-07
215	0x34899cfc	2.563246e-07
216	0x34a8c284	3.1433967e-07
217	0x3ee39582	0.44450003
218	0x3dc50d53	0.09621682
219	0x374facfc	1.23784375e-05
220	0xbf39a16d	-0.7251194
221	0xbf4acdb7	-0.79220146
222	0xbeffb933	-0.49945983
223	0x351b3e2a	5.783246e-07
224	0xbedde60c	-0.43339574
225	0x3fdd6a6f	1.7298106
226	0xb51e8188	-5.904808e-07
227	0x3e6edfd9	0.23327579
228	0xb395db49	-6.978241e-08
229	0x345419fa	1.9753489e-07
230	0xb492f090	-2.7369651e-07
231	0xb4976e7b	-2.8206327e-07
232	0xb2937a66	-1.7168713e-08
233	0xb71d9a1c	-9.393811e-06
234	0xb52964d2	-6.310412e-07
235	0x3e6ca980	0.23111534
236	0xb4438de5	-1.8212411e-07
237	0xbf86d48c	-1.0533614
238	0xbfab79e6	-1.3396575
239	0x31ea58a7	6.820375e-09
240	0xbe0eafac	-0.13934201
241	0x3f6034c6	0.87580526
242	0x3f2e902f	0.68188757
243	0xb4f4f909	-4.5629739e-07
244	0x325dab4d	1.2902842e-08
245	0xbf783901	-0.9696198
246	0xb487ec63	-2.5317703e-07
247	0x3e552927	0.2081648
248	0xbe99b331	-0.30019525
249	0x3b0edfab	0.0021800797
250	0xb4593b6a	-2.0231315e-07
251	0xb58729ac	-1.0070412e-06
252	0xbd36dbb2	-0.04464311
253	0xb38f59e6	-6.675309e-08
254	0x3df64db1	0.12026537
255	0x3f9f1a18	1.2429838

cl1.layer_1.bias f4 [64]
0	0x3e25ed8e	0.16203901
1	0xbe811aad	-0.25215665
2	0xb45c53d0	-2.0519587e-07
3	0xbe507be2	-0.20359758
4	0xb4a0cd47	-2.995168e-07
5	0x3e0591a9	0.13043846
6	0x34bb1d67	3.4852857e-07
7	0x34f99a8e	4.6492318e-07
8	0xb485d9b9	-2.4931595e-07
9	0xb3a76313	-7.794565e-08
10	0x35070ca9	5.030984e-07
11	0x3cfe1780	0.031017065
12	0xb47ee93a	-2.3740441e-07
13	0xbecb3335	-0.39687505
14	0x358cc9d0	1.0489548e-06
15	0x3e166c9c	0.14689869
16	0x361e670f	2.3603823e-06
17	0x33333410	4.1724036e-08
18	0xb757cd33	-1.2862775e-05
19	0xbddd9c4a	-0.108208254
20	0xbde2a214	-0.1106607
21	0x38000ffb	3.053246e-05
22	0x3dcab302	0.09897424
23	0x373b36c3	1.1158819e-05
24	0x377c8909	1.50522765e-05
25	0x37fee218	3.0384443e-05
26	0x3447b875	1.8600424e-07
27	0xbe86bdcc	-0.2631668
28	0xb687fee2	-4.052986e-06
29	0xb40af684	-1.2941933e-07
30	0x34fd2109	4.7148959e-07
31	0xb6a6cc42	-4.9709643e-06
32	0xb6eb3314	-7.009492e-06
33	0xbdf9121f	-0.121616594
34	0xbd88db4c	-0.066824526
35	0xb3ce980f	-9.620282e-08
36	0x32871a58	1.5728048e-08
37	0x34e7e04c	4.31903e-07
38	0xb43c7ab0	-1.7553498e-07
39	0xb4be5eee	-3.5459328e-07
40	0x3d9f9ef5	0.077939905
41	0x3e290c95	0.16508706
42	0x3e451500	0.19246292
43	0x351ee241	5.918883e-07
44	0x3ca783d2	0.020448599
45	0x32ac4c4b	2.005813e-08
46	0x3727d9eb	1.0004714e-05
47	0x3daee517	0.08539789
48	0x3cf2d931	0.02964458
49	0x350734db	5.0368334e-07
50	0xb4f03c9d	-4.4747586e-07
51	0xb6c9b0a9	-6.0108327e-06
52	0x3398041c	7.078799e-08
53	0x34de18be	4.1368725e-07
54	0xb6fd3e67	-7.547252e-06
55	0x3decfd1f	0.115717165
56	0xb6d26a27	-6.2708455e-06
57	0x34bb3eb4	3.4877087e-07
58	0x34f05529	4.4765446e-07
59	0x3e126bfc	0.14299005
60	0xb4f06bc6	-4.47819e-07
61	0x3e75dd64	0.24010235
62	0x3da8dc64	0.08245161
63	0xb562d527	-8.450174e-07

cl1.layer_2.weight f4 [64, 64]
0	0xba912f74	-0.0011076764
1	0x3fc2f353	1.5230507
2	0xb486ce5f	-2.51096e-07
3	0x3f95aadc	1.1692767
4	0xb481967a	-2.4137609e-07
5	0xbf587868	-0.84558725
6	0xb42f32f3	-1.631668e-07
7	0x33a0661a	7.469153e-08
8	0xb3925214	-6.813585e-08
9	0x343e6275	1.7730947e-07
10	0x33d44130	9.883877e-08
11	0xbd91b9c8	-0.07115513
12	0xb4ebfaf4	-4.3954753e-07
13	0x3f567270	0.8376837
14	0x353664ce	6.7946974e-07
15	0xbf9a6445	-1.206185
16	0x36a86300	5.0183153e-06
17	0x352a7d98	6.35127e-07
18	0x3b8ea7d3	0.0043535023
19	0x3ee47ed7	0.4462802
20	0x3f2465d6	0.6421789
21	0xb8979963	-7.2288116e-05
22	0xbd783469	-0.060596857
23	0x3d1ac676	0.037786923
24	0x3e162745	0.14663418
25	0x3c30a05f	0.010780423
26	0xb50590e8	-4.975723e-07
27	0xb7710043	-1.436478e-05
28	0xbf1ffd8d	-0.6249626
29	0x3e044e98	0.12920606
30	0xbf74c13e	-0.95607364
31	0x3eab660d	0.33476296
32	0xb8d71d4a	-0.000102574544
33	0x3fe968ca	1.8235104
34	0x3f097357	0.5369162
35	0x34b71d0f	3.410755e-07
36	0x35892ed0	1.022092e-06
37	0x3211f3ac	8.495515e-09
38	0x3433928c	1.6723988e-07
39	0xb502e2fb	-4.8759074e-07
40	0x33d2fdf7	9.825083e-08
41	0xbec636a9	-0.38713577
42	0xbe6e27de	-0.23257396
43	0xb2c6abff	-2.3128448e-08
44	0x376baa80	1.4046789e-05
45	0xb426e8de	-1.5544671e-07
46	0x34ce37c3	3.8411062e-07
47	0xbd34d3d9	-0.044147346
48	0x3d55f2f6	0.05223366
49	0xb40c92da	-1.309194e-07
50	0x34c8502c	3.7311236e-07
51	0xb8b40466	-8.583888e-05
52	0xb49fe4f9	-2.9782657e-07
53	0x32f3f82c	2.8401779e-08
54	0x3503916c	4.901292e-07
55	0x3da6f5ce	0.08152352
56	0xb8eeefce	-0.000113933915
57	0xb5371719	-6.8206424e-07
58	0x3597dc40	1.1314478e-06
59	0xbf347831	-0.704959
60	0x34d8cd02	4.0382298e-07
61	0xbfa5b9c7	-1.294732
62	0xbcbe096d	-0.023197854
63	0xb4887121	-2.5414286e-07
64	0x340ed0a4	1.3300684e-07
65	0x34755da6	2.2851472e-07
66	0xb4bafb7d	-3.4828182e-07
67	0xb480b9bb	-2.3976995e-07
68	0xb3cc12c7	-9.502906e-08
69	0xb43373d1	-1.6712808e-07
70	0x33d7ce1b	1.0049208e-07
71	0xb527d67d	-6.252447e-07
72	0x34ffc270	4.7638923e-07
73	0x34186767	1.419372e-07
74	0x34819b1d	2.4140982e-07
75	0x3436430a	1.697446e-07
76	0xb5411d07	-7.1940343e-07
77	0x346ba999	2.194778e-07
78	0xb4032926	-1.2215295e-07
79	0x3489173e	2.553515e-07
80	0x34fc720c	4.7021638e-07
81	0x342482b4	1.532124e-07
82	0x346c906a	2.203175e-07
83	0xb4567ee8	-1.9976471e-07
84	0x341362d8	1.3726401e-07
85	0x329b15b5	1.8054246e-08
86	0x352e3d4f	6.4909267e-07
87	0xb41e5de4	-1.4749054e-07
88	0xb59d35f0	-1.1713109e-06
89	0xb51b5a98	-5.787383e-07
90	0xb4877b70	-2.5235522e-07
91	0x34763563	2.2929957e-07
92	0xb43a74b0	-1.736505e-07
93	0x341ab2fc	1.4407482e-07
94	0x34cb4f9e	3.7869626e-07
95	0xb4f8acad	-4.6319238e-07
96	0xb48bd522	-2.6045842e-07
97	0x34617935	2.0998853e-07
98	0xb3f9cb6f	-1.16319704e-07
99	0xb4828a63	-2.4315077e-07
100	0x30c06dde	1.4001065e-09
101	0xb187ed2a	-3.9559795e-09
102	0x3490c470	2.6965017e-07
103	0xb3093081	-3.1941912e-08
104	0xb4ee3963	-4.437271e-07
105	0xb4bfa658	-3.5697553e-07
106	0x34bbbfa2	3.4970896e-07
107	0xb4d65b89	-3.9927207e-07
108	0x3407242a	1.2586011e-07
109	0x34f3913a	4.5367943e-07
110	0x33442fbc	4.567822e-08
111	0xb4458de9	-1.8398681e-07
112	0xb59804d0	-1.1326283e-06
113	0xb3c906d1	-9.361032e-08
114	0x35468aa5	7.39625e-07
115	0x34089c5a	1.2722867e-07
116	0xb46952f6	-2.1729997e-07
117	0xb465486f	-2.1353638e-07
118	0xb47263a3	-2.2574254e-07
119	0xb3cc08c0	-9.501082e-08
120	0xb48da125	-2.6380545e-07
121	0xb3d6d734	-1.0004297e-07
122	0x352a92e1	6.354367e-07
123	0xb5238523	-6.091597e-07
124	0x341ee6dd	1.4798884e-07
125	0xb4da62e0	-4.0677605e-07
126	0xb584e605	-9.901711e-07
127	0x33eaca40	1.0933263e-07
128	0xb4e8549e	-4.3274935e-07
129	0x347b43ca	2.3400858e-07
130	0x33d330dd	9.834341e-08
131	0xb2e5e8e3	-2.6765013e-08
132	0x3484a992	2.4710295e-07
133	0x34d9df7d	4.058201e-07
134	0xb4c1785d	-3.6036627e-07
135	0x350140a1	4.815029e-07
136	0xb48001c5	-2.3843145e-07
137	0xb4010868	-1.201712e-07
138	0x336af1ca	5.4702276e-08
139	0x34899d15	2.563253e-07
140	0x3536df4e	6.8125235e-07
141	0x348b4100	2.593806e-07
142	0x335ee068	5.18925e-08
143	0xb401c439	-1.2085447e-07
144	0x34a20718	3.0180013e-07
145	0xb43907df	-1.7232331e-07
146	0x3482e170	2.4378414e-07
147	0x3375559f	5.712138e-08
148	0xb4be2164	-3.5414553e-07
149	0x3408e363	1.274871e-07
150	0x3459dd8c	2.0290298e-07
151	0xb4884cde	-2.5387902e-07
152	0xb4b808f1	-3.4279176e-07
153	0xb3e0c348	-1.0466334e-07
154	0xb28727a4	-1.5734095e-08
155	0x354303ba	7.2648584e-07
156	0x3468aaa1	2.1668758e-07
157	0x33669a8b	5.3691604e-08
158	0xb4d8f625	-4.041223e-07
159	0xb4988552	-2.840921e-07
160	0x34d2922b	3.92219e-07
161	0xb53a2e92	-6.935817e-07
162	0x33840749	6.148054e-08
163	0x352def16	6.479544e-07
164	0x34a65a53	3.098563e-07
165	0xb45d7287	-2.0623894e-07
166	0xb47561be	-2.2852961e-07
167	0x348a49a4	2.5758084e-07
168	0xb4ac6db6	-3.2117322e-07
169	0x3599ecce	1.1468308e-06
170	0xb405fb12	-1.2477929e-07
171	0xb53bb732	-6.9929513e-07
172	0xb42800ae	-1.5646467e-07
173	0xb21ee9a3	-9.249933e-09
174	0x35278fca	6.242159e-07
175	0x34580f83	2.0122211e-07
176	0x34e4b97c	4.2603267e-07
177	0x33f8e29e	1.1589621e-07
178	0xb4a12014	-3.0011927e-07
179	0x340e891e	1.3274664e-07
180	0xb555d6a1	-7.966101e-07
181	0x33886b9e	6.352569e-08
182	0xb3154e47	-3.476296e-08
183	0x34a1a3da	3.0107805e-07
184	0x34a94b12	3.1533324e-07
185	0x359685ce	1.1214813e-06
186	0x33d94a98	1.01184185e-07
187	0xb57aabd3	-9.3382295e-07
188	0x3233bf9e	1.046274e-08
189	0x340eba9f	1.3292673e-07
190	0xb55a1c97	-8.125293e-07
191	0x33bb683a	8.726825e-08
192	0x349f3ee1	2.9661808e-07
193	0xb61f5132	-2.3740108e-06
194	0xb2aa7d34	-1.984754e-08
195	0xb38d61a2	-6.5835835e-08
196	0xb2fae31a	-2.9207104e-08
197	0xc000e8c9	-2.014208
198	0x35277d34	6.239454e-07
199	0xb4c8f88e	-3.743375e-07
200	0xb4f2dfcd	-4.523885e-07
201	0xb3e6e7ee	-1.07523974e-07
202	0x342db93b	1.6179267e-07
203	0xb526bc6d	-6.2114015e-07
204	0x3484fc54	2.477051e-07
205	0xb4197c4f	-1.4294459e-07
206	0xb379f178	-5.8194445e-08
207	0x35b7b97f	1.3688549e-06
208	0x38159067	3.5658853e-05
209	0x34670725	2.151615e-07
210	0xb4566f67	-1.9970831e-07
211	0x36a98370	5.051894e-06
212	0x3d3917cd	0.045188714
213	0xb6b589e7	-5.4102743e-06
214	0xb582d9fb	-9.749195e-07
215	0x3efc00bc	0.4921931
216	0x365ef07a	3.3220554e-06
217	0xb4a94a75	-3.1532878e-07
218	0x356505dc	8.5317674e-07
219	0x3532ae1c	6.656353e-07
220	0xb46b1152	-2.1892382e-07
221	0xbee94854	-0.45562994
222	0xbf0cea21	-0.5504475
223	0x3eb7fae1	0.35933593
224	0xb58a6aa2	-1.0312835e-06
225	0x34776b0d	2.3042612e-07
226	0x3fa30e11	1.2738668
227	0x34c767d8	3.7142195e-07
228	0x3413012e	1.3690871e-07
229	0x34265a95	1.5492908e-07
230	0xb4a8a135	-3.1409732e-07
231	0xb38823f5	-6.339534e-08
232	0xc071d25a	-3.7784638
233	0xb56e0906	-8.867504e-07
234	0x3f90fde2	1.1327479
235	0x34ea4b0a	4.3640495e-07
236	0x367699e5	3.6746435e-06
237	0x3409cff6	1.2834775e-07
238	0xbf3ab8d8	-0.729383
239	0x33a8b697	7.8563225e-08
240	0xb49502a9	-2.7755348e-07
241	0xb53b0324	-6.96675e-07
242	0x3553f7c7	7.896419e-07
243	0xb59e670e	-1.180191e-06
244	0xb4791290	-2.3196685e-07
245	0x351aff76	5.7741215e-07
246	0xb423ef57	-1.526763e-07
247	0x37353360	1.0800402e-05
248	0xb3be42d7	-8.8597226e-08
249	0xb4006341	-1.1957037e-07
250	0x3749b702	1.2023143e-05
251	0x36932b1f	4.3859613e-06
252	0x346e451c	2.2190619e-07
253	0xbe9b95a0	-0.30387592
254	0x3e869315	0.2628409
255	0x3412f1cf	1.3685279e-07

cl1.layer_2.bias f4 [64]
0	0xb84e8f0d	-4.9247454e-05
1	0x34a8c479	3.143539e-07
2	0x346d235a	2.2085206e-07
3	0x3687ff74	4.053052e-06
4	0xb787e581	-1.6200125e-05
5	0x33e82a44	1.081103e-07
6	0x3702c602	7.794706e-06
7	0xb4089bce	-1.2722668e-07
8	0xb70e62c7	-8.486858e-06
9	0xb6fbee31	-7.508112e-06
10	0xb631b47f	-2.6480118e-06
11	0xb7578ef5	-1.2848283e-05
12	0xb7462de1	-1.1812402e-05
13	0xb69e3030	-4.7143767e-06
14	0x36a9a092	5.0552853e-06
15	0x34dacbc0	4.0753912e-07
16	0x3376f3f3	5.749821e-08
17	0x34be25d3	3.5417779e-07
18	0x35ea4813	1.7455335e-06
19	0x3d0f14bd	0.034931887
20	0xb3859254	-6.219912e-08
21	0xb4dcb547	-4.111009e-07
22	0x357552e6	9.1390245e-07
23	0xb6c19a1f	-5.7697903e-06
24	0xb768a52c	-1.3866735e-05
25	0x37ad1520	2.0633044e-05
26	0xb77ebcea	-1.5183565e-05
27	0xb7b387cf	-2.1401704e-05
28	0xb6ff4723	-7.6078736e-06
29	0x348072c8	2.3925372e-07
30	0x35016e7f	4.821704e-07
31	0xb5def816	-1.6612491e-06
32	0x36f07944	7.1666745e-06
33	0x373b4911	1.1163081e-05
34	0x361a83dd	2.3024543e-06
35	0x35c5df42	1.474262e-06
36	0xb4c2491e	-3.6188516e-07
37	0x3784c79d	1.5828578e-05
38	0x3d1e9a75	0.03872152
39	0x36aadddf	5.092224e-06
40	0x3477264f	2.3017604e-07
41	0xb79539cc	-1.7789098e-05
42	0xb6a4d001	-4.9117957e-06
43	0xb70183d7	-7.7196955e-06
44	0xb6fd9a9b	-7.557986e-06
45	0xb6fcb2cc	-7.531e-06
46	0xb7cb8b39	-2.4264316e-05
47	0xb626ea69	-2.4872372e-06
48	0xb4866455	-2.5032446e-07
49	0xb65aa265	-3.2579057e-06
50	0x36e899e1	6.9320527e-06
51	0x36ab0de3	5.0978138e-06
52	0x3713532a	8.781246e-06
53	0x37992dad	1.826029e-05
54	0x37d8f46b	2.5863023e-05
55	0xb5106e53	-5.3804723e-07
56	0x3564e7d8	8.5273996e-07
57	0xb7712fe6	-1.4375872e-05
58	0xb7bab677	-2.2257895e-05
59	0x370d7a27	8.432696e-06
60	0xb60e1484	-2.117159e-06
61	0xb74dbb51	-1.2262565e-05
62	0x37acf546	2.0618212e-05
63	0xb4c9396a	-3.7480942e-07

cl2.layer_0.weight f4 [64, 64]
0	0x335a7d2e	5.087093e-08
1	0x32b90400	2.1538654e-08
2	0x33df07a1	1.03856344e-07
3	0xb3dfbfa0	-1.0419103e-07
4	0xb455df67	-1.9918444e-07
5	0x32c9a417	2.3474099e-08
6	0xb5899673	-1.0251082e-06
7	0xb52aaee9	-6.3584463e-07
8	0x3445c4ea	1.8418692e-07
9	0xb3c19fc4	-9.016324e-08
10	0xb274278b	-1.421166e-08
11	0x34c8147d	3.726781e-07
12	0xb4fe4e8a	-4.7368331e-07
13	0x325afb4d	1.2746409e-08
14	0x33247001	3.8286093e-08
15	0x34d41ab5	3.950751e-07
16	0x34f9fa36	4.6561917e-07
17	0x3535b3e0	6.7689507e-07
18	0xb4632b81	-2.1156849e-07
19	0x34d92ea2	4.045333e-07
20	0xb422fe4e	-1.5179941e-07
21	0x353a95dc	6.9508474e-07
22	0xb435fe0a	-1.6949357e-07
23	0xb3cf3151	-9.648159e-08
24	0x347f6cbd	2.3788284e-07
25	0xb491b0eb	-2.713708e-07
26	0xb47f8d34	-2.3800095e-07
27	0x34695b3a	2.1733004e-07
28	0x33df6fa0	1.0404551e-07
29	0xb4524b94	-1.9585269e-07
30	0x3511feb1	5.4387334e-07
31	0x34acd3f2	3.2191707e-07
32	0x344901d4	1.8720249e-07
33	0xb3f281bd	-1.12926024e-07
34	0x34dd7d1d	4.125549e-07
35	0xb4fdb0e9	-4.725364e-07
36	0x35334583	6.678385e-07
37	0x3412eacc	1.3682728e-07
38	0xb27d036e	-1.4727318e-08
39	0xb396852e	-7.0091446e-08
40	0xb49adbd1	-2.8844673e-07
41	0xb4d5ba49	-3.9809882e-07
42	0xb4792069	-2.3201723e-07
43	0x34ad317f	3.2259774e-07
44	0x34997b00	2.8587965e-07
45	0xb3ec4409	-1.1001982e-07
46	0xb41cea4c	-1.4613869e-07
47	0x33b38870	8.360155e-08
48	0xb40fccc9	-1.3392413e-07
49	0xb531e747	-6.627419e-07
50	0x345ab9f8	2.0370487e-07
51	0x306d1ee8	8.626402e-10
52	0x35416cfb	7.205669e-07
53	0x3444d90f	1.8332888e-07
54	0xb30da273	-3.2976867e-08
55	0x34178191	1.4110107e-07
56	0xb43a8bc3	-1.7373445e-07
57	0x35342a4c	6.7116775e-07
58	0x33ba2bd4	8.669272e-08
59	0xb541467b	-7.2000665e-07
60	0xb5093684	-5.111581e-07
61	0x34ec7029	4.4040033e-07
62	0x34a0faec	2.9984892e-07
63	0x353a7f4f	6.947566e-07
64	0xb53361c3	-6.682496e-07
65	0xb522df50	-6.0674665e-07
66	0x341b588c	1.4467713e-07
67	0xb387d6c4	-6.325493e-08
68	0x330e8f05	3.3192027e-08
69	0x34846771	2.466218e-07
70	0xb1eb719a	-6.852315e-09
71	0x355182e3	7.804903e-07
72	0xb49193f1	-2.7115996e-07
73	0x33c970a0	9.380278e-08
74	0xb4b98341	-3.4554435e-07
75	0x33cbb2b4	9.48543e-08
76	0xb478a1b7	-2.3155631e-07
77	0x34a99607	3.1587862e-07
78	0xb41eda5d	-1.4794337e-07
79	0x33d1173e	9.7365486e-08
80	0x34f4f2ad	4.5625112e-07
81	0x341758ec	1.409532e-07
82	0xb4975b29	-2.819227e-07
83	0x34963556	2.7978484e-07
84	0xb3ebe020	-1.0983808e-07
85	0x32a3a417	1.9050317e-08
86	0x34a60d1e	3.0929453e-07
87	0x352f9c3d	6.5419937e-07
88	0xb4a65296	-3.098e-07
89	0xb4f9d06b	-4.6531508e-07
90	0x34ec669e	4.403309e-07
91	0x34d0c5ab	3.8886841e-07
92	0xb47773e9	-2.3045835e-07
93	0x34b470b1	3.3609606e-07
94	0xb2fdf482	-2.9564266e-08
95	0x32d1e417	2.4434526e-08
96	0xb30f6273	-3.338432e-08
97	0xb500bb1c	-4.7955996e-07
98	0x350ab4ae	5.167193e-07
99	0x34c2258c	3.6162635e-07
100	0x33c95a94	9.376268e-08
101	0x34d90670	4.0424084e-07
102	0xb4023c85	-1.212921e-07
103	0x321d1871	9.14416e-09
104	0xb437eb0b	-1.7128711e-07
105	0x352f5547	6.5316675e-07
106	0xb51c63e5	-5.8259894e-07
107	0x3485a0a3	2.489006e-07
108	0xb45242d8	-1.9582092e-07
109	0xb45999c4	-2.026564e-07
110	0x34828a45	2.431499e-07
111	0xb424bfab	-1.5343419e-07
112	0xb5418ffb	-7.210762e-07
113	0x346c091c	2.1982527e-07
114	0xb301919d	-3.0167588e-08
115	0x33f5cbf1	1.1445798e-07
116	0xb537435e	-6.8270845e-07
117	0x34b0b9b6	3.2917677e-07
118	0x339622b3	6.991231e-08
119	0xb46a691c	-2.1831187e-07
120	0x348c1019	2.6088745e-07
121	0x33b3db4c	8.375227e-08
122	0x3440905d	1.7933912e-07
123	0x3537480e	6.8277666e-07
124	0xb4711ba7	-2.2454934e-07
125	0xb40d9058	-1.318416e-07
126	0x33d67f15	9.9882676e-08
127	0x343669ca	1.6988557e-07
128	0x3464ed3a	2.1320457e-07
129	0xb48b35ef	-2.593001e-07
130	0xb51e0475	-5.886607e-07
131	0x34804f03	2.3899347e-07
132	0xb4015505	-1.2044991e-07
133	0xb4597bf3	-2.0254792e-07
134	0x3584263f	9.845897e-07
135	0x348cb376	2.6207607e-07
136	0x3401205a	1.202583e-07
137	0xb4d70949	-4.0053627e-07
138	0xb464d672	-2.131217e-07
139	0xb4961f29	-2.796235e-07
140	0x338a2af7	6.433941e-08
141	0xb39e28a0	-7.364838e-08
142	0xb37abfef	-5.8382224e-08
143	0xb4718bf0	-2.2495783e-07
144	0xb4ee0438	-4.4334024e-07
145	0x3309aa53	3.2052707e-08
146	0xb45b2449	-2.0409165e-07
147	0x340abe7a	1.2921546e-07
148	0x34f2afee	4.5204018e-07
149	0x33e2e08c	1.056479e-07
150	0x34567f67	1.9976652e-07
151	0x35504c02	7.7596644e-07
152	0xb4bcc156	-3.51584e-07
153	0x34e91193	4.341242e-07
154	0x34ec6829	4.4034212e-07
155	0x3488018a	2.5333094e-07
156	0x3524707e	6.125846e-07
157	0x344ff551	1.9367623e-07
158	0x339a166e	7.175264e-08
159	0x3501abe9	4.8306407e-07
160	0xb3f277bd	-1.12907834e-07
161	0xb4d90a70	-4.0426994e-07
162	0xb4566371	-1.996648e-07
163	0x3445a90f	1.8408558e-07
164	0xb42aab95	-1.5894905e-07
165	0x34961f29	2.796235e-07
166	0xb3de9a08	-1.0365699e-07
167	0xb4bf77e0	-3.5663743e-07
168	0xb4d60129	-3.986145e-07
169	0xb41116d2	-1.351248e-07
170	0xb53c4778	-7.013946e-07
171	0x33497f21	4.6914582e-08
172	0x34d0381f	3.8783853e-07
173	0xb4f3b50f	-4.5394015e-07
174	0x33682b72	5.4056223e-08
175	0x34967096	2.8021594e-07
176	0x33ffca0b	1.1911114e-07
177	0xb59b0ae2	-1.1551567e-06
178	0x33b9e6b1	8.656696e-08
179	0x341cec8d	1.4614689e-07
180	0xb3c08a51	-8.965856e-08
181	0x35375f86	6.831182e-07
182	0x32ed1817	2.7601386e-08
183	0x3464ed3a	2.1320457e-07
184	0x339a0696	7.172382e-08
185	0xb47f9ddb	-2.3806153e-07
186	0xb3253fe6	-3.847517e-08
187	0xb5149ee8	-5.5365535e-07
188	0x33b1c80b	8.2785924e-08
189	0xb4971bc9	-2.8146158e-07
190	0xb4557790	-1.9880667e-07
191	0xb4b8e5bb	-3.4439822e-07
192	0x3356f061	5.004438e-08
193	0x3497d816	2.8283165e-07
194	0x33150321	3.469461e-08
195	0x343b977f	1.7470846e-07
196	0xb4ff50f3	-4.755635e-07
197	0xb4506551	-1.9408368e-07
198	0xb484df71	-2.474949e-07
199	0xb22c95d1	-1.0045782e-08
200	0xb4ea386d	-4.3626952e-07
201	0xb3fa306f	-1.1650342e-07
202	0x33b309e5	8.337137e-08
203	0x34b4b2fe	3.3657847e-07
204	0xb54267ea	-7.2421847e-07
205	0x320c67fb	8.172715e-09
206	0xb48c2819	-2.6106207e-07
207	0x34a4c79f	3.0692624e-07
208	0xb3a57e2a	-7.70636e-08
209	0xb2a01417	-1.8635587e-08
210	0xb3b0196c	-8.200263e-08
211	0xb4ce2bfb	-3.840249e-07
212	0xb479d163	-2.3266107e-07
213	0xb4ab74f0	-3.1936315e-07
214	0x34f44f95	4.5506445e-07
215	0x3432a47f	1.6637385e-07
216	0x34ee1cfc	4.4352043e-07
217	0xb3b3689e	-8.354367e-08
218	0x3514a790	5.537813e-07
219	0xb4d9a29b	-4.053771e-07
220	0xb4fc1319	-4.6952553e-07
221	0xb4d76a0f	-4.0124038e-07
222	0x34da0a7a	4.0613287e-07
223	0xb459fdb3	-2.0301995e-07
224	0x3527b42d	6.247454e-07
225	0x335acede	5.0945225e-08
226	0xb3a32ec2	-7.598784e-08
227	0x34c5d1d5	3.6846782e-07
228	0xb1993a2a	-4.4594985e-09
229	0x340d89b8	1.318175e-07
230	0x33f6a3ba	1.14850494e-07
231	0x34099f36	1.281704e-07
232	0x352ce296	6.440472e-07
233	0xb3d2dff4	-9.819624e-08
234	0x3400a05a	1.1979265e-07
235	0x348e23fc	2.6475743e-07
236	0xb36d27bd	-5.5217004e-08
237	0x34b675ee	3.3985947e-07
238	0xb4793ab7	-2.3211292e-07
239	0x3535a3e0	6.7666224e-07
240	0xb481d7ff	-2.418528e-07
241	0x3500a7e5	4.7928035e-07
242	0xb4633b81	-2.116267e-07
243	0x33d545e6	9.9313e-08
244	0xb40f67aa	-1.3355626e-07
245	0xb3bdca39	-8.8377824e-08
246	0xb4ec3005	-4.3993364e-07
247	0x3450a551	1.9431651e-07
248	0x34828a45	2.431499e-07
249	0xb4d9209b	-4.0443123e-07
250	0xb2639830	-1.32477425e-08
251	0x35232414	6.077473e-07
252	0x35143f9e	5.522687e-07
253	0x34b6ed9f	3.4073034e-07
254	0x32d50296	2.479764e-08
255	0xb482e245	-2.437902e-07

cl2.layer_0.bias f4 [64]
0	0xb493df2b	-2.754326e-07
1	0xb493df2b	-2.754326e-07
2	0xb493df2b	-2.754326e-07
3	0xb493df2b	-2.754326e-07
4	0xb493df2b	-2.754326e-07
5	0xb493df2b	-2.754326e-07
6	0xb493df2b	-2.754326e-07
7	0xb493df2b	-2.754326e-07
8	0xb493df2b	-2.754326e-07
9	0xb493df2b	-2.754326e-07
10	0xb493df2b	-2.754326e-07
11	0xb493df2b	-2.754326e-07
12	0xb493df2b	-2.754326e-07
13	0xb493df2b	-2.754326e-07
14	0xb493df2b	-2.754326e-07
15	0xb493df2b	-2.754326e-07
16	0xb493df2b	-2.754326e-07
17	0xb493df2b	-2.754326e-07
18	0xb493df2b	-2.754326e-07
19	0xb493df2b	-2.754326e-07
20	0xb493df2b	-2.754326e-07
21	0xb493df2b	-2.754326e-07
22	0xb493df2b	-2.754326e-07
23	0xb493df2b	-2.754326e-07
24	0xb493df2b	-2.754326e-07
25	0xb493df2b	-2.754326e-07
26	0xb493df2b	-2.754326e-07
27	0xb493df2b	-2.754326e-07
28	0xb493df2b	-2.754326e-07
29	0xb493df2b	-2.754326e-07
30	0xb493df2b	-2.754326e-07
31	0xb493df2b	-2.754326e-07
32	0xb493df2b	-2.754326e-07
33	0xb493df2b	-2.754326e-07
34	0xb493df2b	-2.754326e-07
35	0xb493df2b	-2.754326e-07
36	0xb493df2b	-2.754326e-07
37	0xb493df2b	-2.754326e-07
38	0xb493df2b	-2.754326e-07
39	0xb493df2b	-2.754326e-07
40	0xb493df2b	-2.754326e-07
41	0xb493df2b	-2.754326e-07
42	0xb493df2b	-2.754326e-07
43	0xb493df2b	-2.754326e-07
44	0xb493df2b	-2.754326e-07
45	0xb493df2b	-2.754326e-07
46	0xb493df2b	-2.754326e-07
47	0xb493df2b	-2.754326e-07
48	0xb493df2b	-2.754326e-07
49	0xb493df2b	-2.754326e-07
50	0xb493df2b	-2.754326e-07
51	0xb493df2b	-2.754326e-07
52	0xb493df2b	-2.754326e-07
53	0xb493df2b	-2.754326e-07
54	0xb493df2b	-2.754326e-07
55	0xb493df2b	-2.754326e-07
56	0xb493df2b	-2.754326e-07
57	0xb493df2b	-2.754326e-07
58	0xb493df2b	-2.754326e-07
59	0xb493df2b	-2.754326e-07
60	0xb493df2b	-2.754326e-07
61	0xb493df2b	-2.754326e-07
62	0xb493df2b	-2.754326e-07
63	0xb493df2b	-2.754326e-07

cl2.layer_1.weight f4 [64, 64]
0	0xb555b458	-7.961112e-07
1	0x339557b1	6.954304e-08
2	0xb2ce73ca	-2.4034211e-08
3	0xb43a9a1d	-1.7378666e-07
4	0x353d7ef1	7.059271e-07
5	0xb3ad0b57	-8.058003e-08
6	0xb3e7e7d5	-1.0798946e-07
7	0x347e4fbf	2.3684605e-07
8	0xb418a88c	-1.421742e-07
9	0x34b06b16	3.286047e-07
10	0xb516e323	-5.620988e-07
11	0xb3aa26a2	-7.923269e-08
12	0x340f6daa	1.3357808e-07
13	0xb40706a7	-1.2575275e-07
14	0xb33cfebf	-4.400385e-08
15	0xb36c8f36	-5.507828e-08
16	0x331922fc	3.5654907e-08
17	0x33a41b89	7.641854e-08
18	0x334f2be4	4.823586e-08
19	0xb2d11eae	-2.4344754e-08
20	0x34b55b81	3.3780455e-07
21	0x34535560	1.9681966e-07
22	0x348cab76	2.6201786e-07
23	0x34da3019	4.064066e-07
24	0x35929988	1.0922531e-06
25	0x33d1fa40	9.777841e-08
26	0xb47dfb1b	-2.3653813e-07
27	0x330e6e7a	3.316243e-08
28	0x336514db	5.3337185e-08
29	0x353dd6d9	7.072063e-07
30	0x32a0a902	1.8703307e-08
31	0xb45f8a87	-2.081889e-07
32	0x3491fa5c	2.7190515e-07
33	0xb41644bc	-1.3994844e-07
34	0x34ec5529	4.4020388e-07
35	0x34e73bfb	4.3070744e-07
36	0x3417829c	1.4110486e-07
37	0x331982fc	3.5742218e-08
38	0x3581cd1a	9.670941e-07
39	0xb4cd3b39	-3.8227316e-07
40	0xb45f7a87	-2.0813069e-07
41	0xb3958186	-6.9619134e-08
42	0xb3e54f8c	-1.0678113e-07
43	0xb4cbdf68	-3.7974246e-07
44	0xb2a2a902	-1.8936138e-08
45	0xb4551f67	-1.9848595e-07
46	0xb51f44fa	-5.933249e-07
47	0x33a886f6	7.847659e-08
48	0xb2c48417	-2.287747e-08
49	0xb5304a6a	-6.5673396e-07
50	0xb5801353	-9.542367e-07
51	0xb4723392	-2.2556767e-07
52	0x34d664be	3.9933906e-07
53	0xb402ba7b	-1.2175035e-07
54	0xb4083e30	-1.268861e-07
55	0xb41501c8	-1.3877354e-07
56	0x349a7e7b	2.8776762e-07
57	0x3442e19a	1.8149731e-07
58	0xb48ebffc	-2.6589248e-07
59	0xb2a1f417	-1.8853866e-08
60	0x33c449b5	9.1403685e-08
61	0xb4368e2b	-1.7001791e-07
62	0xb537080c	-6.818452e-07
63	0x338da673	6.596101e-08
64	0xb4bba3a7	-3.4950537e-07
65	0x34c5e9d5	3.6864245e-07
66	0xb4b66e33	-3.3980322e-07
67	0xb2ba32e1	-2.1676387e-08
68	0xb4fcebcb	-4.711022e-07
69	0x352d6596	6.459535e-07
70	0xb539e2dc	-6.9247994e-07
71	0xb52367fa	-6.087354e-07
72	0xb49664ee	-2.8013113e-07
73	0x35012bd5	4.812003e-07
74	0x34cd9d65	3.8298745e-07
75	0xb48f4afe	-2.669039e-07
76	0x3384fef7	6.193107e-08
77	0xb53345c3	-6.6784213e-07
78	0xb1b441fe	-5.246192e-09
79	0xb22260a0	-9.451611e-09
80	0xb4dc362f	-4.1017617e-07
81	0x3434e6f9	1.6847834e-07
82	0x3406e322	1.2562353e-07
83	0x340cba58	1.3106308e-07
84	0xb3f317bd	-1.1319887e-07
85	0xb393546b	-6.8605765e-08
86	0x34f61d3e	4.5842347e-07
87	0x352a15c5	6.3361614e-07
88	0xb3fbda72	-1.1727833e-07
89	0x3247a333	1.1620432e-08
90	0x34160962	1.3973252e-07
91	0x33ea31c9	1.090553e-07
92	0x34516194	1.950014e-07
93	0x3445a90f	1.8408558e-07
94	0xb365b9f1	-5.348733e-08
95	0xb3c9a8c6	-9.3904916e-08
96	0xb494cfa9	-2.771824e-07
97	0xb27a5244	-1.457062e-08
98	0x345697ba	1.9985501e-07
99	0x34dc94aa	4.108636e-07
100	0x33a9beb7	7.9043666e-08
101	0x333c4cdc	4.3842064e-08
102	0xb46a3489	-2.181206e-07
103	0x353efbe0	7.114704e-07
104	0xb4da6a7a	-4.0683136e-07
105	0xb30e9c21	-3.320395e-08
106	0x34af300a	3.2631243e-07
107	0x343964ab	1.726609e-07
108	0xb4870715	-2.5150862e-07
109	0x34aca428	3.2156936e-07
110	0xb4bcb01d	-3.5145868e-07
111	0x335fe986	5.2133622e-08
112	0x33de7825	1.0359535e-07
113	0x309381da	1.0732564e-09
114	0xb4e86f59	-4.3294384e-07
115	0x33be2009	8.8533916e-08
116	0xb48c6376	-2.61494e-07
117	0x34e3f3ee	4.2459527e-07
118	0xb5094fc4	-5.115255e-07
119	0xb4266e6e	-1.5500129e-07
120	0x34a5b296	3.0863583e-07
121	0x341faa5d	1.4870007e-07
122	0x347517cd	2.2826062e-07
123	0xb4da139b	-4.061993e-07
124	0x35048af3	4.937603e-07
125	0xb4e6a7de	-4.2962978e-07
126	0x34ccb84c	3.8132055e-07
127	0x3434725f	1.6805414e-07
128	0xb4dac03a	-4.0745527e-07
129	0x33263fe6	3.8708002e-08
130	0xb4da83ab	-4.0701465e-07
131	0x34456425	1.8383487e-07
132	0xb38fd803	-6.698249e-08
133	0x34ea1588	4.3601563e-07
134	0x34ab7cf0	3.1942136e-07
135	0x31283a55	2.4480376e-09
136	0x34add80a	3.238095e-07
137	0x34bbe1b4	3.4995685e-07
138	0x34c5a47b	3.6813785e-07
139	0xb4fcc303	-4.7080547e-07
140	0x3496abee	2.8064773e-07
141	0x3478d1b7	2.3173094e-07
142	0x34827245	2.429753e-07
143	0x336476b8	5.319336e-08
144	0x33c91bb2	9.3648296e-08
145	0xb50008dd	-4.7696614e-07
146	0x34ba6e22	3.4725332e-07
147	0xb4d04063	-3.8789867e-07
148	0x349b18aa	2.8888945e-07
149	0xb4b15236	-3.3028635e-07
150	0xb2c81c17	-2.3295838e-08
151	0x30838345	9.568814e-10
152	0xb4e74bfb	-4.3082386e-07
153	0xb38a9dc0	-6.45482e-08
154	0xb33aea6d	-4.351971e-08
155	0xb4b6ce33	-3.405017e-07
156	0x3296a902	1.7539154e-08
157	0xb3eed774	-1.1121929e-07
158	0xb484d771	-2.474367e-07
159	0xb4c8ee07	-3.742609e-07
160	0xb4b0a6ee	-3.2904012e-07
161	0xb513df9f	-5.508718e-07
162	0x343a45c3	1.7347979e-07
163	0xb31d3441	-3.6601936e-08
164	0x325fab4d	1.3019258e-08
165	0xb28951b7	-1.5986059e-08
166	0xb443f19a	-1.8248684e-07
167	0xb45fa082	-2.0826886e-07
168	0x33bb22fa	8.714228e-08
169	0x32f0d63a	2.8037096e-08
170	0xb517721d	-5.641794e-07
171	0xb5293e6c	-6.304824e-07
172	0xb39382ff	-6.869049e-08
173	0xb2f6ce3a	-2.873195e-08
174	0x34b923a7	3.4484876e-07
175	0xb3f02a40	-1.1183556e-07
176	0x354263a6	7.241564e-07
177	0xb4424a13	-1.8094606e-07
178	0x3400c305	1.1991877e-07
179	0x356fa191	8.926955e-07
180	0x352a62e9	6.347387e-07
181	0xb39d2341	-7.317295e-08
182	0xb552538f	-7.835269e-07
183	0xb4b514fd	-3.3729148e-07
184	0x34087562	1.270869e-07
185	0xb52ac0e9	-6.3610656e-07
186	0x33a58b89	7.7087925e-08
187	0xb593c3ed	-1.1009375e-06
188	0xb4f97b69	-4.6469657e-07
189	0xb3da8a80	-1.0176609e-07
190	0x3403c388	1.227146e-07
191	0x343a4e95	1.7351188e-07
192	0xb33ae328	-4.3513097e-08
193	0xb3887b6c	-6.355444e-08
194	0xb30fd7cf	-3.349106e-08
195	0xb4dbfa2e	-4.0973958e-07
196	0xb34e6be4	-4.806124e-08
197	0x358a6ea2	1.0314e-06
198	0xb395ef4b	-6.98188e-08
199	0xb3243fe6	-3.824234e-08
200	0xb2a62902	-1.9343592e-08
201	0x3452afe4	1.9621763e-07
202	0x347743e9	2.3028373e-07
203	0x345750ae	2.0052786e-07
204	0x33dc5825	1.0260582e-07
205	0x34b1b012	3.3096927e-07
206	0x352ab049	6.3586464e-07
207	0xb39c9818	-7.291982e-08
208	0x32b73a80	2.1330607e-08
209	0x3459cbf3	2.0283896e-07
210	0x35373806	6.825434e-07
211	0x34236c5a	1.5219976e-07
212	0xb48567ca	-2.4848697e-07
213	0x344773e7	1.8575484e-07
214	0xb388e0fe	-6.373919e-08
215	0xb3935803	-6.86123e-08
216	0xb4146723	-1.3821095e-07
217	0x3447b3e7	1.8598767e-07
218	0xb465525c	-2.1357249e-07
219	0xb5310b4e	-6.595409e-07
220	0x33a45b89	7.653495e-08
221	0x34d1b5b9	3.9061504e-07
222	0xb53d5071	-7.0525044e-07
223	0x340f4daa	1.3346167e-07
224	0xb38ba203	-6.502162e-08
225	0xb3ac92bf	-8.036067e-08
226	0x33be1009	8.850481e-08
227	0xb425da2a	-1.544619e-07
228	0xb4084e29	-1.2694422e-07
229	0xb517259d	-5.630662e-07
230	0xb4099624	-1.281374e-07
231	0x33ccc446	9.535192e-08
232	0xb3c83dfd	-9.324501e-08
233	0x308e752b	1.0365161e-09
234	0xb530846a	-6.5757797e-07
235	0xb4953729	-2.7793547e-07
236	0xb4e8e757	-4.338169e-07
237	0x3417c69c	1.4135225e-07
238	0x3406c0e0	1.254989e-07
239	0x33df7f03	1.040735e-07
240	0x3557fe09	8.046341e-07
241	0x33c729b5	9.274246e-08
242	0x34839445	2.4508532e-07
243	0xb53ace44	-6.9590556e-07
244	0x34a4f79f	3.0727549e-07
245	0xb43169d1	-1.6522905e-07
246	0xb2708783	-1.400065e-08
247	0xb52cbe96	-6.435233e-07
248	0xb3c3b3f8	-9.113131e-08
249	0xb4b57f52	-3.3806515e-07
250	0x352a92e9	6.354372e-07
251	0xb47a5827	-2.3315134e-07
252	0xb478d877	-2.317555e-07
253	0x33a978a2	7.891619e-08
254	0x3396e52e	7.026607e-08
255	0x33d2ceee	9.816527e-08

cl2.layer_1.bias f4 [64]
0	0xb493df2b	-2.754326e-07
1	0xb493df2b	-2.754326e-07
2	0xb493df2b	-2.754326e-07
3	0xb493df2b	-2.754326e-07
4	0xb493df2b	-2.754326e-07
5	0xb493df2b	-2.754326e-07
6	0xb493df2b	-2.754326e-07
7	0xb493df2b	-2.754326e-07
8	0xb493df2b	-2.754326e-07
9	0xb493df2b	-2.754326e-07
10	0xb493df2b	-2.754326e-07
11	0xb493df2b	-2.754326e-07
12	0xb493df2b	-2.754326e-07
13	0xb493df2b	-2.754326e-07
14	0xb493df2b	-2.754326e-07
15	0xb493df2b	-2.754326e-07
16	0xb493df2b	-2.754326e-07
17	0xb493df2b	-2.754326e-07
18	0xb493df2b	-2.754326e-07
19	0xb493df2b	-2.754326e-07
20	0xb493df2b	-2.754326e-07
21	0xb493df2b	-2.754326e-07
22	0xb493df2b	-2.754326e-07
23	0xb493df2b	-2.754326e-07
24	0xb493df2b	-2.754326e-07
25	0xb493df2b	-2.754326e-07
26	0xb493df2b	-2.754326e-07
27	0xb493df2b	-2.754326e-07
28	0xb493df2b	-2.754326e-07
29	0xb493df2b	-2.754326e-07
30	0xb493df2b	-2.754326e-07
31	0xb493df2b	-2.754326e-07
32	0xb493df2b	-2.754326e-07
33	0xb493df2b	-2.754326e-07
34	0xb493df2b	-2.754326e-07
35	0xb493df2b	-2.754326e-07
36	0xb493df2b	-2.754326e-07
37	0xb493df2b	-2.754326e-07
38	0xb493df2b	-2.754326e-07
39	0xb493df2b	-2.754326e-07
40	0xb493df2b	-2.754326e-07
41	0xb493df2b	-2.754326e-07
42	0xb493df2b	-2.754326e-07
43	0xb493df2b	-2.754326e-07
44	0xb493df2b	-2.754326e-07
45	0xb493df2b	-2.754326e-07
46	0xb493df2b	-2.754326e-07
47	0xb493df2b	-2.754326e-07
48	0xb493df2b	-2.754326e-07
49	0xb493df2b	-2.754326e-07
50	0xb493df2b	-2.754326e-07
51	0xb493df2b	-2.754326e-07
52	0xb493df2b	-2.754326e-07
53	0xb493df2b	-2.754326e-07
54	0xb493df2b	-2.754326e-07
55	0xb493df2b	-2.754326e-07
56	0xb493df2b	-2.754326e-07
57	0xb493df2b	-2.754326e-07
58	0xb493df2b	-2.754326e-07
59	0xb493df2b	-2.754326e-07
60	0xb493df2b	-2.754326e-07
61	0xb493df2b	-2.754326e-07
62	0xb493df2b	-2.754326e-07
63	0xb493df2b	-2.754326e-07
