experiments/bess/classifier/1552933539_0.057/1552967254_6_classifier_final.pth (torch_old, 575222 bytes, 52 tensors)

cl0.weight f4 [64, 1]
0	0x3f1c1212	0.60965073
1	0xbd80b579	-0.06284613
2	0x3e2d95d8	0.16951692
3	0x3f33eeed	0.70286447
4	0x3ef413c2	0.47671324
5	0x3f43b2ff	0.76445
6	0xbdce15f9	-0.10062785
7	0x3f173aaf	0.5907392
8	0x3f3c2f3a	0.7350956
9	0xbdd54b8e	-0.104148015
10	0xbf315b3a	-0.69279826
11	0xbf4f241d	-0.8091448
12	0x2e7f6b7e	5.807576e-11
13	0xbee8cbd1	-0.45468
14	0xbf2bc770	-0.6710119
15	0xbf12f906	-0.5741123
16	0xbeaa8c27	-0.33310053
17	0xbf8285ce	-1.0197084
18	0x3e87320d	0.26405373
19	0x3e6f88f8	0.23392093
20	0x3f0f0c85	0.5587848
21	0x3f1161fe	0.5679015
22	0x3f0358ce	0.5130738
23	0x3eedab29	0.46419647
24	0x3f48b7ed	0.7840565
25	0xbf0d3996	-0.55165994
26	0xbe7a2af2	-0.24430445
27	0x3ea047cc	0.31304777
28	0x3f54c68e	0.8311547
29	0xbf123589	-0.5711294
30	0xbf5a5510	-0.85286045
31	0x3f183550	0.5945635
32	0x3cec3553	0.02883402
33	0x3f0836a1	0.5320836
34	0x3205cb92	7.787905e-09
35	0xbec97df3	-0.39353904
36	0xbf0023e9	-0.50054795
37	0xbd48b6c2	-0.049002416
38	0xbf5e2eb8	-0.8679004
39	0xbf4f5b52	-0.8099872
40	0xbe6a24cf	-0.22865604
41	0x3f6d25f4	0.92636037
42	0x3e20ffaa	0.15722528
43	0x3f5a9c48	0.85394716
44	0xbefdc607	-0.49565145
45	0x3ebe35a1	0.3715029
46	0xbf1c0f72	-0.6096107
47	0x3f8024ac	1.0011191
48	0xbc99456d	-0.018709863
49	0x3ccc393a	0.024929632
50	0x3ea9b913	0.33149013
51	0xbf1e347d	-0.6179884
52	0xbe06a42c	-0.13148564
53	0xbe5f1e1f	-0.21788834
54	0x3f377aa2	0.716715
55	0x3f141af4	0.5785363
56	0xbe2eb4db	-0.17061178
57	0xbea4aae5	-0.32161632
58	0x3f45d8a5	0.772837
59	0x3f811339	1.0083991
60	0x3e5270b8	0.20550811
61	0x3dbd8116	0.09253137
62	0x3f668a9b	0.90055245
63	0x3efe0f19	0.49620894

cl0.bias f4 [64]
0	0xbd553b16	-0.052058302
1	0x3e62c096	0.22143778
2	0xbe7fd87b	-0.24984924
3	0xbdb2cb1e	-0.08730148
4	0xbd5a08fe	-0.053231232
5	0x3b934900	0.0044947863
6	0xbe1c7d3a	-0.15282145
7	0xbe9cae2c	-0.30601633
8	0x3ddd9f71	0.10821427
9	0xbe7be1c8	-0.24597847
10	0x3ea1392b	0.31488928
11	0xbde707ee	-0.11280809
12	0xae002b94	-2.9142536e-11
13	0xbc80037c	-0.015626661
14	0x3eb881c2	0.36036497
15	0x3e957c57	0.29196426
16	0x3e551268	0.20807803
17	0x3e68dcff	0.22740553
18	0xbe7a05ae	-0.24416229
19	0xbe6d2100	-0.2315712
20	0x3d6a45e4	0.05719556
21	0xbe8468cb	-0.258612
22	0x3e8bf98d	0.2733883
23	0xbe128897	-0.14309917
24	0xbc889f7b	-0.016677609
25	0xbe7563f7	-0.23963915
26	0x3e462943	0.19351678
27	0x3e10e41c	0.14149517
28	0x3d79ed13	0.061017107
29	0x3e8bbdef	0.27293345
30	0xbba8c483	-0.005150379
31	0xbe4d6692	-0.20058659
32	0x368f8dd2	4.278242e-06
33	0x3e960e41	0.2930775
34	0xbda2016d	-0.07910428
35	0x3e6fd6c9	0.23421778
36	0x3e82c732	0.255426
37	0x3e0fc376	0.14039406
38	0x3d6cb431	0.05778903
39	0x3d6b3e52	0.05743248
40	0x3e8d167c	0.27556217
41	0x3e25568f	0.161463
42	0x3e0c790d	0.13718052
43	0xbe004ff6	-0.12530503
44	0x3e993b00	0.29927826
45	0x3e93d3dc	0.28872573
46	0x3e2c3c3c	0.16819853
47	0xbe3c62db	-0.18397085
48	0xbe2e1181	-0.16998865
49	0xbe4bd60e	-0.19905874
50	0xbdc7b414	-0.09751144
51	0xbcdd5a40	-0.027020574
52	0x3e82cd75	0.25547376
53	0x3d6597f5	0.05605312
54	0xbd15bab1	-0.036554996
55	0x3e375404	0.17903143
56	0x3e5c67bc	0.21523947
57	0x3b6027ac	0.0034203334
58	0xbe62de35	-0.22155078
59	0xbe4992cb	-0.19684903
60	0xbe5bf951	-0.21481825
61	0xbe0dfac1	-0.13865186
62	0xbea9a063	-0.33130178
63	0xbe55ab5e	-0.20866153

cl1.layer_0.weight f4 [64, 64]
0	0x3f5f9235	0.8733247
1	0xbebe6cdd	-0.3719243
2	0xb1fc4cdf	-7.3429045e-09
3	0x358290c9	9.727893e-07
4	0xbf1f491e	-0.6222094
5	0x3e18d5e1	0.14925338
6	0xbeac5dab	-0.33665213
7	0xbef40a3b	-0.47664055
8	0xbeb2278b	-0.34795794
9	0x3411bb65	1.3572351e-07
10	0x3bc8fcdf	0.00613366
11	0xbe8f5526	-0.2799465
12	0x2d666858	1.3097155e-11
13	0x3f1f0a38	0.6212497
14	0x3e0eb87b	0.13937561
15	0xb301d4b0	-3.022859e-08
16	0xbeba0ee7	-0.36339495
17	0xbf410b08	-0.7540746
18	0x3dec1a41	0.11528445
19	0xae83015c	-5.957432e-11
20	0x3e11dcaf	0.1424434
21	0x3f0e8697	0.5567412
22	0xbf6ae921	-0.91761976
23	0xbf0f7ae5	-0.560469
24	0x3f45f053	0.7731983
25	0xbf1cf0c9	-0.6130491
26	0xbf23d800	-0.64001465
27	0x3d87c04c	0.066284746
28	0x3d336992	0.04380185
29	0xbf06d63f	-0.52670664
30	0x3f020e16	0.50802743
31	0x3d21656a	0.039403357
32	0x2e9ea9f7	7.2152e-11
33	0xbf1a1cd1	-0.6020022
34	0x3e29c186	0.1657773
35	0xbf29b622	-0.6629354
36	0xbedeb68b	-0.43498644
37	0x320be310	8.142493e-09
38	0x3e687834	0.22702104
39	0xbe1cea23	-0.15323691
40	0xbee872e0	-0.45400143
41	0xbf041293	-0.5159084
42	0xbf1a85e6	-0.6036056
43	0x3f353299	0.7078033
44	0xbf0aa350	-0.54155445
45	0x3e972ed0	0.29527903
46	0xbf1351e3	-0.57546824
47	0xbe3f71da	-0.18695775
48	0xbe2e8131	-0.1704147
49	0x3f2ac781	0.6671067
50	0x3eb308fb	0.3496779
51	0x3f62e78b	0.88634557
52	0xbeab01e4	-0.3339988
53	0xb24de4ba	-1.1984577e-08
54	0xbe29aabb	-0.16569035
55	0xbe4e68c8	-0.20157158
56	0x311202dd	2.1247424e-09
57	0x3f180b19	0.59391934
58	0x3f4f669a	0.8101593
59	0x3f58e089	0.84717613
60	0xaeffddde	-1.1635469e-10
61	0xb10fb1fb	-2.091041e-09
62	0x3f25a730	0.6470823
63	0xbec3ea5f	-0.38264748
64	0x3ed45a07	0.41474935
65	0xbe8c064d	-0.27348557
66	0xb19f6d4c	-4.6399347e-09
67	0x3eb09ab7	0.34493038
68	0x3e2bc1c1	0.1677313
69	0x3ed16b45	0.40902153
70	0xbe45bf55	-0.19311269
71	0x3d13617c	0.03598164
72	0xbf303c6f	-0.68842214
73	0xb2c7b2e2	-2.3247996e-08
74	0xbe9bdb05	-0.30440536
75	0x3eebf47c	0.46084964
76	0xab5ac176	-7.771764e-13
77	0xbef18356	-0.47170514
78	0x3f0c1f1d	0.54734975
79	0xb3809559	-5.987631e-08
80	0xbe601614	-0.21883422
81	0xbf511e3a	-0.8168675
82	0xacf5d66b	-6.987124e-12
83	0xaf698b1e	-2.1240651e-10
84	0x3edc96e8	0.43083882
85	0x338c26ae	6.526294e-08
86	0x3f0d78e3	0.55262583
87	0x3dd8209b	0.10553094
88	0x3d1159ee	0.035486154
89	0xbeead7cd	-0.45867768
90	0xb0c7e5dc	-1.4544486e-09
91	0xbd82d1ff	-0.0638771
92	0x3f4df96f	0.8045873
93	0xbf071187	-0.5276112
94	0x3e85fd14	0.26169646
95	0x3eb54722	0.35405833
96	0x2ff084de	4.3750153e-10
97	0xbe9b25f0	-0.30302382
98	0xb1a957ec	-4.928543e-09
99	0x3ef7938b	0.48354754
100	0xbf4f27d6	-0.8092016
101	0xbe1b6a2e	-0.15177223
102	0x3e1206e6	0.14260444
103	0x3dee99be	0.11650418
104	0x30b1e81a	1.2944412e-09
105	0xbe060ad6	-0.13090071
106	0x3f4951fa	0.7864071
107	0x3e468aa0	0.19388819
108	0xbf5c9841	-0.8616982
109	0xbf27f6de	-0.65611064
110	0xbf1fd244	-0.62430215
111	0xbf591260	-0.84793663
112	0x3ec89f1a	0.39183885
113	0xb219a9b7	-8.944361e-09
114	0x3319c276	3.579995e-08
115	0xbec79fa3	-0.3898898
116	0x31ec8f4e	6.884796e-09
117	0xbf0bebeb	-0.5465686
118	0xbeef0c1f	-0.46688935
119	0x3eaccc72	0.3374973
120	0x3057beb4	7.848755e-10
121	0xb3250164	-3.841832e-08
122	0x3f2677fc	0.6502683
123	0x3f365588	0.7122426
124	0xaf1cb4ba	-1.4252324e-10
125	0xb09eab31	-1.1544669e-09
126	0xbea6b57f	-0.32560346
127	0x3f0c36cc	0.54771113
128	0xaecdc0bf	-9.356559e-11
129	0x2cb52152	5.1480287e-12
130	0x2e7eea5c	5.7961067e-11
131	0x2f01cfe9	1.1806346e-10
132	0x2c3b5f73	2.6627283e-12
133	0xacc409c1	-5.571738e-12
134	0xae656393	-5.215701e-11
135	0xada9f949	-1.932378e-11
136	0xae47d6a6	-4.5438008e-11
137	0x2dc512ec	2.240471e-11
138	0x2e11b21e	3.3127383e-11
139	0xad58788d	-1.2304946e-11
140	0xae4ba667	-4.630465e-11
141	0xac98c0b2	-4.3414933e-12
142	0xab02a2b9	-4.64111e-13
143	0x2d554617	1.2123211e-11
144	0xae1bbe83	-3.5412128e-11
145	0x2d9957f7	1.743315e-11
146	0xadd71555	-2.4452143e-11
147	0xae7c769d	-5.7403516e-11
148	0xae2d4f1f	-3.940592e-11
149	0x2e154114	3.393648e-11
150	0x2d95e681	1.7041703e-11
151	0x2e2c095a	3.9116578e-11
152	0xad5c6d85	-1.252987e-11
153	0x2d86c774	1.5322611e-11
154	0x2e319be0	4.0383585e-11
155	0xaca71ce1	-4.7496317e-12
156	0xaef9bb7b	-1.1356512e-10
157	0xae5d5844	-5.0327978e-11
158	0xad9518cf	-1.6950356e-11
159	0xab785783	-8.8228746e-13
160	0xac3e7051	-2.7062972e-12
161	0x2e134c8d	3.349192e-11
162	0xadefeb81	-2.7275739e-11
163	0xaf066b72	-1.2225401e-10
164	0xad22888d	-9.238954e-12
165	0xae570ee5	-4.889857e-11
166	0xac0dcced	-2.0151062e-12
167	0x2da5797f	1.8812283e-11
168	0xae0d3eb1	-3.211537e-11
169	0x2bf2ab02	1.7242598e-12
170	0x2d3fdc1e	1.0905969e-11
171	0xab83fd63	-9.378439e-13
172	0x2e0d0dd3	3.2071967e-11
173	0x2e4b00d9	4.615761e-11
174	0xabd64afa	-1.5226425e-12
175	0x2c7ee21d	3.622109e-12
176	0x2d365ff5	1.0366809e-11
177	0x2ead0c03	7.869263e-11
178	0x2e2d5be0	3.9417247e-11
179	0x2cc3a9a9	5.5610694e-12
180	0xad2c9375	-9.80981e-12
181	0xad8fedef	-1.6362882e-11
182	0x2ddf365d	2.5376307e-11
183	0xad232d09	-9.275477e-12
184	0xae531bc5	-4.800051e-11
185	0xad4f41a1	-1.178116e-11
186	0x2eeda0fe	1.080611e-10
187	0x2e55d3d4	4.8618734e-11
188	0x2d5a1237	1.239591e-11
189	0xade16377	-2.562371e-11
190	0x2e690e57	5.2990803e-11
191	0xab0ff804	-5.1147996e-13
192	0xae0c472d	-3.189553e-11
193	0x2e00d030	2.9288738e-11
194	0x2da2fef5	1.8530491e-11
195	0xad8304da	-1.489513e-11
196	0x2e597549	4.9444258e-11
197	0xae083b51	-3.0975503e-11
198	0x2e6b87d2	5.3553446e-11
199	0x2c71e2f5	3.4374146e-12
200	0xad478b32	-1.1342748e-11
201	0x2e5531be	4.8474773e-11
202	0xacad2375	-4.9208923e-12
203	0xaeb96b8d	-8.431931e-11
204	0x2dfb1755	2.8545758e-11
205	0xad1eac76	-9.019554e-12
206	0x2de7167f	2.627165e-11
207	0x2e851445	6.0517404e-11
208	0x2d7ef63f	1.4492906e-11
209	0xad90787b	-1.6424409e-11
210	0x2e5a91fb	4.9697118e-11
211	0xad6c623c	-1.3436859e-11
212	0xae32df5e	-4.0670904e-11
213	0xae19f1bc	-3.5002876e-11
214	0xaf1aa9be	-1.4066523e-10
215	0x2d180ec7	8.643481e-12
216	0xae59d7ed	-4.9531868e-11
217	0x2e90e09a	6.588259e-11
218	0x2e46add2	4.517437e-11
219	0xae5365ac	-4.806615e-11
220	0x2cab7c5b	4.8739185e-12
221	0xaf20a975	-1.4612118e-10
222	0xae2860c7	-3.8284733e-11
223	0xae70984f	-5.470496e-11
224	0xaeaf388d	-7.968124e-11
225	0x2d88e5de	1.5563491e-11
226	0x2c583a13	3.0727684e-12
227	0xad393526	-1.0527834e-11
228	0x2e8e71b5	6.477611e-11
229	0xab1d1c68	-5.5817026e-13
230	0x2de4a43a	2.599353e-11
231	0x2d87e9d1	1.5451558e-11
232	0xae6c1852	-5.3681788e-11
233	0x2c95943b	4.2512916e-12
234	0xaca62c5e	-4.7229295e-12
235	0xae89238c	-6.236353e-11
236	0xab94b652	-1.0566637e-12
237	0xae48eeac	-4.568672e-11
238	0x2e20233f	3.6411093e-11
239	0x2e521d95	4.7774746e-11
240	0xae3024f3	-4.0050584e-11
241	0x2db897f0	2.0985852e-11
242	0x2de3b568	2.5887473e-11
243	0xacad57b8	-4.9266945e-12
244	0xae1dd89f	-3.5890065e-11
245	0x2d3f3530	1.0868903e-11
246	0x2a54f14d	1.89131e-13
247	0xae2b41c5	-3.8939314e-11
248	0x2d83d34b	1.4986809e-11
249	0x2d16ccd3	8.571993e-12
250	0x2e00ac40	2.925682e-11
251	0xae28dfde	-3.839761e-11
252	0xad870a46	-1.5352285e-11
253	0xae79f337	-5.6832063e-11
254	0xaa3ef474	-1.6960202e-13
255	0xadbaf083	-2.125256e-11

cl1.layer_0.bias f4 [64]
0	0xbd97cc67	-0.074120335
1	0x3c173707	0.009229428
2	0x2ecf3002	9.421798e-11
3	0x2e106170	3.282835e-11
4	0xae896a61	-6.2489354e-11
5	0xae5746e4	-4.8948304e-11
6	0xadc5efc7	-2.250279e-11
7	0x2ebee5b2	8.681002e-11
8	0x3a106909	0.00055088155
9	0xbd4757bd	-0.048667658
10	0x2df21515	2.7521577e-11
11	0x3b8937be	0.004187553
12	0x3d12e925	0.035866875
13	0xad9c3d89	-1.7762474e-11
14	0x36e9b150	6.964583e-06
15	0xaebba29f	-8.532663e-11
16	0x2eb859d0	8.383305e-11
17	0x3e1e4ea2	0.15459684
18	0xbe9e840b	-0.30960116
19	0x2d4c90d1	1.1628213e-11
20	0xadf3850a	-2.7684983e-11
21	0x3e1e9059	0.15484752
22	0xaec36446	-8.8853855e-11
23	0xadb5d430	-2.0671548e-11
24	0x2d2a7a34	9.690516e-12
25	0x3dbcd8f4	0.09221068
26	0x3dc2ff1a	0.09521313
27	0x3c88f9c2	0.016720656
28	0x3e88ebf2	0.26742512
29	0x3e333b73	0.17503147
30	0xb3d066a9	-9.7044285e-08
31	0x2c1c052d	2.2171806e-12
32	0x3e9f6295	0.311299
33	0xbe8bf71c	-0.27336967
34	0x3e1f9b89	0.15586676
35	0xbe9db601	-0.3080292
36	0xae6dfcf0	-5.4112215e-11
37	0xbd33c094	-0.04388483
38	0xad0f217d	-8.136045e-12
39	0xad8f5b6c	-1.6297817e-11
40	0x2b5f936c	7.9430104e-13
41	0x3d7498bb	0.059715968
42	0xaea77f04	-7.616843e-11
43	0xbe6a4726	-0.22878703
44	0xb681e5ca	-3.8712506e-06
45	0x3e8caed7	0.27477142
46	0x3e32d96d	0.17465754
47	0x3380a29c	5.990043e-08
48	0x3de2302c	0.11044344
49	0xbd5d9456	-0.054096542
50	0x3cf5eb8e	0.030019548
51	0xae75c7f2	-5.5884138e-11
52	0x3dd0313b	0.1016564
53	0x3e9f7747	0.3114569
54	0xadfc3f77	-2.8677267e-11
55	0x3e102454	0.14076358
56	0x3e397ff0	0.1811521
57	0xbd4b76eb	-0.049673956
58	0x2e68537b	5.2824838e-11
59	0xaea80f79	-7.642504e-11
60	0xbdd3f206	-0.10348897
61	0x2e55da33	4.8624393e-11
62	0x35fb2d77	1.8714189e-06
63	0xbe807df5	-0.25096098

cl1.layer_1.weight f4 [64, 64]
0	0xb2d96f1b	-2.531265e-08
1	0x3ed6254f	0.4182534
2	0x2ddf1199	2.535998e-11
3	0x2ce348f0	6.4598257e-12
4	0xae6f1aaf	-5.4366008e-11
5	0xad8ba7e1	-1.5877024e-11
6	0x2eb8ceda	8.4040955e-11
7	0xaef22d7e	-1.1012967e-10
8	0xbf301c6f	-0.68793386
9	0x2d2ca896	9.814502e-12
10	0x2cf112e5	6.8517297e-12
11	0xbf5f078b	-0.87120885
12	0xbe5e8927	-0.21732007
13	0xadd9616f	-2.4713313e-11
14	0xbee04165	-0.43799892
15	0x2e7fe5d1	5.8184405e-11
16	0xae301877	-4.0039496e-11
17	0xbfa30410	-1.2735615
18	0x3e43814e	0.19092295
19	0xade656b4	-2.6186477e-11
20	0x2daf8aa8	1.9956772e-11
21	0xbe9ff516	-0.31241673
22	0x2d46c6a6	1.1299106e-11
23	0xacca27cb	-5.745603e-12
24	0x2cc3b509	5.5623323e-12
25	0x3e0f7400	0.14009094
26	0xb640e782	-2.8744985e-06
27	0x3e88e95f	0.26740548
28	0xbcb3c709	-0.021945493
29	0x3f2bb363	0.670706
30	0xb686d2e6	-4.018063e-06
31	0x2e17523d	3.4406467e-11
32	0x3dc97308	0.098363936
33	0xb0e84ce0	-1.6902071e-09
34	0x3ee59b96	0.44845265
35	0xb32637ec	-3.8700747e-08
36	0x2dc37a71	2.2223308e-11
37	0x2dcbcfcb	2.3170707e-11
38	0xad536ba3	-1.20178615e-11
39	0xae2774a1	-3.807499e-11
40	0xad3d513f	-1.0761446e-11
41	0x3e4e95b5	0.20174296
42	0xad7e01c0	-1.4438617e-11
43	0xbf343a48	-0.7040143
44	0x2e1ed46a	3.6113702e-11
45	0x3f3c8338	0.73637724
46	0xb5302370	-6.561668e-07
47	0xc0159104	-2.336976
48	0x3f2feb0d	0.68718034
49	0xbf164d40	-0.58711624
50	0xbe2983d7	-0.16554199
51	0x2e098659	3.1269518e-11
52	0xbfd8f2f6	-1.6949146
53	0x3f61381e	0.87976253
54	0x2de521be	2.604927e-11
55	0x3ea5ceb6	0.3238427
56	0x3f793762	0.9735013
57	0xb147dca8	-2.908374e-09
58	0x2cad520f	4.926066e-12
59	0x2e42b33d	4.426969e-11
60	0x3eee24ff	0.465126
61	0x2d9b9a17	1.768989e-11
62	0x3e0a4c09	0.13505568
63	0xbd3a0a3b	-0.045419913
64	0x3f145ac7	0.57951015
65	0x3f5ad551	0.85481745
66	0x2c2dfbc2	2.4724532e-12
67	0x2d96e114	1.715298e-11
68	0x2ef32cd2	1.1058322e-10
69	0x2dd29277	2.393928e-11
70	0xaeab2077	-7.7819466e-11
71	0xaba96896	-1.2037201e-12
72	0x3f782487	0.96930736
73	0xaec057a5	-8.746718e-11
74	0x2e11d370	3.3156977e-11
75	0x308ef3e1	1.0401174e-09
76	0x3e616036	0.22009358
77	0x2e2e4a01	3.9628748e-11
78	0xbdad2c58	-0.084557235
79	0x2dd97c3d	2.4725217e-11
80	0xad9922b5	-1.74095e-11
81	0x3f749554	0.95540357
82	0x3fd1c9f9	1.6389762
83	0x2caa5cd7	4.841998e-12
84	0xad8ea5be	-1.6217135e-11
85	0xbf462baa	-0.77410376
86	0xae58edf4	-4.932406e-11
87	0x2d5bfc43	1.2504722e-11
88	0xae7667d5	-5.6026146e-11
89	0x36134a8b	2.1948097e-06
90	0x3f43a62a	0.7642542
91	0x3f1ad2e5	0.6047805
92	0xbf2775af	-0.65413946
93	0xbf54d6e6	-0.8314041
94	0xbf261972	-0.64882576
95	0x2dc323b8	2.2184796e-11
96	0xbef75ecd	-0.48314515
97	0x3f8b922e	1.0903986
98	0x3f21b19f	0.63161653
99	0x3f9b40ff	1.212921
100	0xaeaf461b	-7.970532e-11
101	0x30f5af9d	1.7876008e-09
102	0x2d8b5b8b	1.5843124e-11
103	0xae10ee05	-3.2953213e-11
104	0x2d7a37c4	1.4223237e-11
105	0x3e9b07a5	0.3027927
106	0x2ea54f50	7.51742e-11
107	0x3f125513	0.5716106
108	0x3fa577fc	1.2927241
109	0xbf43ef11	-0.7653666
110	0xbe19601d	-0.1497807
111	0x3d952ffa	0.072845414
112	0xbf32e547	-0.698811
113	0xbf4cad0e	-0.7995156
114	0xbcbbdc0f	-0.02293208
115	0xac0727b9	-1.9206704e-12
116	0x3f76b4bf	0.96369547
117	0xbe4c9d6e	-0.1998193
118	0xad9d776a	-1.7901864e-11
119	0xbf523953	-0.8211872
120	0xbd8188d7	-0.06324928
121	0x3efc3839	0.49261644
122	0x2db0e97b	2.011257e-11
123	0x2ddd94b2	2.5190825e-11
124	0x3f40c46c	0.75299716
125	0x2dd5fe51	2.4328236e-11
126	0x3f090054	0.53516126
127	0x3f5875b7	0.8455462
128	0x2c45d956	2.811603e-12
129	0xae5e1862	-5.0498612e-11
130	0xadbdcfc6	-2.1579082e-11
131	0xad2bcabf	-9.765243e-12
132	0xabcd5fdf	-1.4592736e-12
133	0x2d6ce54e	1.3465963e-11
134	0xad3ed470	-1.084742e-11
135	0x2ea39bce	7.440058e-11
136	0x2bd631ab	1.52194e-12
137	0xaf10e7c1	-1.3179059e-10
138	0x2d9f4c2e	1.8110038e-11
139	0x2e75a9f7	5.585751e-11
140	0xad79cccb	-1.41994845e-11
141	0xad20af52	-9.133876e-12
142	0xadb13640	-2.0146662e-11
143	0x2e000bfb	2.911447e-11
144	0xaea7b299	-7.626006e-11
145	0xae04c415	-3.018748e-11
146	0x2c86eddf	3.834918e-12
147	0xabd44eb7	-1.5085354e-12
148	0xae56b08b	-4.8814768e-11
149	0xad948c1d	-1.6887875e-11
150	0x2da0baaa	1.827279e-11
151	0xade78d66	-2.6324453e-11
152	0xada9c9ee	-1.930275e-11
153	0xae13ec7a	-3.3633964e-11
154	0x2dd454bd	2.4139241e-11
155	0xac167f05	-2.1386792e-12
156	0x2e4c4a2f	4.6450118e-11
157	0x2e80c7fe	5.856292e-11
158	0x2d491af1	1.1431509e-11
159	0xae7951f4	-5.6688834e-11
160	0x2e341a8e	4.0950847e-11
161	0xabfce716	-1.7969816e-12
162	0xaea64dd3	-7.5626304e-11
163	0xae4f088c	-4.7073942e-11
164	0x2cb6819c	5.1871406e-12
165	0x2e4fb1f5	4.722441e-11
166	0x2d36e212	1.03957e-11
167	0x2e34b757	4.10901e-11
168	0x2db53449	2.0600537e-11
169	0x2be2032b	1.6059145e-12
170	0x2ec4b5ad	8.94532e-11
171	0x2df99917	2.8376008e-11
172	0x2e0adf57	3.1575933e-11
173	0xae2b5500	-3.8956394e-11
174	0xad97567a	-1.7205116e-11
175	0x2d7e3d58	1.44518494e-11
176	0x2ed87ffd	9.845278e-11
177	0x2eac1231	7.824886e-11
178	0x2de8d47f	2.6469714e-11
179	0xade8cc5f	-2.6466105e-11
180	0xad126b15	-8.322916e-12
181	0xad184f4a	-8.657805e-12
182	0x2e68cd94	5.2933283e-11
183	0x2c1824e5	2.162098e-12
184	0x294356d6	4.3374016e-14
185	0x2d8ae3c2	1.5789928e-11
186	0xad8eb129	-1.6222206e-11
187	0x2e1514da	3.3897198e-11
188	0xae76c3b3	-5.610774e-11
189	0x2e10f5b4	3.2960037e-11
190	0x2d5a0286	1.2392426e-11
191	0x2d914b02	1.6517902e-11
192	0x3f69067d	0.91025525
193	0xbe562c33	-0.20915298
194	0x2d5490e3	1.2082976e-11
195	0x2d803710	1.4576368e-11
196	0xae3761c0	-4.1696202e-11
197	0xae5c68e0	-5.0115356e-11
198	0xabfac419	-1.7817996e-12
199	0xae28fb2a	-3.8421856e-11
200	0x3f7cee6e	0.98801315
201	0x2da896a3	1.9166285e-11
202	0x2d3810ac	1.0462891e-11
203	0xaea703ac	-7.594933e-11
204	0xbe244ec4	-0.16045672
205	0xaea6e862	-7.5900855e-11
206	0x3e9c9db5	0.3058907
207	0x2dae92f8	1.9846777e-11
208	0x2d2a902d	9.695395e-12
209	0xaecf5d69	-9.429863e-11
210	0x3fb03a89	1.3767864
211	0x2b1885d3	5.4186966e-13
212	0xac536b12	-3.004434e-12
213	0xbf81972b	-1.0124258
214	0xae8e8a35	-6.481963e-11
215	0xad6a1697	-1.3306376e-11
216	0xaed5742d	-9.7067555e-11
217	0x3ee337da	0.4437855
218	0x3dc4e7d7	0.096145324
219	0x3740cd2b	1.1491861e-05
220	0xbf39ae3e	-0.725315
221	0xbf4ac761	-0.7921048
222	0xbeff7ed3	-0.49901447
223	0x2e544438	4.826381e-11
224	0xbedde695	-0.43339983
225	0x3fdd7f7b	1.7304529
226	0x2e1eb02c	3.6081513e-11
227	0x3e6f9053	0.23394899
228	0xaf1e4f80	-1.439826e-10
229	0xada1cd2b	-1.8394694e-11
230	0xaebe67b2	-8.65862e-11
231	0x2e12755a	3.3300786e-11
232	0xad53f811	-1.2049043e-11
233	0xb69ffe70	-4.7681897e-06
234	0x2dc2e57b	2.2157156e-11
235	0x3e6d410c	0.23169345
236	0xaee4d908	-1.0406792e-10
237	0xbf86d3c2	-1.0533373
238	0xbfab7570	-1.3395214
239	0x2df57a66	2.7907631e-11
240	0xbe0e30a5	-0.13885744
241	0x3f60371e	0.875841
242	0x3f2e9373	0.6819374
243	0xadcd7724	-2.335871e-11
244	0xae189e4f	-3.4701405e-11
245	0xbf783552	-0.9695636
246	0xad1d974d	-8.958012e-12
247	0x3e5438fe	0.20724866
248	0xbe9999ca	-0.30000144
249	0x3abc1ad5	0.0014351258
250	0xaeafea4d	-7.999699e-11
251	0x2bc76aa0	1.4169395e-12
252	0xbd358287	-0.044313934
253	0x2da969e3	1.9260099e-11
254	0x3df63f93	0.120238446
255	0x3f9f2df4	1.2435899

cl1.layer_1.bias f4 [64]
0	0x3e257973	0.1615961
1	0xbe80f9e6	-0.25190657
2	0xad8197b1	-1.4732967e-11
3	0xbe503af6	-0.20334992
4	0xad4452a3	-1.1159659e-11
5	0x3e056b6d	0.13029261
6	0x2d80abc5	1.4628196e-11
7	0x2bec524b	1.6791649e-12
8	0x2c2c77b1	2.4509112e-12
9	0x2dec6cab	2.6878352e-11
10	0x2e7344ba	5.5312845e-11
11	0x3cf8af2c	0.030356966
12	0x2d637256	1.2928844e-11
13	0xbecb1df6	-0.39671296
14	0x2da289e7	1.8478509e-11
15	0x3e15f7b1	0.14645268
16	0xb2b1cc19	-2.0698325e-08
17	0x2e8898eb	6.211728e-11
18	0x36498ce7	3.003335e-06
19	0xbddc92d8	-0.10770196
20	0xbde12138	-0.10992664
21	0xb03fc3f6	-6.976387e-10
22	0x3dca72b1	0.09885157
23	0x36093314	2.0444322e-06
24	0xb3442d76	-4.5676153e-08
25	0x35346a96	6.721033e-07
26	0x2e3029a3	4.0054748e-11
27	0xbe86963e	-0.262865
28	0xb38a3b6e	-6.436936e-08
29	0xb0d290df	-1.5320686e-09
30	0x343bdd61	1.749627e-07
31	0xb28c14f2	-1.630767e-08
32	0xb5c918f1	-1.4982926e-06
33	0xbdf83d35	-0.12121049
34	0xbd87eee0	-0.06637359
35	0x2ddb3f27	2.4925463e-11
36	0xae1cf2e6	-3.568603e-11
37	0x2eb1abc5	8.0795405e-11
38	0xaeb0de64	-8.043058e-11
39	0xafae069c	-3.1655112e-10
40	0x3d9f0a60	0.07765651
41	0x3e289f55	0.1646703
42	0x3e44d59d	0.19222112
43	0xae79f8bf	-5.6836976e-11
44	0x3ca22eaa	0.019797642
45	0x2e9d8c72	7.1644815e-11
46	0x2ebc6e2a	8.568819e-11
47	0x3dadcc66	0.084862515
48	0x3cef941c	0.029245429
49	0xac36cfea	-2.597917e-12
50	0xaf067d7c	-1.223181e-10
51	0x30aff43b	1.280234e-09
52	0xad9e8b68	-1.802443e-11
53	0x2e6811f2	5.276663e-11
54	0x304c9150	7.442127e-10
55	0x3deba59c	0.11506197
56	0xb3911fdd	-6.7578846e-08
57	0xae29735a	-3.8528604e-11
58	0xb1dd19e2	-6.434889e-09
59	0x3e1217d7	0.14266907
60	0x2e552ba7	4.8469364e-11
61	0x3e756afe	0.23966596
62	0x3da83c62	0.08214642
63	0x2d6a878b	1.3331457e-11

cl1.layer_2.weight f4 [64, 64]
0	0xba3f6cb3	-0.0007302269
1	0x3fc2f6fb	1.5231622
2	0xabe9b0e8	-1.6604747e-12
3	0x3f95cb94	1.1702752
4	0xaf0ecf66	-1.2988507e-10
5	0xbf5873bc	-0.84551597
6	0x2e19537b	3.4862318e-11
7	0x2ec374a3	8.888292e-11
8	0x2d50ab51	1.1861471e-11
9	0xae3df77e	-4.3193442e-11
10	0xad341dbf	-1.023842e-11
11	0xbd90c7e4	-0.07069376
12	0xadb4bb38	-2.0546773e-11
13	0x3f5689b8	0.8380389
14	0x2c86357b	3.8144466e-12
15	0xbf9a5061	-1.205578
16	0x312df358	2.5313138e-09
17	0x2f06f687	1.2274813e-10
18	0x3b89ae80	0.00420171
19	0x3ee4a483	0.44656762
20	0x3f24614e	0.64210975
21	0x3584fdf5	9.908678e-07
22	0xbd77741c	-0.060413465
23	0x3d1a8b6e	0.037730627
24	0x3e15fe0b	0.14647691
25	0x3c2d3077	0.010570637
26	0xae68d1f3	-5.2937165e-11
27	0x316a64b2	3.410872e-09
28	0xbf206883	-0.6265947
29	0x3e043d20	0.12913942
30	0xbf74b4ce	-0.95588386
31	0x3eaa99a5	0.33320346
32	0x369e1bfe	4.7120257e-06
33	0x3fe96963	1.8235286
34	0x3f0979b5	0.53701335
35	0xad361b3c	-1.03515495e-11
36	0x2efb28c3	1.1421399e-10
37	0x2deadd36	2.6700957e-11
38	0xae2e7f9b	-3.9676356e-11
39	0x30977a61	1.1021478e-09
40	0x2d9a7fbe	1.7564502e-11
41	0xbec5d5af	-0.3863959
42	0xbe6d2ff8	-0.2316283
43	0x2ddefaf9	2.5349932e-11
44	0x31af4add	5.1016813e-09
45	0x2eaf0894	7.9596024e-11
46	0xb1d4b3a7	-6.190436e-09
47	0xbd3371b1	-0.043809596
48	0x3d55b3c2	0.052173384
49	0x2f1c59fb	1.4220085e-10
50	0xae8af798	-6.319495e-11
51	0x32c25fe9	2.2628187e-08
52	0x2eae40cb	7.9241134e-11
53	0x2e5d0e27	5.0262152e-11
54	0x2e590117	4.9341056e-11
55	0x3da583da	0.08081789
56	0x3563ce0e	8.486394e-07
57	0xaf08a7f0	-1.2428791e-10
58	0x316f901b	3.4860992e-09
59	0xbf345183	-0.70436877
60	0xac626dad	-3.2177414e-12
61	0xbfa5a3f7	-1.2940663
62	0xbcb8339f	-0.022485552
63	0xaeb59949	-8.258156e-11
64	0xad870492	-1.5349753e-11
65	0x2e2ba4e8	3.9027365e-11
66	0x2ec270fe	8.84217e-11
67	0x2b0d405f	5.0182596e-13
68	0x2d983ed5	1.7308302e-11
69	0xade175d7	-2.563187e-11
70	0xae08dd0d	-3.1119152e-11
71	0xaea1630b	-7.339026e-11
72	0x2d932a87	1.6730851e-11
73	0x2e15a820	3.4028003e-11
74	0x2d551d33	1.2114132e-11
75	0xae9106dd	-6.595056e-11
76	0x2df0a8d5	2.7359818e-11
77	0xae4c869d	-4.650379e-11
78	0x27b40308	4.9963323e-15
79	0xaeac2194	-7.827619e-11
80	0xadf7ca87	-2.8170589e-11
81	0xae385ec7	-4.1920935e-11
82	0xae8016be	-5.824806e-11
83	0xabf87269	-1.7653215e-12
84	0x2d1ec2ba	9.024498e-12
85	0x2ed9d429	9.905705e-11
86	0xae808e5c	-5.846054e-11
87	0xaeea35da	-1.0650654e-10
88	0x2db24580	2.0267121e-11
89	0xae664071	-5.235318e-11
90	0xae67ae6d	-5.267824e-11
91	0xae6c5565	-5.3736033e-11
92	0xac9c6898	-4.445399e-12
93	0x2d86a9b3	1.5309398e-11
94	0x2e220fc7	3.684855e-11
95	0xacc540e4	-5.606281e-12
96	0x2ec0d0e8	8.768258e-11
97	0xae3d9340	-4.310441e-11
98	0xaed324bc	-9.6016944e-11
99	0xae4f5dff	-4.7149836e-11
100	0x2e0406d2	3.0019383e-11
101	0x2d164f68	8.5441446e-12
102	0xae8bd5a4	-6.3589384e-11
103	0xae439491	-4.446982e-11
104	0x2c5cdc75	3.1386259e-12
105	0xadd7bae9	-2.4525675e-11
106	0x2d394a8a	1.05325835e-11
107	0x2db89457	2.0984254e-11
108	0x2e4e202c	4.686755e-11
109	0x2d2fa93f	9.9851785e-12
110	0xadf1adca	-2.7475706e-11
111	0x2e8bdf20	6.360623e-11
112	0x2df41f15	2.7753392e-11
113	0x2dff40fa	2.9018999e-11
114	0x2ee4b546	1.040044e-10
115	0xaaa454d6	-2.919112e-13
116	0x2d6c9c05	1.344969e-11
117	0x2d57f581	1.2275848e-11
118	0x2d6c7184	1.3440252e-11
119	0x2c56e6fe	3.0539456e-12
120	0xad951ca2	-1.6952054e-11
121	0x2df94eb1	2.8342969e-11
122	0xae1a3838	-3.506548e-11
123	0xae9900d0	-6.957779e-11
124	0xaddaa7b4	-2.4858206e-11
125	0x2e42fbbb	4.4334075e-11
126	0xaeab1937	-7.780659e-11
127	0x2df371ae	2.7676385e-11
128	0x2c80b7d1	3.6583865e-12
129	0xaeb7c5d1	-8.357016e-11
130	0x2c23703a	2.3225991e-12
131	0xadd39751	-2.405512e-11
132	0x2e167b12	3.421536e-11
133	0x2e0dff92	3.228668e-11
134	0x2cf8f552	7.07582e-12
135	0x2c95ef20	4.261383e-12
136	0x2d9f91e6	1.8140999e-11
137	0xad20d360	-9.141882e-12
138	0xae6a5fd8	-5.3290566e-11
139	0xad83cf6c	-1.498509e-11
140	0xac7311ee	-3.454233e-12
141	0xad6a3723	-1.3313603e-11
142	0x2ebb510a	8.518171e-11
143	0x2cb6ce8b	5.195682e-12
144	0x2dd486a2	2.4161399e-11
145	0x2db8f578	2.1027388e-11
146	0xae7186b7	-5.4916707e-11
147	0xae679e44	-5.2663887e-11
148	0x2e6b5b37	5.351383e-11
149	0x2dbcd8ce	2.1469406e-11
150	0xae2e0274	-3.95652e-11
151	0x2e6737a1	5.2572727e-11
152	0xae0de2db	-3.2261176e-11
153	0xae1660ab	-3.419191e-11
154	0xad82149b	-1.478844e-11
155	0x2e467762	4.512602e-11
156	0x2e0f4881	3.2578832e-11
157	0xad8b4713	-1.5834034e-11
158	0x2e1b3b38	3.5295517e-11
159	0xae8ba8f5	-6.351001e-11
160	0x2db23b57	2.026261e-11
161	0xab2cbcc1	-6.1368624e-13
162	0xad181c61	-8.646501e-12
163	0xac5cb849	-3.136618e-12
164	0xad365d14	-1.036617e-11
165	0x2d5212de	1.1941307e-11
166	0xae30fc16	-4.0241664e-11
167	0x2d3abb49	1.0614462e-11
168	0x2a9014e7	2.5594042e-13
169	0x2d416f5c	1.0995507e-11
170	0xad7b7e33	-1.429572e-11
171	0x2c896aa0	3.905612e-12
172	0xadd9c5e7	-2.475793e-11
173	0xadc07a8d	-2.1882296e-11
174	0x2da33ef0	1.8558904e-11
175	0xae74137d	-5.5496486e-11
176	0x2da264a6	1.8461965e-11
177	0xaea6eb0c	-7.590559e-11
178	0xadfb3297	-2.8557863e-11
179	0xaea8f177	-7.682648e-11
180	0x2db52291	2.0592668e-11
181	0x2aa642ae	2.9533792e-13
182	0xad9cd290	-1.7828655e-11
183	0x2c751bd1	3.4832035e-12
184	0xaee501db	-1.0414044e-10
185	0x2e373970	4.1660397e-11
186	0xad9c47f6	-1.7767104e-11
187	0x2d823dfa	1.4806812e-11
188	0xae1c0deb	-3.5482655e-11
189	0x2d4b39bf	1.1552036e-11
190	0xacb051cd	-5.0113026e-12
191	0xae3f74b1	-4.3532015e-11
192	0x2ca4eaf0	4.6872436e-12
193	0xad9cb1d2	-1.7814115e-11
194	0xae0b6f72	-3.1703924e-11
195	0x2c8dd98c	4.0316136e-12
196	0xae8406fd	-6.0039064e-11
197	0xc000e6ef	-2.014095
198	0x2e214ed1	3.6677165e-11
199	0xac84ecbd	-3.777949e-12
200	0xaf0fb8b7	-1.3071398e-10
201	0x2cf16a18	6.8614107e-12
202	0xaf02ba79	-1.188968e-10
203	0xac592fc9	-3.086408e-12
204	0xae89b9d0	-6.2630456e-11
205	0x2d732e0b	1.3823174e-11
206	0x2e93d5e4	6.722781e-11
207	0x30d5d1f0	1.5557458e-09
208	0x3347f383	4.655477e-08
209	0x2d6c6158	1.34366615e-11
210	0x2d9ae49f	1.7609301e-11
211	0x31bf3875	5.56525e-09
212	0x3d352e52	0.044233628
213	0x2e4e29ba	4.6876038e-11
214	0x2e805985	5.836668e-11
215	0x3efbe3a8	0.49197125
216	0x311ed254	2.3111584e-09
217	0xaf0593d0	-1.2148793e-10
218	0xad7f031e	-1.4495764e-11
219	0x2e1a79ef	3.5123845e-11
220	0xaff5ecab	-4.4733403e-10
221	0xbee8d569	-0.4547532
222	0xbf0c96e1	-0.5491772
223	0x3eb7b1e0	0.35877895
224	0x2c15d548	2.1292568e-12
225	0x2e10ed94	3.295282e-11
226	0x3fa32742	1.2746356
227	0x2de36736	2.5852747e-11
228	0x2e197711	3.4893925e-11
229	0xae921fb0	-6.64494e-11
230	0xad728e81	-1.378775e-11
231	0xb008eb2e	-4.981072e-10
232	0xc071d158	-3.7784023
233	0x2e417764	4.398916e-11
234	0x3f9100a3	1.1328319
235	0x2dbbf310	2.136738e-11
236	0x32229bf1	9.465098e-09
237	0xae7c3eeb	-5.735405e-11
238	0xbf3a4fbb	-0.7277791
239	0x2cc3beed	5.5634304e-12
240	0xae4b17bb	-4.6177933e-11
241	0x2dcc4e9c	2.3227024e-11
242	0xac002e02	-1.8215434e-12
243	0x2d342a1d	1.0241166e-11
244	0x2e95af7b	6.806907e-11
245	0x2eb95ce7	8.429329e-11
246	0xaecf0530	-9.4141916e-11
247	0x328e8d22	1.6595155e-08
248	0xae541982	-4.8225875e-11
249	0x2d9352ff	1.6748823e-11
250	0x32140964	8.616869e-09
251	0xaf4f00f6	-1.8826882e-10
252	0xaf004685	-1.1666586e-10
253	0xbe9b48bd	-0.30328932
254	0x3e8691b4	0.26283038
255	0x2dce0f43	2.3426266e-11

cl1.layer_2.bias f4 [64]
0	0x324803c9	1.1642393e-08
1	0xada38f36	-1.8594553e-11
2	0x2dd02b9f	2.3666234e-11
3	0xafccca9c	-3.7251346e-10
4	0x34e72e11	4.306062e-07
5	0x2e37622d	4.169658e-11
6	0xae58eb7d	-4.932187e-11
7	0x2e7da7db	5.7674625e-11
8	0xb1127954	-2.1314763e-09
9	0xb2344d9e	-1.0495027e-08
10	0xb10f162c	-2.0821842e-09
11	0xb1169902	-2.1914848e-09
12	0xb3c1f438	-9.031686e-08
13	0x309c07bd	1.1352693e-09
14	0xaea2648b	-7.384767e-11
15	0x2d9894e8	1.7346527e-11
16	0xad1d9259	-8.9569125e-12
17	0xaef3c63e	-1.10855755e-10
18	0x352b70d3	6.3866645e-07
19	0x3d0999a0	0.033593774
20	0x2b3be8f3	6.675903e-13
21	0xae56549f	-4.8733125e-11
22	0x2efea4f1	1.1579882e-10
23	0xb08657e8	-9.774768e-10
24	0x31a71d7e	4.8636926e-09
25	0xb1951bfc	-4.339652e-09
26	0xb290fdab	-1.6879161e-08
27	0xb1bcb13c	-5.4916693e-09
28	0xb2908a03	-1.6826567e-08
29	0xab22f340	-5.789154e-13
30	0xad0d9d5f	-8.0498655e-12
31	0xb1111f5a	-2.1118098e-09
32	0x2f320089	1.6189196e-10
33	0x2f95dd83	2.7260336e-10
34	0x323f1237	1.1121805e-08
35	0xb1857364	-3.883928e-09
36	0xae35253f	-4.1187716e-11
37	0xb26f7de5	-1.3940256e-08
38	0x3d1a232c	0.0376312
39	0x2efeba36	1.15836604e-10
40	0xaef3a6ab	-1.1079967e-10
41	0xb01dbddb	-5.738607e-10
42	0xb0a9f7f8	-1.2366845e-09
43	0xaff78d5f	-4.5029488e-10
44	0xb1533528	-3.0734757e-09
45	0xb3356e35	-4.224258e-08
46	0xb2ad7999	-2.0195147e-08
47	0xb1a71a8f	-4.863359e-09
48	0x2c820a48	3.6959637e-12
49	0x2ff7cc6a	4.5074283e-10
50	0xb1541e35	-3.086723e-09
51	0x3118e7ad	2.2250604e-09
52	0x32c5a623	2.3009369e-08
53	0xae846e38	-6.022244e-11
54	0x3360eec7	5.237123e-08
55	0x2d858f4b	1.5183984e-11
56	0x2b99b202	1.0920711e-12
57	0x2f26f781	1.5185543e-10
58	0x3237660c	1.0675205e-08
59	0x30082932	4.9535054e-10
60	0xb368e000	-5.4220436e-08
61	0x2f812bf2	2.3496188e-10
62	0x34091ea4	1.2770266e-07
63	0x2ec00c62	8.733349e-11

cl2.layer_0.weight f4 [64, 64]
0	0xad43ce94	-1.1130336e-11
1	0x2eab6e3c	7.795761e-11
2	0xad0a5e5a	-7.865342e-12
3	0x2c4c7bfc	2.9058969e-12
4	0xae4e80d5	-4.6953403e-11
5	0xaec49afa	-8.9405774e-11
6	0x2d5e6ad3	1.2642959e-11
7	0x2d86bedb	1.5318793e-11
8	0xac497be6	-2.8632595e-12
9	0xad8fff55	-1.6370608e-11
10	0xae1c03b6	-3.547359e-11
11	0xad97f52a	-1.7275587e-11
12	0x2d01081e	7.334603e-12
13	0x2dc7674e	2.2669557e-11
14	0x2d98c4a6	1.7367729e-11
15	0x2d1347b7	8.3719065e-12
16	0xaea31694	-7.4163925e-11
17	0xadc4cb06	-2.237278e-11
18	0x2dbb12a8	2.1267724e-11
19	0x2ded309d	2.696537e-11
20	0xad87de2e	-1.544639e-11
21	0xaac437ad	-3.4855227e-13
22	0x2c35382e	2.5752833e-12
23	0xac8ea201	-4.053869e-12
24	0x2ed2e08e	9.589583e-11
25	0xae2f28d4	-3.9826656e-11
26	0x2ccf58fa	5.8931722e-12
27	0xad310382	-1.0062064e-11
28	0xae3bc7ae	-4.269623e-11
29	0x2dcf0c86	2.3538737e-11
30	0x2e8efdc2	6.502489e-11
31	0x2f0ecbe3	1.298726e-10
32	0xaf22e16b	-1.4813899e-10
33	0xae0d689f	-3.215261e-11
34	0x2e034fa2	2.985668e-11
35	0x2e5ab672	4.9729505e-11
36	0x2d2bb4dc	9.7603835e-12
37	0x2e73778f	5.5357992e-11
38	0xad15124d	-8.473733e-12
39	0x2e4fe279	4.72675e-11
40	0x2d523bf5	1.1950431e-11
41	0x2e191d9c	3.481447e-11
42	0x2e12c47d	3.3371073e-11
43	0xae02f2ad	-2.9774117e-11
44	0x2d4ce8be	1.1647737e-11
45	0x2e3ab08e	4.2448316e-11
46	0x2c939dde	4.195518e-12
47	0xae325b7f	-4.055378e-11
48	0xae51c4bf	-4.7695844e-11
49	0xaddba3e8	-2.4970206e-11
50	0xae20bd5e	-3.654798e-11
51	0x2e4b4338	4.621656e-11
52	0x2e034289	2.9845047e-11
53	0xaef6f5cc	-1.1230447e-10
54	0xae38cf88	-4.202108e-11
55	0x2dd92d64	2.4690201e-11
56	0x2d3c6039	1.07079285e-11
57	0xae88e5ac	-6.225362e-11
58	0x2db17592	2.0174782e-11
59	0x2e1809d9	3.4569545e-11
60	0xad427ffa	-1.105604e-11
61	0x2e1b90fe	3.53717e-11
62	0xadec6922	-2.6876782e-11
63	0x2deb8e9a	2.6779735e-11
64	0x2dabac80	1.9517055e-11
65	0xad8486ab	-1.5066467e-11
66	0xacd6a446	-6.100484e-12
67	0x2e9f4b91	7.243906e-11
68	0xabc0e0b9	-1.3704794e-12
69	0xacc9b1a0	-5.732484e-12
70	0xae1c4de5	-3.5539478e-11
71	0x2d81f23f	1.4773181e-11
72	0x2ea75a0f	7.6102784e-11
73	0xad1efecc	-9.0378365e-12
74	0xad1765fe	-8.606003e-12
75	0x2b575b3f	7.6509973e-13
76	0x2d1b429e	8.825522e-12
77	0x2e0f7448	3.2617714e-11
78	0x2e18c12e	3.4732377e-11
79	0xad97a580	-1.724021e-11
80	0x2e03695d	2.9879533e-11
81	0xadddb8bb	-2.5206828e-11
82	0x2df032bb	2.730737e-11
83	0xae2a158f	-3.8672673e-11
84	0x2bf145db	1.7143469e-12
85	0x2cd9003c	6.167537e-12
86	0xae360dd9	-4.1394308e-11
87	0xae38c51e	-4.201183e-11
88	0x2d78a195	1.4133046e-11
89	0xae393a62	-4.2115984e-11
90	0x2eb2ac56	8.125116e-11
91	0x2d4413f3	1.114574e-11
92	0xaec08851	-8.755364e-11
93	0x2e074e5d	3.0765047e-11
94	0x2e2444ed	3.73505e-11
95	0x2e8d2d10	6.4199424e-11
96	0x2e257ea6	3.7629143e-11
97	0xae5a5581	-4.9643404e-11
98	0xae901a9b	-6.553088e-11
99	0x2c65ffec	3.2684922e-12
100	0x2dd2f150	2.39814e-11
101	0xae4ef82a	-4.705939e-11
102	0xae331570	-4.0718928e-11
103	0x2da445f2	1.8675703e-11
104	0x2e1b0f4d	3.525651e-11
105	0xae3c7326	-4.2848523e-11
106	0xae6f5819	-5.4420555e-11
107	0x2d9a7451	1.7559428e-11
108	0xae7490b7	-5.560771e-11
109	0xad0a0cea	-7.847259e-12
110	0x2e4feb7a	4.7275496e-11
111	0x2cb17192	5.0432514e-12
112	0xadd82a73	-2.4575208e-11
113	0xae7aa271	-5.6987696e-11
114	0xaeb1d9ee	-8.08774e-11
115	0x2cd73408	6.116444e-12
116	0xacabe9a6	-4.8860525e-12
117	0xaf1733ff	-1.3751843e-10
118	0x2eb2b122	8.125968e-11
119	0x2deffa72	2.7282374e-11
120	0x2e041363	3.0030544e-11
121	0x2df478fb	2.7793315e-11
122	0xade78a93	-2.6323199e-11
123	0x2e2be595	3.908481e-11
124	0x2e4907e9	4.5709134e-11
125	0xad0b9a9b	-7.9355645e-12
126	0xae3f0ecd	-4.3441518e-11
127	0x2dc85f1c	2.2779605e-11
128	0x2dddc391	2.521164e-11
129	0x28e16d86	2.5027516e-14
130	0x2c64c3ba	3.2509399e-12
131	0xae14a920	-3.3801517e-11
132	0xaf037ba6	-1.195831e-10
133	0xaebcdf6b	-8.588937e-11
134	0x2c96db22	4.287585e-12
135	0x2e34ae56	4.1082103e-11
136	0x2e49a12a	4.584525e-11
137	0xae8c2984	-6.3738376e-11
138	0x2f105a47	1.3128797e-10
139	0xacc1da34	-5.5096153e-12
140	0xae0f157e	-3.2533524e-11
141	0xae085e3f	-3.1006527e-11
142	0x2ebc7f43	8.5718564e-11
143	0x2ddf920a	2.541702e-11
144	0x2dee6c17	2.7105469e-11
145	0xab7ffd1a	-9.094545e-13
146	0xadb4979a	-2.0530955e-11
147	0x2e1a9b5f	3.5153543e-11
148	0x2d974c79	1.7200673e-11
149	0xae62c341	-5.155987e-11
150	0xae6ae12a	-5.3405426e-11
151	0x2c53450f	3.0023239e-12
152	0x2dd1b86f	2.3842454e-11
153	0xad05cef9	-7.606132e-12
154	0x2e1b3e3e	3.5298202e-11
155	0xae2f987e	-3.9925833e-11
156	0x2ca154a6	4.585293e-12
157	0x2d4fbfa7	1.1809143e-11
158	0xae345dbc	-4.1010514e-11
159	0xad9bc4c7	-1.7708847e-11
160	0xae2a84af	-3.877137e-11
161	0x2b797cba	8.8635663e-13
162	0xab2e5bcc	-6.194461e-13
163	0x2e1e9617	3.6058347e-11
164	0x2a835fce	2.3336752e-13
165	0x2cc1da34	5.5096153e-12
166	0xad814a2c	-1.4698541e-11
167	0xae0922ef	-3.118122e-11
168	0xadd45ae3	-2.4141971e-11
169	0x2e1eefb2	3.6137933e-11
170	0x2de23fac	2.5721501e-11
171	0x2deeff55	2.7170858e-11
172	0x2d9e8e7e	1.80258e-11
173	0xac05991a	-1.8985425e-12
174	0xaed521a0	-9.6920916e-11
175	0x2cdd6ed7	6.2935035e-12
176	0x2def8e2f	2.7234296e-11
177	0xad0c0f67	-7.961499e-12
178	0x2daf375d	1.9919783e-11
179	0xad4d82d8	-1.1681954e-11
180	0xad2f7c61	-9.975216e-12
181	0x2e4dc285	4.678437e-11
182	0x2c5da65b	3.1498335e-12
183	0x2dddc391	2.521164e-11
184	0xae4cdc26	-4.657976e-11
185	0x2dde1443	2.5247476e-11
186	0x2bf7057b	1.7551927e-12
187	0x2e552cf3	4.8470516e-11
188	0x2e5fd452	5.0892908e-11
189	0x2e166589	3.4196233e-11
190	0x2ed4ee81	9.6830106e-11
191	0xadcec671	-2.3507614e-11
192	0xabc9e58b	-1.434562e-12
193	0x2f07007d	1.2278352e-10
194	0x2e97d404	6.9043465e-11
195	0x2e51a13f	4.7664313e-11
196	0xadf85f2b	-2.8236599e-11
197	0x2d420281	1.1028179e-11
198	0x2ebddcaa	8.633923e-11
199	0x2a81c66d	2.305269e-13
200	0xae1208e3	-3.320445e-11
201	0x2c7f0a8a	3.624353e-12
202	0x2e42c5f1	4.42863e-11
203	0xaeb43c78	-8.196194e-11
204	0xae9423dc	-6.736631e-11
205	0x2eac9621	7.848323e-11
206	0x2d7d7d50	1.440921e-11
207	0xad8b8ec3	-1.586587e-11
208	0x2e0f3183	3.255841e-11
209	0x2ee4d63c	1.0406295e-10
210	0x2e30c2cf	4.019079e-11
211	0xae975ea6	-6.883498e-11
212	0x2f067972	1.2230375e-10
213	0x2e760d5a	5.5945783e-11
214	0xae8aa060	-6.304002e-11
215	0x2df1775a	2.745153e-11
216	0xad39591f	-1.0535821e-11
217	0xab636ca2	-8.079736e-13
218	0xac3b37f8	-2.6605367e-12
219	0xae24d2e8	-3.7476605e-11
220	0xae0e0d39	-3.2298806e-11
221	0x2c8b7aa0	3.9642317e-12
222	0x2cfaf985	7.1331296e-12
223	0xad523801	-1.1949553e-11
224	0x2d7b9d86	1.4302675e-11
225	0xadcbfcbd	-2.3190666e-11
226	0x2db9bfd4	2.1117254e-11
227	0xadea7460	-2.6654401e-11
228	0x2e90fb21	6.592971e-11
229	0xae89d75c	-6.268294e-11
230	0x2d1a4cf6	8.770975e-12
231	0xabebb370	-1.6747558e-12
232	0xaebcf345	-8.5924635e-11
233	0x2de25f9e	2.5735688e-11
234	0xae5f0d54	-5.0716167e-11
235	0xadac3d22	-1.9581285e-11
236	0x2dc8001c	2.2737416e-11
237	0xad6987b8	-1.3274652e-11
238	0xaf0a5b3d	-1.2583441e-10
239	0xae26daf6	-3.7938507e-11
240	0x2c299193	2.4097154e-12
241	0xae0b56e7	-3.1682126e-11
242	0x2e20291b	3.6416297e-11
243	0xaddd74bb	-2.517663e-11
244	0x2b321e78	6.328059e-13
245	0x2d355e82	1.0309644e-11
246	0xadd63ff3	-2.4357382e-11
247	0xae17f4c6	-3.4550827e-11
248	0x2e4feb7a	4.7275496e-11
249	0x2c8cb15a	3.9987293e-12
250	0x2e09dcb8	3.134623e-11
251	0xad0f959e	-8.161831e-12
252	0xae17ac21	-3.4486306e-11
253	0x2e0071e7	2.9204996e-11
254	0x2e2ea49f	3.9709232e-11
255	0xad46fff4	-1.131183e-11

cl2.layer_0.bias f4 [64]
0	0x2d7fefb1	1.4548294e-11
1	0x2d7fefb1	1.4548294e-11
2	0x2d7fefb1	1.4548294e-11
3	0x2d7fefb1	1.4548294e-11
4	0x2d7fefb1	1.4548294e-11
5	0x2d7fefb1	1.4548294e-11
6	0x2d7fefb1	1.4548294e-11
7	0x2d7fefb1	1.4548294e-11
8	0x2d7fefb1	1.4548294e-11
9	0x2d7fefb1	1.4548294e-11
10	0x2d7fefb1	1.4548294e-11
11	0x2d7fefb1	1.4548294e-11
12	0x2d7fefb1	1.4548294e-11
13	0x2d7fefb1	1.4548294e-11
14	0x2d7fefb1	1.4548294e-11
15	0x2d7fefb1	1.4548294e-11
16	0x2d7fefb1	1.4548294e-11
17	0x2d7fefb1	1.4548294e-11
18	0x2d7fefb1	1.4548294e-11
19	0x2d7fefb1	1.4548294e-11
20	0x2d7fefb1	1.4548294e-11
21	0x2d7fefb1	1.4548294e-11
22	0x2d7fefb1	1.4548294e-11
23	0x2d7fefb1	1.4548294e-11
24	0x2d7fefb1	1.4548294e-11
25	0x2d7fefb1	1.4548294e-11
26	0x2d7fefb1	1.4548294e-11
27	0x2d7fefb1	1.4548294e-11
28	0x2d7fefb1	1.4548294e-11
29	0x2d7fefb1	1.4548294e-11
30	0x2d7fefb1	1.4548294e-11
31	0x2d7fefb1	1.4548294e-11
32	0x2d7fefb1	1.4548294e-11
33	0x2d7fefb1	1.4548294e-11
34	0x2d7fefb1	1.4548294e-11
35	0x2d7fefb1	1.4548294e-11
36	0x2d7fefb1	1.4548294e-11
37	0x2d7fefb1	1.4548294e-11
38	0x2d7fefb1	1.4548294e-11
39	0x2d7fefb1	1.4548294e-11
40	0x2d7fefb1	1.4548294e-11
41	0x2d7fefb1	1.4548294e-11
42	0x2d7fefb1	1.4548294e-11
43	0x2d7fefb1	1.4548294e-11
44	0x2d7fefb1	1.4548294e-11
45	0x2d7fefb1	1.4548294e-11
46	0x2d7fefb1	1.4548294e-11
47	0x2d7fefb1	1.4548294e-11
48	0x2d7fefb1	1.4548294e-11
49	0x2d7fefb1	1.4548294e-11
50	0x2d7fefb1	1.4548294e-11
51	0x2d7fefb1	1.4548294e-11
52	0x2d7fefb1	1.4548294e-11
53	0x2d7fefb1	1.4548294e-11
54	0x2d7fefb1	1.4548294e-11
55	0x2d7fefb1	1.4548294e-11
56	0x2d7fefb1	1.4548294e-11
57	0x2d7fefb1	1.4548294e-11
58	0x2d7fefb1	1.4548294e-11
59	0x2d7fefb1	1.4548294e-11
60	0x2d7fefb1	1.4548294e-11
61	0x2d7fefb1	1.4548294e-11
62	0x2d7fefb1	1.4548294e-11
63	0x2d7fefb1	1.4548294e-11

cl2.layer_1.weight f4 [64, 64]
0	0xac146c48	-2.1092173e-12
1	0xacfeec77	-7.245367e-12
2	0x2e7ee9b7	5.7960494e-11
3	0xaa8c760e	-2.4950913e-13
4	0x2d3b4b69	1.0646464e-11
5	0xaed2c086	-9.5838934e-11
6	0xae09c09c	-3.1321265e-11
7	0x2e2db946	3.95002e-11
8	0x2c55d807	3.038904e-12
9	0x2c9bd52c	4.429032e-12
10	0x2db33d7b	2.0377247e-11
11	0x2eb7445a	8.334018e-11
12	0xad28dede	-9.599181e-12
13	0x2ba51996	1.1731057e-12
14	0x2dd96889	2.4716467e-11
15	0xaea4eae6	-7.499583e-11
16	0xac2370e1	-2.3226354e-12
17	0x2e270637	3.7976924e-11
18	0x2d8d39a8	1.6055449e-11
19	0xacb0146f	-5.0044894e-12
20	0x2dda638c	2.4827938e-11
21	0xadb89b49	-2.0987339e-11
22	0x2e5aed93	4.977847e-11
23	0xae722db6	-5.506503e-11
24	0x2c6d1690	3.369225e-12
25	0xad1a9e27	-8.789003e-12
26	0xac2d3f2c	-2.4619846e-12
27	0xacf352a2	-6.9156495e-12
28	0x2d63c538	1.29472474e-11
29	0x2df2de1a	2.7610848e-11
30	0x2bec3370	1.6783085e-12
31	0xaea5253c	-7.5099454e-11
32	0xaa38ebae	-1.6424251e-13
33	0x2ebeacd2	8.670899e-11
34	0xaa979558	-2.6926616e-13
35	0x2d5871cc	1.23034465e-11
36	0x2dcb5636	2.3116713e-11
37	0x2e1f9743	3.6286762e-11
38	0xac710d01	-3.4255378e-12
39	0xacdb5e3c	-6.2348165e-12
40	0x2e8087b9	5.844875e-11
41	0x2c8b31fb	3.9561666e-12
42	0xac416d21	-2.7487528e-12
43	0x2e0807d2	3.0929766e-11
44	0xae6c8926	-5.3782e-11
45	0xae340090	-4.092776e-11
46	0xacbd0a0f	-5.37282e-12
47	0x2da560ce	1.8801318e-11
48	0xae71c193	-5.4968984e-11
49	0xac669b57	-3.2771197e-12
50	0xaa4f3fda	-1.8407446e-13
51	0x2d951262	1.6947502e-11
52	0x2d164e0e	8.5438445e-12
53	0xad600651	-1.2734328e-11
54	0xae340dab	-4.09394e-11
55	0xae8e0d56	-6.459781e-11
56	0xaf1409e6	-1.3464038e-10
57	0x2e99cc42	6.993918e-11
58	0x2e83e538	5.997908e-11
59	0xae054fe2	-3.031165e-11
60	0x2eaaaf37	7.7618294e-11
61	0xaf1da1c6	-1.433654e-10
62	0xae012f8b	-2.937343e-11
63	0xaebbfec4	-8.549031e-11
64	0x2d99c172	1.7479993e-11
65	0xae862b9d	-6.101362e-11
66	0xad572eac	-1.2231698e-11
67	0xae256f16	-3.761532e-11
68	0xad4581ef	-1.1227005e-11
69	0x2d9ff86e	1.8186532e-11
70	0x2da5d5ce	1.8853277e-11
71	0x2dffe449	2.9091523e-11
72	0x2eb26d34	8.113901e-11
73	0x2decd63b	2.6925231e-11
74	0x2b439ee7	6.949844e-13
75	0x2e0f25d3	3.254803e-11
76	0xaea663f6	-7.566563e-11
77	0xae7f840a	-5.809756e-11
78	0x2da0e37e	1.829092e-11
79	0xaa0a8345	-1.2302405e-13
80	0x2d25c66d	9.4232235e-12
81	0xadfe981e	-2.894401e-11
82	0xadb7c1e2	-2.0890793e-11
83	0x2e1e0ea2	3.5938037e-11
84	0xae9165c9	-6.611917e-11
85	0x2c921e14	4.152909e-12
86	0x2f07fb55	1.236747e-10
87	0x2e462532	4.5053024e-11
88	0x2ea46926	7.476535e-11
89	0x2a42ebfa	1.7312532e-13
90	0x2e1fdc6c	3.634819e-11
91	0x2dbc6e16	2.1422013e-11
92	0xad1bb5bb	-8.851082e-12
93	0x2e1e9617	3.6058347e-11
94	0xaf1c0379	-1.4189351e-10
95	0xad8bba2f	-1.5885153e-11
96	0xae6e8cde	-5.424005e-11
97	0xae09a78e	-3.1299012e-11
98	0xaea8b84f	-7.672495e-11
99	0x2d07840a	7.70318e-12
100	0x2dcf3be7	2.3559777e-11
101	0xac88ac6a	-3.8844943e-12
102	0xabc70bc3	-1.4143065e-12
103	0x2c04368c	1.8788608e-12
104	0xaf1ce407	-1.4269129e-10
105	0x2d363700	1.0357715e-11
106	0xae907781	-6.56959e-11
107	0xac9c9a36	-4.4509075e-12
108	0xae6fb0c1	-5.4499297e-11
109	0x2ea839cf	7.6500244e-11
110	0x2e1cd081	3.5655482e-11
111	0x2d70f008	1.3695718e-11
112	0xae5d4bf2	-5.0317035e-11
113	0xad33d89d	-1.022307e-11
114	0xaeb0cac2	-8.0395704e-11
115	0xac4c515a	-2.9035303e-12
116	0x2c2a2966	2.4181434e-12
117	0x2e362b53	4.142049e-11
118	0x2b106647	5.1301015e-13
119	0x2f1eed62	1.4454352e-10
120	0xac05302d	-1.892718e-12
121	0xae0689b1	-3.0590367e-11
122	0xad110350	-8.243031e-12
123	0xab74b611	-8.693888e-13
124	0xac256c9c	-2.35082e-12
125	0xad928ae8	-1.6659965e-11
126	0xae44be6c	-4.473437e-11
127	0x2d9645a2	1.7083949e-11
128	0x2d4e4957	1.1726029e-11
129	0xad3e4682	-1.08159055e-11
130	0xae18e608	-3.4765107e-11
131	0x2f1d04bf	1.4280753e-10
132	0x2cd0f168	5.938517e-12
133	0x2b8a373c	9.82082e-13
134	0x2dc2a112	2.2126776e-11
135	0x2ed2bd85	9.58336e-11
136	0xae3e1a1b	-4.3224185e-11
137	0xad0f6f60	-8.153339e-12
138	0x2dc42805	2.2300392e-11
139	0xadb99ec0	-2.1102564e-11
140	0x2cdc29d4	6.25742e-12
141	0xae88f0e5	-6.2273554e-11
142	0x2bc296d8	1.3826397e-12
143	0xad5dd4aa	-1.26096165e-11
144	0x2dc49fe6	2.235363e-11
145	0xad125b40	-8.319401e-12
146	0xaf0087c2	-1.1689763e-10
147	0xadd2e027	-2.397378e-11
148	0x2ee27ca9	1.0299434e-10
149	0x2e692ffa	5.3020678e-11
150	0x2e0beff0	3.1818048e-11
151	0xaccb77d2	-5.7829097e-12
152	0xae4ef8b5	-4.7059873e-11
153	0x2e3cac8e	4.289951e-11
154	0x2e18043f	3.456457e-11
155	0x2eb0aac2	8.033886e-11
156	0x2cee4861	6.7724025e-12
157	0xae163aef	-3.4158395e-11
158	0xae49c634	-4.587815e-11
159	0x2d5bfca2	1.25048045e-11
160	0xae09dde5	-3.1347275e-11
161	0x2a8947d6	2.4385935e-13
162	0xad4c7326	-1.16216255e-11
163	0x2ed136c5	9.513949e-11
164	0x2e510329	4.7523905e-11
165	0xae271fe8	-3.7999742e-11
166	0x2e49d42a	4.589055e-11
167	0x2e93d880	6.723244e-11
168	0xadd68b37	-2.4390807e-11
169	0xad3aa670	-1.06098325e-11
170	0x2d55cb26	1.2152756e-11
171	0x2b30f36c	6.2865576e-13
172	0xacded069	-6.3327577e-12
173	0xae33b8d6	-4.0864055e-11
174	0x2cd7cc9c	6.1333837e-12
175	0xaeb5c12e	-8.265243e-11
176	0xac899c7f	-3.9111487e-12
177	0xad2791f2	-9.525257e-12
178	0xac86fd43	-3.8366268e-12
179	0x2e0dccbe	3.2241536e-11
180	0xad9e04a7	-1.7964586e-11
181	0xaeb3b8c8	-8.172801e-11
182	0xad6f928f	-1.361812e-11
183	0x2e143e8f	3.3706867e-11
184	0x2d575555	1.2240283e-11
185	0xae07d23d	-3.0882175e-11
186	0x2cb9c28a	5.2796144e-12
187	0x2dfcce35	2.8740657e-11
188	0xaebf9a1b	-8.713049e-11
189	0x2d959290	1.7004426e-11
190	0x2f03ef4c	1.1999396e-10
191	0x2d271b0a	9.498855e-12
192	0x2dcdd158	2.3398769e-11
193	0x2dacf1f7	1.966159e-11
194	0x2e449955	4.4701427e-11
195	0x2e185d9e	3.4643947e-11
196	0xae5da4ac	-5.039584e-11
197	0xaba9b6bc	-1.2058891e-12
198	0xae12f939	-3.341791e-11
199	0xaea4b356	-7.489713e-11
200	0x2d822bc2	1.4798721e-11
201	0x2c94da50	4.2306506e-12
202	0x2cf53205	6.968872e-12
203	0xad91b206	-1.656365e-11
204	0xadb0fb1f	-2.0120404e-11
205	0x2e3811f9	4.185272e-11
206	0xae15b3e3	-3.403845e-11
207	0x2ebc71c7	8.569461e-11
208	0xae890e14	-6.2325395e-11
209	0xad8f1bd6	-1.626958e-11
210	0xaf05a80c	-1.2155982e-10
211	0x2e6d9960	5.4023785e-11
212	0x2bab0cbc	1.2153815e-12
213	0x2e327eee	4.058525e-11
214	0xae43209f	-4.436684e-11
215	0xaeb9dac5	-8.451687e-11
216	0x2e8ae3b7	6.315964e-11
217	0xad2e4f95	-9.908426e-12
218	0x2dad912d	1.9732294e-11
219	0xad3f0ef7	-1.0860416e-11
220	0xad30fd3c	-1.0060671e-11
221	0xae01445d	-2.9391923e-11
222	0xa92d36b9	-3.846118e-14
223	0x2c824512	3.7024906e-12
224	0x2e4fa022	4.7208577e-11
225	0x2c674138	3.2863278e-12
226	0xad13e888	-8.407615e-12
227	0x2e2fb17b	3.9948028e-11
228	0x2f080679	1.2371427e-10
229	0x2d7f1d97	1.4501642e-11
230	0x2e338f9e	4.0827446e-11
231	0xadeaaff1	-2.6680854e-11
232	0xab90c471	-1.0286339e-12
233	0xae8e7633	-6.478409e-11
234	0x2d8187cc	1.4725908e-11
235	0xadd48e64	-2.4164844e-11
236	0x2e456a2b	4.488691e-11
237	0xaec29394	-8.848314e-11
238	0x2d291ff0	9.613629e-12
239	0x2ac49507	3.4920003e-13
240	0x2e8e4891	6.470303e-11
241	0xad4fc8c4	-1.1811167e-11
242	0xae5fcb36	-5.0884817e-11
243	0xaf0db9f8	-1.2889945e-10
244	0x2e702006	5.4598125e-11
245	0xaee557ce	-1.04293116e-10
246	0xae31537b	-4.0319286e-11
247	0xae8b524a	-6.3356057e-11
248	0xad2bbf32	-9.7626785e-12
249	0xae1e9a9e	-3.606237e-11
250	0xae3fc6b6	-4.3604863e-11
251	0xac8a9eee	-3.9398406e-12
252	0xad4e5eb8	-1.1730776e-11
253	0xaebf150d	-8.689414e-11
254	0xad6ac375	-1.334476e-11
255	0xaf08d294	-1.244394e-10

cl2.layer_1.bias f4 [64]
0	0x2d7fefb1	1.4548294e-11
1	0x2d7fefb1	1.4548294e-11
2	0x2d7fefb1	1.4548294e-11
3	0x2d7fefb1	1.4548294e-11
4	0x2d7fefb1	1.4548294e-11
5	0x2d7fefb1	1.4548294e-11
6	0x2d7fefb1	1.4548294e-11
7	0x2d7fefb1	1.4548294e-11
8	0x2d7fefb1	1.4548294e-11
9	0x2d7fefb1	1.4548294e-11
10	0x2d7fefb1	1.4548294e-11
11	0x2d7fefb1	1.4548294e-11
12	0x2d7fefb1	1.4548294e-11
13	0x2d7fefb1	1.4548294e-11
14	0x2d7fefb1	1.4548294e-11
15	0x2d7fefb1	1.4548294e-11
16	0x2d7fefb1	1.4548294e-11
17	0x2d7fefb1	1.4548294e-11
18	0x2d7fefb1	1.4548294e-11
19	0x2d7fefb1	1.4548294e-11
20	0x2d7fefb1	1.4548294e-11
21	0x2d7fefb1	1.4548294e-11
22	0x2d7fefb1	1.4548294e-11
23	0x2d7fefb1	1.4548294e-11
24	0x2d7fefb1	1.4548294e-11
25	0x2d7fefb1	1.4548294e-11
26	0x2d7fefb1	1.4548294e-11
27	0x2d7fefb1	1.4548294e-11
28	0x2d7fefb1	1.4548294e-11
29	0x2d7fefb1	1.4548294e-11
30	0x2d7fefb1	1.4548294e-11
31	0x2d7fefb1	1.4548294e-11
32	0x2d7fefb1	1.4548294e-11
33	0x2d7fefb1	1.4548294e-11
34	0x2d7fefb1	1.4548294e-11
35	0x2d7fefb1	1.4548294e-11
36	0x2d7fefb1	1.4548294e-11
37	0x2d7fefb1	1.4548294e-11
38	0x2d7fefb1	1.4548294e-11
39	0x2d7fefb1	1.4548294e-11
40	0x2d7fefb1	1.4548294e-11
41	0x2d7fefb1	1.4548294e-11
42	0x2d7fefb1	1.4548294e-11
43	0x2d7fefb1	1.4548294e-11
44	0x2d7fefb1	1.4548294e-11
45	0x2d7fefb1	1.4548294e-11
46	0x2d7fefb1	1.4548294e-11
47	0x2d7fefb1	1.4548294e-11
48	0x2d7fefb1	1.4548294e-11
49	0x2d7fefb1	1.4548294e-11
50	0x2d7fefb1	1.4548294e-11
51	0x2d7fefb1	1.4548294e-11
52	0x2d7fefb1	1.4548294e-11
53	0x2d7fefb1	1.4548294e-11
54	0x2d7fefb1	1.4548294e-11
55	0x2d7fefb1	1.4548294e-11
56	0x2d7fefb1	1.4548294e-11
57	0x2d7fefb1	1.4548294e-11
58	0x2d7fefb1	1.4548294e-11
59	0x2d7fefb1	1.4548294e-11
60	0x2d7fefb1	1.4548294e-11
61	0x2d7fefb1	1.4548294e-11
62	0x2d7fefb1	1.4548294e-11
63	0x2d7fefb1	1.4548294e-11
