experiments/bess/classifier/1552933539_0.057/1552965517_6_classifier_160000.pth (torch_old, 575222 bytes, 52 tensors)

cl0.weight f4 [64, 1]
0.6096337 -0.06283583 0.16950862 0.70285577 0.4767014 0.7644443 -0.10063323 0.5907371
0.7350899 -0.10415307 -0.69279355 -0.8091355 4.2642537e-08 -0.45467055 -0.67100906 -0.57410985
-0.3330985 -1.0197065 0.26404643 0.23390904 0.55877256 0.56789976 0.5130702 0.4641887
0.7840533 -0.5516602 -0.24430498 0.31305358 0.8311364 -0.5711296 -0.8528466 0.5945586
0.028852891 0.53208023 -5.31748e-07 -0.39352998 -0.5005455 -0.04900302 -0.8678726 -0.8099757
-0.22864696 0.9263551 0.15722129 0.85394394 -0.495652 0.37151316 -0.60960764 1.0011188
-0.018727766 0.024916865 0.33147582 -0.61798805 -0.1314791 -0.21790889 0.7166982 0.5785317
-0.17060247 -0.32161197 0.7728304 1.0083983 0.20549741 0.09252193 0.90054744 0.4961956
00000000: f410 1c3f 12b0 80bd ab93 2d3e 5bee 333f
00000010: 3512 f43e 9fb2 433f cb18 cebd 8c3a 173f
00000020: da2e 3c3f 344e d5bd eb5a 31bf 8123 4fbf
00000030: f725 3733 94ca e8be 40c7 2bbf ddf8 12bf
00000040: e38b aabe be85 82bf 1831 873e da85 6f3e
00000050: b80b 0f3f e161 113f 9258 033f 24aa ed3e
00000060: b8b7 483f 9a39 0dbf 162b 7abe 8f48 a03e
00000070: 5bc5 543f 8d35 12bf 2854 5abf fe34 183f
00000080: e65c ec3c 6936 083f 72bd 0eb5 c37c c9be
00000090: c023 00bf 64b7 48bd e62c 5ebf 915a 4fbf
000000a0: 6e22 6abe 9c25 6d3f 9efe 203e 129c 5a3f
000000b0: 19c6 fdbe f936 be3e 3f0f 1cbf a924 803f
000000c0: f96a 99bc 741e cc3c 33b7 a93e 7734 1ebf
000000d0: 75a2 06be 8223 5fbe 8979 373f a71a 143f
000000e0: 6ab2 2ebe 53aa a4be 37d8 453f 3213 813f
000000f0: ea6d 523e 237c bd3d 478a 663f 5a0d fe3e

cl0.bias f4 [64]
-0.052056696 0.22142428 -0.24983677 -0.0872977 -0.053228468 0.004495805 -0.1528044 -0.30600598
0.10820675 -0.24596587 0.31487775 -0.112799674 -2.6477176e-08 -0.015621535 0.3603517 0.29195547
0.20806354 0.22739665 -0.24415068 -0.23155951 0.057195768 -0.25860083 0.27337658 -0.1430949
-0.01667024 -0.23963286 0.19349901 0.14149162 0.061010934 0.27292672 -0.005143585 -0.20058055
-4.6755108e-07 0.2930653 -0.07910243 0.23420238 0.25541544 0.14038731 0.05779688 0.057435606
0.2755493 0.16146061 0.1371701 -0.1253021 0.29926452 0.28871593 0.16818538 -0.18397126
-0.16998221 -0.19904298 -0.09750768 -0.027019108 0.25546217 0.056064922 -0.036566857 0.17901798
0.21522705 0.0034202528 -0.22154173 -0.19684027 -0.2148057 -0.13864052 -0.33128718 -0.20865016
00000000: 6739 55bd 0cbd 623e 36d5 7fbe 23c9 b2bd
00000010: 1806 5abd 8c51 933b c278 1cbe d1ac 9cbe
00000020: 809b dd3d 7ade 7bbe a837 a13e 8403 e7bd
00000030: ed6f e3b2 77f1 7fbc 0580 b83e 307b 953e
00000040: 9c0e 553e abda 683e a302 7abe f01d 6dbe
00000050: 1c46 6a3d 5467 84be 04f8 8b3e 7887 12be
00000060: 0790 88bc 5162 75be 9b24 463e 2ee3 103e
00000070: 9ae6 793d 0dbd 8b3e 858b a8bb fd64 4dbe
00000080: bb03 fbb4 a80c 963e 7400 a2bd c0d2 6f3e
00000090: d0c5 823e b1c1 0f3e 6cbc 6c3d 9941 6b3d
000000a0: cc14 8d3e ee55 253e 5276 0c3e 324f 00be
000000b0: 3339 993e 93d2 933e ca38 2c3e f662 3cbe
000000c0: d10f 2ebe ecd1 4bbe 1bb2 c7bd 2d57 ddbc
000000d0: f0cb 823e 55a4 653d 21c7 15bd 7d50 373e
000000e0: 7b64 5c3e 5226 603b d6db 62be 7f90 49be
000000f0: 07f6 5bbe c8f7 0dbe 799e a9be 63a8 55be

cl1.layer_0.weight f4 [64, 64]
0.87333214 -0.37195787 -4.489278e-07 2.295457e-06 -0.6222232 0.14927234 -0.3367033 -0.47670338
-0.34796584 -4.7079715e-07 0.0062062102 -0.2799625 1.1390162e-08 0.6212608 0.13945186 -8.537191e-07
-0.36345974 -0.75407785 0.11580895 -1.5199124e-07 0.14246808 0.55675155 -0.9176239 -0.5604903
0.773204 -0.61305743 -0.6401279 0.066321045 0.04381711 -0.5267169 0.50803405 0.039425734
2.7473814e-07 -0.6020061 0.16590635 -0.6629585 -0.43501312 4.6255715e-07 0.22703698 -0.15325464
-0.45407295 -0.51591253 -0.6036185 0.70780814 -0.54156995 0.2953045 -0.57547635 -0.18697746
-0.17049801 0.6671241 0.34971696 0.8863533 -0.3340356 -4.5274166e-07 -0.16570888 -0.20158078
4.1895328e-07 0.5939356 0.8101645 0.8471797 -2.3747735e-07 -4.4538626e-07 0.64708555 -0.3827005
0.41476718 -0.27354407 -1.8178673e-07 0.34494424 0.16777018 0.40903363 -0.19319643 0.03601893
-0.6884329 -4.3760197e-06 -0.30441776 0.46087217 1.838539e-09 -0.47173122 0.5474249 -8.442605e-06
-0.21895246 -0.8168791 -5.148643e-08 -1.6386402e-07 0.43085834 8.3504565e-06 0.5526493 0.10557648
0.03550823 -0.45869663 8.758303e-08 -0.06391407 0.804604 -0.52763957 0.26172373 0.35407805
5.414412e-09 -0.30304116 -3.5984775e-07 0.4837263 -0.8092369 -0.15190786 0.14263502 0.11653848
9.021577e-08 -0.13091804 0.7864571 0.1939061 -0.86173683 -0.65611875 -0.62432516 -0.8479558
0.3918991 -1.5257802e-06 4.695066e-06 -0.389907 3.3844347e-07 -0.54664093 -0.46692267 0.33751568
2.0455637e-07 -5.6971503e-06 0.6502851 0.71225464 -2.3840516e-07 -3.2684542e-07 -0.32565978 0.54774433
1.646187e-08 -1.0149145e-08 1.2465556e-08 2.7557862e-08 1.02508695e-08 -1.4173035e-08 -6.1224386e-09 -1.2229676e-08
1.9696005e-08 -8.153617e-08 1.772597e-08 -9.0124247e-10 6.1836927e-09 1.4727959e-08 2.7525205e-08 -4.2002558e-08
-1.5969729e-08 -2.149726e-08 -2.5336012e-08 -1.1427892e-08 -2.000091e-08 -4.1579987e-08 2.5802034e-08 -1.135464e-08
-7.497019e-10 -1.1831574e-08 1.5801302e-09 -3.3979283e-08 2.4035092e-08 1.2268911e-08 6.3985786e-09 2.3502045e-09
-8.382815e-09 2.7919803e-08 4.367679e-08 8.829137e-10 1.0370048e-08 -2.0402263e-08 1.3863126e-09 -2.8402138e-11
-3.9184727e-09 -2.7252711e-09 1.2643428e-08 -2.268161e-08 -1.3012419e-08 -1.4922094e-08 -5.7480225e-09 -9.8240625e-09
1.30517614e-08 1.3634311e-08 -1.9825693e-08 -1.1811958e-08 1.5312343e-08 1.2372502e-08 -1.6286952e-08 -1.3045934e-09
8.208463e-09 3.9317907e-08 9.539557e-10 -5.4090727e-08 6.3703087e-09 1.823706e-08 3.3764675e-08 3.3672276e-08
8.023694e-10 5.048839e-08 1.5736232e-08 2.936887e-09 3.777325e-08 7.883063e-10 -2.5626347e-08 3.6153767e-09
3.927969e-09 1.6390658e-08 -2.5408257e-08 -1.9433546e-08 -1.0946809e-08 2.4179311e-08 -3.196263e-08 -2.6471858e-09
5.433947e-09 -2.436991e-09 -1.2109878e-08 -2.1532205e-08 1.9846263e-08 -2.6442104e-09 -3.1602973e-10 7.777414e-09
1.0382399e-09 -3.5802966e-08 1.0642406e-08 1.007111e-08 2.0695916e-08 -1.132839e-08 -1.0507299e-08 4.661962e-08
2.5338394e-08 -1.2460905e-08 -2.7576558e-08 -2.902821e-08 -1.7783869e-08 -2.043956e-08 -8.405139e-09 -1.2613684e-08
3.351921e-08 4.542602e-09 7.474353e-09 -1.0921636e-08 -1.1117774e-08 -2.8081928e-08 2.040883e-08 8.1216625e-09
-2.2604207e-08 -8.119338e-09 1.2499277e-08 -3.1418246e-08 -1.0117775e-08 2.5964589e-08 4.0970328e-08 -1.5091902e-09
-2.5361109e-08 -1.2669705e-08 -1.1851847e-08 -1.5215134e-08 -3.1149168e-09 -1.4792011e-08 1.6196616e-08 3.3287957e-08
00000000: b292 5f3f 4371 bebe 2b04 f1b4 a70b 1a36
00000010: 054a 1fbf d9da 183e 6064 acbe 7712 f4be
00000020: 9428 b2be dec1 fcb4 775d cb3b 3f57 8fbe
00000030: 76ae 4332 f30a 1f3f 78cc 0e3e 212b 65b5
00000040: 6517 babe 3f0b 41bf 3e2d ed3d 0933 23b4
00000050: 27e3 113e 4587 0e3f 66e9 6abf 4b7c 0fbf
00000060: b3f0 453f 55f1 1cbf 6cdf 23bf 54d3 873d
00000070: 9279 333d ebd6 06bf 850e 023f e17c 213d
00000080: b97f 9334 121d 1abf 5be3 293e a6b7 29bf
00000090: 0aba debe 5f55 f834 627c 683e c9ee 1cbe
000000a0: 407c e8be d812 04bf be86 1abf ea32 353f
000000b0: 54a4 0abf 2732 973e 6b52 13bf 0577 3fbe
000000c0: 0897 2ebe a5c8 2a3f 1a0e b33e 0de8 623f
000000d0: b706 abbe 5710 f3b4 97af 29be 316b 4ebe
000000e0: 80ec e034 2a0c 183f f166 4f3f c5e0 583f
000000f0: 47fd 7eb4 6c1d efb4 66a7 253f 52f1 c3be
00000100: 5d5c d43e f80d 8cbe 2831 43b4 889c b03e
00000110: f2cb 2b3e db6c d13e 49d5 45be 9688 133d
00000120: 233d 30bf b9d5 92b6 a5dc 9bbe 70f7 eb3e
00000130: d7af fc30 c186 f1be 0a24 0c3f b6a4 0db7
00000140: 1335 60be fd1e 51bf ee21 5db3 99f2 2fb4
00000150: 7799 dc3e f018 0c37 6d7a 0d3f 7b38 d83d
00000160: 1471 113d 49da eabe 4815 bc33 61e5 82bd
00000170: 87fa 4d3f 6313 07bf a700 863e b849 b53e
00000180: ac09 ba31 3628 9bbe 1931 c1b4 f9aa f73e
00000190: 262a 4fbf bc8d 1bbe ea0e 123e baab ee3d
000001a0: a5bc c133 610f 06be 4155 493f 528f 463e
000001b0: c99a 5cbf 66f7 27bf c6d3 1fbf a213 59bf
000001c0: 00a7 c83e 69c9 ccb5 4f8a 9d36 e4a1 c7be
000001d0: 51b3 b534 a9f0 0bbf 7d10 efbe dbce ac3e
000001e0: 07a4 5b34 262a bfb6 1679 263f 5256 363f
000001f0: 50fc 7fb4 4b79 afb4 e1bc a6be f938 0c3f
00000200: 0968 8d32 695c 2eb2 1828 5632 61b8 ec32
00000210: cd1b 3032 ab7d 73b2 8a5d d2b1 af1a 52b2
00000220: f92f a932 fc18 afb3 d243 9832 4dbb 77b0
00000230: 5678 d431 4006 7d32 9170 ec32 4d66 34b3
00000240: ce2d 89b2 faa8 b8b2 7ba2 d9b2 6754 44b2
00000250: 77ce abb2 ae95 32b3 46a3 dd32 3c12 43b2
00000260: 9513 4eb0 d043 4bb2 e42b d930 9ef0 11b3
00000270: ba75 ce32 3ec7 5232 7eda db31 3c81 2131
00000280: 0304 10b2 4cd4 ef32 2397 3b33 87b1 7230
00000290: f427 3232 0d41 afb2 8a88 be30 eed3 f9ad
000002a0: 40a3 86b1 7a47 3bb1 6236 5932 63d5 c2b2
000002b0: 398d 5fb2 082e 80b2 2480 c5b1 afc6 28b2
000002c0: 413a 6032 553c 6a32 294d aab2 8aed 4ab2
000002d0: 3388 8332 d78e 5432 63e7 8bb2 4d4d b3b0
000002e0: 3405 0d32 7fde 2833 551c 8330 6251 68b3
000002f0: d4e1 da31 b8a7 9c32 a704 1133 0f9f 1033
00000300: ba8d 5c30 92d8 5833 572c 8732 43d2 4931
00000310: 213c 2233 20b0 5830 ef20 dcb2 6172 7831
00000320: c8f6 8631 70cb 8c32 5941 dab2 d2ee a6b2
00000330: 9310 3cb2 deb2 cf32 4947 09b3 c9e9 35b1
00000340: 81b5 ba31 0078 27b1 cf0b 50b2 d2f5 b8b2
00000350: 657a aa32 71b5 35b1 3bbd adaf 6e9d 0532
00000360: d2b1 8e30 c7c5 19b3 ccd5 3632 3605 2d32
00000370: cdc6 b132 c99e 42b2 9783 34b2 d03a 4833
00000380: b8a7 d932 a413 56b2 7ee1 ecb2 b559 f9b2
00000390: 24c3 98b2 1193 afb2 3166 10b2 92b3 58b2
000003a0: c3f6 0f33 2615 9c31 8d68 0032 dda1 3bb2
000003b0: 7d00 3fb2 d038 f1b2 7e4f af32 7387 0b32
000003c0: 2d2b c2b2 3a7d 0bb2 67bc 5632 baf0 06b3
000003d0: 72d2 2db2 bc08 df32 5af7 2f33 e96b cfb0
000003e0: abd9 d9b2 f4a9 59b2 f99c 4bb2 6fb2 82b2
000003f0: 320e 56b1 f41f 7eb2 bc20 8b32 7ff8 0e33

cl1.layer_0.bias f4 [64]
-0.0741115 0.009274397 1.5647078e-08 1.8500945e-08 2.4129232e-09 -4.815325e-09 1.945159e-08 5.1106078e-08
0.0005601825 -0.048701227 1.4089151e-08 0.004180263 0.035863444 1.2291747e-09 6.9053585e-06 -3.4206355e-08
1.47650745e-08 0.1546003 -0.30959117 -2.0794582e-09 8.800556e-09 0.15485312 -2.3086695e-08 1.5443687e-08
-1.942339e-08 0.09221941 0.09521944 0.01673099 0.26741722 0.17501794 -2.7218724e-07 2.485863e-10
0.31129983 -0.27336106 0.15584807 -0.30802655 -5.9377122e-08 -0.04389297 -2.686458e-08 -3.151827e-08
-5.1493707e-09 0.059699416 7.832996e-09 -0.22879235 4.6775217e-06 0.2747671 0.1746554 -3.530735e-07
0.11044118 -0.05410868 0.030040849 8.828237e-09 0.10165226 0.3114438 1.0896103e-08 0.14075366
0.18115658 -0.04966867 -2.7779574e-08 -3.7563943e-08 -0.10353784 2.639315e-08 2.2313573e-06 -0.25095516
00000000: c5c7 97bd a4f3 173c 4a68 8632 02ec 9e32
00000010: 98d0 2531 0c74 a5b1 8016 a732 ba7f 5b33
00000020: 36d9 123a f07a 47bd be0c 7232 96fa 883b
00000030: 8ce5 123d bdef a830 94b4 e736 49ea 12b3
00000040: 7ca9 7d32 8b4f 1e3e bc82 9ebe 37e6 0eb1
00000050: 4131 1732 d191 1e3e 2e50 c6b2 07a9 8432
00000060: 7cd8 a6b2 88dd bc3d 6902 c33d 6e0f 893c
00000070: e9ea 883e e737 333e 2121 92b4 69a9 882f
00000080: b162 9f3e fbf5 8bbe a396 1f3e a8b5 9dbe
00000090: d605 7fb3 1dc9 33bd d6c3 e6b2 b45e 07b3
000000a0: 58ee b0b1 6087 743d e191 0632 8b48 6abe
000000b0: 9bf3 9c36 46ae 8c3e ddd8 323e 0d8e bdb4
000000c0: fc2e e23d 10a1 5dbd 3a18 f63c ffaa 1732
000000d0: 0f2f d03d 9075 9f3e 9131 3b32 ba21 103e
000000e0: 1c81 393e 6071 4bbd ee9f eeb2 fe55 21b3
000000f0: a60b d4bd 27b7 e232 6dbe 1536 327d 80be

cl1.layer_1.weight f4 [64, 64]
-7.9964724e-07 0.41825703 3.1596887e-09 4.5138e-09 -5.4366286e-08 2.7841676e-09 -5.833446e-08 -8.398823e-09
-0.6879552 1.1425903e-08 9.2295025e-09 -0.8719016 -0.21735832 1.7880536e-08 -0.43803462 -4.1860815e-08
-8.468421e-09 -1.273577 0.19100165 -2.9220955e-09 2.908467e-09 -0.31245327 -1.4228201e-08 3.3962388e-09
1.2541381e-08 0.14015228 -2.7232827e-06 0.2674211 -0.021970006 0.67068595 -5.1248303e-06 2.7066866e-08
0.09836547 1.5187292e-07 0.44846264 -1.8670994e-07 4.9858812e-08 7.435451e-09 2.2855144e-08 9.516426e-09
-2.1316922e-08 0.20174362 -6.4157115e-09 -0.7040493 -2.7788108e-08 0.7363549 -2.8299628e-06 -2.3369744
0.6871773 -0.5871431 -0.16557188 -6.737571e-09 -1.6949288 0.87974066 1.2461696e-09 0.3238518
0.9734867 -4.97689e-07 -3.1998393e-08 8.799292e-09 0.46513548 3.4282543e-08 0.13506146 -0.045464523
0.57951874 0.8548318 1.5503533e-08 1.921717e-08 1.1960527e-09 -1.8942703e-08 8.4058245e-09 -1.2044849e-08
0.96932137 -1.4895719e-08 -1.851491e-08 3.1757268e-06 0.22010957 -4.292545e-08 -0.08456685 -5.662848e-10
-6.0769075e-08 0.9553831 1.638981 -1.4783722e-09 -3.4803154e-08 -0.774095 3.8027515e-08 -7.8714646e-10
2.8846208e-09 4.1572052e-06 0.764271 0.6047969 -0.6541416 -0.83139515 -0.6488212 -1.44607855e-08
-0.48313835 1.0904026 0.63160723 1.212925 1.198956e-08 1.3235812e-06 -2.1990529e-08 2.132726e-09
8.9523695e-09 0.30280793 1.9132775e-08 0.57161117 1.2927127 -0.7653575 -0.14981502 0.072805986
-0.6988155 -0.79950625 -0.022944517 -2.4971497e-08 0.96367806 -0.19982007 -2.0732718e-09 -0.82119167
-0.06326048 0.49266666 -7.7165335e-10 -1.9851255e-08 0.75301284 -2.1965562e-08 0.5351776 0.8455438
7.2843605e-08 6.4083863e-09 4.0898406e-08 5.655354e-08 -3.29097e-08 -3.0794607e-09 1.2062261e-08 2.964404e-08
-2.1139272e-08 2.874591e-08 -2.8818711e-08 4.082024e-10 -2.1487999e-08 7.609709e-09 -7.612316e-09 9.9127984e-11
-5.0059175e-09 -2.1242041e-09 -4.929438e-09 -8.8056085e-10 2.967544e-08 -4.2017909e-10 -2.0187962e-09 -2.1386036e-08
6.6530504e-08 3.0035657e-10 -2.1607194e-08 1.7308887e-08 1.646406e-08 -2.364532e-09 -4.383357e-08 -1.11050324e-08
3.0961245e-10 2.0665818e-08 -2.53239e-09 -6.8182565e-08 -9.304852e-09 2.354453e-09 -8.014679e-09 -2.4102759e-08
-3.2876624e-09 7.812879e-09 -1.7201463e-08 -5.975776e-09 -2.5075517e-09 -2.0451e-09 -1.0047688e-08 1.5340543e-08
8.580139e-09 -4.294214e-08 2.0558794e-08 2.6822777e-09 1.5074364e-09 -2.9710314e-09 -3.4732434e-08 -1.1989546e-09
-5.5874647e-09 2.3303796e-08 9.888756e-09 4.5221438e-10 4.579763e-08 3.4630947e-08 2.9008966e-08 -1.4827971e-08
0.91024315 -0.2091679 8.600337e-08 9.123937e-09 2.3358888e-08 6.713535e-10 -2.1532451e-09 2.8399876e-08
0.9880079 -7.111437e-09 -4.588914e-09 -2.6009424e-08 -0.16046374 3.1128447e-08 0.30588743 -2.4153689e-08
-6.332888e-09 1.0711818e-08 1.376783 6.603036e-08 -6.6684954e-08 -1.0124264 9.503603e-09 -7.741842e-09
2.7733935e-10 0.44381508 0.0961513 1.8633555e-05 -0.72531235 -0.79210985 -0.49903485 1.2092015e-08
-0.4334013 1.7304494 -1.4833219e-08 0.23391579 8.29804e-09 1.7670995e-08 -1.3404509e-08 -1.8218644e-08
1.0753054e-08 -4.730234e-07 -1.8444639e-09 0.231665 1.69656e-08 -1.0533379 -1.3395222 -8.602422e-09
-0.13888119 0.8758369 0.68193287 -3.6151266e-09 -1.1055115e-09 -0.96956766 6.44731e-09 0.20729655
-0.30001086 0.0014860609 1.2791897e-08 -5.458477e-08 -0.04432942 -2.9595704e-09 0.12024164 1.2435864
00000000: 57a7 56b5 c925 d63e d521 5931 ce17 9b31
00000010: 5d80 69b3 9853 3f31 6b8b 7ab3 6a4a 10b2
00000020: d51d 30bf a74b 4432 c88f 1e32 f134 5fbf
00000030: 2e93 5ebe b797 9932 1346 e0be 74ca 33b3
00000040: 827c 11b2 9204 a3bf f095 433e 0cce 48b1
00000050: 4bde 4731 e0f9 9fbe 4a70 74b2 4463 6931
00000060: 9475 5732 1484 0f3e a4c1 36b6 6beb 883e
00000070: 71fa b3bc 13b2 2b3f f5f5 abb6 ab80 e832
00000080: d673 c93d 8312 2334 e59c e53e 707a 48b4
00000090: 5824 5633 eb7a ff31 fe52 c432 af7d 2332
000000a0: 681c b7b2 e195 4e3e 3271 dcb1 933c 34bf
000000b0: b2b2 eeb2 c181 3c3f 64ea 3db6 fd90 15c0
000000c0: daea 2f3f 034f 16bf ad8b 29be 4d80 e7b1
000000d0: 6df3 d8bf af36 613f b245 ab30 e7cf a53e
000000e0: 6d36 793f ed98 05b5 9b6e 09b3 b22b 1732
000000f0: 3d26 ee3e 0e3e 1333 8d4d 0a3e 0239 3abd
00000100: 575b 143f 42d6 5a3f a12c 8532 0113 a532
00000110: 5d62 a430 72b7 a2b2 3569 1032 ceed 4eb2
00000120: 7225 783f 11e8 7fb2 b80a 9fb2 921e 5536
00000130: 6764 613e 085d 38b3 6231 adbd c0a8 1bb0
00000140: 2780 82b3 fd93 743f 21ca d13f 992f cbb0
00000150: 797a 15b3 172b 46bf b253 2333 825e 58b0
00000160: c93a 4631 1f7e 8b36 44a7 433f f8d3 1a3f
00000170: d375 27bf 50d6 54bf 2519 26bf 356f 78b2
00000180: e95d f7be 5092 8b3f 03b1 213f 2041 9b3f
00000190: a4fa 4d32 e7a5 b135 afe5 bcb2 508f 1231
000001a0: f0cc 1932 a409 9b3e 6b59 a432 1c55 123f
000001b0: 9c77 a53f 78ee 43bf 1c69 19be 4e1b 953d
000001c0: 93e5 32bf 71ac 4cbf 24f6 bbbc e780 d6b2
000001d0: 9bb3 763f a29d 4cbe 6279 0eb1 9e39 52bf
000001e0: b68e 81bd ce3e fc3e 471c 54b0 5f85 aab2
000001f0: 73c5 403f c8ae bcb2 6601 093f 8f75 583f
00000200: 326e 9c33 c330 dc31 46a8 2f33 46e5 7233
00000210: 9958 0db3 729e 53b1 633a 4f32 efa3 fe32
00000220: c095 b5b2 edec f632 048d f7b2 6169 e02f
00000230: 9c94 b8b2 dbbb 0232 52c7 02b2 18fc d92e
00000240: 8400 acb1 65f9 11b1 cc5f a9b1 f60b 72b0
00000250: fce8 fe32 f3fe e6af 0abb 0ab1 64b4 b7b2
00000260: 88df 8e33 6e1f a52f b99a b9b2 a5ae 9432
00000270: da6c 8d32 497d 22b1 8543 3cb3 73c8 3eb2
00000280: 1436 aa2f 9d84 b132 4706 2eb1 c36b 92b3
00000290: 2cdb 1fb2 facb 2131 eeb0 09b2 870a cfb2
000002a0: 2bed 61b1 6839 0632 6bc2 93b2 7b53 cdb1
000002b0: 5151 2cb1 c889 0cb1 339e 2cb2 36c6 8332
000002c0: da67 1332 626f 38b3 4499 b032 2153 3831
000002d0: 342e cf30 f02a 4cb1 b72c 15b3 77c8 a4b0
000002e0: dcfb bfb1 972d c832 35e3 2932 849b f82f
000002f0: 07b3 4433 21bd 1433 642f f932 1bbe 7eb2
00000300: b205 693f 1c30 56be dab0 b833 80bf 1c32
00000310: bda6 c832 4d8a 3830 4af8 13b1 fdf3 f332
00000320: 16ee 7c3f dd58 f4b1 84ac 9db1 546b dfb2
00000330: 9b50 24be 17b2 0533 479d 9c3e 867a cfb2
00000340: ac98 d9b1 1307 3832 6d3a b03f 93cc 8d33
00000350: 7134 8fb3 3097 81bf 4a45 2332 fb00 05b2
00000360: 0b78 982f bb3b e33e f9ea c43d 414f 9c37
00000370: 12ae 39bf b6c7 4abf 7f81 ffbe 3fbd 4f32
00000380: c6e6 ddbe 5e7f dd3f 30d5 7eb2 9f87 6f3e
00000390: 2a8f 0e32 eeca 9732 a749 66b2 397f 9cb2
000003a0: 6ebc 3832 d7f3 fdb4 4e80 fdb0 9739 6d3e
000003b0: c0bb 9132 c7d3 86bf 7775 abbf dac9 13b2
000003c0: df36 0ebe d936 603f 2793 2e3f fb6d 78b1
000003d0: baf0 97b0 9635 78bf 2387 dd31 8c45 543e
000003e0: 069b 99be eec7 c23a 5cc3 5b32 9770 6ab3
000003f0: c492 35bd 5061 4bb1 4041 f63d d72d 9f3f

cl1.layer_1.bias f4 [64]
0.1616184 -0.2519127 -1.0493886e-08 -0.20336162 2.30165e-08 0.13030827 1.9812023e-09 -1.563478e-08
-1.6910699e-08 6.2403847e-09 1.4357808e-08 0.030396346 8.566279e-09 -0.39671612 9.5254915e-09 0.1464865
-4.44171e-06 7.639499e-09 -2.334807e-06 -0.107742116 -0.109968215 -6.3299485e-06 0.098859936 7.956982e-07
-7.670227e-06 -2.6163946e-06 -6.3125074e-09 -0.26288444 -2.8343918e-06 -3.449602e-07 1.1429908e-06 -1.3823066e-06
-4.042836e-06 -0.12122868 -0.06642025 1.128491e-08 -7.1561264e-09 -4.5463766e-09 1.0038736e-08 -5.8438974e-07
0.07767673 0.16470663 0.19223143 2.129616e-08 0.019825043 -1.3002791e-08 -1.5500956e-06 0.08490796
0.029286629 1.6945112e-08 -4.3785732e-08 4.767983e-06 -1.5529897e-08 1.0610378e-08 2.4004987e-05 0.11512158
-2.8826012e-06 -1.8876365e-08 -2.653494e-07 0.1426978 4.4471404e-09 0.23969665 0.082176834 -4.4298456e-08
00000000: 4b7f 253e b4fa 80be 9948 34b2 073e 50be
00000010: d2b5 c532 886f 053e ae25 0831 3f4d 86b2
00000020: 0543 91b2 016b d631 4faa 7632 c201 f93c
00000030: e52a 1332 601e cbbe 8ea5 2332 8f00 163e
00000040: 000a 95b6 df3e 0332 aeaf 1cb6 e6a7 dcbd
00000050: 0437 e1bd d865 d4b6 1477 ca3d f797 5535
00000060: 60af 00b7 5195 2fb6 67e5 d8b1 ca98 86be
00000070: 7b36 3eb6 f832 b9b4 dd68 9935 b187 b9b5
00000080: b2a7 87b6 be46 f8bd 5707 88bd 8fdf 4132
00000090: f4e1 f5b1 5a36 9cb1 d476 2c32 f5de 1cb5
000000a0: fa14 9f3d dba8 283e 51d8 443e c0ee b632
000000b0: 2168 a23c e162 5fb2 e10c d0b5 39e4 ad3d
000000c0: 83ea ef3c b28e 9132 ec0e 3cb3 a9fc 9f36
000000d0: 9b66 85b2 f048 3632 515e c937 ddc4 eb3d
000000e0: b672 41b6 9125 a2b2 5875 8eb4 5f1f 123e
000000f0: 76cd 9831 0a73 753e 544c a83d ab42 3eb3

cl1.layer_2.weight f4 [64, 64]
-0.0007410656 1.5231686 -3.8463302e-08 1.1702819 4.781694e-09 -0.84550023 2.2668912e-08 7.710551e-09
2.5756101e-08 -2.5032573e-08 4.0476833e-10 -0.07070531 2.518682e-08 0.8380562 -1.0052731e-09 -1.2055771
5.94601e-07 1.1319522e-08 0.004223982 0.44657797 0.6421286 4.0318428e-06 -0.060411014 0.03773612
0.14650485 0.01059633 9.392027e-09 5.949894e-08 -0.6265737 0.12915945 -0.9558703 0.33326113
6.7089536e-06 1.8235347 0.5370299 2.1115527e-08 3.1924262e-08 -2.2063887e-08 6.191498e-09 2.3956835e-07
-1.0838257e-08 -0.38640854 -0.23167767 -3.3228345e-09 8.3114395e-07 -1.9540165e-08 4.230296e-07 -0.043816037
0.052191157 -7.466964e-09 -1.8565236e-08 2.4930744e-06 -1.8230482e-09 -1.22459785e-08 -1.0559695e-08 0.08084418
3.719119e-06 7.7740925e-09 5.2417994e-07 -0.70436716 1.7016776e-08 -1.2940654 -0.022521507 7.271974e-09
-1.4209617e-09 6.568089e-10 6.275221e-08 3.3448073e-09 1.8942867e-08 1.0384576e-08 -1.6799413e-08 -8.088993e-10
1.0732618e-09 2.403155e-09 1.8381796e-08 2.8310132e-09 1.0902909e-08 -5.3289764e-09 4.550514e-08 1.2584862e-08
-1.6308529e-09 2.534279e-08 1.0537279e-08 9.3644766e-11 2.5728463e-08 1.8498955e-08 -3.117251e-08 1.3595167e-08
-6.179935e-08 2.819414e-08 -1.2379391e-08 5.4335074e-09 1.3719906e-08 1.6553203e-08 -1.0258895e-08 4.8643116e-08
-4.120765e-08 3.474358e-08 2.8365058e-08 2.6950406e-09 1.3854551e-09 -2.187243e-08 1.4088965e-08 8.708057e-09
6.684266e-08 -1.5145305e-08 4.4996867e-08 -2.5081914e-09 -2.611628e-09 9.661905e-10 4.9442143e-08 2.767122e-08
-1.9254836e-08 -6.9891204e-09 -6.7872213e-10 7.3926447e-09 1.3421775e-08 9.5279354e-11 -1.0420184e-08 -1.0384427e-08
1.3809292e-08 1.8657682e-09 -7.298076e-09 2.1737647e-09 -6.496916e-10 1.3896229e-08 -1.9684542e-08 6.1269887e-09
7.0908385e-08 -1.2768521e-08 1.1007862e-08 8.90834e-09 -2.1064874e-09 5.320305e-08 2.792937e-08 -4.1693266e-08
5.6507155e-09 4.853854e-08 4.0884686e-08 6.2152495e-08 -1.840226e-08 2.5222562e-08 2.2882145e-09 3.239367e-10
4.9015575e-10 3.8982154e-08 -3.129086e-08 -1.6024806e-08 2.8525388e-10 1.7258807e-09 6.326792e-11 -1.2941372e-08
4.836378e-09 8.351588e-09 3.429142e-08 -6.6393384e-09 -1.4831475e-08 1.517332e-11 1.474916e-08 -6.7561374e-09
1.1498042e-08 -3.1100324e-08 -2.5151891e-08 3.0720007e-09 -2.5674265e-09 -7.260684e-09 -7.13718e-09 -8.181749e-09
-2.3984978e-08 1.6967814e-08 3.006858e-08 -1.9050475e-10 5.7070326e-09 -7.969142e-09 -3.9697e-09 4.4226734e-08
-3.6476893e-09 8.385821e-09 2.8665406e-08 -7.756558e-09 1.998693e-08 -6.6250876e-09 -1.9809901e-08 -6.860339e-09
1.5066131e-08 -8.98415e-10 3.448699e-09 2.1722352e-10 -5.4105658e-09 2.4936042e-09 -2.0537179e-08 -1.3319129e-08
-2.510582e-09 -2.3921558e-08 2.3840174e-08 -1.9481005e-08 -2.9369284e-08 -2.014095 4.586146e-09 2.451241e-09
-7.422504e-09 -4.3061705e-09 -8.519781e-09 -1.3545931e-08 -2.1579831e-08 1.2935384e-08 3.011975e-08 -3.5007486e-06
1.3473241e-05 -9.008697e-09 -1.0877008e-08 -1.7078338e-06 0.04431028 -4.5100643e-07 -1.4832308e-08 0.49198663
-1.9765912e-06 -1.3631192e-08 5.714598e-09 1.6602499e-08 -3.9703747e-09 -0.45478907 -0.5492186 0.3588128
-1.5765224e-08 -6.608063e-09 1.2746301 -3.1375164e-10 -3.4165717e-09 -3.4332985e-09 -1.6480339e-08 -1.8030171e-07
-3.7784023 -3.2389963e-07 1.1328282 -4.4314554e-08 -5.0793674e-06 -2.029835e-08 -0.7277857 -1.430132e-08
-2.5370701e-08 -9.538799e-09 4.5201794e-08 -3.510572e-08 7.281896e-08 -2.3719096e-08 1.546692e-08 -4.3292815e-07
-3.258903e-08 4.5641574e-08 -8.944416e-07 -5.757894e-07 4.6291913e-09 -0.30331466 0.26283675 1.776429e-08
00000000: 1244 42ba 30f7 c23f d932 25b3 cccb 953f
00000010: 3a4c a431 b472 58bf 77b9 c232 5d77 0432
00000020: 443e dd32 3607 d7b2 1486 de2f f2cd 90bd
00000030: 675a d832 da8a 563f e729 8ab0 5a50 9abf
00000040: ab9c 1f35 c977 4232 5469 8a3b dea5 e43e
00000050: 8a62 243f 4449 8736 8a71 77bd 3191 1a3d
00000060: 5e05 163e 3b9c 2d3c 925a 2132 c78b 7f33
00000070: 2267 20bf 6042 043e eab3 74bf 34a1 aa3e
00000080: 791d e136 9669 e93f cb7a 093f 8961 b532
00000090: 191d 0933 0087 bdb2 febc d431 069e 8034
000000a0: 2933 3ab2 57d7 c5be e93c 6dbe ec57 64b1
000000b0: c71b 5f35 47d9 a7b2 bf1c e334 7278 33bd
000000c0: 65c6 553d 0e48 00b2 6379 9fb2 b14e 2736
000000d0: ce8e fab0 6262 52b2 086a 35b2 a291 a53d
000000e0: fa95 7936 d28e 0532 5fb5 0c35 6851 34bf
000000f0: 492c 9232 efa3 a5bf 067f b8bc f6dc f931
00000100: a54b c3b0 d18a 3430 64c2 8633 79da 6531
00000110: ceb7 a232 d967 3232 4d4e 90b2 3a59 5eb0
00000120: 0b82 9330 c024 2531 ffe5 9d32 b68b 4231
00000130: 804f 3b32 2c1a b7b1 6e71 4333 cf34 5832
00000140: 8924 e0b0 62b1 d932 7107 3532 51ed cd2e
00000150: 7d01 dd32 a2e7 9e32 8ae2 05b3 2d90 6932
00000160: 8db6 84b3 922f f232 23ad 54b2 a3b1 ba31
00000170: c9b4 6b32 e130 8e32 193f 30b2 aceb 5033
00000180: 4afc 30b3 f838 1533 6ca7 f332 a833 3931
00000190: 5e6a be30 fbe1 bbb2 ec0b 7232 719a 1532
000001a0: 248b 8f33 e118 82b2 9442 4133 925c 2cb1
000001b0: 3f78 33b1 ceca 8430 365a 5433 a8b1 ed32
000001c0: d565 a5b2 f424 f0b1 d390 3ab0 6402 fe31
000001d0: 9795 6632 8285 d12e 7404 33b2 3167 32b2
000001e0: e93d 6d32 f136 0031 8ec2 fab1 4661 1531
000001f0: fb95 32b0 43bc 6e32 c416 a9b2 9085 d231
00000200: 4c46 9833 8d5c 5bb2 171d 3d32 4b0b 1932
00000210: b8c1 10b1 5f81 6433 56e9 ef32 3b12 33b3
00000220: 3828 c231 b078 5033 3099 2f33 b278 8533
00000230: ff12 9eb2 00a9 d832 b23e 1d31 0a16 b22f
00000240: a5bb 0630 556d 2733 aa64 06b3 eca6 89b2
00000250: ead1 9c2f 0734 ed30 ac20 8b2e c254 5eb2
00000260: 3b2d a631 ac7a 0f32 d147 1333 3d20 e4b1
00000270: 84cd 7eb2 4777 852d 7e63 7d32 9d23 e8b1
00000280: ec88 4532 2b93 05b3 980d d8b2 351b 5331
00000290: a56e 30b1 a779 f9b1 4d3b f5b1 b68f 0cb2
000002a0: 8607 ceb2 9ec0 9132 c124 0133 5276 51af
000002b0: 9717 c431 a8e8 08b2 da65 88b1 cff3 3d33
000002c0: d4aa 7ab1 3b11 1032 e53b f632 b441 05b2
000002d0: b9af ab32 e3a2 e3b1 6f2a aab2 2eb8 ebb1
000002e0: c66a 8132 56f4 76b0 28fe 6c31 fcd6 6e2f
000002f0: d7e7 b9b1 f35b 2b31 bc69 b0b2 26d2 64b2
00000300: a086 2cb1 107c cdb2 19c9 cc32 2f57 a7b2
00000310: bd47 fcb2 efe6 00c0 2b94 9d31 b072 2831
00000320: 0909 ffb1 7af5 93b1 655e 12b2 a2b7 68b2
00000330: 8d5e b9b2 6c3a 5e32 045d 0133 67ee 6ab6
00000340: 210b 6237 abc4 1ab2 96dd 3ab2 b938 e5b5
00000350: b27e 353d da21 f2b4 2ed1 7eb2 ace5 fb3e
00000360: 94a5 04b6 9e2e 6ab2 235a c431 489d 8e32
00000370: c96b 88b1 1dda e8be 9799 0cbf 50b6 b73e
00000380: 186c 87b2 230d e3b1 1427 a33f 9e7c acaf
00000390: f7c8 6ab1 3aef 6bb1 a690 8db2 f598 41b4
000003a0: 58d1 71c0 6de4 adb4 8400 913f 5e54 3eb3
000003b0: 6f6f aab6 8b5c aeb2 2a50 3abf dfb1 75b2
000003c0: c3ee d9b2 15e0 23b2 e623 4233 26c7 16b3
000003d0: a660 9c33 d8be cbb2 1edc 8432 316d e8b4
000003e0: 04f8 0bb3 7107 4433 8f19 70b5 f28f 1ab5
000003f0: cc0e 9f31 0f4c 9bbe 8a92 863e 1698 9832

cl1.layer_2.bias f4 [64]
1.1361458e-06 1.026053e-08 -7.997408e-09 -4.89572e-07 3.9324104e-06 -6.94115e-08 -5.188717e-08 1.7663083e-08
-1.0451538e-06 7.311901e-06 1.0814126e-06 5.2507535e-06 -1.552756e-06 -1.4865277e-07 1.3051492e-07 -5.498229e-09
-1.8001867e-08 9.048741e-09 2.2736616e-08 0.033682026 -3.1890522e-08 6.0005485e-09 -3.2537653e-08 -4.7073776e-08
6.662884e-06 -6.647616e-07 -1.1038584e-06 -2.2308488e-06 -7.2609606e-07 -1.6086892e-09 2.5701839e-08 5.151528e-06
-1.9689332e-06 4.511707e-08 -1.3299763e-07 -3.4642837e-06 1.9803682e-08 2.9096389e-06 0.037685413 4.051927e-08
-2.357607e-08 4.6736653e-07 -1.4887338e-07 5.49506e-07 -3.670475e-07 -5.879409e-06 -6.677426e-06 -5.306718e-07
-1.0349766e-08 6.3219926e-07 -2.3016523e-06 5.184155e-07 5.766765e-07 5.340341e-07 -2.2325614e-06 -4.8952e-08
-2.0674463e-08 4.871047e-07 1.0530398e-05 -1.0423384e-05 4.083609e-07 -1.7351366e-06 -1.091173e-05 -2.5842077e-08
00000000: ac7d 9835 4a46 3032 f964 09b2 226b 03b5
00000010: 26f3 8336 600f 95b3 8cda 5eb3 88b9 9732
00000020: 3647 8cb5 c058 f536 0e25 9135 a12f b036
00000030: 4a68 d0b5 5d9d 1fb4 ab23 0c34 efea bcb1
00000040: 86a2 9ab2 c974 1b32 594e c332 2af6 093d
00000050: 00f8 08b3 622d ce31 87bf 0bb3 2a2e 4ab3
00000060: bd91 df36 1272 32b5 4928 94b5 b1b5 15b6
00000070: f1e8 42b5 b818 ddb0 f1c6 dc32 4adb ac36
00000080: 0422 04b6 bec6 4133 1cce 0eb4 f17b 68b6
00000090: c21c aa32 3743 4336 055c 1a3d 6907 2e33
000000a0: 5484 cab2 5eea fa34 01da 1fb4 c481 1335
000000b0: a00e c5b4 bd47 c5b6 a70e e0b6 7d73 0eb5
000000c0: c1ce 31b2 67b4 2935 1676 1ab6 3e29 0b35
000000d0: e8cc 1a35 8b5a 0f35 1dd3 15b6 4b3f 52b3
000000e0: a097 b1b2 95c1 0235 b7ab 3037 18e0 2eb7
000000f0: b23c db34 d7e2 e8b5 8611 37b7 54fb ddb2

cl2.layer_0.weight f4 [64, 64]
-1.6154023e-09 -2.4179895e-08 -2.8608058e-09 2.3909028e-10 -1.2353951e-09 -6.0622504e-08 9.582428e-09 6.1366676e-09
-7.1628037e-09 2.377975e-08 2.5149756e-08 6.619512e-09 -4.1350297e-08 -1.2619445e-09 1.1743483e-08 -1.6270246e-08
-6.8804216e-09 2.345149e-09 -3.0163473e-08 -4.334384e-08 5.22724e-09 -7.149615e-08 1.2070966e-08 -2.1970006e-08
-6.1993113e-09 4.1362163e-08 1.2348117e-08 -1.3587571e-08 -3.8301204e-10 4.947483e-08 1.2332076e-08 -9.388614e-09
1.296224e-08 2.8219491e-09 -6.223544e-09 -4.3289955e-08 2.3164334e-08 -2.9045975e-09 -4.809742e-09 1.39904355e-08
-4.461909e-08 -3.110526e-08 -7.4800724e-08 -2.9420656e-08 -4.447836e-08 -1.5926824e-08 5.2377582e-09 7.4971457e-10
-4.1584876e-08 -9.009576e-09 2.1520579e-08 -3.244236e-09 7.638047e-09 -2.7590735e-08 -3.4615255e-09 2.8459203e-08
-1.6242268e-08 7.922473e-09 -3.3615045e-08 8.196058e-10 1.46733035e-08 -2.2455389e-09 -1.95035e-08 -7.1845015e-08
2.805586e-08 -2.611598e-08 -2.364477e-08 6.150932e-10 4.3087574e-09 6.4463116e-08 -1.4764612e-08 1.3773329e-08
3.376851e-08 1.1930575e-08 5.9013723e-09 -1.1075019e-08 -2.8733345e-08 -1.412617e-08 -2.5013081e-08 -4.378908e-08
1.6176385e-08 -9.8708846e-09 -9.804982e-09 1.0131573e-08 -2.861814e-08 -6.254444e-08 -4.824383e-09 1.644681e-08
-4.1210166e-10 1.8118515e-08 7.67654e-09 8.306299e-09 1.811235e-08 -7.170065e-08 -4.1941437e-08 -2.0130285e-08
2.9501335e-08 4.4583548e-08 2.7628683e-08 5.7655605e-09 -1.2258269e-08 -2.3297783e-08 -4.6353495e-08 9.144152e-09
3.7000287e-08 -1.5905337e-09 1.585868e-08 -8.930728e-09 2.7727529e-08 -1.6222879e-08 -2.6958933e-09 4.4874987e-08
-8.1473726e-09 2.2992067e-08 -2.0300366e-09 1.15625545e-08 1.4950185e-08 2.310511e-08 4.925292e-08 -1.9893916e-08
3.0280408e-08 -4.1213287e-08 -6.608477e-09 -1.687796e-08 -3.3476717e-09 -1.9841037e-08 1.1472419e-08 -2.2372259e-08
8.4433245e-11 2.5581391e-08 2.339875e-08 -3.7728394e-09 1.3356662e-08 -1.623633e-08 -3.349804e-08 -1.3933539e-08
8.619798e-09 6.251811e-08 -1.5321904e-08 -1.6449452e-09 -3.2593353e-10 -2.993985e-08 -5.8380922e-09 1.6918738e-08
-2.9009303e-08 -1.2221782e-08 6.8494586e-08 -1.5667139e-09 1.3653246e-08 1.7856945e-09 2.024545e-08 8.640479e-09
-7.629825e-09 1.7660227e-08 -2.3037465e-09 1.8980494e-08 1.2328928e-08 -1.8209644e-08 -5.470399e-09 -7.793911e-09
2.840139e-09 2.3268672e-08 -6.277026e-08 -2.6835709e-08 -1.4092835e-08 1.6449452e-09 -9.967605e-10 1.9567617e-08
-4.4817664e-08 -5.502975e-09 -2.919473e-10 1.18367405e-08 7.4389995e-08 2.8096336e-08 -1.8827908e-09 -2.048509e-08
-2.5473781e-08 3.7726025e-08 -1.3761752e-08 1.1587609e-09 1.8820478e-08 -1.6536445e-08 1.6018577e-08 8.4433245e-11
5.6890883e-09 -4.3668045e-08 -1.7089603e-08 6.460197e-09 -1.8084684e-08 1.756253e-08 -4.1669473e-08 3.32607e-08
1.4231937e-08 5.7985197e-08 2.3506782e-08 -3.2029572e-08 2.4521585e-08 5.909467e-09 -2.4447608e-09 -1.0045781e-08
1.4135908e-08 -7.8341955e-09 -1.7302758e-08 6.245294e-08 -7.360696e-09 -1.8380142e-08 -3.045503e-08 7.94683e-09
-4.398445e-09 -4.2287787e-09 1.5471283e-08 7.985457e-08 -1.8857111e-09 1.2037115e-08 8.253192e-09 4.5630033e-09
1.7432894e-10 -2.8393977e-08 7.64595e-09 3.515176e-08 1.4553811e-08 -2.5236968e-08 -5.412297e-09 3.3474617e-08
-7.501306e-09 2.4684754e-08 -4.1758256e-08 -4.7030313e-09 -1.8372049e-08 5.98438e-08 -3.413122e-10 -4.357658e-08
1.482145e-08 2.0606672e-08 1.2377523e-08 -9.047176e-09 -8.5043865e-09 2.1881418e-08 1.4120791e-08 2.1123183e-09
-7.771262e-09 -7.3296674e-10 -3.0221685e-08 3.8076145e-08 6.1365924e-08 1.62365e-08 6.944514e-09 -2.0834657e-08
-2.6958933e-09 2.4341684e-09 -1.6019172e-11 5.012325e-09 -1.731553e-08 3.6691386e-08 6.761972e-08 -6.421034e-09
00000000: ea04 deb0 27b4 cfb2 d497 44b1 f770 832f
00000010: 9aca a9b0 932f 82b3 f79f 2432 b3da d231
00000020: b01c f6b1 3944 cc32 e608 d832 d871 e331
00000030: 2299 31b3 ba70 adb0 62c0 4932 a6c2 8bb2
00000040: d468 ecb1 4c28 2131 178d 01b3 0e29 3ab3
00000050: 4a9b b331 6d89 99b3 ab60 4f32 8eb8 bcb2
00000060: b801 d5b1 2ea6 3133 9823 5432 c56e 69b2
00000070: 2790 d2af 277e 5433 0bdd 5332 904b 21b2
00000080: 89b0 5e32 41ec 4131 dfd6 d5b1 cfed 39b3
00000090: e9fa c632 389a 47b1 f042 a5b1 965a 7032
000000a0: 35a3 3fb3 9898 05b3 22a2 a0b3 b5b8 fcb2
000000b0: 7908 3fb3 75cf 88b2 cff7 b331 7914 4e30
000000c0: 0e9b 32b3 89c8 1ab2 41dc b832 34f1 5eb1
000000d0: 7c38 0332 ab00 edb2 cddf 6db1 7376 f432
000000e0: 2085 8bb2 681b 0832 2260 10b3 a24a 6130
000000f0: df15 7c32 f04f 1ab1 a688 a7b2 3749 9ab3
00000100: 7dff f032 a655 e0b2 661b cbb2 5613 2930
00000110: 3b0c 9431 f96e 8a33 73a7 7db2 be9f 6c32
00000120: df08 1133 39f7 4c32 05c5 ca31 7344 3eb2
00000130: 4bd1 f6b2 8daf 72b2 59dc d6b2 9a12 3cb3
00000140: 3ff4 8a32 9c94 29b2 c472 28b2 210f 2e32
00000150: f5d3 f5b2 2b50 86b3 b9c3 a5b1 eb46 8d32
00000160: 278e e2af 09a3 9b32 c8e1 0332 7db3 0e32
00000170: 7b95 9b32 d9f9 99b3 1923 34b3 f7ea acb2
00000180: 1f6a fd32 217c 3f33 1e54 ed32 681a c631
00000190: 7098 52b2 5e20 c8b2 3516 47b3 6818 1d32
000001a0: 3fea 1e33 ee99 dab0 9b39 8832 c26d 19b2
000001b0: 7b2d ee32 7d5a 8bb2 a842 39b1 92bc 4033
000001c0: 86f8 0bb2 1780 c532 c880 0bb1 a7a4 4632
000001d0: ce6b 8032 ad78 c632 298a 5333 2fe3 aab2
000001e0: a90d 0233 7d02 31b3 c710 e3b1 07fb 90b2
000001f0: dd0c 66b1 e76e aab2 3b18 4532 1e2d c0b2
00000200: b1ab b92e 13be db32 65fe c832 3fa2 81b1
00000210: 3977 6532 1178 8bb2 7cdf 0fb3 5a60 6fb2
00000220: 4616 1432 b241 8633 399d 83b2 5d14 e2b0
00000230: 112f b3af 3797 00b3 6798 c8b1 b354 9132
00000240: 2230 f9b2 f7f7 51b2 4c17 9333 d853 d7b0
00000250: 9c8f 6a32 8a6c f530 37e8 ad32 3b71 1432
00000260: 5314 03b2 40b3 9732 f04f 1eb1 8c0a a332
00000270: 33cf 5332 6e6b 9cb2 23f6 bbb1 fce5 05b2
00000280: 412c 4331 5ae0 c732 51cc 86b3 5984 e6b2
00000290: f21c 72b2 5d14 e230 64fe 88b0 a515 a832
000002a0: 8b7d 40b3 ae14 bdb1 ee7f a0af 895a 4b32
000002b0: 55c0 9f33 7f58 f132 6862 01b1 30f7 afb2
000002c0: 70d1 dab2 3408 2233 d36c 6cb2 4642 9f30
000002d0: abaa a132 070c 8eb2 3999 8932 b1ab b92e
000002e0: c079 c331 868d 3bb3 6fcc 92b2 7ef8 dd31
000002f0: a458 9bb2 69dc 9632 12f8 32b3 87da 0e33
00000300: b980 7432 660b 7933 f6eb c932 e390 09b3
00000310: 89a3 d232 390c cb31 b000 28b1 d095 2cb2
00000320: 62da 7232 2897 06b2 2ba1 94b2 de1d 8633
00000330: 5ee9 fcb1 5ce2 9db2 a9cd 02b3 8786 0832
00000340: 2221 97b1 bb4c 91b1 b6e5 8432 847c ab33
00000350: c895 01b1 cbcb 4e32 ecc9 0d32 9ac8 9c31
00000360: 3cad 3f2f 04e7 f3b2 3e5b 0332 c5f9 1633
00000370: 5608 7a32 aec8 d8b2 11f7 b9b1 bbc5 0f33
00000380: 18df 00b2 590a d432 b059 33b3 4d98 a1b1
00000390: 90d0 9db2 7a83 8033 6ca3 bbaf f528 3bb3
000003a0: 6da1 7e32 8d02 b132 eca4 5432 e76d 1bb2
000003b0: b01a 12b2 bff5 bb32 e597 7232 4c28 1131
000003c0: 5f82 05b2 f379 49b0 18cd 01b3 2a89 2333
000003d0: 46c8 8333 7178 8b32 979c ee31 e5f7 b2b2
000003e0: a842 39b1 5846 2731 f8e7 8cad e138 ac31
000003f0: 41bd 94b2 9b96 1d33 5636 9133 03a0 dcb1

cl2.layer_0.bias f4 [64]
2.2266194e-08 2.2266194e-08 2.2266194e-08 2.2266194e-08 2.2266194e-08 2.2266194e-08 2.2266194e-08 2.2266194e-08
2.2266194e-08 2.2266194e-08 2.2266194e-08 2.2266194e-08 2.2266194e-08 2.2266194e-08 2.2266194e-08 2.2266194e-08
2.2266194e-08 2.2266194e-08 2.2266194e-08 2.2266194e-08 2.2266194e-08 2.2266194e-08 2.2266194e-08 2.2266194e-08
2.2266194e-08 2.2266194e-08 2.2266194e-08 2.2266194e-08 2.2266194e-08 2.2266194e-08 2.2266194e-08 2.2266194e-08
2.2266194e-08 2.2266194e-08 2.2266194e-08 2.2266194e-08 2.2266194e-08 2.2266194e-08 2.2266194e-08 2.2266194e-08
2.2266194e-08 2.2266194e-08 2.2266194e-08 2.2266194e-08 2.2266194e-08 2.2266194e-08 2.2266194e-08 2.2266194e-08
2.2266194e-08 2.2266194e-08 2.2266194e-08 2.2266194e-08 2.2266194e-08 2.2266194e-08 2.2266194e-08 2.2266194e-08
2.2266194e-08 2.2266194e-08 2.2266194e-08 2.2266194e-08 2.2266194e-08 2.2266194e-08 2.2266194e-08 2.2266194e-08
00000000: e143 bf32 e143 bf32 e143 bf32 e143 bf32
00000010: e143 bf32 e143 bf32 e143 bf32 e143 bf32
00000020: e143 bf32 e143 bf32 e143 bf32 e143 bf32
00000030: e143 bf32 e143 bf32 e143 bf32 e143 bf32
00000040: e143 bf32 e143 bf32 e143 bf32 e143 bf32
00000050: e143 bf32 e143 bf32 e143 bf32 e143 bf32
00000060: e143 bf32 e143 bf32 e143 bf32 e143 bf32
00000070: e143 bf32 e143 bf32 e143 bf32 e143 bf32
00000080: e143 bf32 e143 bf32 e143 bf32 e143 bf32
00000090: e143 bf32 e143 bf32 e143 bf32 e143 bf32
000000a0: e143 bf32 e143 bf32 e143 bf32 e143 bf32
000000b0: e143 bf32 e143 bf32 e143 bf32 e143 bf32
000000c0: e143 bf32 e143 bf32 e143 bf32 e143 bf32
000000d0: e143 bf32 e143 bf32 e143 bf32 e143 bf32
000000e0: e143 bf32 e143 bf32 e143 bf32 e143 bf32
000000f0: e143 bf32 e143 bf32 e143 bf32 e143 bf32

cl2.layer_1.weight f4 [64, 64]
-1.916834e-08 2.1491424e-08 -4.5605773e-08 3.9767706e-08 -4.126282e-08 8.321927e-09 -6.2528063e-09 2.0837353e-10
-1.1441173e-08 -2.0396115e-08 -1.9600105e-08 -1.7817324e-11 -6.1346284e-08 -7.096314e-09 4.9445482e-08 1.8771095e-08
4.803338e-08 5.333807e-08 -5.1693565e-09 -6.716822e-08 -1.2146927e-08 1.3357562e-08 -1.3991746e-08 -7.399142e-09
-1.9611308e-08 1.0636861e-08 -5.638995e-08 -8.747454e-09 4.1504347e-08 -6.2496696e-08 4.511852e-08 8.104563e-09
-1.2382746e-09 -7.198164e-09 -2.4419897e-09 4.4230774e-08 -1.3717245e-08 4.8120693e-08 2.2911902e-08 -1.7144698e-08
8.162771e-09 9.526421e-09 2.1949058e-08 -3.126448e-08 3.3862726e-08 -3.231811e-08 -4.144281e-08 -6.63316e-09
6.1219104e-08 2.6970648e-08 -6.9192964e-08 3.037139e-08 1.537037e-08 -7.845348e-09 1.8362805e-08 2.1715005e-08
1.3786287e-08 -7.3703504e-08 3.9276063e-08 -4.4477253e-09 4.0865558e-08 -2.1252614e-08 1.7809386e-08 -1.0483093e-08
9.191411e-09 -4.5284083e-09 2.192491e-08 -2.1529837e-08 1.0333373e-09 1.3246132e-08 -6.7658754e-09 -3.6877263e-09
2.05699e-08 3.0086902e-08 2.8236062e-09 7.985683e-09 2.026532e-09 -2.3167972e-08 2.549084e-08 -1.940545e-08
3.1291616e-09 -1.6739379e-09 -8.2621465e-10 1.7449356e-08 2.3074382e-09 -9.490389e-09 -1.468197e-09 -5.9143117e-09
-7.217867e-09 3.382626e-08 -4.4134044e-08 4.6372396e-08 3.602442e-09 -2.6835709e-08 -8.213822e-09 1.4109117e-08
2.5906896e-08 -7.6127e-09 9.075959e-09 1.7692527e-08 -1.38208796e-08 2.7093405e-08 3.1089346e-08 -6.261041e-08
-3.9541006e-09 2.515845e-09 5.8879253e-09 -6.663847e-08 -6.4734174e-09 -1.1321639e-08 8.184642e-09 3.2148797e-08
-3.1218024e-09 8.04323e-10 1.130688e-08 1.6318691e-09 7.384838e-08 -3.0587426e-08 8.562694e-09 -3.1456004e-08
-1.4911409e-08 -3.922767e-09 -1.8028059e-08 -1.2977075e-08 4.3138415e-10 1.9904862e-08 2.2385821e-08 1.242936e-08
-4.5753956e-09 7.608015e-09 -5.6251647e-08 2.0065631e-08 2.460219e-08 -1.8451201e-08 -1.1978908e-08 -2.343013e-08
3.6324263e-08 1.5693791e-08 -5.0330073e-09 7.854837e-09 2.1325384e-08 2.8907971e-08 -2.8705163e-09 2.3692595e-08
-2.5918663e-08 1.6414407e-09 3.3864655e-08 -2.1079297e-08 -1.5302233e-09 -2.408722e-08 6.080074e-08 8.481249e-11
-4.434719e-08 4.5377853e-09 -8.9921866e-09 2.6179077e-08 1.3739249e-08 -4.710083e-08 -2.3865532e-09 -1.236415e-10
-6.2630496e-09 -1.2803076e-08 -2.5613597e-08 1.0984739e-08 -9.890961e-10 1.3694591e-08 6.3448935e-09 5.745187e-09
-1.9504597e-08 1.45112855e-08 -6.163418e-08 -1.25227935e-08 -1.3047776e-08 -1.8215532e-09 2.4868683e-09 -1.3919098e-08
3.225249e-09 3.840053e-08 -1.3904282e-09 -8.92461e-09 -4.6049365e-08 5.6829945e-09 -1.7880962e-08 -6.731788e-08
7.5664985e-09 -1.0274709e-08 -3.2441644e-08 -4.0900028e-10 -2.2287363e-08 -2.0649841e-08 -2.3185233e-08 -5.041669e-08
2.4362432e-08 -1.022082e-08 -7.472842e-09 -4.006425e-09 5.3439795e-09 1.588164e-08 7.87788e-09 -1.6856772e-08
3.3455272e-08 -4.9109897e-08 3.1149366e-08 -3.1611826e-08 -5.171218e-09 1.3197895e-09 -7.791172e-09 2.8751922e-08
-2.4387942e-08 1.6527371e-08 -1.7111246e-08 -2.4234373e-08 -1.0357107e-08 1.698224e-08 -8.599913e-10 -9.496926e-09
-2.2847457e-08 -1.6106101e-08 6.5532233e-09 3.6410572e-09 -5.5348974e-09 9.516522e-09 -4.307748e-08 -1.3272941e-08
1.5053685e-08 -6.2236275e-08 1.6027653e-09 2.1972221e-08 3.2405126e-08 1.2982345e-08 -1.4620542e-08 -6.2259913e-09
-3.2919683e-08 -2.3618016e-08 3.8956802e-09 -2.5750941e-08 2.5475128e-08 -1.2557191e-08 -1.3440629e-08 -2.339609e-08
2.2262581e-08 1.2662974e-09 2.8784222e-09 7.4245974e-09 7.402073e-09 2.6808797e-08 -1.38541e-08 -5.7689142e-09
2.6572614e-08 -2.118786e-09 3.320205e-08 2.2189214e-08 2.5007747e-08 5.548089e-08 -4.9927524e-09 -1.1333137e-08
00000000: a0a7 a4b2 249c b832 14e0 43b3 0ecd 2a33
00000010: f338 31b3 39f8 0e32 44d8 d6b1 ef1b 652f
00000020: d08e 44b2 8833 afb2 165d a8b2 0cb9 9cad
00000030: 7abd 83b3 d7d3 f3b1 e25d 5433 133e a132
00000040: 434d 4e33 d415 6533 249e b1b1 1f3e 90b3
00000050: c0ae 50b2 2e7b 6532 5a60 70b2 8b3b feb1
00000060: b975 a8b2 69bd 3632 6831 72b3 b647 16b2
00000070: 8342 3233 ec35 86b3 56c8 4133 3f3c 0b32
00000080: ea2f aab0 b853 f7b1 f0cf 27b1 40f8 3d33
00000090: 15a9 6bb2 43ad 4e33 cecf c432 9745 93b2
000000a0: 3f3c 0c32 a5a9 2332 7d8a bc32 a947 06b3
000000b0: 7670 1133 23ce 0ab3 dafe 31b3 e4e9 e3b1
000000c0: 8f77 8333 15ad e732 3c97 94b3 b271 0233
000000d0: cd07 8432 35c8 06b2 3cbc 9d32 cd87 ba32
000000e0: bbd8 6c32 ee46 9eb3 7db0 2833 9bd2 98b1
000000f0: 2884 2f33 fe8e b6b2 41fb 9832 2119 34b2
00000100: 41e8 1d32 4d98 9bb1 6355 bc32 9df0 b8b2
00000110: 5305 8e30 1b91 6332 4579 e8b1 2b6b 7db1
00000120: b0b1 b032 e638 0133 6809 4231 6831 0932
00000130: 2143 0b31 e902 c7b2 f3f6 da32 09b1 a6b2
00000140: cb08 5731 7410 e6b0 b01b 63b0 8ae3 9532
00000150: e290 1e31 2c0b 23b2 97c9 c9b0 d636 cbb1
00000160: 0801 f8b1 5e48 1133 e58d 3db3 fd2a 4733
00000170: d48e 7731 5984 e6b2 c51c 0db2 8e64 7232
00000180: de89 de32 02c9 02b2 7dec 1b32 47fa 9732
00000190: df70 6db2 07bb e832 1987 0533 7074 86b3
000001a0: a3dc 87b1 37e3 2c31 bd4e ca31 e31a 8fb3
000001b0: c86c deb1 1881 42b2 709c 0c32 fa13 0a33
000001c0: 5487 56b1 3317 5d30 2f40 4232 4a48 e030
000001d0: 9496 9e33 3b5f 03b3 201b 1332 3e1a 07b3
000001e0: 8916 80b2 06c9 86b1 1fdc 9ab2 c8f1 5eb2
000001f0: ec27 ed2f 41fb aa32 f14a c032 e788 5532
00000200: 9b35 9db1 67b4 0232 5799 71b3 ca5c ac32
00000210: ca54 d332 9f7e 9eb2 cbcb 4db2 6743 c9b2
00000220: f302 1c33 03cf 8632 cdee acb1 f0f1 0632
00000230: 042f b732 4d51 f832 a842 45b1 9184 cb32
00000240: bea3 deb2 0f99 e130 9572 1133 dd11 b5b2
00000250: f24f d2b0 5be8 ceb2 8f91 8233 3081 ba2e
00000260: 4078 3eb3 c8ea 9b31 0e7c 1ab2 66e0 e032
00000270: db09 6c32 e94b 4ab3 b000 24b1 fdf1 07af
00000280: 5e32 d7b1 86f4 5bb2 e504 dcb2 65b7 3c32
00000290: baf0 87b0 7345 6b32 4602 da31 3367 c531
000002a0: 108b a7b2 4f4d 7932 c05b 84b3 d423 57b2
000002b0: ba28 60b2 355a fab0 73e5 2a31 d720 6fb2
000002c0: 2ea3 5d31 d4ed 2433 5819 bfb0 da52 19b2
000002d0: d0c7 45b3 2644 c331 a798 99b2 6590 90b3
000002e0: d0fd 0132 a684 30b2 f755 0bb3 acd9 e0af
000002f0: 6e72 bfb2 7b61 b1b2 de28 c7b2 bd89 58b3
00000300: 8e45 d132 a497 2fb2 e861 00b2 e3a8 89b1
00000310: 249e b731 186c 8832 4857 0732 6fcc 90b2
00000320: 76b0 0f33 e7ec 52b3 17c9 0533 92c5 07b3
00000330: 84ae b1b1 f763 b530 f0d9 05b2 25fa f632
00000340: a77d d1b2 13f8 8d32 07fc 92b2 f32b d0b2
00000350: 0aef 31b2 57e0 9132 8264 6cb0 ec27 23b2
00000360: 1742 c4b2 b159 8ab2 c32a e131 2836 7a31
00000370: 792d beb1 1b7e 2332 3104 39b3 0307 64b2
00000380: 674f 8132 c1a6 85b3 4a48 dc30 6dbd bc32
00000390: d02d 0b33 f508 5f32 d32d 7bb2 66ec d5b1
000003a0: 9363 0db3 91e0 cab2 c4da 8531 eb32 ddb2
000003b0: 66d4 da32 1cbb 57b2 83e8 66b2 8cf8 c8b2
000003c0: ef3b bf32 e109 ae30 bdcd 4531 731b ff31
000003d0: 5355 fe31 2b49 e632 fa02 6eb2 e837 c6b1
000003e0: cc41 e432 149a 11b1 0a9a 0e33 999a be32
000003f0: 9ed0 d632 e249 6e33 b78c abb1 aab3 42b2

cl2.layer_1.bias f4 [64]
2.2266194e-08 2.2266194e-08 2.2266194e-08 2.2266194e-08 2.2266194e-08 2.2266194e-08 2.2266194e-08 2.2266194e-08
2.2266194e-08 2.2266194e-08 2.2266194e-08 2.2266194e-08 2.2266194e-08 2.2266194e-08 2.2266194e-08 2.2266194e-08
2.2266194e-08 2.2266194e-08 2.2266194e-08 2.2266194e-08 2.2266194e-08 2.2266194e-08 2.2266194e-08 2.2266194e-08
2.2266194e-08 2.2266194e-08 2.2266194e-08 2.2266194e-08 2.2266194e-08 2.2266194e-08 2.2266194e-08 2.2266194e-08
2.2266194e-08 2.2266194e-08 2.2266194e-08 2.2266194e-08 2.2266194e-08 2.2266194e-08 2.2266194e-08 2.2266194e-08
2.2266194e-08 2.2266194e-08 2.2266194e-08 2.2266194e-08 2.2266194e-08 2.2266194e-08 2.2266194e-08 2.2266194e-08
2.2266194e-08 2.2266194e-08 2.2266194e-08 2.2266194e-08 2.2266194e-08 2.2266194e-08 2.2266194e-08 2.2266194e-08
2.2266194e-08 2.2266194e-08 2.2266194e-08 2.2266194e-08 2.2266194e-08 2.2266194e-08 2.2266194e-08 2.2266194e-08
00000000: e143 bf32 e143 bf32 e143 bf32 e143 bf32
00000010: e143 bf32 e143 bf32 e143 bf32 e143 bf32
00000020: e143 bf32 e143 bf32 e143 bf32 e143 bf32
00000030: e143 bf32 e143 bf32 e143 bf32 e143 bf32
00000040: e143 bf32 e143 bf32 e143 bf32 e143 bf32
00000050: e143 bf32 e143 bf32 e143 bf32 e143 bf32
00000060: e143 bf32 e143 bf32 e143 bf32 e143 bf32
00000070: e143 bf32 e143 bf32 e143 bf32 e143 bf32
00000080: e143 bf32 e143 bf32 e143 bf32 e143 bf32
00000090: e143 bf32 e143 bf32 e143 bf32 e143 bf32
000000a0: e143 bf32 e143 bf32 e143 bf32 e143 bf32
000000b0: e143 bf32 e143 bf32 e143 bf32 e143 bf32
000000c0: e143 bf32 e143 bf32 e143 bf32 e143 bf32
000000d0: e143 bf32 e143 bf32 e143 bf32 e143 bf32
000000e0: e143 bf32 e143 bf32 e143 bf32 e143 bf32
000000f0: e143 bf32 e143 bf32 e143 bf32 e143 bf32
