experiments/bess/classifier/1552933539_0.057/1552964162_6_classifier_90000.pth (torch_old, 575222 bytes, 52 tensors)

cl0.weight f4 [64, 1]
0.6085402 -0.0624678 0.16899751 0.6992219 0.47399047 0.7612003 -0.10046148 0.5895681
0.73384696 -0.104620226 -0.6911402 -0.80694324 3.928153e-06 -0.45293406 -0.66927373 -0.5726565
-0.33274978 -1.017563 0.2629712 0.23288481 0.55687374 0.56650233 0.51344055 0.46320942
0.7805068 -0.5518422 -0.24409254 0.31362993 0.8259248 -0.5702838 -0.84856266 0.592527
0.031734984 0.53225565 -8.884406e-06 -0.39283925 -0.49935165 -0.049662046 -0.8621669 -0.8033855
-0.2278151 0.9238875 0.15699545 0.85156304 -0.49576792 0.37266955 -0.6070202 0.9978202
-0.020003013 0.024243467 0.32982415 -0.6180653 -0.13099554 -0.22025402 0.7124438 0.5775648
-0.16992262 -0.32033423 0.7694378 1.0054913 0.20456487 0.091945834 0.89891815 0.49412978
00000000: 4ac9 1b3f 3cde 7fbd af0d 2d3e 3500 333f
00000010: e1ae f23e 06de 423f c0be cdbd efed 163f
00000020: 65dd 3b3f 2143 d6bd 90ee 30bf d593 4ebf
00000030: 94ce 8336 f9e6 e7be 8655 2bbf 9e99 12bf
00000040: 2e5e aabe 813f 82bf 29a4 863e 5b79 6e3e
00000050: 478f 0e3f 4c06 113f d770 033f c929 ed3e
00000060: 4bcf 473f 8845 0dbf 65f3 79be 1a94 a03e
00000070: cf6f 533f 1efe 11bf 673b 59bf d9af 173f
00000080: 8bfc 013d e841 083f 3c0e 15b7 3a22 c9be
00000090: 05ab ffbe 6e6a 4bbd f8b6 5cbf acaa 4dbf
000000a0: 5d48 69be e483 6c3f 6ac3 203e 0900 5a3f
000000b0: 4bd5 fdbe 8bce be3e ad65 1bbf 2571 7f3f
000000c0: 5cdd a3bc 3c9a c63c b6de a83e 8739 1ebf
000000d0: b223 06be 458a 61be b862 363f 49db 133f
000000e0: 3200 2ebe d902 a4be e0f9 443f f0b3 803f
000000f0: 7479 513e 194e bc3d 801f 663f 94fe fc3e

cl0.bias f4 [64]
-0.05142827 0.21914646 -0.24736035 -0.0867759 -0.053669553 0.004780272 -0.14998327 -0.3038941
0.107287556 -0.24380836 0.31248972 -0.11207705 -2.7542362e-07 -0.014755872 0.35792473 0.28989074
0.20609578 0.22537729 -0.24197294 -0.22969893 0.056630805 -0.2565123 0.27125433 -0.14238162
-0.016755998 -0.23645957 0.19041878 0.1398145 0.060122665 0.27066204 -0.004690602 -0.19968827
-5.8894498e-06 0.2909503 -0.077921994 0.23158494 0.2535575 0.1378609 0.05803375 0.05771327
0.27354 0.16001484 0.1350052 -0.12441387 0.2959233 0.2868074 0.16634414 -0.18297341
-0.1684142 -0.19683409 -0.0968377 -0.02653672 0.25292763 0.056212742 -0.03695449 0.17729992
0.21309216 0.004105905 -0.22013174 -0.19537582 -0.21275556 -0.13690825 -0.3290615 -0.2068833
00000000: 73a6 52bd ee67 603e 084c 7dbe 90b7 b1bd
00000010: 9bd4 5bbd d4a3 9c3b 3795 19be 0298 9bbe
00000020: 94b9 db3d e6a8 79be a7fe 9f3e a788 e5bd
00000030: efdd 93b4 9dc2 71bc e941 b73e 8f6c 943e
00000040: c60a 533e 4ec9 663e c1c7 77be 3236 6bbe
00000050: b4f5 673d 9555 83be d9e1 8a3e 7dcc 11be
00000060: e043 89bc 7522 72be 24fd 423e 882b 0f3e
00000070: 2f43 763d 3794 8a3e 9fb3 99bb 157b 4cbe
00000080: fd9d c5b6 70f7 943e 9195 9fbd 9a24 6d3e
00000090: 4ad2 813e 682b 0d3e ccb4 6d3d c064 6c3d
000000a0: 6f0d 8c3e eeda 233e ce3e 0a3e b3cc febd
000000b0: 4283 973e 6bd8 923e 1e56 2a3e 625d 3bbe
000000c0: c674 2cbe e08e 49be d852 c6bd 8963 d9bc
000000d0: bb7f 813e 553f 663d 975d 17bd 1c8e 353e
000000e0: d534 5a3e d48a 863b 376a 61be 9910 48be
000000f0: 98dc 59be ad31 0cbe c07a a8be 37d9 53be

cl1.layer_0.weight f4 [64, 64]
0.875277 -0.37796998 -2.1738538e-06 5.8230675e-05 -0.6271657 0.15069486 -0.3437292 -0.48721313
-0.35017237 -5.694184e-06 0.014197294 -0.2813597 2.080208e-06 0.6252837 0.1498104 -5.6979003e-05
-0.37213564 -0.7546073 0.17811555 5.758812e-06 0.14464913 0.55903107 -0.91931176 -0.56779593
0.7745482 -0.6152095 -0.6688196 0.069965824 0.045127355 -0.5289738 0.5105909 0.041453443
9.939588e-06 -0.6035784 0.1825077 -0.6689222 -0.43819377 1.29863365e-05 0.22995508 -0.15450065
-0.46538433 -0.5176338 -0.60824126 0.7088461 -0.5451629 0.29819772 -0.57740504 -0.19037051
-0.18008737 0.6731172 0.3549295 0.8894119 -0.34048524 -1.547714e-05 -0.16895097 -0.20366877
4.570914e-06 0.5997545 0.81127596 0.8477857 7.3963356e-06 -1.4782497e-05 0.6475688 -0.3917159
0.41732335 -0.283527 3.7368387e-05 0.3470687 0.17152357 0.4107056 -0.20109268 0.04093873
-0.6917754 2.603194e-05 -0.30764866 0.46401885 3.0721228e-06 -0.47521517 0.55942416 0.008081648
-0.23468988 -0.8179314 3.2372503e-05 4.7953516e-05 0.43336383 -1.17109175e-05 0.55482906 0.11051733
0.03713934 -0.46079245 1.9989686e-05 -0.06891727 0.80601335 -0.5324142 0.26532263 0.35761747
-2.4991139e-06 -0.30590966 2.170769e-05 0.5047378 -0.8156033 -0.16983914 0.14657505 0.12070131
-4.461488e-05 -0.13365605 0.7931114 0.19541512 -0.8699487 -0.6594175 -0.6274559 -0.85225075
0.40139672 2.6908496e-05 -1.7691566e-05 -0.39216673 -2.9913313e-05 -0.55845815 -0.47133598 0.33961913
-4.492974e-05 2.1148502e-05 0.65236986 0.7133266 4.666439e-05 3.08581e-05 -0.33215696 0.5531278
2.657501e-06 1.1277476e-06 -1.1355789e-06 3.5265325e-07 5.3903227e-07 -5.5646174e-06 -3.36257e-06 -1.910708e-06
6.090648e-07 4.8752877e-06 -3.6676527e-06 -1.6288337e-06 -3.6004656e-06 9.789209e-07 4.115521e-06 -2.128096e-06
5.524407e-06 9.0748284e-07 7.441392e-07 3.8143774e-06 -2.9596828e-07 3.7583516e-06 -1.2079007e-08 -1.2137775e-07
-1.9181557e-06 -1.4458607e-06 -1.8586375e-07 2.4468939e-06 3.917161e-07 -2.0048617e-06 -1.7991535e-07 -5.2032046e-06
-2.4990725e-06 -2.181229e-06 1.215453e-06 -1.09842816e-07 8.870567e-06 -1.6793794e-06 8.177017e-06 8.423723e-08
2.7997337e-06 2.897346e-06 2.4449294e-06 -2.9521805e-06 -6.1074347e-06 -1.3572012e-06 -1.18916226e-07 4.1515164e-06
3.6443134e-06 -1.1660829e-06 -1.1232908e-06 7.774298e-06 2.7529632e-06 -2.5712036e-06 -2.1421913e-06 -3.131768e-06
-2.1878898e-06 1.3325271e-06 -1.8983384e-06 3.787906e-06 -8.430712e-07 2.3957589e-06 1.4833754e-06 4.6928685e-06
6.999425e-07 -2.3880202e-07 2.461613e-06 -3.3281865e-06 9.401335e-07 1.4091332e-06 1.3140391e-06 1.3452102e-06
-1.8689287e-06 2.3936025e-06 -1.8921018e-07 -2.6771477e-07 4.9766436e-06 -1.7747574e-07 -3.862012e-06 -2.4793142e-06
2.1365342e-06 -2.90563e-06 -3.4762472e-06 -1.822404e-06 -2.1031503e-06 3.575207e-06 4.577933e-06 -2.6016291e-06
-1.7368784e-06 -4.3083623e-06 2.8623765e-06 7.500242e-07 -2.4317917e-06 4.0870776e-07 -4.911882e-08 5.650897e-06
-2.2137065e-06 2.3305506e-06 -1.1546355e-06 -1.4750303e-06 2.594842e-06 -7.086181e-06 1.8951888e-06 -2.044228e-06
-3.6416802e-06 4.7064466e-07 -6.6418343e-06 -1.5559019e-06 -2.8548604e-06 8.262419e-07 -7.483913e-08 1.6965524e-06
1.851821e-06 5.1617195e-07 3.2533055e-06 3.8085952e-06 8.447706e-07 4.7001558e-07 -3.2509568e-06 9.495069e-06
5.482079e-06 9.1399403e-07 2.471869e-06 1.2444332e-06 -2.3646223e-07 -4.8835973e-06 8.123606e-08 4.8415757e-07
00000000: 2712 603f 4885 c1be 86e2 11b6 b63c 7438
00000010: ee8d 20bf c14f 1a3e 46fd afbe 0074 f9be
00000020: cb49 b3be ab10 bfb6 c49b 683c 610e 90be
00000030: b499 0b36 9812 203f e667 193e bdfc 6eb8
00000040: 9088 bebe f22d 41bf ec63 363e d23b c136
00000050: e71e 143e a91c 0f3f 0458 6bbf 135b 11bf
00000060: ca48 463f 5f7e 1dbf c337 2bbf 3e4a 8f3d
00000070: 76d7 383d d46a 07bf 16b6 023f 16cb 293d
00000080: 35c2 2637 1d84 1abf 4ce3 3a3e 7c3e 2bbf
00000090: ef5a e0be e4df 5937 5879 6b3e 6b35 1ebe
000000a0: db46 eebe a683 04bf b3b5 1bbf f076 353f
000000b0: cc8f 0bbf 5fad 983e d1d0 13bf 7df0 42be
000000c0: d368 38be 6951 2c3f 52b9 b53e 80b0 633f
000000d0: 1554 aebe e8d4 81b7 7c01 2dbe 8c8e 50be
000000e0: da5f 9936 8389 193f c8af 4f3f 7c08 593f
000000f0: 0a2e f836 5702 78b7 12c7 253f fd8e c8be
00000100: 68ab d53e 732a 91be 00bc 1c38 fdb2 b13e
00000110: e0a3 2f3e 0148 d23e 3deb 4dbe 5faf 273d
00000120: 3118 31bf 2a5f da37 2084 9dbe e193 ed3e
00000130: ab2a 4e36 674f f3be 6c36 0f3f e368 043c
00000140: 8b52 70be f463 51bf b6c7 0738 b221 4938
00000150: dde1 dd3e 027a 44b7 4709 0e3f e956 e23d
00000160: 6c1f 183d fdec ebbe 86af a737 7f24 8dbd
00000170: e456 4e3f 4c4c 08bf 5ed8 873e a319 b73e
00000180: 73b6 27b6 31a0 9cbe e918 b637 7f36 013f
00000190: 61cb 50bf 50ea 2dbe c517 163e 4032 f73d
000001a0: dd20 3bb8 22dd 08be 5909 4b3f e71a 483e
000001b0: f5b4 5ebf 96cf 28bf f3a0 20bf 1b2d 5abf
000001c0: df83 cd3e 8eb9 e137 5968 94b7 14ca c8be
000001d0: 5aee fab7 1df7 0ebf f352 f1be 8fe2 ad3e
000001e0: f172 3cb8 1068 b137 b601 273f 929c 363f
000001f0: 82b9 4338 a26d 0138 7a10 aabe c999 0d3f
00000200: 8557 3236 1d5d 9735 326a 98b5 4b54 bd34
00000210: 04b2 1035 b3b7 bab6 83a8 61b6 b739 00b6
00000220: 9d7e 2335 6796 a336 cb21 76b6 4d9e dab5
00000230: 879f 71b6 7763 8335 0e18 8a36 69d0 0eb6
00000240: 4b5e b936 bf99 7335 dbc0 4735 81fa 7f36
00000250: 92e5 9eb4 fd37 7c36 0984 4fb2 1054 02b4
00000260: aab9 00b6 650f c2b5 d791 47b4 5135 2436
00000270: 0d4d d234 438b 06b6 c12e 41b4 3097 aeb6
00000280: bdb5 27b6 3b61 12b6 a622 a335 bae2 ebb3
00000290: ccd2 1437 0967 e1b5 0530 0937 e8e5 b433
000002a0: 0fe3 3b36 0670 4236 9113 2436 131e 46b6
000002b0: 77ee ccb6 1429 b6b5 e35e ffb3 414d 8b36
000002c0: d490 7436 4e82 9cb5 fac3 96b5 5b6e 0237
000002d0: 8cbf 3836 f18c 2cb6 91c2 0fb6 5d2b 52b6
000002e0: a9d3 12b6 48d9 b235 69ca feb5 bb33 7e36
000002f0: 694f 62b5 d3c6 2036 6418 c735 6f77 9d36
00000300: afe3 3b35 b334 80b4 3032 2536 cf59 5fb6
00000310: 7b5d 7c35 7321 bd35 0a5e b035 128d b435
00000320: e7d7 fab5 c7a1 2036 b329 4bb4 70ba 8fb4
00000330: 0bfd a636 2990 3eb4 6e96 81b6 4b62 26b6
00000340: 6161 0f36 58fe 42b6 7949 69b6 5399 f4b5
00000350: d923 0db6 97ed 6f36 259c 9936 a697 2eb6
00000360: b01e e9b5 8d90 90b6 4117 4036 4555 4935
00000370: dd31 23b6 5e6c db34 b7f6 52b3 d69c bd36
00000380: 308f 14b6 8e66 1c36 f9f8 9ab5 a8f9 c5b5
00000390: 0c23 2e36 d5c5 edb6 315e fe35 922f 09b6
000003a0: 9763 74b6 e9ac fc34 ecdc deb6 62d4 d0b5
000003b0: 2196 3fb6 e9ca 5d35 3fb7 a0b3 19b5 e335
000003c0: 168c f835 118f 0a35 5d53 5a36 2b97 7f36
000003d0: 32c4 6235 7356 fc34 032b 5ab6 034d 1f37
000003e0: b3f2 b736 3159 7535 63e2 2536 6606 a735
000003f0: 3ee6 7db4 c8dd a3b6 ff73 ae33 0ef7 0135

cl1.layer_0.bias f4 [64]
-0.07356358 0.011909014 -9.728363e-07 2.650374e-06 6.240347e-09 1.8897239e-06 -1.0876885e-06 -2.3352927e-06
0.000492066 -0.05263839 1.6458551e-06 0.004010936 0.034472715 4.0872887e-06 -3.506592e-05 -1.3556306e-07
3.743744e-08 0.15451646 -0.3080988 1.5309575e-06 -1.6014483e-06 0.15343434 4.244432e-06 3.0247015e-06
3.4274215e-06 0.09305469 0.094649024 0.01659172 0.26558244 0.17283852 -1.4824185e-05 -1.4406085e-07
0.30994403 -0.2721442 0.15309894 -0.30705738 7.5584893e-07 -0.044566255 1.2996661e-06 4.2945107e-06
-7.065221e-07 0.05789577 9.752114e-07 -0.22805294 -4.3763514e-05 0.27334374 0.1738616 3.230155e-05
0.10983593 -0.054215685 0.032816984 -6.067729e-07 0.10162024 0.3088299 -1.2548436e-06 0.13899249
0.18039347 -0.048903137 2.5540876e-06 1.2536485e-06 -0.104712784 6.784774e-07 2.4844952e-05 -0.24997088
00000000: 81a8 96bd 061e 433c 6792 82b5 14dd 3136
00000010: ac6a d631 6ba2 fd35 b1fc 91b5 06b8 1cb6
00000020: fefd 003a 5a9b 57bd 27e7 dc35 2b6e 833b
00000030: 4333 0d3d 8b25 8936 bf13 13b8 4a8f 11b4
00000040: e7ca 2033 9039 1e3e 20bf 9dbe 4d7b cd35
00000050: 58f1 d6b5 e41d 1d3e 656b 8e36 fafb 4a36
00000060: a702 6636 7593 be3d 59d7 c13d 5ceb 873c
00000070: 6cfa 873e 95fc 303e 64b5 78b7 25af 1ab4
00000080: fcb0 9e3e 7c56 8bbe f8c5 1c3e a036 9dbe
00000090: 8be5 4a35 1b8b 36bd 3070 ae35 9119 9036
000000a0: d4a7 3db5 1d24 6d3d 02e4 8235 b686 69be
000000b0: b78e 37b8 b6f3 8b3e c608 323e 867b 0738
000000c0: a9f1 e03d 4411 5ebd 1a6b 063d 1ee1 22b5
000000d0: 461e d03d f41e 9e3e 196c a8b5 0c54 0e3e
000000e0: 11b9 383e a84e 48bd e466 2b36 0943 a835
000000f0: a873 d6bd 9d20 3635 216a d037 5ef8 7fbe

cl1.layer_1.weight f4 [64, 64]
1.8352446e-05 0.42143357 -1.5862905e-06 1.0396052e-06 -2.2309378e-06 -2.255616e-06 2.2243897e-07 -1.1944886e-06
-0.69032145 -1.1537995e-06 1.1307967e-06 -0.98605925 -0.22257702 3.5268781e-06 -0.44175613 -2.68562e-07
1.2764116e-07 -1.2663652 0.20129468 4.689283e-06 -2.2665713e-06 -0.31717336 1.6291445e-07 -8.1113365e-07
-1.5159434e-06 0.14826643 2.0667558e-05 0.27264118 -0.027374977 0.67061096 -2.8960263e-05 1.247212e-06
0.09722336 5.6179717e-05 0.45061833 -4.0082552e-05 4.0487885e-06 6.110757e-07 -2.797012e-07 1.1254033e-06
-1.1744355e-06 0.2021141 4.2833332e-07 -0.7121214 1.4136361e-06 0.7357346 -1.0111002e-06 -2.3150802
0.6936069 -0.5909299 -0.16840799 3.5897529e-06 -1.6858479 0.8795308 1.8654713e-06 0.32656682
0.9749981 5.4820674e-05 -2.2443166e-06 2.2187446e-06 0.46935734 1.2059891e-06 0.13721882 -0.05283749
0.57691216 0.854684 8.95173e-07 5.523617e-07 1.6281041e-06 -1.759631e-07 2.8324803e-06 -1.9424976e-06
0.9689971 4.4827902e-06 -1.5877288e-06 8.996225e-05 0.2214532 6.530176e-07 -0.086378485 3.2860642e-06
2.287172e-06 0.9544304 1.6332036 3.61372e-06 6.219884e-07 -0.7744456 -2.8482546e-06 -2.8663226e-06
-4.0541318e-06 -3.2945807e-06 0.76517487 0.60533553 -0.6536342 -0.83201325 -0.65216535 -3.389546e-06
-0.4830706 1.0838448 0.63421077 1.2066905 -2.2946087e-06 -6.8885306e-06 3.7678747e-06 -1.7628721e-06
9.128304e-07 0.3039509 1.3858e-06 0.5663224 1.2922461 -0.7656363 -0.15088584 0.0719898
-0.70247996 -0.8013455 -0.024764562 -5.706497e-06 0.9639016 -0.2001815 1.7987833e-06 -0.82266736
-0.064598486 0.49899077 -1.8641019e-06 2.9525103e-07 0.7532771 -1.6468822e-06 0.53571427 0.8394104
1.7593209e-06 4.7058302e-07 -1.7305487e-07 -9.242268e-06 1.5054583e-06 4.9259806e-06 9.660328e-07 -1.655896e-06
2.6558318e-06 -4.7518918e-07 -1.4683657e-07 7.5499247e-07 7.4334584e-06 2.0886855e-06 2.7382214e-06 6.629249e-07
-3.1233062e-06 -5.83559e-06 -2.6819464e-06 -4.727446e-06 -3.1243458e-06 -2.5917134e-07 -3.6737022e-06 2.0898717e-06
1.6865354e-06 -2.3575328e-06 3.8025744e-06 5.213549e-06 -2.6568823e-06 2.2173374e-06 -1.438946e-07 5.790582e-06
1.5768451e-06 -3.3172018e-06 -1.4004905e-06 8.996999e-07 -1.5195614e-06 1.1226358e-06 2.8678776e-06 2.86191e-06
-7.690484e-08 -1.3154747e-06 7.4956967e-07 -2.0339262e-06 1.5456847e-06 -1.4740265e-06 -5.720887e-06 3.0731728e-06
2.013397e-06 -4.3135674e-06 1.3557992e-06 3.9364704e-07 1.5309803e-06 -1.7200242e-07 -3.7429213e-06 1.6206518e-06
-2.2648307e-07 3.263491e-06 2.7002372e-07 7.763813e-06 -1.1824327e-06 -1.2655503e-06 -4.662788e-06 -4.2949514e-06
0.90833426 -0.21101613 -7.758274e-07 -4.408551e-07 3.6989911e-06 3.5733972e-06 -9.996248e-07 3.067619e-07
0.9878181 1.628937e-06 -3.331284e-06 2.321701e-06 -0.1611752 -8.226822e-07 0.3060246 -1.971393e-06
1.9561442e-06 1.4115989e-06 1.3725169 -1.51752e-06 -6.2708455e-07 -1.0123439 2.1725027e-06 2.4015537e-06
2.9120203e-08 0.44949389 0.09705788 6.9697366e-05 -0.7232868 -0.79239035 -0.50187266 -1.2148655e-07
-0.4329287 1.7256428 2.0174027e-06 0.22927375 -1.3095128e-08 -2.8674383e-06 2.6513337e-06 -1.8857348e-06
5.8083543e-07 1.2082923e-05 -1.2837496e-07 0.2277182 -2.864008e-06 -1.0532191 -1.3396572 -2.6514408e-06
-0.14194137 0.8759992 0.6819821 4.7186527e-06 -4.7031057e-07 -0.96950644 1.9828315e-06 0.21439691
-0.3009961 0.0071237683 -7.700543e-07 -1.1223729e-06 -0.046321448 3.5328305e-06 0.120820254 1.2390628
00000000: 94f3 9937 24c6 d73e 87e8 d4b5 9088 8b35
00000010: 38b7 15b6 305f 17b6 8fd7 6e34 5152 a0b5
00000020: e8b8 30bf 40dc 9ab5 e1c5 9735 616e 7cbf
00000030: 3beb 63be 4eaf 6c36 dc2d e2be e12e 90b4
00000040: bc0d 0934 4118 a2bf 3120 4e3e a258 9d36
00000050: 661b 18b6 8c64 a2be 95ed 2e34 aebc 59b5
00000060: 6b77 cbb5 28d3 173e 3e5f ad37 a097 8b3e
00000070: 7d41 e0bc 29ad 2b3f b1ef f2b7 e165 a735
00000080: 0a1d c73d 83a2 6b38 72b7 e63e 501e 28b8
00000090: d4da 8736 cd08 2435 d729 96b4 900c 9735
000000a0: 4ca1 9db5 00f7 4e3e aff5 e534 974d 36bf
000000b0: 2bbc bd35 1a59 3c3f 23b5 87b5 462a 14c0
000000c0: 3990 313f 2f47 17bf 2573 2cbe 7ce7 7036
000000d0: ddc9 d7bf ee28 613f 1b61 fa35 c433 a73e
000000e0: 7a99 793f 40ef 6538 119d 16b6 bee5 1436
000000f0: 9b4f f03e 78dd a135 1783 0c3e 206c 58bd
00000100: 84b0 133f 92cc 5a3f d24b 7035 0246 1435
00000110: 3b85 da35 5ef0 3cb4 a415 3e36 db5b 02b6
00000120: 3210 783f e06a 9636 f219 d5b5 1daa bc38
00000130: a1c4 623e 074b 2f35 34e7 b0bd 2786 5c36
00000140: 517d 1936 8d55 743f d10c d13f 3d83 7236
00000150: b8f6 2635 1142 46bf a424 3fb6 0c5b 40b6
00000160: ba08 88b6 7718 5db6 80e2 433f 45f7 1a3f
00000170: 9254 27bf d2fe 54bf 4ff4 26bf f577 63b6
00000180: 0855 f7be 6dbb 8a3f a35b 223f d674 9a3f
00000190: 14fd 19b6 0724 e7b6 98db 7c36 d39b ecb5
000001a0: 3a09 7535 749f 9b3e baff b935 81fa 103f
000001b0: 5268 a53f be00 44bf d181 1abe 636f 933d
000001c0: bad5 33bf fb24 4dbf 0ddf cabc 707a bfb6
000001d0: 41c2 763f 61fc 4cbe b96d f135 549a 52bf
000001e0: 364c 84bd b87b ff3e 0e32 fab5 fe82 9e34
000001f0: c5d6 403f 710a ddb5 9224 093f 9ae3 563f
00000200: ce21 ec35 70a4 fc34 f6d0 39b4 3d0f 1bb7
00000210: 270f ca35 da49 a536 a2a8 8135 2740 deb5
00000220: d83a 3236 811d ffb4 21aa 1db4 b0aa 4a35
00000230: ec6c f936 582b 0c36 49c2 3736 daf3 3135
00000240: fe99 51b6 56cf c3b6 7dfb 33b6 74a0 9eb6
00000250: daab 51b6 3d24 8bb4 b989 76b6 b93f 0c36
00000260: ea5c e235 1b36 1eb6 bb2f 7f36 0bf0 ae36
00000270: e44c 32b6 91cd 1436 7281 1ab4 b84c c236
00000280: fca3 d335 189d 5eb6 7df8 bbb5 e882 7135
00000290: bbf3 cbb5 79ad 9635 c375 4036 3d0f 4036
000002a0: e226 a5b3 5e8f b0b5 0936 4935 967e 08b6
000002b0: 5275 cf35 2ad7 c5b5 0cf6 bfb6 b53c 4e36
000002c0: e61d 0736 43bd 90b6 e8f8 b535 7056 d334
000002d0: 157c cd35 aaaf 38b4 e62e 7bb6 2c85 d935
000002e0: 312f 73b4 5902 5b36 c7f7 9034 5341 0237
000002f0: 14b4 9eb5 fadb a9b5 0b75 9cb6 5a1d 90b6
00000300: 9888 683f 9d14 58be 7442 50b5 aaae ecb4
00000310: 2f3c 7836 7fce 6f36 d92a 86b5 09b1 a434
00000320: a6e1 7c3f d9a1 da35 068f 5fb6 85ce 1b36
00000330: 1d0b 25be 4ad6 5cb5 42af 9c3e 464c 04b6
00000340: 4d46 0336 2b76 bd35 a2ae af3f 97ad cbb5
00000350: ec54 28b5 7c94 81bf 50cb 1136 612a 2136
00000360: 0124 fa32 1024 e63e 48c6 c63d 7d2a 9238
00000370: 5329 39bf 18da 4abf ba7a 00bf f871 02b4
00000380: d5a8 ddbe dde1 dc3f b762 0736 bdc6 6a3e
00000390: fbf8 60b2 376e 40b6 91ed 3136 5b19 fdb5
000003a0: b5ea 1b35 c2b7 4a37 71d7 09b4 f62e 693e
000003b0: 4833 40b6 e2cf 86bf e379 abbf 68ef 31b6
000003c0: 1459 11be 7c41 603f 6196 2e3f eb54 9e36
000003d0: fe7e fcb4 9331 78bf c910 0536 dd8a 5b3e
000003e0: 291c 9abe 806e e93b bbb5 4eb5 70a4 96b5
000003f0: 8fbb 3dbd 9115 6d36 9c70 f73d 9c99 9e3f

cl1.layer_1.bias f4 [64]
0.16452564 -0.25375265 6.1931587e-07 -0.20470761 -1.6291136e-06 0.1315589 -3.8732605e-06 -3.5473856e-06
7.787817e-06 6.96989e-07 4.8340407e-06 0.035267055 3.1558335e-07 -0.39773425 3.2177284e-06 0.14958695
1.008014e-05 -5.5277224e-07 2.3239389e-05 -0.11079679 -0.115433924 -4.52998e-05 0.09997429 -7.059921e-06
5.341339e-05 4.62009e-05 9.93198e-06 -0.26489046 -8.603593e-05 -6.30181e-05 -2.7705244e-05 8.796571e-05
7.195208e-05 -0.12461385 -0.06968063 3.0712529e-06 -2.9324588e-06 5.5449173e-06 -1.6255549e-06 -4.9973137e-06
0.08004107 0.16777767 0.19395086 -8.8239256e-07 0.024709027 7.8696047e-07 1.6940746e-06 0.088730216
0.03214204 9.465838e-08 4.994337e-06 -1.6935779e-05 9.3754824e-07 -2.1941694e-06 -0.00021936289 0.120184734
2.0746804e-05 -7.150624e-07 -3.7229784e-05 0.1451761 3.1791099e-06 0.2432426 0.08438591 1.3007102e-06
00000000: 6979 283e deeb 81be 103f 2635 df9e 51be
00000010: eba7 dab5 60b7 063e 0ef7 81b6 9f0f 6eb6
00000020: 6ba8 0237 b818 3b35 1834 a236 3074 103d
00000030: 726d a934 d3a3 cbbe 27f0 5736 522d 193e
00000040: df1d 2937 3862 14b5 35f2 c237 6de9 e2bd
00000050: 9f68 ecbd 4a00 3eb8 52bf cc3d 42e4 ecb6
00000060: 3108 6038 d7c7 4138 87a1 2637 b99f 87be
00000070: 306e b4b8 9628 84b8 8f68 e8b7 3b7a b838
00000080: fbe4 9638 8c35 ffbd b8b4 8ebd b91b 4e36
00000090: 42cb 44b6 7a0e ba36 a42d dab5 99ae a7b6
000000a0: 93ec a33d e9cd 2b3e 0e9b 463e 8edd 6cb5
000000b0: 966a ca3c 833f 5335 f65f e335 30b8 b53d
000000c0: 5fa7 033d ff46 cb33 0795 a736 4f11 8eb7
000000d0: d3ab 7b35 8b3f 13b6 c704 66b9 6a23 f63d
000000e0: 6c09 ae37 b7f2 3fb5 2d27 1cb8 0ba9 143e
000000f0: b158 5536 9714 793e 85d2 ac3d 1094 ae35

cl1.layer_2.weight f4 [64, 64]
-0.0027184212 1.5232997 -6.8493625e-07 1.1629144 1.9028627e-06 -0.84518427 2.5750703e-06 6.7369465e-06
-7.284568e-06 1.8216582e-06 -4.739079e-07 -0.07335112 5.2726136e-07 0.8362915 -8.332711e-07 -1.2099366
8.7868335e-05 -3.0458152e-06 0.0063970014 0.44523212 0.64361095 4.474781e-05 -0.060909275 0.038621154
0.14864346 0.0132087665 1.3689591e-06 2.1542233e-05 -0.61317736 0.13049002 -0.956518 0.34532982
1.4199505e-05 1.8244451 0.5372059 4.428958e-06 -5.962878e-07 1.0164266e-06 1.9333352e-06 2.9214083e-05
4.8067456e-08 -0.391504 -0.2388514 -4.4554692e-08 0.0001171396 1.8724609e-07 3.9701976e-05 -0.045507867
0.053648494 -1.0232477e-06 -1.6272381e-06 2.9030778e-05 -1.303786e-06 -2.1213225e-06 -5.3218423e-06 0.08608606
2.2122324e-05 -1.4355018e-06 8.40721e-05 -0.7082989 2.3849764e-06 -1.2988756 -0.02732446 5.423944e-06
-4.200959e-06 -5.3500444e-06 3.4719274e-06 -3.5950682e-06 5.4451016e-06 -2.2083773e-06 -1.283457e-06 -4.8031404e-07
2.5177553e-07 5.6261706e-06 4.8656966e-06 9.554902e-07 -8.6800475e-07 -3.4502416e-06 -8.933259e-06 -3.0320737e-06
-1.6813968e-06 -1.9864578e-06 2.4471963e-06 1.1002835e-06 -2.4328124e-06 -7.3882467e-07 1.5630411e-07 -2.509164e-06
1.8646507e-06 -1.1831826e-06 1.5125727e-06 1.0217174e-07 -1.9720173e-06 3.4452837e-06 -3.6668373e-06 -2.5091379e-07
3.592317e-06 -7.040808e-06 -1.0678747e-06 7.2609805e-06 1.1093032e-06 -8.093531e-07 2.9882208e-06 -5.3901463e-06
-1.7484056e-06 1.5781515e-06 2.7143617e-06 -8.67392e-06 1.2694449e-06 -4.4254418e-07 2.347811e-06 -1.6866774e-06
-2.6606251e-06 -1.1548118e-06 4.153021e-06 3.0621954e-06 -3.591175e-07 1.7992824e-06 -2.8255058e-06 5.4671764e-06
-1.5555591e-07 -2.1730548e-06 6.413177e-06 8.341804e-07 4.1196236e-06 -2.3004088e-06 1.5022135e-06 3.4218242e-06
5.826756e-07 4.7542503e-06 8.5136713e-07 -4.0569037e-07 7.4780326e-07 2.1724477e-06 3.3559027e-07 -5.7252705e-06
3.7873798e-07 5.969634e-07 1.1834178e-06 3.4295558e-06 1.2746164e-06 1.3425316e-06 2.6753646e-06 2.0567634e-06
-6.389018e-07 -2.0869302e-06 -1.6745457e-06 8.850719e-07 2.003275e-06 8.374573e-06 1.749852e-07 2.5981553e-06
-1.1172549e-06 -8.8364624e-07 4.8282743e-07 -8.5817857e-07 2.2612128e-06 1.1129544e-06 5.9113027e-06 -1.1170539e-06
2.6235766e-06 -1.0768474e-06 2.302303e-06 1.023504e-06 -5.7721177e-06 1.0844269e-06 3.024458e-06 2.0872408e-06
-1.5310344e-06 -2.9414105e-07 2.756654e-06 9.333406e-06 -1.6841535e-06 3.1385584e-06 -8.7941515e-07 -2.353868e-07
4.0562167e-08 -1.508409e-06 -2.6132786e-06 -5.4780463e-07 3.9292277e-06 -1.8660576e-07 6.2863194e-08 -1.0422124e-06
1.9171093e-06 2.5489405e-07 4.287023e-07 -2.2132167e-06 1.286441e-06 1.2669664e-06 8.767014e-07 2.9184255e-06
-1.6346628e-06 -2.015021e-06 -1.579702e-06 1.0256977e-06 2.7055694e-06 -2.0154538 7.9186435e-07 -2.1470184e-06
3.3910571e-06 -8.622835e-07 4.621395e-06 9.480859e-06 1.1271194e-06 9.050256e-07 -2.3878601e-06 -0.00011381657
0.0003291356 7.858919e-07 -5.7103666e-06 -3.0263078e-05 0.05186381 -1.4032466e-05 -7.4998844e-08 0.4938487
-5.11291e-05 -1.8178735e-06 -2.490788e-06 -1.207797e-07 0.000110911205 -0.46173897 -0.56040287 0.3633959
-3.826636e-06 7.833385e-06 1.2685522 -3.3532785e-07 -6.2889654e-07 -1.1236675e-06 -2.9558694e-06 -4.535661e-05
-3.781417 -4.732218e-05 1.1324148 -5.1812935e-06 1.4248523e-05 -1.8186705e-06 -0.7437886 -1.9039161e-06
-5.918414e-07 -5.6320123e-06 2.0529033e-06 2.9015437e-06 -1.1735971e-06 2.3007705e-07 9.222433e-06 0.00010453474
1.881728e-06 5.0099544e-07 -2.4303718e-05 -0.000102549995 4.311572e-06 -0.30800933 0.26302415 1.320835e-06
00000000: 8a27 32bb 7cfb c23f 76dc 37b5 61da 943f
00000010: dd65 ff35 ff5d 58bf 5fcf 2c36 ee0d e236
00000020: f66d f4b6 b37f f435 686d feb4 1d39 96bd
00000030: 2089 0d35 3317 563f f4ad 5fb5 34df 9abf
00000040: f445 b838 b566 4cb6 f09d d13b 77f5 e33e
00000050: b0c3 243f 98af 3b38 017c 79bd 3731 1e3d
00000060: fe35 183e 9569 583c 14bd b735 98b5 b437
00000070: 31f9 1cbf 2d9f 053e 5dde 74bf 12cf b03e
00000080: 693a 6e37 6b87 e93f 5386 093f 769c 9436
00000090: 9610 20b5 276c 8835 72be 0136 c410 f537
000000a0: ba72 4e33 3673 c8be 7695 74be 675c 3fb3
000000b0: d8a8 f538 d00d 4934 ac85 2638 7566 3abd
000000c0: 86be 5b3d 8656 89b5 7a67 dab5 1f87 f337
000000d0: bffd aeb5 0b5c 0eb6 4792 b2b6 e34d b03d
000000e0: 5493 b937 77ab c0b5 dd4f b038 1453 35bf
000000f0: 950d 2036 8e41 a6bf 8cd7 dfbc 53ff b536
00000100: f7f5 8cb6 8884 b3b6 42ff 6836 cd42 71b6
00000110: 11b5 b636 a233 14b6 3f43 acb5 eeee 00b5
00000120: c42b 8734 70c8 bc36 0444 a336 653e 8035
00000130: d500 69b5 b38a 67b6 0ee0 15b7 a17a 4bb6
00000140: 5bac e1b5 164f 05b6 833a 2436 74ad 9335
00000150: 6643 23b6 a553 46b5 8cd4 2734 1c63 28b6
00000160: e944 fa35 d8cd 9eb5 9a03 cb35 8269 db33
00000170: 0057 04b6 8635 6736 c913 76b6 54b5 86b4
00000180: 8913 7136 1540 ecb6 e553 8fb5 59a3 f336
00000190: 5ee3 9435 5242 59b5 3e89 4836 01dd b4b6
000001a0: c2aa eab5 dfd0 d335 6128 3636 3486 11b7
000001b0: cb61 aa35 cf96 edb4 168f 1d36 cb61 e2b5
000001c0: 318d 32b6 08ff 9ab5 2e5a 8b36 1e80 4d36
000001d0: bccc c0b4 df7e f135 d29d 3db6 b072 b736
000001e0: e206 27b4 ccd4 11b6 c530 d736 71ec 5f35
000001f0: 4c3b 8a36 b960 1ab6 aa9f c935 7ea2 6536
00000200: 2a69 1c35 b386 9f36 8189 6435 a9cd d9b4
00000210: a6bc 4835 5eca 1136 2d2b b434 b31b c0b6
00000220: 5a55 cb34 033f 2035 edd5 9e35 5227 6636
00000230: 7c13 ab35 0931 b435 6a8a 3336 ed06 0a36
00000240: ff80 2bb5 300d 0cb6 f4c0 e0b5 ae95 6d35
00000250: 0170 0636 8480 0c37 91e3 3b34 f85b 2e36
00000260: 96f4 95b5 b533 6db5 a69b 0135 955d 66b5
00000270: 57bf 1736 d260 9535 b459 c636 aeed 95b5
00000280: b410 3036 3288 90b5 4481 1a36 545f 8935
00000290: 1dae c1b6 a08c 9135 cbf7 4a36 8612 0c36
000002a0: f17d cdb5 70ea 9db4 f5fe 3836 ac96 1c37
000002b0: 130b e2b5 06a0 5236 f310 6cb5 a2be 7cb4
000002c0: 9336 2e33 8a74 cab5 c95f 2fb6 d90c 13b5
000002d0: cfd7 8336 cd5d 48b4 68ff 8633 25e2 8bb5
000002e0: b0a7 0036 5fd8 8834 6528 e634 c686 14b6
000002f0: c7a9 ac35 a20c aa35 7656 6b35 2bda 4336
00000300: 9666 dbb5 cc39 07b6 2606 d4b5 b4aa 8935
00000310: 5491 3536 32fd 00c0 8190 5435 7f15 10b6
00000320: eb91 6336 ac77 67b5 7b11 9b36 fb0f 1f37
00000330: 8747 9735 e3f0 7235 203f 20b6 ceb0 eeb8
00000340: d58f ac39 15f6 5235 ad9b bfb6 77dd fdb7
00000350: 256f 543d fc6c 6bb7 0d0f a1b3 bdd9 fc3e
00000360: 7473 56b8 a8fd f3b5 6927 27b6 acaf 01b4
00000370: 0099 e838 0d69 ecbe 9076 0fbf 070f ba3e
00000380: 8e66 80b6 226c 0337 eb5f a23f 1c07 b4b4
00000390: 71d1 28b5 ecd0 96b5 735d 46b6 4a3d 3eb8
000003a0: bc02 72c0 ce7b 46b8 f8f2 903f f9da adb6
000003b0: f10c 6f37 0b19 f4b5 ee68 3ebf 0f8a ffb5
000003c0: 08df 1eb5 9efa bcb6 9cc4 0936 24b8 4236
000003d0: 7d84 9db5 190b 7734 0cba 1a37 a939 db38
000003e0: af8f fc35 257c 0635 d6df cbb7 1c10 d7b8
000003f0: 1fac 9036 66b3 9dbe 1aab 863e 8c47 b135

cl1.layer_2.bias f4 [64]
4.2213e-05 -3.5889425e-06 -3.7419175e-06 -8.811532e-05 -2.1857179e-05 1.1658215e-06 5.2496645e-05 -1.6913361e-06
-1.887435e-05 6.864889e-05 -6.2453066e-05 -2.7415226e-05 5.2889653e-05 5.6312e-05 8.5664586e-05 4.3296127e-06
-1.830727e-06 -5.7786485e-07 1.7087208e-05 0.043395866 -3.5113162e-06 1.8509998e-06 8.120307e-06 -4.4653978e-05
1.9545709e-05 -1.6374699e-05 -9.6175485e-05 -2.3464152e-05 1.1328163e-05 6.080359e-06 -1.7638677e-06 6.736295e-05
1.6050693e-05 3.97858e-05 -1.8404202e-05 7.114894e-05 -3.9080296e-06 -2.2415767e-05 0.045319133 -1.4226539e-05
1.9105628e-06 -6.865893e-06 -4.0517643e-06 -2.620267e-05 7.375455e-05 6.022968e-07 2.3174161e-05 -5.6642577e-05
2.8386876e-07 -6.1767154e-05 -7.996066e-05 6.084444e-05 -4.193645e-05 2.1260737e-05 5.675761e-05 -1.0075313e-06
1.0824465e-06 -3.3411532e-05 8.663736e-06 5.639503e-05 3.8408587e-05 -6.847119e-05 0.00013479024 -2.2069269e-06
00000000: dd0d 3138 90d9 70b6 a71d 7bb6 8dca b8b8
00000010: ef59 b7b7 5279 9c35 d82f 5c38 de01 e3b5
00000020: 5c54 9eb7 98f7 8f38 3cf9 82b8 c0f9 e5b7
00000030: d5d5 5d38 8d30 6c38 d3a6 b338 1747 9136
00000040: 4db7 f5b5 921e 1bb5 8056 8f37 ddbf 313d
00000050: f4a3 6bb6 de6f f835 743c 0837 d84a 3bb8
00000060: 17f6 a337 665c 89b7 d2b1 c9b8 e2d4 c4b7
00000070: 170e 3e37 e305 cc36 08be ecb5 3545 8d38
00000080: 9aa4 8637 addf 2638 b962 9ab7 cc35 9538
00000090: b821 83b6 7e09 bcb7 8ea0 393d 85ae 6eb7
000000a0: 3837 0036 9261 e6b6 64f4 87b6 cecd dbb7
000000b0: acac 9a38 85ad 2135 2266 c237 8193 6db8
000000c0: a066 9834 fd88 81b8 8db0 a7b8 3833 7f38
000000d0: ece4 2fb8 1659 b237 050f 6e38 833a 87b5
000000e0: 9448 9135 5c23 0cb8 765a 1137 b489 6c38
000000f0: e818 2138 3198 8fb8 7b56 0d39 b71a 14b6

cl2.layer_0.weight f4 [64, 64]
-4.0820063e-07 2.9335167e-06 -5.939762e-07 2.2552329e-06 -5.7098428e-06 2.7623848e-06 5.606583e-06 9.460816e-06
-2.7708659e-06 -1.7366575e-06 2.1672108e-06 -7.8843846e-07 -5.73199e-06 -4.70467e-07 2.4194321e-06 -2.7044186e-06
4.7265794e-06 -8.320111e-07 3.4465836e-07 2.39408e-06 9.593265e-08 2.9450376e-07 -1.9999911e-06 2.3123573e-07
-7.2662483e-06 -1.6920895e-06 -3.2962315e-09 -3.7359612e-07 -2.2553784e-06 -1.5379532e-06 -5.8174905e-06 3.0120043e-06
-2.4409849e-06 -6.191082e-07 3.3013013e-08 -8.726443e-06 7.633103e-07 -2.6804555e-06 -1.4605048e-08 -3.324355e-06
7.778682e-07 2.701386e-06 2.1492647e-06 1.6926302e-08 4.967082e-06 4.514876e-07 -2.164246e-07 8.4695806e-08
-1.8609243e-06 -7.5821373e-07 1.6808344e-06 9.923172e-07 -2.6816906e-06 -7.181822e-07 -2.421353e-06 7.775227e-06
9.064226e-07 -3.974594e-06 9.851169e-07 2.6822509e-06 1.2245193e-06 1.6525588e-06 -2.6592463e-07 -5.0205317e-06
-7.637214e-07 -3.7235257e-06 1.557632e-06 3.6479523e-06 -1.5781361e-06 -2.7015333e-06 6.7466453e-07 -5.8720013e-07
4.2838747e-06 -1.4549177e-06 -1.9037864e-06 5.790612e-06 5.877358e-08 6.9078055e-06 2.9686466e-06 4.837931e-06
3.4163868e-06 -7.687497e-07 -1.2882437e-06 6.9805175e-08 2.3996552e-07 2.757961e-06 -1.5143397e-06 7.987685e-07
-1.5336285e-06 -5.338763e-07 -7.2186674e-07 -2.9020473e-06 2.6252727e-07 5.6564404e-06 -2.3244988e-06 2.7633453e-06
-2.4217604e-06 -9.237418e-06 2.458478e-06 -2.3331713e-06 5.7895204e-06 -8.6941077e-07 -4.3810433e-06 2.0113043e-06
-3.2571716e-06 7.977244e-07 2.764351e-06 -2.6992545e-06 4.8674783e-06 -8.7157537e-07 -3.7401952e-07 9.221676e-06
2.6811813e-06 -3.3288157e-07 2.7758372e-06 3.6323943e-06 -2.677356e-06 -1.4180841e-06 2.442187e-07 3.3439497e-07
-1.1286744e-06 -3.1374645e-06 -3.5198157e-06 -3.0060362e-06 1.0661167e-06 -1.6317733e-07 -9.221152e-06 2.0003831e-06
-3.7773023e-07 -2.6039427e-07 2.7582892e-06 -7.265138e-06 -4.380201e-06 -4.765518e-06 5.037661e-07 1.981399e-06
-1.9527704e-06 2.6989485e-06 3.7781754e-07 -5.939114e-07 3.9539964e-07 -2.8598927e-07 1.026598e-06 2.135714e-06
-3.0058206e-06 2.420429e-06 -2.256568e-06 2.4809303e-06 -3.023032e-06 -4.8083162e-08 5.710425e-06 -2.3313814e-06
3.0355e-06 -1.0807036e-06 1.6525006e-06 2.673776e-06 2.7712588e-06 5.542217e-06 3.3258539e-06 -2.2808363e-06
-6.1909003e-07 8.6938167e-07 -2.2563643e-06 -7.174255e-07 -3.0214221e-06 5.939114e-07 2.8633422e-06 -3.890307e-07
2.7008703e-06 4.9933324e-06 -3.998199e-07 3.1635645e-06 -6.811006e-07 -1.5439776e-06 -4.227372e-07 7.0236275e-08
4.3788623e-06 2.253308e-06 -6.2464864e-07 1.5640198e-06 -1.15086e-06 -3.110508e-06 2.7665121e-06 -3.7773023e-07
8.1820886e-08 3.2721957e-06 -2.2024e-06 3.9641495e-06 -4.3363366e-06 1.6498193e-06 -3.4031825e-07 1.055093e-07
1.9892693e-07 -9.40578e-06 1.4515592e-06 -1.1111956e-06 -4.94898e-06 -5.5426244e-06 2.7006602e-06 -1.102996e-06
1.4570315e-07 1.6080089e-06 6.684294e-07 -4.464465e-06 -4.890534e-06 2.551707e-06 1.1284998e-06 -9.589814e-07
4.499153e-06 -2.7575463e-06 -8.038079e-07 -4.6389205e-06 -1.0132621e-06 3.6216998e-06 8.576238e-06 -1.6309046e-06
4.118159e-06 -4.9829595e-08 4.2288323e-07 -1.5012628e-06 5.7184247e-06 -7.780156e-06 -2.202313e-06 -2.460079e-06
-2.7250958e-06 -6.615953e-07 1.5052236e-06 1.811442e-07 -9.483025e-07 -1.7609684e-06 2.9169569e-06 2.942444e-06
1.0195968e-06 -5.4491675e-06 -1.953236e-06 2.3538294e-06 4.90408e-06 4.4924358e-09 5.821697e-08 -8.322439e-07
-1.5271312e-06 2.533877e-07 3.4460015e-07 -4.80591e-07 2.6793239e-06 2.5694808e-06 3.8857597e-06 5.5428573e-06
-3.7401952e-07 -1.5003169e-06 8.678827e-06 8.9315945e-06 -3.4820175e-07 -7.6179873e-07 2.7385431e-06 3.7337924e-07
00000000: ab26 dbb4 6fdd 4436 bc71 1fb5 9b58 1736
00000010: 2d97 bfb6 6961 3936 2e20 bc36 e5b9 1e37
00000020: 1df3 39b6 1917 e9b5 6670 1136 14a5 53b5
00000030: 6b55 c0b6 7e94 fcb4 875d 2236 8f7d 35b6
00000040: 0299 9e36 5e57 5fb5 7c09 b934 fba9 2036
00000050: 8803 ce33 4a1c 9e34 9637 06b6 9849 7834
00000060: 99d0 f3b6 c11b e3b5 eb83 62b1 a992 c8b4
00000070: 1b5b 17b6 ab6b ceb5 dd33 c3b6 d721 4a36
00000080: cdcf 23b6 cb30 26b5 31ca 0d33 ca67 12b7
00000090: 49e6 4c35 e0e1 33b6 aee9 7ab2 fc17 5fb6
000000a0: b2ce 5035 7549 3536 163c 1036 5565 9132
000000b0: e9aa a636 fc63 f234 5762 68b4 03e2 b533
000000c0: dfc4 f9b5 0d88 4bb5 0899 e135 c22f 8535
000000d0: 18f7 33b6 1bc9 40b5 877e 22b6 5872 0237
000000e0: e350 7335 815d 85b6 5c38 8435 b800 3436
000000f0: 2a5a a435 7dcd dd35 67c4 8eb4 0a76 a8b6
00000100: 8902 4db5 afe1 79b6 d40f d135 58cf 7436
00000110: 58d0 d3b5 fd4b 35b6 981a 3535 16a0 1db5
00000120: 34be 8f36 9746 c3b5 9a85 ffb5 fa4c c236
00000130: 3c6e 7c33 99c9 e736 f638 4736 8355 a236
00000140: 1445 6536 145c 4eb5 b7e7 acb5 cde7 9533
00000150: 9cd4 8034 6915 3936 5140 cbb5 f46a 5635
00000160: 13d7 cdb5 b34f 0fb5 4ec6 41b5 cbc0 42b6
00000170: 79f1 8c34 74cc bd36 96fe 1bb6 e971 3936
00000180: 8785 22b6 69fa 1ab7 55fc 2436 9493 1cb6
00000190: 9a43 c236 7461 69b5 e000 93b6 f2f9 0636
000001a0: c895 5ab6 3423 5635 3083 3936 d724 35b6
000001b0: 5253 a336 34f6 69b5 dacc c8b4 ccb6 1a37
000001c0: 58ee 3336 e5b6 b2b4 8548 3a36 0fc4 7336
000001d0: a0ac 33b6 0055 beb5 2a1d 8334 e586 b334
000001e0: f57c 97b5 3b8d 52b6 f935 6cb6 4fbb 49b6
000001f0: 7e17 8f35 d835 2fb4 8cb4 1ab7 523e 0636
00000200: d9ca cab4 51cc 8bb4 0c1b 3936 0fc7 f3b6
00000210: a4f9 92b6 7de7 9fb6 8b3a 0735 2df8 0436
00000220: 570c 03b6 951f 3536 d9d6 ca34 486d 1fb5
00000230: 5047 d434 118a 99b4 a4c9 8935 4a53 0f36
00000240: 9bb7 49b6 a76e 2236 8b6f 17b6 0f7e 2636
00000250: 4bdf 4ab6 ff83 4eb3 2d9c bf36 d474 1cb6
00000260: 7eb5 4b36 b10c 91b5 7dcb dd35 1f6f 3336
00000270: ddf9 3936 48f7 b936 bc31 5f36 7810 19b6
00000280: 8b2f 26b5 745f 6935 0b6c 17b6 1b95 40b5
00000290: a3c3 4ab6 486d 1f35 d827 4036 f9db d0b4
000002a0: 9940 3536 668c a736 d4a6 d6b4 a04d 5436
000002b0: e0d4 36b5 ab3a cfb5 8ff4 e2b4 cdd4 9633
000002c0: 24ee 9236 8937 1736 87ad 27b5 50eb d135
000002d0: 4077 9ab5 1fbe 50b6 51a8 3936 d9ca cab4
000002e0: 82b5 af33 e597 5b36 f2cc 13b6 c903 8536
000002f0: d980 91b6 5c6f dd35 fcb4 b6b4 5a94 e233
00000300: 9e98 5534 84cd 1db7 32d3 c235 6424 95b5
00000310: 6a0f a6b6 c8fa b9b6 fd3c 3536 a70a 94b5
00000320: 9472 1c34 c4d2 d735 1e6e 3335 76cd 95b6
00000330: 5e19 a4b6 fe3d 2b36 f576 9735 5ab6 80b5
00000340: 6ef7 9636 490e 39b6 42c5 57b5 06a8 9bb6
00000350: 6cff 87b5 540c 7336 a9e2 0f37 75e5 dab5
00000360: b72e 8a36 3804 56b3 a108 e334 ff7e c9b5
00000370: e5e0 bf36 8487 02b7 73cb 13b6 d617 25b6
00000380: cae0 36b6 7c98 31b5 1707 ca35 8a80 4234
00000390: da8e 7eb5 6a5a ecb5 f0c0 4336 ce76 4536
000003a0: 14d9 8835 fed7 b6b6 5714 03b6 7bf6 1d36
000003b0: ba8d a436 e25b 9a31 3c0a 7a33 5e67 5fb5
000003c0: d4f7 ccb5 5709 8834 7c01 b934 f601 01b5
000003d0: 6fce 3336 586f 2c36 6c62 8236 c8fc b936
000003e0: dacc c8b4 7f5e c9b5 479b 1137 e8d8 1537
000003f0: 7cf0 bab4 697e 4cb5 d0c7 3736 da74 c834

cl2.layer_0.bias f4 [64]
7.781015e-06 7.781015e-06 7.781015e-06 7.781015e-06 7.781015e-06 7.781015e-06 7.781015e-06 7.781015e-06
7.781015e-06 7.781015e-06 7.781015e-06 7.781015e-06 7.781015e-06 7.781015e-06 7.781015e-06 7.781015e-06
7.781015e-06 7.781015e-06 7.781015e-06 7.781015e-06 7.781015e-06 7.781015e-06 7.781015e-06 7.781015e-06
7.781015e-06 7.781015e-06 7.781015e-06 7.781015e-06 7.781015e-06 7.781015e-06 7.781015e-06 7.781015e-06
7.781015e-06 7.781015e-06 7.781015e-06 7.781015e-06 7.781015e-06 7.781015e-06 7.781015e-06 7.781015e-06
7.781015e-06 7.781015e-06 7.781015e-06 7.781015e-06 7.781015e-06 7.781015e-06 7.781015e-06 7.781015e-06
7.781015e-06 7.781015e-06 7.781015e-06 7.781015e-06 7.781015e-06 7.781015e-06 7.781015e-06 7.781015e-06
7.781015e-06 7.781015e-06 7.781015e-06 7.781015e-06 7.781015e-06 7.781015e-06 7.781015e-06 7.781015e-06
00000000: 348b 0237 348b 0237 348b 0237 348b 0237
00000010: 348b 0237 348b 0237 348b 0237 348b 0237
00000020: 348b 0237 348b 0237 348b 0237 348b 0237
00000030: 348b 0237 348b 0237 348b 0237 348b 0237
00000040: 348b 0237 348b 0237 348b 0237 348b 0237
00000050: 348b 0237 348b 0237 348b 0237 348b 0237
00000060: 348b 0237 348b 0237 348b 0237 348b 0237
00000070: 348b 0237 348b 0237 348b 0237 348b 0237
00000080: 348b 0237 348b 0237 348b 0237 348b 0237
00000090: 348b 0237 348b 0237 348b 0237 348b 0237
000000a0: 348b 0237 348b 0237 348b 0237 348b 0237
000000b0: 348b 0237 348b 0237 348b 0237 348b 0237
000000c0: 348b 0237 348b 0237 348b 0237 348b 0237
000000d0: 348b 0237 348b 0237 348b 0237 348b 0237
000000e0: 348b 0237 348b 0237 348b 0237 348b 0237
000000f0: 348b 0237 348b 0237 348b 0237 348b 0237

cl2.layer_1.weight f4 [64, 64]
1.2161635e-06 -6.4167256e-07 3.4348488e-06 -2.2965407e-06 -7.6084207e-06 -6.639874e-07 3.5462429e-06 -3.146042e-06
-1.5551291e-06 4.9476625e-07 -2.755601e-07 -2.9157357e-07 -2.679302e-06 3.6396661e-06 4.653377e-06 5.2991822e-06
1.1290699e-06 -3.3065407e-07 7.4155014e-07 -2.7380775e-06 3.887251e-07 9.746133e-07 1.9813408e-06 -6.3576306e-07
-5.3034745e-07 1.0371486e-05 -3.6856136e-06 3.5746327e-06 -2.869261e-06 1.0890883e-06 5.7370785e-06 1.082477e-06
7.4547916e-07 2.4735494e-08 1.6523624e-06 -1.5098635e-06 -5.7049824e-06 1.1291572e-06 -2.0780326e-06 1.7177866e-06
1.0825352e-06 5.9420904e-07 5.2922132e-06 -2.6469759e-06 -5.7373113e-06 -5.7091443e-06 6.840505e-07 -2.3195782e-06
-2.7617882e-06 4.0021655e-07 -1.7010432e-06 1.0938622e-06 -4.3664363e-06 -8.6287747e-07 5.9355506e-07 -2.0905951e-07
3.300629e-08 1.8259153e-07 -2.3549644e-06 -2.7577646e-06 -6.1981194e-07 -5.708395e-06 3.0069675e-06 -2.1716126e-06
-1.9578113e-06 1.8131882e-07 1.1010407e-07 5.7076963e-06 1.12645374e-07 1.0215031e-06 -6.5365043e-07 6.81381e-07
-3.2628693e-06 -2.1135295e-06 -1.1722198e-06 1.225181e-06 -7.767804e-06 -7.6331395e-07 -3.7316613e-07 3.016605e-06
-7.5882605e-07 -8.1365283e-07 2.4896283e-06 1.623988e-07 -6.1938107e-07 -1.5197469e-06 4.2238796e-07 1.0091658e-06
2.2758625e-06 -6.9078746e-06 -6.144199e-07 -1.435586e-06 1.5371019e-06 -7.174255e-07 -2.5589063e-07 3.948592e-07
1.6540985e-06 -5.7329457e-06 2.0094923e-07 -2.6616551e-06 -1.9034358e-06 3.4679392e-06 -1.6185421e-06 -2.4181516e-06
2.2016145e-06 2.1686587e-06 1.8478356e-06 -3.925063e-06 2.436441e-06 -1.1283522e-06 3.4687505e-06 -4.2718757e-06
-5.9444915e-07 4.8889233e-06 -1.5090211e-06 -4.9681444e-06 -1.980817e-06 -2.0110133e-06 1.2241519e-06 5.2923557e-08
1.5324644e-06 -2.96789e-06 2.2568477e-06 -1.502085e-06 6.634043e-07 6.770189e-07 -7.228243e-08 4.1458316e-06
2.2009906e-06 2.202633e-06 -1.5028999e-06 2.2008876e-06 -1.982963e-06 5.427427e-06 -3.6216416e-06 8.0784514e-07
1.8453327e-06 -3.5829437e-06 -3.2781864e-07 1.129421e-07 3.263386e-06 -5.8598957e-08 -3.7419414e-07 -6.688259e-07
5.802931e-08 -5.5247237e-06 -1.03381254e-07 1.1673085e-06 -5.934014e-07 1.4169746e-06 -2.7622066e-06 -5.7167285e-06
1.5097471e-06 5.133238e-07 -1.8839331e-06 1.09405576e-07 5.7359143e-06 -2.4623585e-06 2.7007184e-06 -1.3165557e-06
5.7074344e-06 3.4959874e-07 -9.0667726e-07 -6.8195864e-06 -4.7019415e-07 -1.5863789e-08 -1.8358107e-07 -8.4862717e-07
2.9185271e-06 -2.7776946e-06 -5.6220147e-06 -9.444475e-08 -3.2022697e-06 2.7769997e-06 2.6119449e-06 4.2278958e-07
1.9546912e-06 -6.3340003e-06 4.37967e-06 5.3816398e-06 -9.461922e-06 2.5846857e-06 1.174192e-06 1.2446421e-06
2.4910917e-06 9.460554e-06 -3.299847e-07 1.949735e-06 -5.3325783e-07 -4.373395e-06 -6.3380617e-07 -4.0354957e-06
1.6166608e-06 -7.914895e-06 9.862415e-07 -2.6114392e-06 -7.413755e-07 3.8267526e-06 -5.8010045e-07 -2.2021673e-06
-5.7377188e-06 1.5383024e-06 -2.627019e-07 -2.1434582e-06 -5.954387e-07 -1.4162915e-06 5.1217175e-06 -3.1952575e-06
9.3741e-07 4.765809e-06 -3.1110828e-06 1.5329398e-07 2.193498e-07 1.1346698e-06 2.714164e-06 -1.984593e-06
-3.1317893e-06 1.1349026e-06 -1.9020478e-06 2.7638466e-06 -3.3053766e-07 -5.7082784e-06 7.6090973e-06 -2.6794185e-06
-1.9810022e-06 -3.8967623e-06 -4.9681735e-06 2.802999e-06 -1.4256188e-06 -5.6209014e-06 2.2159918e-06 5.8399183e-07
-3.9693878e-06 -1.7641771e-06 3.9937254e-07 -5.922234e-07 -1.5098942e-06 -5.704735e-06 -5.9163557e-07 2.883122e-06
1.5172731e-06 -6.1847317e-07 -3.7208412e-07 -1.9316533e-06 -9.586322e-07 3.0669028e-06 1.1533108e-06 -1.0190729e-06
1.5408244e-06 -3.5909236e-06 -9.461223e-06 5.2773737e-07 2.1770436e-06 2.9125707e-07 3.3245296e-06 -3.9059867e-07
00000000: 0f3b a335 673f 2cb5 4182 6636 451e 1ab6
00000010: d64b ffb6 de3c 32b5 fdfb 6d36 9720 53b6
00000020: d4b9 d0b5 14d0 0435 b1f0 93b4 9189 9cb4
00000030: 0fce 33b6 fd40 7436 3424 9c36 a1cf b136
00000040: 8c8a 9735 c084 b1b4 f00e 4735 d0bf 37b6
00000050: f9b1 d034 75cf 8235 2df7 0436 4ea9 2ab5
00000060: 335d 0eb5 3101 2e37 5c56 77b6 b9e3 6f36
00000070: 878d 40b6 ca2c 9235 2181 c036 a049 9135
00000080: f01c 4835 ed79 d432 bdc6 dd35 84a6 cab5
00000090: 6d6d bfb6 8c8d 9735 5474 0bb6 b38e e635
000000a0: a04b 9135 bc81 1f35 c493 b136 b3a2 31b6
000000b0: 2183 c0b6 2d91 bfb6 989f 3735 0daa 1bb6
000000c0: 2957 39b6 58dd d634 664f e4b5 d2d0 9235
000000d0: 6783 92b6 7da0 67b5 cb54 1f35 d779 60b4
000000e0: cdc2 0d33 610e 4434 fb09 1eb6 0912 39b6
000000f0: 2761 26b5 bd8a bfb6 4fcb 4936 05bc 11b6
00000100: f162 03b6 8ab0 4234 5a72 ec33 bd84 bf36
00000110: 73e7 f133 941a 8935 8476 2fb5 25e8 3635
00000120: abf7 5ab6 29d6 0db6 2a55 9db5 e670 a435
00000130: 7752 02b7 89e6 4cb5 9057 c8b4 e170 4a36
00000140: 21b2 4bb5 cc69 5ab5 7d13 2736 d85f 2e34
00000150: 8b43 26b5 1bfa cbb5 8fc4 e234 ac72 8735
00000160: 05bb 1836 31ca e7b6 9dee 24b5 5cae c0b5
00000170: 6b4e ce35 1b95 40b5 5761 89b4 09fd d334
00000180: 6402 de35 a15d c0b6 81c4 5734 e39e 32b6
00000190: 8e79 ffb5 beba 6836 af3c d9b5 8747 22b6
000001a0: 73bf 1336 4689 1136 2603 f835 09b4 83b6
000001b0: bd81 2336 e371 97b5 aec8 6836 2257 8fb6
000001c0: 3c92 1fb5 880b a436 9289 cab5 09b4 a6b6
000001d0: 2dee 04b6 f2f4 06b6 8a4d a435 114e 6333
000001e0: 13af cd35 f62b 47b6 5974 1736 3f9b c9b5
000001f0: cc14 3235 62bc 3535 b039 9bb3 6c1c 8b36
00000200: bbb4 1336 f2d0 1336 3fb7 c9b5 f6b2 1336
00000210: 0c13 05b6 3e1d b636 540b 73b6 b2da 5835
00000220: 26ad f735 8172 70b6 0dff afb4 938a f233
00000230: 8b00 5b36 3cae 7bb3 dae4 c8b4 5e89 33b5
00000240: e73b 7933 0461 b9b6 7202 deb3 6aac 9c35
00000250: 3c4a 1fb5 e02e be35 595e 39b6 53d2 bfb6
00000260: 84a2 ca35 58cb 0935 73db fcb5 5af2 ea33
00000270: 2177 c036 ff3e 25b6 fd3d 3536 82b4 b0b5
00000280: 7d82 bf36 7cb0 bb34 6362 73b5 cdd3 e4b6
00000290: fe6e fcb4 d744 88b2 611e 45b4 37cd 63b5
000002a0: eadb 4336 6e68 3ab6 bda4 bcb6 8dd1 cab3
000002b0: 93e6 56b6 7e5c 3a36 df48 2f36 c2fb e234
000002c0: 572d 0336 a688 d4b6 14f5 9236 ef93 b436
000002d0: a5be 1eb7 9074 2d36 ee98 9d35 940d a735
000002e0: a12c 2736 c5b8 1e37 c028 b1b4 31d8 0236
000002f0: 3325 0fb5 2dbf 92b6 d422 2ab5 a568 87b6
00000300: 0bfc d835 37ca 04b7 005f 8435 2f40 2fb6
00000310: f002 47b5 8e67 8036 33b8 1bb5 f2c8 13b6
00000320: a186 c0b6 ab77 ce35 7909 8db4 55d8 0fb6
00000330: 3cd6 1fb5 6817 beb5 38db ab36 1b6e 56b6
00000340: 53a2 7b35 fde9 9f36 ffc7 50b6 2199 2434
00000350: 6a86 6b34 f54a 9835 fc24 3636 0c2f 05b6
00000360: bb2b 52b6 f552 9835 dd49 ffb5 867a 3936
00000370: c074 b1b4 bd89 bfb6 a651 ff36 0fd0 33b6
00000380: 5cf1 04b6 efc0 82b6 49b4 a6b6 281b 3c36
00000390: e457 bfb5 2d9b bcb6 73b6 1436 9dc3 1c35
000003a0: c830 85b6 aac8 ecb5 5869 d634 48f9 1eb5
000003b0: 92a7 cab5 4d6b bfb6 e3d0 1eb5 a97b 4136
000003c0: 1ba5 cb35 2705 26b5 dac2 c7b4 8da1 01b6
000003d0: 5aaa 80b5 fdd0 4d36 75cb 9a35 14c7 88b5
000003e0: 53ce ce35 99fb 70b6 a5bb 1eb7 d6a9 0d35
000003f0: 5319 1236 115e 9c34 fc1a 5f36 79b3 d1b4

cl2.layer_1.bias f4 [64]
7.781015e-06 7.781015e-06 7.781015e-06 7.781015e-06 7.781015e-06 7.781015e-06 7.781015e-06 7.781015e-06
7.781015e-06 7.781015e-06 7.781015e-06 7.781015e-06 7.781015e-06 7.781015e-06 7.781015e-06 7.781015e-06
7.781015e-06 7.781015e-06 7.781015e-06 7.781015e-06 7.781015e-06 7.781015e-06 7.781015e-06 7.781015e-06
7.781015e-06 7.781015e-06 7.781015e-06 7.781015e-06 7.781015e-06 7.781015e-06 7.781015e-06 7.781015e-06
7.781015e-06 7.781015e-06 7.781015e-06 7.781015e-06 7.781015e-06 7.781015e-06 7.781015e-06 7.781015e-06
7.781015e-06 7.781015e-06 7.781015e-06 7.781015e-06 7.781015e-06 7.781015e-06 7.781015e-06 7.781015e-06
7.781015e-06 7.781015e-06 7.781015e-06 7.781015e-06 7.781015e-06 7.781015e-06 7.781015e-06 7.781015e-06
7.781015e-06 7.781015e-06 7.781015e-06 7.781015e-06 7.781015e-06 7.781015e-06 7.781015e-06 7.781015e-06
00000000: 348b 0237 348b 0237 348b 0237 348b 0237
00000010: 348b 0237 348b 0237 348b 0237 348b 0237
00000020: 348b 0237 348b 0237 348b 0237 348b 0237
00000030: 348b 0237 348b 0237 348b 0237 348b 0237
00000040: 348b 0237 348b 0237 348b 0237 348b 0237
00000050: 348b 0237 348b 0237 348b 0237 348b 0237
00000060: 348b 0237 348b 0237 348b 0237 348b 0237
00000070: 348b 0237 348b 0237 348b 0237 348b 0237
00000080: 348b 0237 348b 0237 348b 0237 348b 0237
00000090: 348b 0237 348b 0237 348b 0237 348b 0237
000000a0: 348b 0237 348b 0237 348b 0237 348b 0237
000000b0: 348b 0237 348b 0237 348b 0237 348b 0237
000000c0: 348b 0237 348b 0237 348b 0237 348b 0237
000000d0: 348b 0237 348b 0237 348b 0237 348b 0237
000000e0: 348b 0237 348b 0237 348b 0237 348b 0237
000000f0: 348b 0237 348b 0237 348b 0237 348b 0237
